{"config": {"layers": [{"name": "input_4", "config": {"sparse": false, "name": "input_4", "dtype": "float32", "batch_input_shape": [null, 32, 32, 3]}, "inbound_nodes": [], "class_name": "InputLayer"}, {"name": "conv2d_1", "config": {"padding": "same", "activation": "linear", "filters": 16, "kernel_regularizer": {"config": {"l1": 0.0, "l2": 9.999999747378752e-05}, "class_name": "L1L2"}, "activity_regularizer": null, "kernel_size": [3, 3], "use_bias": true, "bias_constraint": null, "trainable": true, "strides": [1, 1], "bias_initializer": {"config": {}, "class_name": "Zeros"}, "name": "conv2d_1", "dilation_rate": [1, 1], "bias_regularizer": null, "data_format": "channels_last", "kernel_initializer": {"config": {"mode": "fan_avg", "scale": 1.0, "seed": null, "distribution": "uniform"}, "class_name": "VarianceScaling"}, "kernel_constraint": null}, "inbound_nodes": [[["input_4", 0, 0, {}]]], "class_name": "Conv2D"}, {"name": "batch_normalization_110", "config": {"moving_variance_initializer": {"config": {}, "class_name": "Ones"}, "moving_mean_initializer": {"config": {}, "class_name": "Zeros"}, "axis": -1, "gamma_initializer": {"config": {}, "class_name": "Ones"}, "scale": true, "trainable": true, "beta_regularizer": null, "name": "batch_normalization_110", "epsilon": 0.001, "gamma_constraint": null, "momentum": 0.99, "center": true, "gamma_regularizer": null, "beta_initializer": {"config": {}, "class_name": "Zeros"}, "beta_constraint": null}, "inbound_nodes": [[["conv2d_1", 0, 0, {}]]], "class_name": "BatchNormalization"}, {"name": "activation_1", "config": {"name": "activation_1", "trainable": true, "activation": "relu"}, "inbound_nodes": [[["batch_normalization_110", 0, 0, {}]]], "class_name": "Activation"}, {"name": "conv2d_2", "config": {"padding": "same", "activation": "linear", "filters": 14, "kernel_regularizer": {"config": {"l1": 0.0, "l2": 9.999999747378752e-05}, "class_name": "L1L2"}, "activity_regularizer": null, "kernel_size": [3, 3], "use_bias": true, "bias_constraint": null, "trainable": true, "strides": [1, 1], "bias_initializer": {"config": {}, "class_name": "Zeros"}, "name": "conv2d_2", "dilation_rate": [1, 1], "bias_regularizer": null, "data_format": "channels_last", "kernel_initializer": {"config": {"mode": "fan_avg", "scale": 1.0, "seed": null, "distribution": "uniform"}, "class_name": "VarianceScaling"}, "kernel_constraint": null}, "inbound_nodes": [[["activation_1", 0, 0, {}]]], "class_name": "Conv2D"}, {"name": "batch_normalization_111", "config": {"moving_variance_initializer": {"config": {}, "class_name": "Ones"}, "moving_mean_initializer": {"config": {}, "class_name": "Zeros"}, "axis": -1, "gamma_initializer": {"config": {}, "class_name": "Ones"}, "scale": true, "trainable": true, "beta_regularizer": null, "name": "batch_normalization_111", "epsilon": 0.001, "gamma_constraint": null, "momentum": 0.99, "center": true, "gamma_regularizer": null, "beta_initializer": {"config": {}, "class_name": "Zeros"}, "beta_constraint": null}, "inbound_nodes": [[["conv2d_2", 0, 0, {}]]], "class_name": "BatchNormalization"}, {"name": "activation_2", "config": {"name": "activation_2", "trainable": true, "activation": "relu"}, "inbound_nodes": [[["batch_normalization_111", 0, 0, {}]]], "class_name": "Activation"}, {"name": "conv2d_3", "config": {"padding": "same", "activation": "linear", "filters": 16, "kernel_regularizer": {"config": {"l1": 0.0, "l2": 9.999999747378752e-05}, "class_name": "L1L2"}, "activity_regularizer": null, "kernel_size": [3, 3], "use_bias": true, "bias_constraint": null, "trainable": true, "strides": [1, 1], "bias_initializer": {"config": {}, "class_name": "Zeros"}, "name": "conv2d_3", "dilation_rate": [1, 1], "bias_regularizer": null, "data_format": "channels_last", "kernel_initializer": {"config": {"mode": "fan_avg", "scale": 1.0, "seed": null, "distribution": "uniform"}, "class_name": "VarianceScaling"}, "kernel_constraint": null}, "inbound_nodes": [[["activation_2", 0, 0, {}]]], "class_name": "Conv2D"}, {"name": "batch_normalization_112", "config": {"moving_variance_initializer": {"config": {}, "class_name": "Ones"}, "moving_mean_initializer": {"config": {}, "class_name": "Zeros"}, "axis": -1, "gamma_initializer": {"config": {}, "class_name": "Ones"}, "scale": true, "trainable": true, "beta_regularizer": null, "name": "batch_normalization_112", "epsilon": 0.001, "gamma_constraint": null, "momentum": 0.99, "center": true, "gamma_regularizer": null, "beta_initializer": {"config": {}, "class_name": "Zeros"}, "beta_constraint": null}, "inbound_nodes": [[["conv2d_3", 0, 0, {}]]], "class_name": "BatchNormalization"}, {"name": "add_55", "config": {"name": "add_55", "trainable": true}, "inbound_nodes": [[["activation_1", 0, 0, {}], ["batch_normalization_112", 0, 0, {}]]], "class_name": "Add"}, {"name": "activation_3", "config": {"name": "activation_3", "trainable": true, "activation": "relu"}, "inbound_nodes": [[["add_55", 0, 0, {}]]], "class_name": "Activation"}, {"name": "conv2d_4", "config": {"padding": "same", "activation": "linear", "filters": 15, "kernel_regularizer": {"config": {"l1": 0.0, "l2": 9.999999747378752e-05}, "class_name": "L1L2"}, "activity_regularizer": null, "kernel_size": [3, 3], "use_bias": true, "bias_constraint": null, "trainable": true, "strides": [1, 1], "bias_initializer": {"config": {}, "class_name": "Zeros"}, "name": "conv2d_4", "dilation_rate": [1, 1], "bias_regularizer": null, "data_format": "channels_last", "kernel_initializer": {"config": {"mode": "fan_avg", "scale": 1.0, "seed": null, "distribution": "uniform"}, "class_name": "VarianceScaling"}, "kernel_constraint": null}, "inbound_nodes": [[["activation_3", 0, 0, {}]]], "class_name": "Conv2D"}, {"name": "batch_normalization_113", "config": {"moving_variance_initializer": {"config": {}, "class_name": "Ones"}, "moving_mean_initializer": {"config": {}, "class_name": "Zeros"}, "axis": -1, "gamma_initializer": {"config": {}, "class_name": "Ones"}, "scale": true, "trainable": true, "beta_regularizer": null, "name": "batch_normalization_113", "epsilon": 0.001, "gamma_constraint": null, "momentum": 0.99, "center": true, "gamma_regularizer": null, "beta_initializer": {"config": {}, "class_name": "Zeros"}, "beta_constraint": null}, "inbound_nodes": [[["conv2d_4", 0, 0, {}]]], "class_name": "BatchNormalization"}, {"name": "activation_4", "config": {"name": "activation_4", "trainable": true, "activation": "relu"}, "inbound_nodes": [[["batch_normalization_113", 0, 0, {}]]], "class_name": "Activation"}, {"name": "conv2d_5", "config": {"padding": "same", "activation": "linear", "filters": 16, "kernel_regularizer": {"config": {"l1": 0.0, "l2": 9.999999747378752e-05}, "class_name": "L1L2"}, "activity_regularizer": null, "kernel_size": [3, 3], "use_bias": true, "bias_constraint": null, "trainable": true, "strides": [1, 1], "bias_initializer": {"config": {}, "class_name": "Zeros"}, "name": "conv2d_5", "dilation_rate": [1, 1], "bias_regularizer": null, "data_format": "channels_last", "kernel_initializer": {"config": {"mode": "fan_avg", "scale": 1.0, "seed": null, "distribution": "uniform"}, "class_name": "VarianceScaling"}, "kernel_constraint": null}, "inbound_nodes": [[["activation_4", 0, 0, {}]]], "class_name": "Conv2D"}, {"name": "batch_normalization_114", "config": {"moving_variance_initializer": {"config": {}, "class_name": "Ones"}, "moving_mean_initializer": {"config": {}, "class_name": "Zeros"}, "axis": -1, "gamma_initializer": {"config": {}, "class_name": "Ones"}, "scale": true, "trainable": true, "beta_regularizer": null, "name": "batch_normalization_114", "epsilon": 0.001, "gamma_constraint": null, "momentum": 0.99, "center": true, "gamma_regularizer": null, "beta_initializer": {"config": {}, "class_name": "Zeros"}, "beta_constraint": null}, "inbound_nodes": [[["conv2d_5", 0, 0, {}]]], "class_name": "BatchNormalization"}, {"name": "add_56", "config": {"name": "add_56", "trainable": true}, "inbound_nodes": [[["activation_3", 0, 0, {}], ["batch_normalization_114", 0, 0, {}]]], "class_name": "Add"}, {"name": "activation_5", "config": {"name": "activation_5", "trainable": true, "activation": "relu"}, "inbound_nodes": [[["add_56", 0, 0, {}]]], "class_name": "Activation"}, {"name": "conv2d_6", "config": {"padding": "same", "activation": "linear", "filters": 15, "kernel_regularizer": {"config": {"l1": 0.0, "l2": 9.999999747378752e-05}, "class_name": "L1L2"}, "activity_regularizer": null, "kernel_size": [3, 3], "use_bias": true, "bias_constraint": null, "trainable": true, "strides": [1, 1], "bias_initializer": {"config": {}, "class_name": "Zeros"}, "name": "conv2d_6", "dilation_rate": [1, 1], "bias_regularizer": null, "data_format": "channels_last", "kernel_initializer": {"config": {"mode": "fan_avg", "scale": 1.0, "seed": null, "distribution": "uniform"}, "class_name": "VarianceScaling"}, "kernel_constraint": null}, "inbound_nodes": [[["activation_5", 0, 0, {}]]], "class_name": "Conv2D"}, {"name": "batch_normalization_115", "config": {"moving_variance_initializer": {"config": {}, "class_name": "Ones"}, "moving_mean_initializer": {"config": {}, "class_name": "Zeros"}, "axis": -1, "gamma_initializer": {"config": {}, "class_name": "Ones"}, "scale": true, "trainable": true, "beta_regularizer": null, "name": "batch_normalization_115", "epsilon": 0.001, "gamma_constraint": null, "momentum": 0.99, "center": true, "gamma_regularizer": null, "beta_initializer": {"config": {}, "class_name": "Zeros"}, "beta_constraint": null}, "inbound_nodes": [[["conv2d_6", 0, 0, {}]]], "class_name": "BatchNormalization"}, {"name": "activation_6", "config": {"name": "activation_6", "trainable": true, "activation": "relu"}, "inbound_nodes": [[["batch_normalization_115", 0, 0, {}]]], "class_name": "Activation"}, {"name": "conv2d_7", "config": {"padding": "same", "activation": "linear", "filters": 16, "kernel_regularizer": {"config": {"l1": 0.0, "l2": 9.999999747378752e-05}, "class_name": "L1L2"}, "activity_regularizer": null, "kernel_size": [3, 3], "use_bias": true, "bias_constraint": null, "trainable": true, "strides": [1, 1], "bias_initializer": {"config": {}, "class_name": "Zeros"}, "name": "conv2d_7", "dilation_rate": [1, 1], "bias_regularizer": null, "data_format": "channels_last", "kernel_initializer": {"config": {"mode": "fan_avg", "scale": 1.0, "seed": null, "distribution": "uniform"}, "class_name": "VarianceScaling"}, "kernel_constraint": null}, "inbound_nodes": [[["activation_6", 0, 0, {}]]], "class_name": "Conv2D"}, {"name": "batch_normalization_116", "config": {"moving_variance_initializer": {"config": {}, "class_name": "Ones"}, "moving_mean_initializer": {"config": {}, "class_name": "Zeros"}, "axis": -1, "gamma_initializer": {"config": {}, "class_name": "Ones"}, "scale": true, "trainable": true, "beta_regularizer": null, "name": "batch_normalization_116", "epsilon": 0.001, "gamma_constraint": null, "momentum": 0.99, "center": true, "gamma_regularizer": null, "beta_initializer": {"config": {}, "class_name": "Zeros"}, "beta_constraint": null}, "inbound_nodes": [[["conv2d_7", 0, 0, {}]]], "class_name": "BatchNormalization"}, {"name": "add_57", "config": {"name": "add_57", "trainable": true}, "inbound_nodes": [[["activation_5", 0, 0, {}], ["batch_normalization_116", 0, 0, {}]]], "class_name": "Add"}, {"name": "activation_7", "config": {"name": "activation_7", "trainable": true, "activation": "relu"}, "inbound_nodes": [[["add_57", 0, 0, {}]]], "class_name": "Activation"}, {"name": "conv2d_8", "config": {"padding": "same", "activation": "linear", "filters": 12, "kernel_regularizer": {"config": {"l1": 0.0, "l2": 9.999999747378752e-05}, "class_name": "L1L2"}, "activity_regularizer": null, "kernel_size": [3, 3], "use_bias": true, "bias_constraint": null, "trainable": true, "strides": [1, 1], "bias_initializer": {"config": {}, "class_name": "Zeros"}, "name": "conv2d_8", "dilation_rate": [1, 1], "bias_regularizer": null, "data_format": "channels_last", "kernel_initializer": {"config": {"mode": "fan_avg", "scale": 1.0, "seed": null, "distribution": "uniform"}, "class_name": "VarianceScaling"}, "kernel_constraint": null}, "inbound_nodes": [[["activation_7", 0, 0, {}]]], "class_name": "Conv2D"}, {"name": "batch_normalization_117", "config": {"moving_variance_initializer": {"config": {}, "class_name": "Ones"}, "moving_mean_initializer": {"config": {}, "class_name": "Zeros"}, "axis": -1, "gamma_initializer": {"config": {}, "class_name": "Ones"}, "scale": true, "trainable": true, "beta_regularizer": null, "name": "batch_normalization_117", "epsilon": 0.001, "gamma_constraint": null, "momentum": 0.99, "center": true, "gamma_regularizer": null, "beta_initializer": {"config": {}, "class_name": "Zeros"}, "beta_constraint": null}, "inbound_nodes": [[["conv2d_8", 0, 0, {}]]], "class_name": "BatchNormalization"}, {"name": "activation_8", "config": {"name": "activation_8", "trainable": true, "activation": "relu"}, "inbound_nodes": [[["batch_normalization_117", 0, 0, {}]]], "class_name": "Activation"}, {"name": "conv2d_9", "config": {"padding": "same", "activation": "linear", "filters": 16, "kernel_regularizer": {"config": {"l1": 0.0, "l2": 9.999999747378752e-05}, "class_name": "L1L2"}, "activity_regularizer": null, "kernel_size": [3, 3], "use_bias": true, "bias_constraint": null, "trainable": true, "strides": [1, 1], "bias_initializer": {"config": {}, "class_name": "Zeros"}, "name": "conv2d_9", "dilation_rate": [1, 1], "bias_regularizer": null, "data_format": "channels_last", "kernel_initializer": {"config": {"mode": "fan_avg", "scale": 1.0, "seed": null, "distribution": "uniform"}, "class_name": "VarianceScaling"}, "kernel_constraint": null}, "inbound_nodes": [[["activation_8", 0, 0, {}]]], "class_name": "Conv2D"}, {"name": "batch_normalization_118", "config": {"moving_variance_initializer": {"config": {}, "class_name": "Ones"}, "moving_mean_initializer": {"config": {}, "class_name": "Zeros"}, "axis": -1, "gamma_initializer": {"config": {}, "class_name": "Ones"}, "scale": true, "trainable": true, "beta_regularizer": null, "name": "batch_normalization_118", "epsilon": 0.001, "gamma_constraint": null, "momentum": 0.99, "center": true, "gamma_regularizer": null, "beta_initializer": {"config": {}, "class_name": "Zeros"}, "beta_constraint": null}, "inbound_nodes": [[["conv2d_9", 0, 0, {}]]], "class_name": "BatchNormalization"}, {"name": "add_58", "config": {"name": "add_58", "trainable": true}, "inbound_nodes": [[["activation_7", 0, 0, {}], ["batch_normalization_118", 0, 0, {}]]], "class_name": "Add"}, {"name": "activation_9", "config": {"name": "activation_9", "trainable": true, "activation": "relu"}, "inbound_nodes": [[["add_58", 0, 0, {}]]], "class_name": "Activation"}, {"name": "conv2d_10", "config": {"padding": "same", "activation": "linear", "filters": 12, "kernel_regularizer": {"config": {"l1": 0.0, "l2": 9.999999747378752e-05}, "class_name": "L1L2"}, "activity_regularizer": null, "kernel_size": [3, 3], "use_bias": true, "bias_constraint": null, "trainable": true, "strides": [1, 1], "bias_initializer": {"config": {}, "class_name": "Zeros"}, "name": "conv2d_10", "dilation_rate": [1, 1], "bias_regularizer": null, "data_format": "channels_last", "kernel_initializer": {"config": {"mode": "fan_avg", "scale": 1.0, "seed": null, "distribution": "uniform"}, "class_name": "VarianceScaling"}, "kernel_constraint": null}, "inbound_nodes": [[["activation_9", 0, 0, {}]]], "class_name": "Conv2D"}, {"name": "batch_normalization_119", "config": {"moving_variance_initializer": {"config": {}, "class_name": "Ones"}, "moving_mean_initializer": {"config": {}, "class_name": "Zeros"}, "axis": -1, "gamma_initializer": {"config": {}, "class_name": "Ones"}, "scale": true, "trainable": true, "beta_regularizer": null, "name": "batch_normalization_119", "epsilon": 0.001, "gamma_constraint": null, "momentum": 0.99, "center": true, "gamma_regularizer": null, "beta_initializer": {"config": {}, "class_name": "Zeros"}, "beta_constraint": null}, "inbound_nodes": [[["conv2d_10", 0, 0, {}]]], "class_name": "BatchNormalization"}, {"name": "activation_10", "config": {"name": "activation_10", "trainable": true, "activation": "relu"}, "inbound_nodes": [[["batch_normalization_119", 0, 0, {}]]], "class_name": "Activation"}, {"name": "conv2d_11", "config": {"padding": "same", "activation": "linear", "filters": 16, "kernel_regularizer": {"config": {"l1": 0.0, "l2": 9.999999747378752e-05}, "class_name": "L1L2"}, "activity_regularizer": null, "kernel_size": [3, 3], "use_bias": true, "bias_constraint": null, "trainable": true, "strides": [1, 1], "bias_initializer": {"config": {}, "class_name": "Zeros"}, "name": "conv2d_11", "dilation_rate": [1, 1], "bias_regularizer": null, "data_format": "channels_last", "kernel_initializer": {"config": {"mode": "fan_avg", "scale": 1.0, "seed": null, "distribution": "uniform"}, "class_name": "VarianceScaling"}, "kernel_constraint": null}, "inbound_nodes": [[["activation_10", 0, 0, {}]]], "class_name": "Conv2D"}, {"name": "batch_normalization_120", "config": {"moving_variance_initializer": {"config": {}, "class_name": "Ones"}, "moving_mean_initializer": {"config": {}, "class_name": "Zeros"}, "axis": -1, "gamma_initializer": {"config": {}, "class_name": "Ones"}, "scale": true, "trainable": true, "beta_regularizer": null, "name": "batch_normalization_120", "epsilon": 0.001, "gamma_constraint": null, "momentum": 0.99, "center": true, "gamma_regularizer": null, "beta_initializer": {"config": {}, "class_name": "Zeros"}, "beta_constraint": null}, "inbound_nodes": [[["conv2d_11", 0, 0, {}]]], "class_name": "BatchNormalization"}, {"name": "add_59", "config": {"name": "add_59", "trainable": true}, "inbound_nodes": [[["activation_9", 0, 0, {}], ["batch_normalization_120", 0, 0, {}]]], "class_name": "Add"}, {"name": "activation_11", "config": {"name": "activation_11", "trainable": true, "activation": "relu"}, "inbound_nodes": [[["add_59", 0, 0, {}]]], "class_name": "Activation"}, {"name": "conv2d_12", "config": {"padding": "same", "activation": "linear", "filters": 12, "kernel_regularizer": {"config": {"l1": 0.0, "l2": 9.999999747378752e-05}, "class_name": "L1L2"}, "activity_regularizer": null, "kernel_size": [3, 3], "use_bias": true, "bias_constraint": null, "trainable": true, "strides": [1, 1], "bias_initializer": {"config": {}, "class_name": "Zeros"}, "name": "conv2d_12", "dilation_rate": [1, 1], "bias_regularizer": null, "data_format": "channels_last", "kernel_initializer": {"config": {"mode": "fan_avg", "scale": 1.0, "seed": null, "distribution": "uniform"}, "class_name": "VarianceScaling"}, "kernel_constraint": null}, "inbound_nodes": [[["activation_11", 0, 0, {}]]], "class_name": "Conv2D"}, {"name": "batch_normalization_121", "config": {"moving_variance_initializer": {"config": {}, "class_name": "Ones"}, "moving_mean_initializer": {"config": {}, "class_name": "Zeros"}, "axis": -1, "gamma_initializer": {"config": {}, "class_name": "Ones"}, "scale": true, "trainable": true, "beta_regularizer": null, "name": "batch_normalization_121", "epsilon": 0.001, "gamma_constraint": null, "momentum": 0.99, "center": true, "gamma_regularizer": null, "beta_initializer": {"config": {}, "class_name": "Zeros"}, "beta_constraint": null}, "inbound_nodes": [[["conv2d_12", 0, 0, {}]]], "class_name": "BatchNormalization"}, {"name": "activation_12", "config": {"name": "activation_12", "trainable": true, "activation": "relu"}, "inbound_nodes": [[["batch_normalization_121", 0, 0, {}]]], "class_name": "Activation"}, {"name": "conv2d_13", "config": {"padding": "same", "activation": "linear", "filters": 16, "kernel_regularizer": {"config": {"l1": 0.0, "l2": 9.999999747378752e-05}, "class_name": "L1L2"}, "activity_regularizer": null, "kernel_size": [3, 3], "use_bias": true, "bias_constraint": null, "trainable": true, "strides": [1, 1], "bias_initializer": {"config": {}, "class_name": "Zeros"}, "name": "conv2d_13", "dilation_rate": [1, 1], "bias_regularizer": null, "data_format": "channels_last", "kernel_initializer": {"config": {"mode": "fan_avg", "scale": 1.0, "seed": null, "distribution": "uniform"}, "class_name": "VarianceScaling"}, "kernel_constraint": null}, "inbound_nodes": [[["activation_12", 0, 0, {}]]], "class_name": "Conv2D"}, {"name": "batch_normalization_122", "config": {"moving_variance_initializer": {"config": {}, "class_name": "Ones"}, "moving_mean_initializer": {"config": {}, "class_name": "Zeros"}, "axis": -1, "gamma_initializer": {"config": {}, "class_name": "Ones"}, "scale": true, "trainable": true, "beta_regularizer": null, "name": "batch_normalization_122", "epsilon": 0.001, "gamma_constraint": null, "momentum": 0.99, "center": true, "gamma_regularizer": null, "beta_initializer": {"config": {}, "class_name": "Zeros"}, "beta_constraint": null}, "inbound_nodes": [[["conv2d_13", 0, 0, {}]]], "class_name": "BatchNormalization"}, {"name": "add_60", "config": {"name": "add_60", "trainable": true}, "inbound_nodes": [[["activation_11", 0, 0, {}], ["batch_normalization_122", 0, 0, {}]]], "class_name": "Add"}, {"name": "activation_13", "config": {"name": "activation_13", "trainable": true, "activation": "relu"}, "inbound_nodes": [[["add_60", 0, 0, {}]]], "class_name": "Activation"}, {"name": "conv2d_14", "config": {"padding": "same", "activation": "linear", "filters": 15, "kernel_regularizer": {"config": {"l1": 0.0, "l2": 9.999999747378752e-05}, "class_name": "L1L2"}, "activity_regularizer": null, "kernel_size": [3, 3], "use_bias": true, "bias_constraint": null, "trainable": true, "strides": [1, 1], "bias_initializer": {"config": {}, "class_name": "Zeros"}, "name": "conv2d_14", "dilation_rate": [1, 1], "bias_regularizer": null, "data_format": "channels_last", "kernel_initializer": {"config": {"mode": "fan_avg", "scale": 1.0, "seed": null, "distribution": "uniform"}, "class_name": "VarianceScaling"}, "kernel_constraint": null}, "inbound_nodes": [[["activation_13", 0, 0, {}]]], "class_name": "Conv2D"}, {"name": "batch_normalization_123", "config": {"moving_variance_initializer": {"config": {}, "class_name": "Ones"}, "moving_mean_initializer": {"config": {}, "class_name": "Zeros"}, "axis": -1, "gamma_initializer": {"config": {}, "class_name": "Ones"}, "scale": true, "trainable": true, "beta_regularizer": null, "name": "batch_normalization_123", "epsilon": 0.001, "gamma_constraint": null, "momentum": 0.99, "center": true, "gamma_regularizer": null, "beta_initializer": {"config": {}, "class_name": "Zeros"}, "beta_constraint": null}, "inbound_nodes": [[["conv2d_14", 0, 0, {}]]], "class_name": "BatchNormalization"}, {"name": "activation_14", "config": {"name": "activation_14", "trainable": true, "activation": "relu"}, "inbound_nodes": [[["batch_normalization_123", 0, 0, {}]]], "class_name": "Activation"}, {"name": "conv2d_15", "config": {"padding": "same", "activation": "linear", "filters": 16, "kernel_regularizer": {"config": {"l1": 0.0, "l2": 9.999999747378752e-05}, "class_name": "L1L2"}, "activity_regularizer": null, "kernel_size": [3, 3], "use_bias": true, "bias_constraint": null, "trainable": true, "strides": [1, 1], "bias_initializer": {"config": {}, "class_name": "Zeros"}, "name": "conv2d_15", "dilation_rate": [1, 1], "bias_regularizer": null, "data_format": "channels_last", "kernel_initializer": {"config": {"mode": "fan_avg", "scale": 1.0, "seed": null, "distribution": "uniform"}, "class_name": "VarianceScaling"}, "kernel_constraint": null}, "inbound_nodes": [[["activation_14", 0, 0, {}]]], "class_name": "Conv2D"}, {"name": "batch_normalization_124", "config": {"moving_variance_initializer": {"config": {}, "class_name": "Ones"}, "moving_mean_initializer": {"config": {}, "class_name": "Zeros"}, "axis": -1, "gamma_initializer": {"config": {}, "class_name": "Ones"}, "scale": true, "trainable": true, "beta_regularizer": null, "name": "batch_normalization_124", "epsilon": 0.001, "gamma_constraint": null, "momentum": 0.99, "center": true, "gamma_regularizer": null, "beta_initializer": {"config": {}, "class_name": "Zeros"}, "beta_constraint": null}, "inbound_nodes": [[["conv2d_15", 0, 0, {}]]], "class_name": "BatchNormalization"}, {"name": "add_61", "config": {"name": "add_61", "trainable": true}, "inbound_nodes": [[["activation_13", 0, 0, {}], ["batch_normalization_124", 0, 0, {}]]], "class_name": "Add"}, {"name": "activation_15", "config": {"name": "activation_15", "trainable": true, "activation": "relu"}, "inbound_nodes": [[["add_61", 0, 0, {}]]], "class_name": "Activation"}, {"name": "conv2d_16", "config": {"padding": "same", "activation": "linear", "filters": 14, "kernel_regularizer": {"config": {"l1": 0.0, "l2": 9.999999747378752e-05}, "class_name": "L1L2"}, "activity_regularizer": null, "kernel_size": [3, 3], "use_bias": true, "bias_constraint": null, "trainable": true, "strides": [1, 1], "bias_initializer": {"config": {}, "class_name": "Zeros"}, "name": "conv2d_16", "dilation_rate": [1, 1], "bias_regularizer": null, "data_format": "channels_last", "kernel_initializer": {"config": {"mode": "fan_avg", "scale": 1.0, "seed": null, "distribution": "uniform"}, "class_name": "VarianceScaling"}, "kernel_constraint": null}, "inbound_nodes": [[["activation_15", 0, 0, {}]]], "class_name": "Conv2D"}, {"name": "batch_normalization_125", "config": {"moving_variance_initializer": {"config": {}, "class_name": "Ones"}, "moving_mean_initializer": {"config": {}, "class_name": "Zeros"}, "axis": -1, "gamma_initializer": {"config": {}, "class_name": "Ones"}, "scale": true, "trainable": true, "beta_regularizer": null, "name": "batch_normalization_125", "epsilon": 0.001, "gamma_constraint": null, "momentum": 0.99, "center": true, "gamma_regularizer": null, "beta_initializer": {"config": {}, "class_name": "Zeros"}, "beta_constraint": null}, "inbound_nodes": [[["conv2d_16", 0, 0, {}]]], "class_name": "BatchNormalization"}, {"name": "activation_16", "config": {"name": "activation_16", "trainable": true, "activation": "relu"}, "inbound_nodes": [[["batch_normalization_125", 0, 0, {}]]], "class_name": "Activation"}, {"name": "conv2d_17", "config": {"padding": "same", "activation": "linear", "filters": 16, "kernel_regularizer": {"config": {"l1": 0.0, "l2": 9.999999747378752e-05}, "class_name": "L1L2"}, "activity_regularizer": null, "kernel_size": [3, 3], "use_bias": true, "bias_constraint": null, "trainable": true, "strides": [1, 1], "bias_initializer": {"config": {}, "class_name": "Zeros"}, "name": "conv2d_17", "dilation_rate": [1, 1], "bias_regularizer": null, "data_format": "channels_last", "kernel_initializer": {"config": {"mode": "fan_avg", "scale": 1.0, "seed": null, "distribution": "uniform"}, "class_name": "VarianceScaling"}, "kernel_constraint": null}, "inbound_nodes": [[["activation_16", 0, 0, {}]]], "class_name": "Conv2D"}, {"name": "batch_normalization_126", "config": {"moving_variance_initializer": {"config": {}, "class_name": "Ones"}, "moving_mean_initializer": {"config": {}, "class_name": "Zeros"}, "axis": -1, "gamma_initializer": {"config": {}, "class_name": "Ones"}, "scale": true, "trainable": true, "beta_regularizer": null, "name": "batch_normalization_126", "epsilon": 0.001, "gamma_constraint": null, "momentum": 0.99, "center": true, "gamma_regularizer": null, "beta_initializer": {"config": {}, "class_name": "Zeros"}, "beta_constraint": null}, "inbound_nodes": [[["conv2d_17", 0, 0, {}]]], "class_name": "BatchNormalization"}, {"name": "add_62", "config": {"name": "add_62", "trainable": true}, "inbound_nodes": [[["activation_15", 0, 0, {}], ["batch_normalization_126", 0, 0, {}]]], "class_name": "Add"}, {"name": "activation_17", "config": {"name": "activation_17", "trainable": true, "activation": "relu"}, "inbound_nodes": [[["add_62", 0, 0, {}]]], "class_name": "Activation"}, {"name": "conv2d_18", "config": {"padding": "same", "activation": "linear", "filters": 12, "kernel_regularizer": {"config": {"l1": 0.0, "l2": 9.999999747378752e-05}, "class_name": "L1L2"}, "activity_regularizer": null, "kernel_size": [3, 3], "use_bias": true, "bias_constraint": null, "trainable": true, "strides": [1, 1], "bias_initializer": {"config": {}, "class_name": "Zeros"}, "name": "conv2d_18", "dilation_rate": [1, 1], "bias_regularizer": null, "data_format": "channels_last", "kernel_initializer": {"config": {"mode": "fan_avg", "scale": 1.0, "seed": null, "distribution": "uniform"}, "class_name": "VarianceScaling"}, "kernel_constraint": null}, "inbound_nodes": [[["activation_17", 0, 0, {}]]], "class_name": "Conv2D"}, {"name": "batch_normalization_127", "config": {"moving_variance_initializer": {"config": {}, "class_name": "Ones"}, "moving_mean_initializer": {"config": {}, "class_name": "Zeros"}, "axis": -1, "gamma_initializer": {"config": {}, "class_name": "Ones"}, "scale": true, "trainable": true, "beta_regularizer": null, "name": "batch_normalization_127", "epsilon": 0.001, "gamma_constraint": null, "momentum": 0.99, "center": true, "gamma_regularizer": null, "beta_initializer": {"config": {}, "class_name": "Zeros"}, "beta_constraint": null}, "inbound_nodes": [[["conv2d_18", 0, 0, {}]]], "class_name": "BatchNormalization"}, {"name": "activation_18", "config": {"name": "activation_18", "trainable": true, "activation": "relu"}, "inbound_nodes": [[["batch_normalization_127", 0, 0, {}]]], "class_name": "Activation"}, {"name": "conv2d_19", "config": {"padding": "same", "activation": "linear", "filters": 16, "kernel_regularizer": {"config": {"l1": 0.0, "l2": 9.999999747378752e-05}, "class_name": "L1L2"}, "activity_regularizer": null, "kernel_size": [3, 3], "use_bias": true, "bias_constraint": null, "trainable": true, "strides": [1, 1], "bias_initializer": {"config": {}, "class_name": "Zeros"}, "name": "conv2d_19", "dilation_rate": [1, 1], "bias_regularizer": null, "data_format": "channels_last", "kernel_initializer": {"config": {"mode": "fan_avg", "scale": 1.0, "seed": null, "distribution": "uniform"}, "class_name": "VarianceScaling"}, "kernel_constraint": null}, "inbound_nodes": [[["activation_18", 0, 0, {}]]], "class_name": "Conv2D"}, {"name": "batch_normalization_128", "config": {"moving_variance_initializer": {"config": {}, "class_name": "Ones"}, "moving_mean_initializer": {"config": {}, "class_name": "Zeros"}, "axis": -1, "gamma_initializer": {"config": {}, "class_name": "Ones"}, "scale": true, "trainable": true, "beta_regularizer": null, "name": "batch_normalization_128", "epsilon": 0.001, "gamma_constraint": null, "momentum": 0.99, "center": true, "gamma_regularizer": null, "beta_initializer": {"config": {}, "class_name": "Zeros"}, "beta_constraint": null}, "inbound_nodes": [[["conv2d_19", 0, 0, {}]]], "class_name": "BatchNormalization"}, {"name": "add_63", "config": {"name": "add_63", "trainable": true}, "inbound_nodes": [[["activation_17", 0, 0, {}], ["batch_normalization_128", 0, 0, {}]]], "class_name": "Add"}, {"name": "activation_19", "config": {"name": "activation_19", "trainable": true, "activation": "relu"}, "inbound_nodes": [[["add_63", 0, 0, {}]]], "class_name": "Activation"}, {"name": "conv2d_20", "config": {"padding": "same", "activation": "linear", "filters": 13, "kernel_regularizer": {"config": {"l1": 0.0, "l2": 9.999999747378752e-05}, "class_name": "L1L2"}, "activity_regularizer": null, "kernel_size": [3, 3], "use_bias": true, "bias_constraint": null, "trainable": true, "strides": [1, 1], "bias_initializer": {"config": {}, "class_name": "Zeros"}, "name": "conv2d_20", "dilation_rate": [1, 1], "bias_regularizer": null, "data_format": "channels_last", "kernel_initializer": {"config": {"mode": "fan_avg", "scale": 1.0, "seed": null, "distribution": "uniform"}, "class_name": "VarianceScaling"}, "kernel_constraint": null}, "inbound_nodes": [[["activation_19", 0, 0, {}]]], "class_name": "Conv2D"}, {"name": "batch_normalization_129", "config": {"moving_variance_initializer": {"config": {}, "class_name": "Ones"}, "moving_mean_initializer": {"config": {}, "class_name": "Zeros"}, "axis": -1, "gamma_initializer": {"config": {}, "class_name": "Ones"}, "scale": true, "trainable": true, "beta_regularizer": null, "name": "batch_normalization_129", "epsilon": 0.001, "gamma_constraint": null, "momentum": 0.99, "center": true, "gamma_regularizer": null, "beta_initializer": {"config": {}, "class_name": "Zeros"}, "beta_constraint": null}, "inbound_nodes": [[["conv2d_20", 0, 0, {}]]], "class_name": "BatchNormalization"}, {"name": "activation_20", "config": {"name": "activation_20", "trainable": true, "activation": "relu"}, "inbound_nodes": [[["batch_normalization_129", 0, 0, {}]]], "class_name": "Activation"}, {"name": "conv2d_21", "config": {"padding": "same", "activation": "linear", "filters": 16, "kernel_regularizer": {"config": {"l1": 0.0, "l2": 9.999999747378752e-05}, "class_name": "L1L2"}, "activity_regularizer": null, "kernel_size": [3, 3], "use_bias": true, "bias_constraint": null, "trainable": true, "strides": [1, 1], "bias_initializer": {"config": {}, "class_name": "Zeros"}, "name": "conv2d_21", "dilation_rate": [1, 1], "bias_regularizer": null, "data_format": "channels_last", "kernel_initializer": {"config": {"mode": "fan_avg", "scale": 1.0, "seed": null, "distribution": "uniform"}, "class_name": "VarianceScaling"}, "kernel_constraint": null}, "inbound_nodes": [[["activation_20", 0, 0, {}]]], "class_name": "Conv2D"}, {"name": "batch_normalization_130", "config": {"moving_variance_initializer": {"config": {}, "class_name": "Ones"}, "moving_mean_initializer": {"config": {}, "class_name": "Zeros"}, "axis": -1, "gamma_initializer": {"config": {}, "class_name": "Ones"}, "scale": true, "trainable": true, "beta_regularizer": null, "name": "batch_normalization_130", "epsilon": 0.001, "gamma_constraint": null, "momentum": 0.99, "center": true, "gamma_regularizer": null, "beta_initializer": {"config": {}, "class_name": "Zeros"}, "beta_constraint": null}, "inbound_nodes": [[["conv2d_21", 0, 0, {}]]], "class_name": "BatchNormalization"}, {"name": "add_64", "config": {"name": "add_64", "trainable": true}, "inbound_nodes": [[["activation_19", 0, 0, {}], ["batch_normalization_130", 0, 0, {}]]], "class_name": "Add"}, {"name": "activation_21", "config": {"name": "activation_21", "trainable": true, "activation": "relu"}, "inbound_nodes": [[["add_64", 0, 0, {}]]], "class_name": "Activation"}, {"name": "conv2d_22", "config": {"padding": "same", "activation": "linear", "filters": 10, "kernel_regularizer": {"config": {"l1": 0.0, "l2": 9.999999747378752e-05}, "class_name": "L1L2"}, "activity_regularizer": null, "kernel_size": [3, 3], "use_bias": true, "bias_constraint": null, "trainable": true, "strides": [1, 1], "bias_initializer": {"config": {}, "class_name": "Zeros"}, "name": "conv2d_22", "dilation_rate": [1, 1], "bias_regularizer": null, "data_format": "channels_last", "kernel_initializer": {"config": {"mode": "fan_avg", "scale": 1.0, "seed": null, "distribution": "uniform"}, "class_name": "VarianceScaling"}, "kernel_constraint": null}, "inbound_nodes": [[["activation_21", 0, 0, {}]]], "class_name": "Conv2D"}, {"name": "batch_normalization_131", "config": {"moving_variance_initializer": {"config": {}, "class_name": "Ones"}, "moving_mean_initializer": {"config": {}, "class_name": "Zeros"}, "axis": -1, "gamma_initializer": {"config": {}, "class_name": "Ones"}, "scale": true, "trainable": true, "beta_regularizer": null, "name": "batch_normalization_131", "epsilon": 0.001, "gamma_constraint": null, "momentum": 0.99, "center": true, "gamma_regularizer": null, "beta_initializer": {"config": {}, "class_name": "Zeros"}, "beta_constraint": null}, "inbound_nodes": [[["conv2d_22", 0, 0, {}]]], "class_name": "BatchNormalization"}, {"name": "activation_22", "config": {"name": "activation_22", "trainable": true, "activation": "relu"}, "inbound_nodes": [[["batch_normalization_131", 0, 0, {}]]], "class_name": "Activation"}, {"name": "conv2d_23", "config": {"padding": "same", "activation": "linear", "filters": 16, "kernel_regularizer": {"config": {"l1": 0.0, "l2": 9.999999747378752e-05}, "class_name": "L1L2"}, "activity_regularizer": null, "kernel_size": [3, 3], "use_bias": true, "bias_constraint": null, "trainable": true, "strides": [1, 1], "bias_initializer": {"config": {}, "class_name": "Zeros"}, "name": "conv2d_23", "dilation_rate": [1, 1], "bias_regularizer": null, "data_format": "channels_last", "kernel_initializer": {"config": {"mode": "fan_avg", "scale": 1.0, "seed": null, "distribution": "uniform"}, "class_name": "VarianceScaling"}, "kernel_constraint": null}, "inbound_nodes": [[["activation_22", 0, 0, {}]]], "class_name": "Conv2D"}, {"name": "batch_normalization_132", "config": {"moving_variance_initializer": {"config": {}, "class_name": "Ones"}, "moving_mean_initializer": {"config": {}, "class_name": "Zeros"}, "axis": -1, "gamma_initializer": {"config": {}, "class_name": "Ones"}, "scale": true, "trainable": true, "beta_regularizer": null, "name": "batch_normalization_132", "epsilon": 0.001, "gamma_constraint": null, "momentum": 0.99, "center": true, "gamma_regularizer": null, "beta_initializer": {"config": {}, "class_name": "Zeros"}, "beta_constraint": null}, "inbound_nodes": [[["conv2d_23", 0, 0, {}]]], "class_name": "BatchNormalization"}, {"name": "add_65", "config": {"name": "add_65", "trainable": true}, "inbound_nodes": [[["activation_21", 0, 0, {}], ["batch_normalization_132", 0, 0, {}]]], "class_name": "Add"}, {"name": "activation_23", "config": {"name": "activation_23", "trainable": true, "activation": "relu"}, "inbound_nodes": [[["add_65", 0, 0, {}]]], "class_name": "Activation"}, {"name": "conv2d_24", "config": {"padding": "same", "activation": "linear", "filters": 14, "kernel_regularizer": {"config": {"l1": 0.0, "l2": 9.999999747378752e-05}, "class_name": "L1L2"}, "activity_regularizer": null, "kernel_size": [3, 3], "use_bias": true, "bias_constraint": null, "trainable": true, "strides": [1, 1], "bias_initializer": {"config": {}, "class_name": "Zeros"}, "name": "conv2d_24", "dilation_rate": [1, 1], "bias_regularizer": null, "data_format": "channels_last", "kernel_initializer": {"config": {"mode": "fan_avg", "scale": 1.0, "seed": null, "distribution": "uniform"}, "class_name": "VarianceScaling"}, "kernel_constraint": null}, "inbound_nodes": [[["activation_23", 0, 0, {}]]], "class_name": "Conv2D"}, {"name": "batch_normalization_133", "config": {"moving_variance_initializer": {"config": {}, "class_name": "Ones"}, "moving_mean_initializer": {"config": {}, "class_name": "Zeros"}, "axis": -1, "gamma_initializer": {"config": {}, "class_name": "Ones"}, "scale": true, "trainable": true, "beta_regularizer": null, "name": "batch_normalization_133", "epsilon": 0.001, "gamma_constraint": null, "momentum": 0.99, "center": true, "gamma_regularizer": null, "beta_initializer": {"config": {}, "class_name": "Zeros"}, "beta_constraint": null}, "inbound_nodes": [[["conv2d_24", 0, 0, {}]]], "class_name": "BatchNormalization"}, {"name": "activation_24", "config": {"name": "activation_24", "trainable": true, "activation": "relu"}, "inbound_nodes": [[["batch_normalization_133", 0, 0, {}]]], "class_name": "Activation"}, {"name": "conv2d_25", "config": {"padding": "same", "activation": "linear", "filters": 16, "kernel_regularizer": {"config": {"l1": 0.0, "l2": 9.999999747378752e-05}, "class_name": "L1L2"}, "activity_regularizer": null, "kernel_size": [3, 3], "use_bias": true, "bias_constraint": null, "trainable": true, "strides": [1, 1], "bias_initializer": {"config": {}, "class_name": "Zeros"}, "name": "conv2d_25", "dilation_rate": [1, 1], "bias_regularizer": null, "data_format": "channels_last", "kernel_initializer": {"config": {"mode": "fan_avg", "scale": 1.0, "seed": null, "distribution": "uniform"}, "class_name": "VarianceScaling"}, "kernel_constraint": null}, "inbound_nodes": [[["activation_24", 0, 0, {}]]], "class_name": "Conv2D"}, {"name": "batch_normalization_134", "config": {"moving_variance_initializer": {"config": {}, "class_name": "Ones"}, "moving_mean_initializer": {"config": {}, "class_name": "Zeros"}, "axis": -1, "gamma_initializer": {"config": {}, "class_name": "Ones"}, "scale": true, "trainable": true, "beta_regularizer": null, "name": "batch_normalization_134", "epsilon": 0.001, "gamma_constraint": null, "momentum": 0.99, "center": true, "gamma_regularizer": null, "beta_initializer": {"config": {}, "class_name": "Zeros"}, "beta_constraint": null}, "inbound_nodes": [[["conv2d_25", 0, 0, {}]]], "class_name": "BatchNormalization"}, {"name": "add_66", "config": {"name": "add_66", "trainable": true}, "inbound_nodes": [[["activation_23", 0, 0, {}], ["batch_normalization_134", 0, 0, {}]]], "class_name": "Add"}, {"name": "activation_25", "config": {"name": "activation_25", "trainable": true, "activation": "relu"}, "inbound_nodes": [[["add_66", 0, 0, {}]]], "class_name": "Activation"}, {"name": "conv2d_26", "config": {"padding": "same", "activation": "linear", "filters": 16, "kernel_regularizer": {"config": {"l1": 0.0, "l2": 9.999999747378752e-05}, "class_name": "L1L2"}, "activity_regularizer": null, "kernel_size": [3, 3], "use_bias": true, "bias_constraint": null, "trainable": true, "strides": [1, 1], "bias_initializer": {"config": {}, "class_name": "Zeros"}, "name": "conv2d_26", "dilation_rate": [1, 1], "bias_regularizer": null, "data_format": "channels_last", "kernel_initializer": {"config": {"mode": "fan_avg", "scale": 1.0, "seed": null, "distribution": "uniform"}, "class_name": "VarianceScaling"}, "kernel_constraint": null}, "inbound_nodes": [[["activation_25", 0, 0, {}]]], "class_name": "Conv2D"}, {"name": "batch_normalization_135", "config": {"moving_variance_initializer": {"config": {}, "class_name": "Ones"}, "moving_mean_initializer": {"config": {}, "class_name": "Zeros"}, "axis": -1, "gamma_initializer": {"config": {}, "class_name": "Ones"}, "scale": true, "trainable": true, "beta_regularizer": null, "name": "batch_normalization_135", "epsilon": 0.001, "gamma_constraint": null, "momentum": 0.99, "center": true, "gamma_regularizer": null, "beta_initializer": {"config": {}, "class_name": "Zeros"}, "beta_constraint": null}, "inbound_nodes": [[["conv2d_26", 0, 0, {}]]], "class_name": "BatchNormalization"}, {"name": "activation_26", "config": {"name": "activation_26", "trainable": true, "activation": "relu"}, "inbound_nodes": [[["batch_normalization_135", 0, 0, {}]]], "class_name": "Activation"}, {"name": "conv2d_27", "config": {"padding": "same", "activation": "linear", "filters": 16, "kernel_regularizer": {"config": {"l1": 0.0, "l2": 9.999999747378752e-05}, "class_name": "L1L2"}, "activity_regularizer": null, "kernel_size": [3, 3], "use_bias": true, "bias_constraint": null, "trainable": true, "strides": [1, 1], "bias_initializer": {"config": {}, "class_name": "Zeros"}, "name": "conv2d_27", "dilation_rate": [1, 1], "bias_regularizer": null, "data_format": "channels_last", "kernel_initializer": {"config": {"mode": "fan_avg", "scale": 1.0, "seed": null, "distribution": "uniform"}, "class_name": "VarianceScaling"}, "kernel_constraint": null}, "inbound_nodes": [[["activation_26", 0, 0, {}]]], "class_name": "Conv2D"}, {"name": "batch_normalization_136", "config": {"moving_variance_initializer": {"config": {}, "class_name": "Ones"}, "moving_mean_initializer": {"config": {}, "class_name": "Zeros"}, "axis": -1, "gamma_initializer": {"config": {}, "class_name": "Ones"}, "scale": true, "trainable": true, "beta_regularizer": null, "name": "batch_normalization_136", "epsilon": 0.001, "gamma_constraint": null, "momentum": 0.99, "center": true, "gamma_regularizer": null, "beta_initializer": {"config": {}, "class_name": "Zeros"}, "beta_constraint": null}, "inbound_nodes": [[["conv2d_27", 0, 0, {}]]], "class_name": "BatchNormalization"}, {"name": "add_67", "config": {"name": "add_67", "trainable": true}, "inbound_nodes": [[["activation_25", 0, 0, {}], ["batch_normalization_136", 0, 0, {}]]], "class_name": "Add"}, {"name": "activation_27", "config": {"name": "activation_27", "trainable": true, "activation": "relu"}, "inbound_nodes": [[["add_67", 0, 0, {}]]], "class_name": "Activation"}, {"name": "conv2d_28", "config": {"padding": "same", "activation": "linear", "filters": 12, "kernel_regularizer": {"config": {"l1": 0.0, "l2": 9.999999747378752e-05}, "class_name": "L1L2"}, "activity_regularizer": null, "kernel_size": [3, 3], "use_bias": true, "bias_constraint": null, "trainable": true, "strides": [1, 1], "bias_initializer": {"config": {}, "class_name": "Zeros"}, "name": "conv2d_28", "dilation_rate": [1, 1], "bias_regularizer": null, "data_format": "channels_last", "kernel_initializer": {"config": {"mode": "fan_avg", "scale": 1.0, "seed": null, "distribution": "uniform"}, "class_name": "VarianceScaling"}, "kernel_constraint": null}, "inbound_nodes": [[["activation_27", 0, 0, {}]]], "class_name": "Conv2D"}, {"name": "batch_normalization_137", "config": {"moving_variance_initializer": {"config": {}, "class_name": "Ones"}, "moving_mean_initializer": {"config": {}, "class_name": "Zeros"}, "axis": -1, "gamma_initializer": {"config": {}, "class_name": "Ones"}, "scale": true, "trainable": true, "beta_regularizer": null, "name": "batch_normalization_137", "epsilon": 0.001, "gamma_constraint": null, "momentum": 0.99, "center": true, "gamma_regularizer": null, "beta_initializer": {"config": {}, "class_name": "Zeros"}, "beta_constraint": null}, "inbound_nodes": [[["conv2d_28", 0, 0, {}]]], "class_name": "BatchNormalization"}, {"name": "activation_28", "config": {"name": "activation_28", "trainable": true, "activation": "relu"}, "inbound_nodes": [[["batch_normalization_137", 0, 0, {}]]], "class_name": "Activation"}, {"name": "conv2d_29", "config": {"padding": "same", "activation": "linear", "filters": 16, "kernel_regularizer": {"config": {"l1": 0.0, "l2": 9.999999747378752e-05}, "class_name": "L1L2"}, "activity_regularizer": null, "kernel_size": [3, 3], "use_bias": true, "bias_constraint": null, "trainable": true, "strides": [1, 1], "bias_initializer": {"config": {}, "class_name": "Zeros"}, "name": "conv2d_29", "dilation_rate": [1, 1], "bias_regularizer": null, "data_format": "channels_last", "kernel_initializer": {"config": {"mode": "fan_avg", "scale": 1.0, "seed": null, "distribution": "uniform"}, "class_name": "VarianceScaling"}, "kernel_constraint": null}, "inbound_nodes": [[["activation_28", 0, 0, {}]]], "class_name": "Conv2D"}, {"name": "batch_normalization_138", "config": {"moving_variance_initializer": {"config": {}, "class_name": "Ones"}, "moving_mean_initializer": {"config": {}, "class_name": "Zeros"}, "axis": -1, "gamma_initializer": {"config": {}, "class_name": "Ones"}, "scale": true, "trainable": true, "beta_regularizer": null, "name": "batch_normalization_138", "epsilon": 0.001, "gamma_constraint": null, "momentum": 0.99, "center": true, "gamma_regularizer": null, "beta_initializer": {"config": {}, "class_name": "Zeros"}, "beta_constraint": null}, "inbound_nodes": [[["conv2d_29", 0, 0, {}]]], "class_name": "BatchNormalization"}, {"name": "add_68", "config": {"name": "add_68", "trainable": true}, "inbound_nodes": [[["activation_27", 0, 0, {}], ["batch_normalization_138", 0, 0, {}]]], "class_name": "Add"}, {"name": "activation_29", "config": {"name": "activation_29", "trainable": true, "activation": "relu"}, "inbound_nodes": [[["add_68", 0, 0, {}]]], "class_name": "Activation"}, {"name": "conv2d_30", "config": {"padding": "same", "activation": "linear", "filters": 12, "kernel_regularizer": {"config": {"l1": 0.0, "l2": 9.999999747378752e-05}, "class_name": "L1L2"}, "activity_regularizer": null, "kernel_size": [3, 3], "use_bias": true, "bias_constraint": null, "trainable": true, "strides": [1, 1], "bias_initializer": {"config": {}, "class_name": "Zeros"}, "name": "conv2d_30", "dilation_rate": [1, 1], "bias_regularizer": null, "data_format": "channels_last", "kernel_initializer": {"config": {"mode": "fan_avg", "scale": 1.0, "seed": null, "distribution": "uniform"}, "class_name": "VarianceScaling"}, "kernel_constraint": null}, "inbound_nodes": [[["activation_29", 0, 0, {}]]], "class_name": "Conv2D"}, {"name": "batch_normalization_139", "config": {"moving_variance_initializer": {"config": {}, "class_name": "Ones"}, "moving_mean_initializer": {"config": {}, "class_name": "Zeros"}, "axis": -1, "gamma_initializer": {"config": {}, "class_name": "Ones"}, "scale": true, "trainable": true, "beta_regularizer": null, "name": "batch_normalization_139", "epsilon": 0.001, "gamma_constraint": null, "momentum": 0.99, "center": true, "gamma_regularizer": null, "beta_initializer": {"config": {}, "class_name": "Zeros"}, "beta_constraint": null}, "inbound_nodes": [[["conv2d_30", 0, 0, {}]]], "class_name": "BatchNormalization"}, {"name": "activation_30", "config": {"name": "activation_30", "trainable": true, "activation": "relu"}, "inbound_nodes": [[["batch_normalization_139", 0, 0, {}]]], "class_name": "Activation"}, {"name": "conv2d_31", "config": {"padding": "same", "activation": "linear", "filters": 16, "kernel_regularizer": {"config": {"l1": 0.0, "l2": 9.999999747378752e-05}, "class_name": "L1L2"}, "activity_regularizer": null, "kernel_size": [3, 3], "use_bias": true, "bias_constraint": null, "trainable": true, "strides": [1, 1], "bias_initializer": {"config": {}, "class_name": "Zeros"}, "name": "conv2d_31", "dilation_rate": [1, 1], "bias_regularizer": null, "data_format": "channels_last", "kernel_initializer": {"config": {"mode": "fan_avg", "scale": 1.0, "seed": null, "distribution": "uniform"}, "class_name": "VarianceScaling"}, "kernel_constraint": null}, "inbound_nodes": [[["activation_30", 0, 0, {}]]], "class_name": "Conv2D"}, {"name": "batch_normalization_140", "config": {"moving_variance_initializer": {"config": {}, "class_name": "Ones"}, "moving_mean_initializer": {"config": {}, "class_name": "Zeros"}, "axis": -1, "gamma_initializer": {"config": {}, "class_name": "Ones"}, "scale": true, "trainable": true, "beta_regularizer": null, "name": "batch_normalization_140", "epsilon": 0.001, "gamma_constraint": null, "momentum": 0.99, "center": true, "gamma_regularizer": null, "beta_initializer": {"config": {}, "class_name": "Zeros"}, "beta_constraint": null}, "inbound_nodes": [[["conv2d_31", 0, 0, {}]]], "class_name": "BatchNormalization"}, {"name": "add_69", "config": {"name": "add_69", "trainable": true}, "inbound_nodes": [[["activation_29", 0, 0, {}], ["batch_normalization_140", 0, 0, {}]]], "class_name": "Add"}, {"name": "activation_31", "config": {"name": "activation_31", "trainable": true, "activation": "relu"}, "inbound_nodes": [[["add_69", 0, 0, {}]]], "class_name": "Activation"}, {"name": "conv2d_32", "config": {"padding": "same", "activation": "linear", "filters": 14, "kernel_regularizer": {"config": {"l1": 0.0, "l2": 9.999999747378752e-05}, "class_name": "L1L2"}, "activity_regularizer": null, "kernel_size": [3, 3], "use_bias": true, "bias_constraint": null, "trainable": true, "strides": [1, 1], "bias_initializer": {"config": {}, "class_name": "Zeros"}, "name": "conv2d_32", "dilation_rate": [1, 1], "bias_regularizer": null, "data_format": "channels_last", "kernel_initializer": {"config": {"mode": "fan_avg", "scale": 1.0, "seed": null, "distribution": "uniform"}, "class_name": "VarianceScaling"}, "kernel_constraint": null}, "inbound_nodes": [[["activation_31", 0, 0, {}]]], "class_name": "Conv2D"}, {"name": "batch_normalization_141", "config": {"moving_variance_initializer": {"config": {}, "class_name": "Ones"}, "moving_mean_initializer": {"config": {}, "class_name": "Zeros"}, "axis": -1, "gamma_initializer": {"config": {}, "class_name": "Ones"}, "scale": true, "trainable": true, "beta_regularizer": null, "name": "batch_normalization_141", "epsilon": 0.001, "gamma_constraint": null, "momentum": 0.99, "center": true, "gamma_regularizer": null, "beta_initializer": {"config": {}, "class_name": "Zeros"}, "beta_constraint": null}, "inbound_nodes": [[["conv2d_32", 0, 0, {}]]], "class_name": "BatchNormalization"}, {"name": "activation_32", "config": {"name": "activation_32", "trainable": true, "activation": "relu"}, "inbound_nodes": [[["batch_normalization_141", 0, 0, {}]]], "class_name": "Activation"}, {"name": "conv2d_33", "config": {"padding": "same", "activation": "linear", "filters": 16, "kernel_regularizer": {"config": {"l1": 0.0, "l2": 9.999999747378752e-05}, "class_name": "L1L2"}, "activity_regularizer": null, "kernel_size": [3, 3], "use_bias": true, "bias_constraint": null, "trainable": true, "strides": [1, 1], "bias_initializer": {"config": {}, "class_name": "Zeros"}, "name": "conv2d_33", "dilation_rate": [1, 1], "bias_regularizer": null, "data_format": "channels_last", "kernel_initializer": {"config": {"mode": "fan_avg", "scale": 1.0, "seed": null, "distribution": "uniform"}, "class_name": "VarianceScaling"}, "kernel_constraint": null}, "inbound_nodes": [[["activation_32", 0, 0, {}]]], "class_name": "Conv2D"}, {"name": "batch_normalization_142", "config": {"moving_variance_initializer": {"config": {}, "class_name": "Ones"}, "moving_mean_initializer": {"config": {}, "class_name": "Zeros"}, "axis": -1, "gamma_initializer": {"config": {}, "class_name": "Ones"}, "scale": true, "trainable": true, "beta_regularizer": null, "name": "batch_normalization_142", "epsilon": 0.001, "gamma_constraint": null, "momentum": 0.99, "center": true, "gamma_regularizer": null, "beta_initializer": {"config": {}, "class_name": "Zeros"}, "beta_constraint": null}, "inbound_nodes": [[["conv2d_33", 0, 0, {}]]], "class_name": "BatchNormalization"}, {"name": "add_70", "config": {"name": "add_70", "trainable": true}, "inbound_nodes": [[["activation_31", 0, 0, {}], ["batch_normalization_142", 0, 0, {}]]], "class_name": "Add"}, {"name": "activation_33", "config": {"name": "activation_33", "trainable": true, "activation": "relu"}, "inbound_nodes": [[["add_70", 0, 0, {}]]], "class_name": "Activation"}, {"name": "conv2d_34", "config": {"padding": "same", "activation": "linear", "filters": 11, "kernel_regularizer": {"config": {"l1": 0.0, "l2": 9.999999747378752e-05}, "class_name": "L1L2"}, "activity_regularizer": null, "kernel_size": [3, 3], "use_bias": true, "bias_constraint": null, "trainable": true, "strides": [1, 1], "bias_initializer": {"config": {}, "class_name": "Zeros"}, "name": "conv2d_34", "dilation_rate": [1, 1], "bias_regularizer": null, "data_format": "channels_last", "kernel_initializer": {"config": {"mode": "fan_avg", "scale": 1.0, "seed": null, "distribution": "uniform"}, "class_name": "VarianceScaling"}, "kernel_constraint": null}, "inbound_nodes": [[["activation_33", 0, 0, {}]]], "class_name": "Conv2D"}, {"name": "batch_normalization_143", "config": {"moving_variance_initializer": {"config": {}, "class_name": "Ones"}, "moving_mean_initializer": {"config": {}, "class_name": "Zeros"}, "axis": -1, "gamma_initializer": {"config": {}, "class_name": "Ones"}, "scale": true, "trainable": true, "beta_regularizer": null, "name": "batch_normalization_143", "epsilon": 0.001, "gamma_constraint": null, "momentum": 0.99, "center": true, "gamma_regularizer": null, "beta_initializer": {"config": {}, "class_name": "Zeros"}, "beta_constraint": null}, "inbound_nodes": [[["conv2d_34", 0, 0, {}]]], "class_name": "BatchNormalization"}, {"name": "activation_34", "config": {"name": "activation_34", "trainable": true, "activation": "relu"}, "inbound_nodes": [[["batch_normalization_143", 0, 0, {}]]], "class_name": "Activation"}, {"name": "conv2d_35", "config": {"padding": "same", "activation": "linear", "filters": 16, "kernel_regularizer": {"config": {"l1": 0.0, "l2": 9.999999747378752e-05}, "class_name": "L1L2"}, "activity_regularizer": null, "kernel_size": [3, 3], "use_bias": true, "bias_constraint": null, "trainable": true, "strides": [1, 1], "bias_initializer": {"config": {}, "class_name": "Zeros"}, "name": "conv2d_35", "dilation_rate": [1, 1], "bias_regularizer": null, "data_format": "channels_last", "kernel_initializer": {"config": {"mode": "fan_avg", "scale": 1.0, "seed": null, "distribution": "uniform"}, "class_name": "VarianceScaling"}, "kernel_constraint": null}, "inbound_nodes": [[["activation_34", 0, 0, {}]]], "class_name": "Conv2D"}, {"name": "batch_normalization_144", "config": {"moving_variance_initializer": {"config": {}, "class_name": "Ones"}, "moving_mean_initializer": {"config": {}, "class_name": "Zeros"}, "axis": -1, "gamma_initializer": {"config": {}, "class_name": "Ones"}, "scale": true, "trainable": true, "beta_regularizer": null, "name": "batch_normalization_144", "epsilon": 0.001, "gamma_constraint": null, "momentum": 0.99, "center": true, "gamma_regularizer": null, "beta_initializer": {"config": {}, "class_name": "Zeros"}, "beta_constraint": null}, "inbound_nodes": [[["conv2d_35", 0, 0, {}]]], "class_name": "BatchNormalization"}, {"name": "add_71", "config": {"name": "add_71", "trainable": true}, "inbound_nodes": [[["activation_33", 0, 0, {}], ["batch_normalization_144", 0, 0, {}]]], "class_name": "Add"}, {"name": "activation_35", "config": {"name": "activation_35", "trainable": true, "activation": "relu"}, "inbound_nodes": [[["add_71", 0, 0, {}]]], "class_name": "Activation"}, {"name": "conv2d_36", "config": {"padding": "same", "activation": "linear", "filters": 13, "kernel_regularizer": {"config": {"l1": 0.0, "l2": 9.999999747378752e-05}, "class_name": "L1L2"}, "activity_regularizer": null, "kernel_size": [3, 3], "use_bias": true, "bias_constraint": null, "trainable": true, "strides": [1, 1], "bias_initializer": {"config": {}, "class_name": "Zeros"}, "name": "conv2d_36", "dilation_rate": [1, 1], "bias_regularizer": null, "data_format": "channels_last", "kernel_initializer": {"config": {"mode": "fan_avg", "scale": 1.0, "seed": null, "distribution": "uniform"}, "class_name": "VarianceScaling"}, "kernel_constraint": null}, "inbound_nodes": [[["activation_35", 0, 0, {}]]], "class_name": "Conv2D"}, {"name": "batch_normalization_145", "config": {"moving_variance_initializer": {"config": {}, "class_name": "Ones"}, "moving_mean_initializer": {"config": {}, "class_name": "Zeros"}, "axis": -1, "gamma_initializer": {"config": {}, "class_name": "Ones"}, "scale": true, "trainable": true, "beta_regularizer": null, "name": "batch_normalization_145", "epsilon": 0.001, "gamma_constraint": null, "momentum": 0.99, "center": true, "gamma_regularizer": null, "beta_initializer": {"config": {}, "class_name": "Zeros"}, "beta_constraint": null}, "inbound_nodes": [[["conv2d_36", 0, 0, {}]]], "class_name": "BatchNormalization"}, {"name": "activation_36", "config": {"name": "activation_36", "trainable": true, "activation": "relu"}, "inbound_nodes": [[["batch_normalization_145", 0, 0, {}]]], "class_name": "Activation"}, {"name": "conv2d_37", "config": {"padding": "same", "activation": "linear", "filters": 16, "kernel_regularizer": {"config": {"l1": 0.0, "l2": 9.999999747378752e-05}, "class_name": "L1L2"}, "activity_regularizer": null, "kernel_size": [3, 3], "use_bias": true, "bias_constraint": null, "trainable": true, "strides": [1, 1], "bias_initializer": {"config": {}, "class_name": "Zeros"}, "name": "conv2d_37", "dilation_rate": [1, 1], "bias_regularizer": null, "data_format": "channels_last", "kernel_initializer": {"config": {"mode": "fan_avg", "scale": 1.0, "seed": null, "distribution": "uniform"}, "class_name": "VarianceScaling"}, "kernel_constraint": null}, "inbound_nodes": [[["activation_36", 0, 0, {}]]], "class_name": "Conv2D"}, {"name": "batch_normalization_146", "config": {"moving_variance_initializer": {"config": {}, "class_name": "Ones"}, "moving_mean_initializer": {"config": {}, "class_name": "Zeros"}, "axis": -1, "gamma_initializer": {"config": {}, "class_name": "Ones"}, "scale": true, "trainable": true, "beta_regularizer": null, "name": "batch_normalization_146", "epsilon": 0.001, "gamma_constraint": null, "momentum": 0.99, "center": true, "gamma_regularizer": null, "beta_initializer": {"config": {}, "class_name": "Zeros"}, "beta_constraint": null}, "inbound_nodes": [[["conv2d_37", 0, 0, {}]]], "class_name": "BatchNormalization"}, {"name": "add_72", "config": {"name": "add_72", "trainable": true}, "inbound_nodes": [[["activation_35", 0, 0, {}], ["batch_normalization_146", 0, 0, {}]]], "class_name": "Add"}, {"name": "activation_37", "config": {"name": "activation_37", "trainable": true, "activation": "relu"}, "inbound_nodes": [[["add_72", 0, 0, {}]]], "class_name": "Activation"}, {"name": "conv2d_38", "config": {"padding": "same", "activation": "linear", "filters": 27, "kernel_regularizer": {"config": {"l1": 0.0, "l2": 9.999999747378752e-05}, "class_name": "L1L2"}, "activity_regularizer": null, "kernel_size": [3, 3], "use_bias": true, "bias_constraint": null, "trainable": true, "strides": [2, 2], "bias_initializer": {"config": {}, "class_name": "Zeros"}, "name": "conv2d_38", "dilation_rate": [1, 1], "bias_regularizer": null, "data_format": "channels_last", "kernel_initializer": {"config": {"mode": "fan_avg", "scale": 1.0, "seed": null, "distribution": "uniform"}, "class_name": "VarianceScaling"}, "kernel_constraint": null}, "inbound_nodes": [[["activation_37", 0, 0, {}]]], "class_name": "Conv2D"}, {"name": "batch_normalization_147", "config": {"moving_variance_initializer": {"config": {}, "class_name": "Ones"}, "moving_mean_initializer": {"config": {}, "class_name": "Zeros"}, "axis": -1, "gamma_initializer": {"config": {}, "class_name": "Ones"}, "scale": true, "trainable": true, "beta_regularizer": null, "name": "batch_normalization_147", "epsilon": 0.001, "gamma_constraint": null, "momentum": 0.99, "center": true, "gamma_regularizer": null, "beta_initializer": {"config": {}, "class_name": "Zeros"}, "beta_constraint": null}, "inbound_nodes": [[["conv2d_38", 0, 0, {}]]], "class_name": "BatchNormalization"}, {"name": "activation_38", "config": {"name": "activation_38", "trainable": true, "activation": "relu"}, "inbound_nodes": [[["batch_normalization_147", 0, 0, {}]]], "class_name": "Activation"}, {"name": "conv2d_39", "config": {"padding": "same", "activation": "linear", "filters": 32, "kernel_regularizer": {"config": {"l1": 0.0, "l2": 9.999999747378752e-05}, "class_name": "L1L2"}, "activity_regularizer": null, "kernel_size": [3, 3], "use_bias": true, "bias_constraint": null, "trainable": true, "strides": [1, 1], "bias_initializer": {"config": {}, "class_name": "Zeros"}, "name": "conv2d_39", "dilation_rate": [1, 1], "bias_regularizer": null, "data_format": "channels_last", "kernel_initializer": {"config": {"mode": "fan_avg", "scale": 1.0, "seed": null, "distribution": "uniform"}, "class_name": "VarianceScaling"}, "kernel_constraint": null}, "inbound_nodes": [[["activation_38", 0, 0, {}]]], "class_name": "Conv2D"}, {"name": "conv2d_40", "config": {"padding": "same", "activation": "linear", "filters": 32, "kernel_regularizer": {"config": {"l1": 0.0, "l2": 9.999999747378752e-05}, "class_name": "L1L2"}, "activity_regularizer": null, "kernel_size": [1, 1], "use_bias": true, "bias_constraint": null, "trainable": true, "strides": [2, 2], "bias_initializer": {"config": {}, "class_name": "Zeros"}, "name": "conv2d_40", "dilation_rate": [1, 1], "bias_regularizer": null, "data_format": "channels_last", "kernel_initializer": {"config": {"mode": "fan_avg", "scale": 1.0, "seed": null, "distribution": "uniform"}, "class_name": "VarianceScaling"}, "kernel_constraint": null}, "inbound_nodes": [[["activation_37", 0, 0, {}]]], "class_name": "Conv2D"}, {"name": "batch_normalization_148", "config": {"moving_variance_initializer": {"config": {}, "class_name": "Ones"}, "moving_mean_initializer": {"config": {}, "class_name": "Zeros"}, "axis": -1, "gamma_initializer": {"config": {}, "class_name": "Ones"}, "scale": true, "trainable": true, "beta_regularizer": null, "name": "batch_normalization_148", "epsilon": 0.001, "gamma_constraint": null, "momentum": 0.99, "center": true, "gamma_regularizer": null, "beta_initializer": {"config": {}, "class_name": "Zeros"}, "beta_constraint": null}, "inbound_nodes": [[["conv2d_39", 0, 0, {}]]], "class_name": "BatchNormalization"}, {"name": "add_73", "config": {"name": "add_73", "trainable": true}, "inbound_nodes": [[["conv2d_40", 0, 0, {}], ["batch_normalization_148", 0, 0, {}]]], "class_name": "Add"}, {"name": "activation_39", "config": {"name": "activation_39", "trainable": true, "activation": "relu"}, "inbound_nodes": [[["add_73", 0, 0, {}]]], "class_name": "Activation"}, {"name": "conv2d_41", "config": {"padding": "same", "activation": "linear", "filters": 28, "kernel_regularizer": {"config": {"l1": 0.0, "l2": 9.999999747378752e-05}, "class_name": "L1L2"}, "activity_regularizer": null, "kernel_size": [3, 3], "use_bias": true, "bias_constraint": null, "trainable": true, "strides": [1, 1], "bias_initializer": {"config": {}, "class_name": "Zeros"}, "name": "conv2d_41", "dilation_rate": [1, 1], "bias_regularizer": null, "data_format": "channels_last", "kernel_initializer": {"config": {"mode": "fan_avg", "scale": 1.0, "seed": null, "distribution": "uniform"}, "class_name": "VarianceScaling"}, "kernel_constraint": null}, "inbound_nodes": [[["activation_39", 0, 0, {}]]], "class_name": "Conv2D"}, {"name": "batch_normalization_149", "config": {"moving_variance_initializer": {"config": {}, "class_name": "Ones"}, "moving_mean_initializer": {"config": {}, "class_name": "Zeros"}, "axis": -1, "gamma_initializer": {"config": {}, "class_name": "Ones"}, "scale": true, "trainable": true, "beta_regularizer": null, "name": "batch_normalization_149", "epsilon": 0.001, "gamma_constraint": null, "momentum": 0.99, "center": true, "gamma_regularizer": null, "beta_initializer": {"config": {}, "class_name": "Zeros"}, "beta_constraint": null}, "inbound_nodes": [[["conv2d_41", 0, 0, {}]]], "class_name": "BatchNormalization"}, {"name": "activation_40", "config": {"name": "activation_40", "trainable": true, "activation": "relu"}, "inbound_nodes": [[["batch_normalization_149", 0, 0, {}]]], "class_name": "Activation"}, {"name": "conv2d_42", "config": {"padding": "same", "activation": "linear", "filters": 32, "kernel_regularizer": {"config": {"l1": 0.0, "l2": 9.999999747378752e-05}, "class_name": "L1L2"}, "activity_regularizer": null, "kernel_size": [3, 3], "use_bias": true, "bias_constraint": null, "trainable": true, "strides": [1, 1], "bias_initializer": {"config": {}, "class_name": "Zeros"}, "name": "conv2d_42", "dilation_rate": [1, 1], "bias_regularizer": null, "data_format": "channels_last", "kernel_initializer": {"config": {"mode": "fan_avg", "scale": 1.0, "seed": null, "distribution": "uniform"}, "class_name": "VarianceScaling"}, "kernel_constraint": null}, "inbound_nodes": [[["activation_40", 0, 0, {}]]], "class_name": "Conv2D"}, {"name": "batch_normalization_150", "config": {"moving_variance_initializer": {"config": {}, "class_name": "Ones"}, "moving_mean_initializer": {"config": {}, "class_name": "Zeros"}, "axis": -1, "gamma_initializer": {"config": {}, "class_name": "Ones"}, "scale": true, "trainable": true, "beta_regularizer": null, "name": "batch_normalization_150", "epsilon": 0.001, "gamma_constraint": null, "momentum": 0.99, "center": true, "gamma_regularizer": null, "beta_initializer": {"config": {}, "class_name": "Zeros"}, "beta_constraint": null}, "inbound_nodes": [[["conv2d_42", 0, 0, {}]]], "class_name": "BatchNormalization"}, {"name": "add_74", "config": {"name": "add_74", "trainable": true}, "inbound_nodes": [[["activation_39", 0, 0, {}], ["batch_normalization_150", 0, 0, {}]]], "class_name": "Add"}, {"name": "activation_41", "config": {"name": "activation_41", "trainable": true, "activation": "relu"}, "inbound_nodes": [[["add_74", 0, 0, {}]]], "class_name": "Activation"}, {"name": "conv2d_43", "config": {"padding": "same", "activation": "linear", "filters": 26, "kernel_regularizer": {"config": {"l1": 0.0, "l2": 9.999999747378752e-05}, "class_name": "L1L2"}, "activity_regularizer": null, "kernel_size": [3, 3], "use_bias": true, "bias_constraint": null, "trainable": true, "strides": [1, 1], "bias_initializer": {"config": {}, "class_name": "Zeros"}, "name": "conv2d_43", "dilation_rate": [1, 1], "bias_regularizer": null, "data_format": "channels_last", "kernel_initializer": {"config": {"mode": "fan_avg", "scale": 1.0, "seed": null, "distribution": "uniform"}, "class_name": "VarianceScaling"}, "kernel_constraint": null}, "inbound_nodes": [[["activation_41", 0, 0, {}]]], "class_name": "Conv2D"}, {"name": "batch_normalization_151", "config": {"moving_variance_initializer": {"config": {}, "class_name": "Ones"}, "moving_mean_initializer": {"config": {}, "class_name": "Zeros"}, "axis": -1, "gamma_initializer": {"config": {}, "class_name": "Ones"}, "scale": true, "trainable": true, "beta_regularizer": null, "name": "batch_normalization_151", "epsilon": 0.001, "gamma_constraint": null, "momentum": 0.99, "center": true, "gamma_regularizer": null, "beta_initializer": {"config": {}, "class_name": "Zeros"}, "beta_constraint": null}, "inbound_nodes": [[["conv2d_43", 0, 0, {}]]], "class_name": "BatchNormalization"}, {"name": "activation_42", "config": {"name": "activation_42", "trainable": true, "activation": "relu"}, "inbound_nodes": [[["batch_normalization_151", 0, 0, {}]]], "class_name": "Activation"}, {"name": "conv2d_44", "config": {"padding": "same", "activation": "linear", "filters": 32, "kernel_regularizer": {"config": {"l1": 0.0, "l2": 9.999999747378752e-05}, "class_name": "L1L2"}, "activity_regularizer": null, "kernel_size": [3, 3], "use_bias": true, "bias_constraint": null, "trainable": true, "strides": [1, 1], "bias_initializer": {"config": {}, "class_name": "Zeros"}, "name": "conv2d_44", "dilation_rate": [1, 1], "bias_regularizer": null, "data_format": "channels_last", "kernel_initializer": {"config": {"mode": "fan_avg", "scale": 1.0, "seed": null, "distribution": "uniform"}, "class_name": "VarianceScaling"}, "kernel_constraint": null}, "inbound_nodes": [[["activation_42", 0, 0, {}]]], "class_name": "Conv2D"}, {"name": "batch_normalization_152", "config": {"moving_variance_initializer": {"config": {}, "class_name": "Ones"}, "moving_mean_initializer": {"config": {}, "class_name": "Zeros"}, "axis": -1, "gamma_initializer": {"config": {}, "class_name": "Ones"}, "scale": true, "trainable": true, "beta_regularizer": null, "name": "batch_normalization_152", "epsilon": 0.001, "gamma_constraint": null, "momentum": 0.99, "center": true, "gamma_regularizer": null, "beta_initializer": {"config": {}, "class_name": "Zeros"}, "beta_constraint": null}, "inbound_nodes": [[["conv2d_44", 0, 0, {}]]], "class_name": "BatchNormalization"}, {"name": "add_75", "config": {"name": "add_75", "trainable": true}, "inbound_nodes": [[["activation_41", 0, 0, {}], ["batch_normalization_152", 0, 0, {}]]], "class_name": "Add"}, {"name": "activation_43", "config": {"name": "activation_43", "trainable": true, "activation": "relu"}, "inbound_nodes": [[["add_75", 0, 0, {}]]], "class_name": "Activation"}, {"name": "conv2d_45", "config": {"padding": "same", "activation": "linear", "filters": 24, "kernel_regularizer": {"config": {"l1": 0.0, "l2": 9.999999747378752e-05}, "class_name": "L1L2"}, "activity_regularizer": null, "kernel_size": [3, 3], "use_bias": true, "bias_constraint": null, "trainable": true, "strides": [1, 1], "bias_initializer": {"config": {}, "class_name": "Zeros"}, "name": "conv2d_45", "dilation_rate": [1, 1], "bias_regularizer": null, "data_format": "channels_last", "kernel_initializer": {"config": {"mode": "fan_avg", "scale": 1.0, "seed": null, "distribution": "uniform"}, "class_name": "VarianceScaling"}, "kernel_constraint": null}, "inbound_nodes": [[["activation_43", 0, 0, {}]]], "class_name": "Conv2D"}, {"name": "batch_normalization_153", "config": {"moving_variance_initializer": {"config": {}, "class_name": "Ones"}, "moving_mean_initializer": {"config": {}, "class_name": "Zeros"}, "axis": -1, "gamma_initializer": {"config": {}, "class_name": "Ones"}, "scale": true, "trainable": true, "beta_regularizer": null, "name": "batch_normalization_153", "epsilon": 0.001, "gamma_constraint": null, "momentum": 0.99, "center": true, "gamma_regularizer": null, "beta_initializer": {"config": {}, "class_name": "Zeros"}, "beta_constraint": null}, "inbound_nodes": [[["conv2d_45", 0, 0, {}]]], "class_name": "BatchNormalization"}, {"name": "activation_44", "config": {"name": "activation_44", "trainable": true, "activation": "relu"}, "inbound_nodes": [[["batch_normalization_153", 0, 0, {}]]], "class_name": "Activation"}, {"name": "conv2d_46", "config": {"padding": "same", "activation": "linear", "filters": 32, "kernel_regularizer": {"config": {"l1": 0.0, "l2": 9.999999747378752e-05}, "class_name": "L1L2"}, "activity_regularizer": null, "kernel_size": [3, 3], "use_bias": true, "bias_constraint": null, "trainable": true, "strides": [1, 1], "bias_initializer": {"config": {}, "class_name": "Zeros"}, "name": "conv2d_46", "dilation_rate": [1, 1], "bias_regularizer": null, "data_format": "channels_last", "kernel_initializer": {"config": {"mode": "fan_avg", "scale": 1.0, "seed": null, "distribution": "uniform"}, "class_name": "VarianceScaling"}, "kernel_constraint": null}, "inbound_nodes": [[["activation_44", 0, 0, {}]]], "class_name": "Conv2D"}, {"name": "batch_normalization_154", "config": {"moving_variance_initializer": {"config": {}, "class_name": "Ones"}, "moving_mean_initializer": {"config": {}, "class_name": "Zeros"}, "axis": -1, "gamma_initializer": {"config": {}, "class_name": "Ones"}, "scale": true, "trainable": true, "beta_regularizer": null, "name": "batch_normalization_154", "epsilon": 0.001, "gamma_constraint": null, "momentum": 0.99, "center": true, "gamma_regularizer": null, "beta_initializer": {"config": {}, "class_name": "Zeros"}, "beta_constraint": null}, "inbound_nodes": [[["conv2d_46", 0, 0, {}]]], "class_name": "BatchNormalization"}, {"name": "add_76", "config": {"name": "add_76", "trainable": true}, "inbound_nodes": [[["activation_43", 0, 0, {}], ["batch_normalization_154", 0, 0, {}]]], "class_name": "Add"}, {"name": "activation_45", "config": {"name": "activation_45", "trainable": true, "activation": "relu"}, "inbound_nodes": [[["add_76", 0, 0, {}]]], "class_name": "Activation"}, {"name": "conv2d_47", "config": {"padding": "same", "activation": "linear", "filters": 23, "kernel_regularizer": {"config": {"l1": 0.0, "l2": 9.999999747378752e-05}, "class_name": "L1L2"}, "activity_regularizer": null, "kernel_size": [3, 3], "use_bias": true, "bias_constraint": null, "trainable": true, "strides": [1, 1], "bias_initializer": {"config": {}, "class_name": "Zeros"}, "name": "conv2d_47", "dilation_rate": [1, 1], "bias_regularizer": null, "data_format": "channels_last", "kernel_initializer": {"config": {"mode": "fan_avg", "scale": 1.0, "seed": null, "distribution": "uniform"}, "class_name": "VarianceScaling"}, "kernel_constraint": null}, "inbound_nodes": [[["activation_45", 0, 0, {}]]], "class_name": "Conv2D"}, {"name": "batch_normalization_155", "config": {"moving_variance_initializer": {"config": {}, "class_name": "Ones"}, "moving_mean_initializer": {"config": {}, "class_name": "Zeros"}, "axis": -1, "gamma_initializer": {"config": {}, "class_name": "Ones"}, "scale": true, "trainable": true, "beta_regularizer": null, "name": "batch_normalization_155", "epsilon": 0.001, "gamma_constraint": null, "momentum": 0.99, "center": true, "gamma_regularizer": null, "beta_initializer": {"config": {}, "class_name": "Zeros"}, "beta_constraint": null}, "inbound_nodes": [[["conv2d_47", 0, 0, {}]]], "class_name": "BatchNormalization"}, {"name": "activation_46", "config": {"name": "activation_46", "trainable": true, "activation": "relu"}, "inbound_nodes": [[["batch_normalization_155", 0, 0, {}]]], "class_name": "Activation"}, {"name": "conv2d_48", "config": {"padding": "same", "activation": "linear", "filters": 32, "kernel_regularizer": {"config": {"l1": 0.0, "l2": 9.999999747378752e-05}, "class_name": "L1L2"}, "activity_regularizer": null, "kernel_size": [3, 3], "use_bias": true, "bias_constraint": null, "trainable": true, "strides": [1, 1], "bias_initializer": {"config": {}, "class_name": "Zeros"}, "name": "conv2d_48", "dilation_rate": [1, 1], "bias_regularizer": null, "data_format": "channels_last", "kernel_initializer": {"config": {"mode": "fan_avg", "scale": 1.0, "seed": null, "distribution": "uniform"}, "class_name": "VarianceScaling"}, "kernel_constraint": null}, "inbound_nodes": [[["activation_46", 0, 0, {}]]], "class_name": "Conv2D"}, {"name": "batch_normalization_156", "config": {"moving_variance_initializer": {"config": {}, "class_name": "Ones"}, "moving_mean_initializer": {"config": {}, "class_name": "Zeros"}, "axis": -1, "gamma_initializer": {"config": {}, "class_name": "Ones"}, "scale": true, "trainable": true, "beta_regularizer": null, "name": "batch_normalization_156", "epsilon": 0.001, "gamma_constraint": null, "momentum": 0.99, "center": true, "gamma_regularizer": null, "beta_initializer": {"config": {}, "class_name": "Zeros"}, "beta_constraint": null}, "inbound_nodes": [[["conv2d_48", 0, 0, {}]]], "class_name": "BatchNormalization"}, {"name": "add_77", "config": {"name": "add_77", "trainable": true}, "inbound_nodes": [[["activation_45", 0, 0, {}], ["batch_normalization_156", 0, 0, {}]]], "class_name": "Add"}, {"name": "activation_47", "config": {"name": "activation_47", "trainable": true, "activation": "relu"}, "inbound_nodes": [[["add_77", 0, 0, {}]]], "class_name": "Activation"}, {"name": "conv2d_49", "config": {"padding": "same", "activation": "linear", "filters": 25, "kernel_regularizer": {"config": {"l1": 0.0, "l2": 9.999999747378752e-05}, "class_name": "L1L2"}, "activity_regularizer": null, "kernel_size": [3, 3], "use_bias": true, "bias_constraint": null, "trainable": true, "strides": [1, 1], "bias_initializer": {"config": {}, "class_name": "Zeros"}, "name": "conv2d_49", "dilation_rate": [1, 1], "bias_regularizer": null, "data_format": "channels_last", "kernel_initializer": {"config": {"mode": "fan_avg", "scale": 1.0, "seed": null, "distribution": "uniform"}, "class_name": "VarianceScaling"}, "kernel_constraint": null}, "inbound_nodes": [[["activation_47", 0, 0, {}]]], "class_name": "Conv2D"}, {"name": "batch_normalization_157", "config": {"moving_variance_initializer": {"config": {}, "class_name": "Ones"}, "moving_mean_initializer": {"config": {}, "class_name": "Zeros"}, "axis": -1, "gamma_initializer": {"config": {}, "class_name": "Ones"}, "scale": true, "trainable": true, "beta_regularizer": null, "name": "batch_normalization_157", "epsilon": 0.001, "gamma_constraint": null, "momentum": 0.99, "center": true, "gamma_regularizer": null, "beta_initializer": {"config": {}, "class_name": "Zeros"}, "beta_constraint": null}, "inbound_nodes": [[["conv2d_49", 0, 0, {}]]], "class_name": "BatchNormalization"}, {"name": "activation_48", "config": {"name": "activation_48", "trainable": true, "activation": "relu"}, "inbound_nodes": [[["batch_normalization_157", 0, 0, {}]]], "class_name": "Activation"}, {"name": "conv2d_50", "config": {"padding": "same", "activation": "linear", "filters": 32, "kernel_regularizer": {"config": {"l1": 0.0, "l2": 9.999999747378752e-05}, "class_name": "L1L2"}, "activity_regularizer": null, "kernel_size": [3, 3], "use_bias": true, "bias_constraint": null, "trainable": true, "strides": [1, 1], "bias_initializer": {"config": {}, "class_name": "Zeros"}, "name": "conv2d_50", "dilation_rate": [1, 1], "bias_regularizer": null, "data_format": "channels_last", "kernel_initializer": {"config": {"mode": "fan_avg", "scale": 1.0, "seed": null, "distribution": "uniform"}, "class_name": "VarianceScaling"}, "kernel_constraint": null}, "inbound_nodes": [[["activation_48", 0, 0, {}]]], "class_name": "Conv2D"}, {"name": "batch_normalization_158", "config": {"moving_variance_initializer": {"config": {}, "class_name": "Ones"}, "moving_mean_initializer": {"config": {}, "class_name": "Zeros"}, "axis": -1, "gamma_initializer": {"config": {}, "class_name": "Ones"}, "scale": true, "trainable": true, "beta_regularizer": null, "name": "batch_normalization_158", "epsilon": 0.001, "gamma_constraint": null, "momentum": 0.99, "center": true, "gamma_regularizer": null, "beta_initializer": {"config": {}, "class_name": "Zeros"}, "beta_constraint": null}, "inbound_nodes": [[["conv2d_50", 0, 0, {}]]], "class_name": "BatchNormalization"}, {"name": "add_78", "config": {"name": "add_78", "trainable": true}, "inbound_nodes": [[["activation_47", 0, 0, {}], ["batch_normalization_158", 0, 0, {}]]], "class_name": "Add"}, {"name": "activation_49", "config": {"name": "activation_49", "trainable": true, "activation": "relu"}, "inbound_nodes": [[["add_78", 0, 0, {}]]], "class_name": "Activation"}, {"name": "conv2d_51", "config": {"padding": "same", "activation": "linear", "filters": 19, "kernel_regularizer": {"config": {"l1": 0.0, "l2": 9.999999747378752e-05}, "class_name": "L1L2"}, "activity_regularizer": null, "kernel_size": [3, 3], "use_bias": true, "bias_constraint": null, "trainable": true, "strides": [1, 1], "bias_initializer": {"config": {}, "class_name": "Zeros"}, "name": "conv2d_51", "dilation_rate": [1, 1], "bias_regularizer": null, "data_format": "channels_last", "kernel_initializer": {"config": {"mode": "fan_avg", "scale": 1.0, "seed": null, "distribution": "uniform"}, "class_name": "VarianceScaling"}, "kernel_constraint": null}, "inbound_nodes": [[["activation_49", 0, 0, {}]]], "class_name": "Conv2D"}, {"name": "batch_normalization_159", "config": {"moving_variance_initializer": {"config": {}, "class_name": "Ones"}, "moving_mean_initializer": {"config": {}, "class_name": "Zeros"}, "axis": -1, "gamma_initializer": {"config": {}, "class_name": "Ones"}, "scale": true, "trainable": true, "beta_regularizer": null, "name": "batch_normalization_159", "epsilon": 0.001, "gamma_constraint": null, "momentum": 0.99, "center": true, "gamma_regularizer": null, "beta_initializer": {"config": {}, "class_name": "Zeros"}, "beta_constraint": null}, "inbound_nodes": [[["conv2d_51", 0, 0, {}]]], "class_name": "BatchNormalization"}, {"name": "activation_50", "config": {"name": "activation_50", "trainable": true, "activation": "relu"}, "inbound_nodes": [[["batch_normalization_159", 0, 0, {}]]], "class_name": "Activation"}, {"name": "conv2d_52", "config": {"padding": "same", "activation": "linear", "filters": 32, "kernel_regularizer": {"config": {"l1": 0.0, "l2": 9.999999747378752e-05}, "class_name": "L1L2"}, "activity_regularizer": null, "kernel_size": [3, 3], "use_bias": true, "bias_constraint": null, "trainable": true, "strides": [1, 1], "bias_initializer": {"config": {}, "class_name": "Zeros"}, "name": "conv2d_52", "dilation_rate": [1, 1], "bias_regularizer": null, "data_format": "channels_last", "kernel_initializer": {"config": {"mode": "fan_avg", "scale": 1.0, "seed": null, "distribution": "uniform"}, "class_name": "VarianceScaling"}, "kernel_constraint": null}, "inbound_nodes": [[["activation_50", 0, 0, {}]]], "class_name": "Conv2D"}, {"name": "batch_normalization_160", "config": {"moving_variance_initializer": {"config": {}, "class_name": "Ones"}, "moving_mean_initializer": {"config": {}, "class_name": "Zeros"}, "axis": -1, "gamma_initializer": {"config": {}, "class_name": "Ones"}, "scale": true, "trainable": true, "beta_regularizer": null, "name": "batch_normalization_160", "epsilon": 0.001, "gamma_constraint": null, "momentum": 0.99, "center": true, "gamma_regularizer": null, "beta_initializer": {"config": {}, "class_name": "Zeros"}, "beta_constraint": null}, "inbound_nodes": [[["conv2d_52", 0, 0, {}]]], "class_name": "BatchNormalization"}, {"name": "add_79", "config": {"name": "add_79", "trainable": true}, "inbound_nodes": [[["activation_49", 0, 0, {}], ["batch_normalization_160", 0, 0, {}]]], "class_name": "Add"}, {"name": "activation_51", "config": {"name": "activation_51", "trainable": true, "activation": "relu"}, "inbound_nodes": [[["add_79", 0, 0, {}]]], "class_name": "Activation"}, {"name": "conv2d_53", "config": {"padding": "same", "activation": "linear", "filters": 26, "kernel_regularizer": {"config": {"l1": 0.0, "l2": 9.999999747378752e-05}, "class_name": "L1L2"}, "activity_regularizer": null, "kernel_size": [3, 3], "use_bias": true, "bias_constraint": null, "trainable": true, "strides": [1, 1], "bias_initializer": {"config": {}, "class_name": "Zeros"}, "name": "conv2d_53", "dilation_rate": [1, 1], "bias_regularizer": null, "data_format": "channels_last", "kernel_initializer": {"config": {"mode": "fan_avg", "scale": 1.0, "seed": null, "distribution": "uniform"}, "class_name": "VarianceScaling"}, "kernel_constraint": null}, "inbound_nodes": [[["activation_51", 0, 0, {}]]], "class_name": "Conv2D"}, {"name": "batch_normalization_161", "config": {"moving_variance_initializer": {"config": {}, "class_name": "Ones"}, "moving_mean_initializer": {"config": {}, "class_name": "Zeros"}, "axis": -1, "gamma_initializer": {"config": {}, "class_name": "Ones"}, "scale": true, "trainable": true, "beta_regularizer": null, "name": "batch_normalization_161", "epsilon": 0.001, "gamma_constraint": null, "momentum": 0.99, "center": true, "gamma_regularizer": null, "beta_initializer": {"config": {}, "class_name": "Zeros"}, "beta_constraint": null}, "inbound_nodes": [[["conv2d_53", 0, 0, {}]]], "class_name": "BatchNormalization"}, {"name": "activation_52", "config": {"name": "activation_52", "trainable": true, "activation": "relu"}, "inbound_nodes": [[["batch_normalization_161", 0, 0, {}]]], "class_name": "Activation"}, {"name": "conv2d_54", "config": {"padding": "same", "activation": "linear", "filters": 32, "kernel_regularizer": {"config": {"l1": 0.0, "l2": 9.999999747378752e-05}, "class_name": "L1L2"}, "activity_regularizer": null, "kernel_size": [3, 3], "use_bias": true, "bias_constraint": null, "trainable": true, "strides": [1, 1], "bias_initializer": {"config": {}, "class_name": "Zeros"}, "name": "conv2d_54", "dilation_rate": [1, 1], "bias_regularizer": null, "data_format": "channels_last", "kernel_initializer": {"config": {"mode": "fan_avg", "scale": 1.0, "seed": null, "distribution": "uniform"}, "class_name": "VarianceScaling"}, "kernel_constraint": null}, "inbound_nodes": [[["activation_52", 0, 0, {}]]], "class_name": "Conv2D"}, {"name": "batch_normalization_162", "config": {"moving_variance_initializer": {"config": {}, "class_name": "Ones"}, "moving_mean_initializer": {"config": {}, "class_name": "Zeros"}, "axis": -1, "gamma_initializer": {"config": {}, "class_name": "Ones"}, "scale": true, "trainable": true, "beta_regularizer": null, "name": "batch_normalization_162", "epsilon": 0.001, "gamma_constraint": null, "momentum": 0.99, "center": true, "gamma_regularizer": null, "beta_initializer": {"config": {}, "class_name": "Zeros"}, "beta_constraint": null}, "inbound_nodes": [[["conv2d_54", 0, 0, {}]]], "class_name": "BatchNormalization"}, {"name": "add_80", "config": {"name": "add_80", "trainable": true}, "inbound_nodes": [[["activation_51", 0, 0, {}], ["batch_normalization_162", 0, 0, {}]]], "class_name": "Add"}, {"name": "activation_53", "config": {"name": "activation_53", "trainable": true, "activation": "relu"}, "inbound_nodes": [[["add_80", 0, 0, {}]]], "class_name": "Activation"}, {"name": "conv2d_55", "config": {"padding": "same", "activation": "linear", "filters": 26, "kernel_regularizer": {"config": {"l1": 0.0, "l2": 9.999999747378752e-05}, "class_name": "L1L2"}, "activity_regularizer": null, "kernel_size": [3, 3], "use_bias": true, "bias_constraint": null, "trainable": true, "strides": [1, 1], "bias_initializer": {"config": {}, "class_name": "Zeros"}, "name": "conv2d_55", "dilation_rate": [1, 1], "bias_regularizer": null, "data_format": "channels_last", "kernel_initializer": {"config": {"mode": "fan_avg", "scale": 1.0, "seed": null, "distribution": "uniform"}, "class_name": "VarianceScaling"}, "kernel_constraint": null}, "inbound_nodes": [[["activation_53", 0, 0, {}]]], "class_name": "Conv2D"}, {"name": "batch_normalization_163", "config": {"moving_variance_initializer": {"config": {}, "class_name": "Ones"}, "moving_mean_initializer": {"config": {}, "class_name": "Zeros"}, "axis": -1, "gamma_initializer": {"config": {}, "class_name": "Ones"}, "scale": true, "trainable": true, "beta_regularizer": null, "name": "batch_normalization_163", "epsilon": 0.001, "gamma_constraint": null, "momentum": 0.99, "center": true, "gamma_regularizer": null, "beta_initializer": {"config": {}, "class_name": "Zeros"}, "beta_constraint": null}, "inbound_nodes": [[["conv2d_55", 0, 0, {}]]], "class_name": "BatchNormalization"}, {"name": "activation_54", "config": {"name": "activation_54", "trainable": true, "activation": "relu"}, "inbound_nodes": [[["batch_normalization_163", 0, 0, {}]]], "class_name": "Activation"}, {"name": "conv2d_56", "config": {"padding": "same", "activation": "linear", "filters": 32, "kernel_regularizer": {"config": {"l1": 0.0, "l2": 9.999999747378752e-05}, "class_name": "L1L2"}, "activity_regularizer": null, "kernel_size": [3, 3], "use_bias": true, "bias_constraint": null, "trainable": true, "strides": [1, 1], "bias_initializer": {"config": {}, "class_name": "Zeros"}, "name": "conv2d_56", "dilation_rate": [1, 1], "bias_regularizer": null, "data_format": "channels_last", "kernel_initializer": {"config": {"mode": "fan_avg", "scale": 1.0, "seed": null, "distribution": "uniform"}, "class_name": "VarianceScaling"}, "kernel_constraint": null}, "inbound_nodes": [[["activation_54", 0, 0, {}]]], "class_name": "Conv2D"}, {"name": "batch_normalization_164", "config": {"moving_variance_initializer": {"config": {}, "class_name": "Ones"}, "moving_mean_initializer": {"config": {}, "class_name": "Zeros"}, "axis": -1, "gamma_initializer": {"config": {}, "class_name": "Ones"}, "scale": true, "trainable": true, "beta_regularizer": null, "name": "batch_normalization_164", "epsilon": 0.001, "gamma_constraint": null, "momentum": 0.99, "center": true, "gamma_regularizer": null, "beta_initializer": {"config": {}, "class_name": "Zeros"}, "beta_constraint": null}, "inbound_nodes": [[["conv2d_56", 0, 0, {}]]], "class_name": "BatchNormalization"}, {"name": "add_81", "config": {"name": "add_81", "trainable": true}, "inbound_nodes": [[["activation_53", 0, 0, {}], ["batch_normalization_164", 0, 0, {}]]], "class_name": "Add"}, {"name": "activation_55", "config": {"name": "activation_55", "trainable": true, "activation": "relu"}, "inbound_nodes": [[["add_81", 0, 0, {}]]], "class_name": "Activation"}, {"name": "conv2d_57", "config": {"padding": "same", "activation": "linear", "filters": 20, "kernel_regularizer": {"config": {"l1": 0.0, "l2": 9.999999747378752e-05}, "class_name": "L1L2"}, "activity_regularizer": null, "kernel_size": [3, 3], "use_bias": true, "bias_constraint": null, "trainable": true, "strides": [1, 1], "bias_initializer": {"config": {}, "class_name": "Zeros"}, "name": "conv2d_57", "dilation_rate": [1, 1], "bias_regularizer": null, "data_format": "channels_last", "kernel_initializer": {"config": {"mode": "fan_avg", "scale": 1.0, "seed": null, "distribution": "uniform"}, "class_name": "VarianceScaling"}, "kernel_constraint": null}, "inbound_nodes": [[["activation_55", 0, 0, {}]]], "class_name": "Conv2D"}, {"name": "batch_normalization_165", "config": {"moving_variance_initializer": {"config": {}, "class_name": "Ones"}, "moving_mean_initializer": {"config": {}, "class_name": "Zeros"}, "axis": -1, "gamma_initializer": {"config": {}, "class_name": "Ones"}, "scale": true, "trainable": true, "beta_regularizer": null, "name": "batch_normalization_165", "epsilon": 0.001, "gamma_constraint": null, "momentum": 0.99, "center": true, "gamma_regularizer": null, "beta_initializer": {"config": {}, "class_name": "Zeros"}, "beta_constraint": null}, "inbound_nodes": [[["conv2d_57", 0, 0, {}]]], "class_name": "BatchNormalization"}, {"name": "activation_56", "config": {"name": "activation_56", "trainable": true, "activation": "relu"}, "inbound_nodes": [[["batch_normalization_165", 0, 0, {}]]], "class_name": "Activation"}, {"name": "conv2d_58", "config": {"padding": "same", "activation": "linear", "filters": 32, "kernel_regularizer": {"config": {"l1": 0.0, "l2": 9.999999747378752e-05}, "class_name": "L1L2"}, "activity_regularizer": null, "kernel_size": [3, 3], "use_bias": true, "bias_constraint": null, "trainable": true, "strides": [1, 1], "bias_initializer": {"config": {}, "class_name": "Zeros"}, "name": "conv2d_58", "dilation_rate": [1, 1], "bias_regularizer": null, "data_format": "channels_last", "kernel_initializer": {"config": {"mode": "fan_avg", "scale": 1.0, "seed": null, "distribution": "uniform"}, "class_name": "VarianceScaling"}, "kernel_constraint": null}, "inbound_nodes": [[["activation_56", 0, 0, {}]]], "class_name": "Conv2D"}, {"name": "batch_normalization_166", "config": {"moving_variance_initializer": {"config": {}, "class_name": "Ones"}, "moving_mean_initializer": {"config": {}, "class_name": "Zeros"}, "axis": -1, "gamma_initializer": {"config": {}, "class_name": "Ones"}, "scale": true, "trainable": true, "beta_regularizer": null, "name": "batch_normalization_166", "epsilon": 0.001, "gamma_constraint": null, "momentum": 0.99, "center": true, "gamma_regularizer": null, "beta_initializer": {"config": {}, "class_name": "Zeros"}, "beta_constraint": null}, "inbound_nodes": [[["conv2d_58", 0, 0, {}]]], "class_name": "BatchNormalization"}, {"name": "add_82", "config": {"name": "add_82", "trainable": true}, "inbound_nodes": [[["activation_55", 0, 0, {}], ["batch_normalization_166", 0, 0, {}]]], "class_name": "Add"}, {"name": "activation_57", "config": {"name": "activation_57", "trainable": true, "activation": "relu"}, "inbound_nodes": [[["add_82", 0, 0, {}]]], "class_name": "Activation"}, {"name": "conv2d_59", "config": {"padding": "same", "activation": "linear", "filters": 20, "kernel_regularizer": {"config": {"l1": 0.0, "l2": 9.999999747378752e-05}, "class_name": "L1L2"}, "activity_regularizer": null, "kernel_size": [3, 3], "use_bias": true, "bias_constraint": null, "trainable": true, "strides": [1, 1], "bias_initializer": {"config": {}, "class_name": "Zeros"}, "name": "conv2d_59", "dilation_rate": [1, 1], "bias_regularizer": null, "data_format": "channels_last", "kernel_initializer": {"config": {"mode": "fan_avg", "scale": 1.0, "seed": null, "distribution": "uniform"}, "class_name": "VarianceScaling"}, "kernel_constraint": null}, "inbound_nodes": [[["activation_57", 0, 0, {}]]], "class_name": "Conv2D"}, {"name": "batch_normalization_167", "config": {"moving_variance_initializer": {"config": {}, "class_name": "Ones"}, "moving_mean_initializer": {"config": {}, "class_name": "Zeros"}, "axis": -1, "gamma_initializer": {"config": {}, "class_name": "Ones"}, "scale": true, "trainable": true, "beta_regularizer": null, "name": "batch_normalization_167", "epsilon": 0.001, "gamma_constraint": null, "momentum": 0.99, "center": true, "gamma_regularizer": null, "beta_initializer": {"config": {}, "class_name": "Zeros"}, "beta_constraint": null}, "inbound_nodes": [[["conv2d_59", 0, 0, {}]]], "class_name": "BatchNormalization"}, {"name": "activation_58", "config": {"name": "activation_58", "trainable": true, "activation": "relu"}, "inbound_nodes": [[["batch_normalization_167", 0, 0, {}]]], "class_name": "Activation"}, {"name": "conv2d_60", "config": {"padding": "same", "activation": "linear", "filters": 32, "kernel_regularizer": {"config": {"l1": 0.0, "l2": 9.999999747378752e-05}, "class_name": "L1L2"}, "activity_regularizer": null, "kernel_size": [3, 3], "use_bias": true, "bias_constraint": null, "trainable": true, "strides": [1, 1], "bias_initializer": {"config": {}, "class_name": "Zeros"}, "name": "conv2d_60", "dilation_rate": [1, 1], "bias_regularizer": null, "data_format": "channels_last", "kernel_initializer": {"config": {"mode": "fan_avg", "scale": 1.0, "seed": null, "distribution": "uniform"}, "class_name": "VarianceScaling"}, "kernel_constraint": null}, "inbound_nodes": [[["activation_58", 0, 0, {}]]], "class_name": "Conv2D"}, {"name": "batch_normalization_168", "config": {"moving_variance_initializer": {"config": {}, "class_name": "Ones"}, "moving_mean_initializer": {"config": {}, "class_name": "Zeros"}, "axis": -1, "gamma_initializer": {"config": {}, "class_name": "Ones"}, "scale": true, "trainable": true, "beta_regularizer": null, "name": "batch_normalization_168", "epsilon": 0.001, "gamma_constraint": null, "momentum": 0.99, "center": true, "gamma_regularizer": null, "beta_initializer": {"config": {}, "class_name": "Zeros"}, "beta_constraint": null}, "inbound_nodes": [[["conv2d_60", 0, 0, {}]]], "class_name": "BatchNormalization"}, {"name": "add_83", "config": {"name": "add_83", "trainable": true}, "inbound_nodes": [[["activation_57", 0, 0, {}], ["batch_normalization_168", 0, 0, {}]]], "class_name": "Add"}, {"name": "activation_59", "config": {"name": "activation_59", "trainable": true, "activation": "relu"}, "inbound_nodes": [[["add_83", 0, 0, {}]]], "class_name": "Activation"}, {"name": "conv2d_61", "config": {"padding": "same", "activation": "linear", "filters": 22, "kernel_regularizer": {"config": {"l1": 0.0, "l2": 9.999999747378752e-05}, "class_name": "L1L2"}, "activity_regularizer": null, "kernel_size": [3, 3], "use_bias": true, "bias_constraint": null, "trainable": true, "strides": [1, 1], "bias_initializer": {"config": {}, "class_name": "Zeros"}, "name": "conv2d_61", "dilation_rate": [1, 1], "bias_regularizer": null, "data_format": "channels_last", "kernel_initializer": {"config": {"mode": "fan_avg", "scale": 1.0, "seed": null, "distribution": "uniform"}, "class_name": "VarianceScaling"}, "kernel_constraint": null}, "inbound_nodes": [[["activation_59", 0, 0, {}]]], "class_name": "Conv2D"}, {"name": "batch_normalization_169", "config": {"moving_variance_initializer": {"config": {}, "class_name": "Ones"}, "moving_mean_initializer": {"config": {}, "class_name": "Zeros"}, "axis": -1, "gamma_initializer": {"config": {}, "class_name": "Ones"}, "scale": true, "trainable": true, "beta_regularizer": null, "name": "batch_normalization_169", "epsilon": 0.001, "gamma_constraint": null, "momentum": 0.99, "center": true, "gamma_regularizer": null, "beta_initializer": {"config": {}, "class_name": "Zeros"}, "beta_constraint": null}, "inbound_nodes": [[["conv2d_61", 0, 0, {}]]], "class_name": "BatchNormalization"}, {"name": "activation_60", "config": {"name": "activation_60", "trainable": true, "activation": "relu"}, "inbound_nodes": [[["batch_normalization_169", 0, 0, {}]]], "class_name": "Activation"}, {"name": "conv2d_62", "config": {"padding": "same", "activation": "linear", "filters": 32, "kernel_regularizer": {"config": {"l1": 0.0, "l2": 9.999999747378752e-05}, "class_name": "L1L2"}, "activity_regularizer": null, "kernel_size": [3, 3], "use_bias": true, "bias_constraint": null, "trainable": true, "strides": [1, 1], "bias_initializer": {"config": {}, "class_name": "Zeros"}, "name": "conv2d_62", "dilation_rate": [1, 1], "bias_regularizer": null, "data_format": "channels_last", "kernel_initializer": {"config": {"mode": "fan_avg", "scale": 1.0, "seed": null, "distribution": "uniform"}, "class_name": "VarianceScaling"}, "kernel_constraint": null}, "inbound_nodes": [[["activation_60", 0, 0, {}]]], "class_name": "Conv2D"}, {"name": "batch_normalization_170", "config": {"moving_variance_initializer": {"config": {}, "class_name": "Ones"}, "moving_mean_initializer": {"config": {}, "class_name": "Zeros"}, "axis": -1, "gamma_initializer": {"config": {}, "class_name": "Ones"}, "scale": true, "trainable": true, "beta_regularizer": null, "name": "batch_normalization_170", "epsilon": 0.001, "gamma_constraint": null, "momentum": 0.99, "center": true, "gamma_regularizer": null, "beta_initializer": {"config": {}, "class_name": "Zeros"}, "beta_constraint": null}, "inbound_nodes": [[["conv2d_62", 0, 0, {}]]], "class_name": "BatchNormalization"}, {"name": "add_84", "config": {"name": "add_84", "trainable": true}, "inbound_nodes": [[["activation_59", 0, 0, {}], ["batch_normalization_170", 0, 0, {}]]], "class_name": "Add"}, {"name": "activation_61", "config": {"name": "activation_61", "trainable": true, "activation": "relu"}, "inbound_nodes": [[["add_84", 0, 0, {}]]], "class_name": "Activation"}, {"name": "conv2d_63", "config": {"padding": "same", "activation": "linear", "filters": 21, "kernel_regularizer": {"config": {"l1": 0.0, "l2": 9.999999747378752e-05}, "class_name": "L1L2"}, "activity_regularizer": null, "kernel_size": [3, 3], "use_bias": true, "bias_constraint": null, "trainable": true, "strides": [1, 1], "bias_initializer": {"config": {}, "class_name": "Zeros"}, "name": "conv2d_63", "dilation_rate": [1, 1], "bias_regularizer": null, "data_format": "channels_last", "kernel_initializer": {"config": {"mode": "fan_avg", "scale": 1.0, "seed": null, "distribution": "uniform"}, "class_name": "VarianceScaling"}, "kernel_constraint": null}, "inbound_nodes": [[["activation_61", 0, 0, {}]]], "class_name": "Conv2D"}, {"name": "batch_normalization_171", "config": {"moving_variance_initializer": {"config": {}, "class_name": "Ones"}, "moving_mean_initializer": {"config": {}, "class_name": "Zeros"}, "axis": -1, "gamma_initializer": {"config": {}, "class_name": "Ones"}, "scale": true, "trainable": true, "beta_regularizer": null, "name": "batch_normalization_171", "epsilon": 0.001, "gamma_constraint": null, "momentum": 0.99, "center": true, "gamma_regularizer": null, "beta_initializer": {"config": {}, "class_name": "Zeros"}, "beta_constraint": null}, "inbound_nodes": [[["conv2d_63", 0, 0, {}]]], "class_name": "BatchNormalization"}, {"name": "activation_62", "config": {"name": "activation_62", "trainable": true, "activation": "relu"}, "inbound_nodes": [[["batch_normalization_171", 0, 0, {}]]], "class_name": "Activation"}, {"name": "conv2d_64", "config": {"padding": "same", "activation": "linear", "filters": 32, "kernel_regularizer": {"config": {"l1": 0.0, "l2": 9.999999747378752e-05}, "class_name": "L1L2"}, "activity_regularizer": null, "kernel_size": [3, 3], "use_bias": true, "bias_constraint": null, "trainable": true, "strides": [1, 1], "bias_initializer": {"config": {}, "class_name": "Zeros"}, "name": "conv2d_64", "dilation_rate": [1, 1], "bias_regularizer": null, "data_format": "channels_last", "kernel_initializer": {"config": {"mode": "fan_avg", "scale": 1.0, "seed": null, "distribution": "uniform"}, "class_name": "VarianceScaling"}, "kernel_constraint": null}, "inbound_nodes": [[["activation_62", 0, 0, {}]]], "class_name": "Conv2D"}, {"name": "batch_normalization_172", "config": {"moving_variance_initializer": {"config": {}, "class_name": "Ones"}, "moving_mean_initializer": {"config": {}, "class_name": "Zeros"}, "axis": -1, "gamma_initializer": {"config": {}, "class_name": "Ones"}, "scale": true, "trainable": true, "beta_regularizer": null, "name": "batch_normalization_172", "epsilon": 0.001, "gamma_constraint": null, "momentum": 0.99, "center": true, "gamma_regularizer": null, "beta_initializer": {"config": {}, "class_name": "Zeros"}, "beta_constraint": null}, "inbound_nodes": [[["conv2d_64", 0, 0, {}]]], "class_name": "BatchNormalization"}, {"name": "add_85", "config": {"name": "add_85", "trainable": true}, "inbound_nodes": [[["activation_61", 0, 0, {}], ["batch_normalization_172", 0, 0, {}]]], "class_name": "Add"}, {"name": "activation_63", "config": {"name": "activation_63", "trainable": true, "activation": "relu"}, "inbound_nodes": [[["add_85", 0, 0, {}]]], "class_name": "Activation"}, {"name": "conv2d_65", "config": {"padding": "same", "activation": "linear", "filters": 20, "kernel_regularizer": {"config": {"l1": 0.0, "l2": 9.999999747378752e-05}, "class_name": "L1L2"}, "activity_regularizer": null, "kernel_size": [3, 3], "use_bias": true, "bias_constraint": null, "trainable": true, "strides": [1, 1], "bias_initializer": {"config": {}, "class_name": "Zeros"}, "name": "conv2d_65", "dilation_rate": [1, 1], "bias_regularizer": null, "data_format": "channels_last", "kernel_initializer": {"config": {"mode": "fan_avg", "scale": 1.0, "seed": null, "distribution": "uniform"}, "class_name": "VarianceScaling"}, "kernel_constraint": null}, "inbound_nodes": [[["activation_63", 0, 0, {}]]], "class_name": "Conv2D"}, {"name": "batch_normalization_173", "config": {"moving_variance_initializer": {"config": {}, "class_name": "Ones"}, "moving_mean_initializer": {"config": {}, "class_name": "Zeros"}, "axis": -1, "gamma_initializer": {"config": {}, "class_name": "Ones"}, "scale": true, "trainable": true, "beta_regularizer": null, "name": "batch_normalization_173", "epsilon": 0.001, "gamma_constraint": null, "momentum": 0.99, "center": true, "gamma_regularizer": null, "beta_initializer": {"config": {}, "class_name": "Zeros"}, "beta_constraint": null}, "inbound_nodes": [[["conv2d_65", 0, 0, {}]]], "class_name": "BatchNormalization"}, {"name": "activation_64", "config": {"name": "activation_64", "trainable": true, "activation": "relu"}, "inbound_nodes": [[["batch_normalization_173", 0, 0, {}]]], "class_name": "Activation"}, {"name": "conv2d_66", "config": {"padding": "same", "activation": "linear", "filters": 32, "kernel_regularizer": {"config": {"l1": 0.0, "l2": 9.999999747378752e-05}, "class_name": "L1L2"}, "activity_regularizer": null, "kernel_size": [3, 3], "use_bias": true, "bias_constraint": null, "trainable": true, "strides": [1, 1], "bias_initializer": {"config": {}, "class_name": "Zeros"}, "name": "conv2d_66", "dilation_rate": [1, 1], "bias_regularizer": null, "data_format": "channels_last", "kernel_initializer": {"config": {"mode": "fan_avg", "scale": 1.0, "seed": null, "distribution": "uniform"}, "class_name": "VarianceScaling"}, "kernel_constraint": null}, "inbound_nodes": [[["activation_64", 0, 0, {}]]], "class_name": "Conv2D"}, {"name": "batch_normalization_174", "config": {"moving_variance_initializer": {"config": {}, "class_name": "Ones"}, "moving_mean_initializer": {"config": {}, "class_name": "Zeros"}, "axis": -1, "gamma_initializer": {"config": {}, "class_name": "Ones"}, "scale": true, "trainable": true, "beta_regularizer": null, "name": "batch_normalization_174", "epsilon": 0.001, "gamma_constraint": null, "momentum": 0.99, "center": true, "gamma_regularizer": null, "beta_initializer": {"config": {}, "class_name": "Zeros"}, "beta_constraint": null}, "inbound_nodes": [[["conv2d_66", 0, 0, {}]]], "class_name": "BatchNormalization"}, {"name": "add_86", "config": {"name": "add_86", "trainable": true}, "inbound_nodes": [[["activation_63", 0, 0, {}], ["batch_normalization_174", 0, 0, {}]]], "class_name": "Add"}, {"name": "activation_65", "config": {"name": "activation_65", "trainable": true, "activation": "relu"}, "inbound_nodes": [[["add_86", 0, 0, {}]]], "class_name": "Activation"}, {"name": "conv2d_67", "config": {"padding": "same", "activation": "linear", "filters": 24, "kernel_regularizer": {"config": {"l1": 0.0, "l2": 9.999999747378752e-05}, "class_name": "L1L2"}, "activity_regularizer": null, "kernel_size": [3, 3], "use_bias": true, "bias_constraint": null, "trainable": true, "strides": [1, 1], "bias_initializer": {"config": {}, "class_name": "Zeros"}, "name": "conv2d_67", "dilation_rate": [1, 1], "bias_regularizer": null, "data_format": "channels_last", "kernel_initializer": {"config": {"mode": "fan_avg", "scale": 1.0, "seed": null, "distribution": "uniform"}, "class_name": "VarianceScaling"}, "kernel_constraint": null}, "inbound_nodes": [[["activation_65", 0, 0, {}]]], "class_name": "Conv2D"}, {"name": "batch_normalization_175", "config": {"moving_variance_initializer": {"config": {}, "class_name": "Ones"}, "moving_mean_initializer": {"config": {}, "class_name": "Zeros"}, "axis": -1, "gamma_initializer": {"config": {}, "class_name": "Ones"}, "scale": true, "trainable": true, "beta_regularizer": null, "name": "batch_normalization_175", "epsilon": 0.001, "gamma_constraint": null, "momentum": 0.99, "center": true, "gamma_regularizer": null, "beta_initializer": {"config": {}, "class_name": "Zeros"}, "beta_constraint": null}, "inbound_nodes": [[["conv2d_67", 0, 0, {}]]], "class_name": "BatchNormalization"}, {"name": "activation_66", "config": {"name": "activation_66", "trainable": true, "activation": "relu"}, "inbound_nodes": [[["batch_normalization_175", 0, 0, {}]]], "class_name": "Activation"}, {"name": "conv2d_68", "config": {"padding": "same", "activation": "linear", "filters": 32, "kernel_regularizer": {"config": {"l1": 0.0, "l2": 9.999999747378752e-05}, "class_name": "L1L2"}, "activity_regularizer": null, "kernel_size": [3, 3], "use_bias": true, "bias_constraint": null, "trainable": true, "strides": [1, 1], "bias_initializer": {"config": {}, "class_name": "Zeros"}, "name": "conv2d_68", "dilation_rate": [1, 1], "bias_regularizer": null, "data_format": "channels_last", "kernel_initializer": {"config": {"mode": "fan_avg", "scale": 1.0, "seed": null, "distribution": "uniform"}, "class_name": "VarianceScaling"}, "kernel_constraint": null}, "inbound_nodes": [[["activation_66", 0, 0, {}]]], "class_name": "Conv2D"}, {"name": "batch_normalization_176", "config": {"moving_variance_initializer": {"config": {}, "class_name": "Ones"}, "moving_mean_initializer": {"config": {}, "class_name": "Zeros"}, "axis": -1, "gamma_initializer": {"config": {}, "class_name": "Ones"}, "scale": true, "trainable": true, "beta_regularizer": null, "name": "batch_normalization_176", "epsilon": 0.001, "gamma_constraint": null, "momentum": 0.99, "center": true, "gamma_regularizer": null, "beta_initializer": {"config": {}, "class_name": "Zeros"}, "beta_constraint": null}, "inbound_nodes": [[["conv2d_68", 0, 0, {}]]], "class_name": "BatchNormalization"}, {"name": "add_87", "config": {"name": "add_87", "trainable": true}, "inbound_nodes": [[["activation_65", 0, 0, {}], ["batch_normalization_176", 0, 0, {}]]], "class_name": "Add"}, {"name": "activation_67", "config": {"name": "activation_67", "trainable": true, "activation": "relu"}, "inbound_nodes": [[["add_87", 0, 0, {}]]], "class_name": "Activation"}, {"name": "conv2d_69", "config": {"padding": "same", "activation": "linear", "filters": 18, "kernel_regularizer": {"config": {"l1": 0.0, "l2": 9.999999747378752e-05}, "class_name": "L1L2"}, "activity_regularizer": null, "kernel_size": [3, 3], "use_bias": true, "bias_constraint": null, "trainable": true, "strides": [1, 1], "bias_initializer": {"config": {}, "class_name": "Zeros"}, "name": "conv2d_69", "dilation_rate": [1, 1], "bias_regularizer": null, "data_format": "channels_last", "kernel_initializer": {"config": {"mode": "fan_avg", "scale": 1.0, "seed": null, "distribution": "uniform"}, "class_name": "VarianceScaling"}, "kernel_constraint": null}, "inbound_nodes": [[["activation_67", 0, 0, {}]]], "class_name": "Conv2D"}, {"name": "batch_normalization_177", "config": {"moving_variance_initializer": {"config": {}, "class_name": "Ones"}, "moving_mean_initializer": {"config": {}, "class_name": "Zeros"}, "axis": -1, "gamma_initializer": {"config": {}, "class_name": "Ones"}, "scale": true, "trainable": true, "beta_regularizer": null, "name": "batch_normalization_177", "epsilon": 0.001, "gamma_constraint": null, "momentum": 0.99, "center": true, "gamma_regularizer": null, "beta_initializer": {"config": {}, "class_name": "Zeros"}, "beta_constraint": null}, "inbound_nodes": [[["conv2d_69", 0, 0, {}]]], "class_name": "BatchNormalization"}, {"name": "activation_68", "config": {"name": "activation_68", "trainable": true, "activation": "relu"}, "inbound_nodes": [[["batch_normalization_177", 0, 0, {}]]], "class_name": "Activation"}, {"name": "conv2d_70", "config": {"padding": "same", "activation": "linear", "filters": 32, "kernel_regularizer": {"config": {"l1": 0.0, "l2": 9.999999747378752e-05}, "class_name": "L1L2"}, "activity_regularizer": null, "kernel_size": [3, 3], "use_bias": true, "bias_constraint": null, "trainable": true, "strides": [1, 1], "bias_initializer": {"config": {}, "class_name": "Zeros"}, "name": "conv2d_70", "dilation_rate": [1, 1], "bias_regularizer": null, "data_format": "channels_last", "kernel_initializer": {"config": {"mode": "fan_avg", "scale": 1.0, "seed": null, "distribution": "uniform"}, "class_name": "VarianceScaling"}, "kernel_constraint": null}, "inbound_nodes": [[["activation_68", 0, 0, {}]]], "class_name": "Conv2D"}, {"name": "batch_normalization_178", "config": {"moving_variance_initializer": {"config": {}, "class_name": "Ones"}, "moving_mean_initializer": {"config": {}, "class_name": "Zeros"}, "axis": -1, "gamma_initializer": {"config": {}, "class_name": "Ones"}, "scale": true, "trainable": true, "beta_regularizer": null, "name": "batch_normalization_178", "epsilon": 0.001, "gamma_constraint": null, "momentum": 0.99, "center": true, "gamma_regularizer": null, "beta_initializer": {"config": {}, "class_name": "Zeros"}, "beta_constraint": null}, "inbound_nodes": [[["conv2d_70", 0, 0, {}]]], "class_name": "BatchNormalization"}, {"name": "add_88", "config": {"name": "add_88", "trainable": true}, "inbound_nodes": [[["activation_67", 0, 0, {}], ["batch_normalization_178", 0, 0, {}]]], "class_name": "Add"}, {"name": "activation_69", "config": {"name": "activation_69", "trainable": true, "activation": "relu"}, "inbound_nodes": [[["add_88", 0, 0, {}]]], "class_name": "Activation"}, {"name": "conv2d_71", "config": {"padding": "same", "activation": "linear", "filters": 20, "kernel_regularizer": {"config": {"l1": 0.0, "l2": 9.999999747378752e-05}, "class_name": "L1L2"}, "activity_regularizer": null, "kernel_size": [3, 3], "use_bias": true, "bias_constraint": null, "trainable": true, "strides": [1, 1], "bias_initializer": {"config": {}, "class_name": "Zeros"}, "name": "conv2d_71", "dilation_rate": [1, 1], "bias_regularizer": null, "data_format": "channels_last", "kernel_initializer": {"config": {"mode": "fan_avg", "scale": 1.0, "seed": null, "distribution": "uniform"}, "class_name": "VarianceScaling"}, "kernel_constraint": null}, "inbound_nodes": [[["activation_69", 0, 0, {}]]], "class_name": "Conv2D"}, {"name": "batch_normalization_179", "config": {"moving_variance_initializer": {"config": {}, "class_name": "Ones"}, "moving_mean_initializer": {"config": {}, "class_name": "Zeros"}, "axis": -1, "gamma_initializer": {"config": {}, "class_name": "Ones"}, "scale": true, "trainable": true, "beta_regularizer": null, "name": "batch_normalization_179", "epsilon": 0.001, "gamma_constraint": null, "momentum": 0.99, "center": true, "gamma_regularizer": null, "beta_initializer": {"config": {}, "class_name": "Zeros"}, "beta_constraint": null}, "inbound_nodes": [[["conv2d_71", 0, 0, {}]]], "class_name": "BatchNormalization"}, {"name": "activation_70", "config": {"name": "activation_70", "trainable": true, "activation": "relu"}, "inbound_nodes": [[["batch_normalization_179", 0, 0, {}]]], "class_name": "Activation"}, {"name": "conv2d_72", "config": {"padding": "same", "activation": "linear", "filters": 32, "kernel_regularizer": {"config": {"l1": 0.0, "l2": 9.999999747378752e-05}, "class_name": "L1L2"}, "activity_regularizer": null, "kernel_size": [3, 3], "use_bias": true, "bias_constraint": null, "trainable": true, "strides": [1, 1], "bias_initializer": {"config": {}, "class_name": "Zeros"}, "name": "conv2d_72", "dilation_rate": [1, 1], "bias_regularizer": null, "data_format": "channels_last", "kernel_initializer": {"config": {"mode": "fan_avg", "scale": 1.0, "seed": null, "distribution": "uniform"}, "class_name": "VarianceScaling"}, "kernel_constraint": null}, "inbound_nodes": [[["activation_70", 0, 0, {}]]], "class_name": "Conv2D"}, {"name": "batch_normalization_180", "config": {"moving_variance_initializer": {"config": {}, "class_name": "Ones"}, "moving_mean_initializer": {"config": {}, "class_name": "Zeros"}, "axis": -1, "gamma_initializer": {"config": {}, "class_name": "Ones"}, "scale": true, "trainable": true, "beta_regularizer": null, "name": "batch_normalization_180", "epsilon": 0.001, "gamma_constraint": null, "momentum": 0.99, "center": true, "gamma_regularizer": null, "beta_initializer": {"config": {}, "class_name": "Zeros"}, "beta_constraint": null}, "inbound_nodes": [[["conv2d_72", 0, 0, {}]]], "class_name": "BatchNormalization"}, {"name": "add_89", "config": {"name": "add_89", "trainable": true}, "inbound_nodes": [[["activation_69", 0, 0, {}], ["batch_normalization_180", 0, 0, {}]]], "class_name": "Add"}, {"name": "activation_71", "config": {"name": "activation_71", "trainable": true, "activation": "relu"}, "inbound_nodes": [[["add_89", 0, 0, {}]]], "class_name": "Activation"}, {"name": "conv2d_73", "config": {"padding": "same", "activation": "linear", "filters": 20, "kernel_regularizer": {"config": {"l1": 0.0, "l2": 9.999999747378752e-05}, "class_name": "L1L2"}, "activity_regularizer": null, "kernel_size": [3, 3], "use_bias": true, "bias_constraint": null, "trainable": true, "strides": [1, 1], "bias_initializer": {"config": {}, "class_name": "Zeros"}, "name": "conv2d_73", "dilation_rate": [1, 1], "bias_regularizer": null, "data_format": "channels_last", "kernel_initializer": {"config": {"mode": "fan_avg", "scale": 1.0, "seed": null, "distribution": "uniform"}, "class_name": "VarianceScaling"}, "kernel_constraint": null}, "inbound_nodes": [[["activation_71", 0, 0, {}]]], "class_name": "Conv2D"}, {"name": "batch_normalization_181", "config": {"moving_variance_initializer": {"config": {}, "class_name": "Ones"}, "moving_mean_initializer": {"config": {}, "class_name": "Zeros"}, "axis": -1, "gamma_initializer": {"config": {}, "class_name": "Ones"}, "scale": true, "trainable": true, "beta_regularizer": null, "name": "batch_normalization_181", "epsilon": 0.001, "gamma_constraint": null, "momentum": 0.99, "center": true, "gamma_regularizer": null, "beta_initializer": {"config": {}, "class_name": "Zeros"}, "beta_constraint": null}, "inbound_nodes": [[["conv2d_73", 0, 0, {}]]], "class_name": "BatchNormalization"}, {"name": "activation_72", "config": {"name": "activation_72", "trainable": true, "activation": "relu"}, "inbound_nodes": [[["batch_normalization_181", 0, 0, {}]]], "class_name": "Activation"}, {"name": "conv2d_74", "config": {"padding": "same", "activation": "linear", "filters": 32, "kernel_regularizer": {"config": {"l1": 0.0, "l2": 9.999999747378752e-05}, "class_name": "L1L2"}, "activity_regularizer": null, "kernel_size": [3, 3], "use_bias": true, "bias_constraint": null, "trainable": true, "strides": [1, 1], "bias_initializer": {"config": {}, "class_name": "Zeros"}, "name": "conv2d_74", "dilation_rate": [1, 1], "bias_regularizer": null, "data_format": "channels_last", "kernel_initializer": {"config": {"mode": "fan_avg", "scale": 1.0, "seed": null, "distribution": "uniform"}, "class_name": "VarianceScaling"}, "kernel_constraint": null}, "inbound_nodes": [[["activation_72", 0, 0, {}]]], "class_name": "Conv2D"}, {"name": "batch_normalization_182", "config": {"moving_variance_initializer": {"config": {}, "class_name": "Ones"}, "moving_mean_initializer": {"config": {}, "class_name": "Zeros"}, "axis": -1, "gamma_initializer": {"config": {}, "class_name": "Ones"}, "scale": true, "trainable": true, "beta_regularizer": null, "name": "batch_normalization_182", "epsilon": 0.001, "gamma_constraint": null, "momentum": 0.99, "center": true, "gamma_regularizer": null, "beta_initializer": {"config": {}, "class_name": "Zeros"}, "beta_constraint": null}, "inbound_nodes": [[["conv2d_74", 0, 0, {}]]], "class_name": "BatchNormalization"}, {"name": "add_90", "config": {"name": "add_90", "trainable": true}, "inbound_nodes": [[["activation_71", 0, 0, {}], ["batch_normalization_182", 0, 0, {}]]], "class_name": "Add"}, {"name": "activation_73", "config": {"name": "activation_73", "trainable": true, "activation": "relu"}, "inbound_nodes": [[["add_90", 0, 0, {}]]], "class_name": "Activation"}, {"name": "conv2d_75", "config": {"padding": "same", "activation": "linear", "filters": 37, "kernel_regularizer": {"config": {"l1": 0.0, "l2": 9.999999747378752e-05}, "class_name": "L1L2"}, "activity_regularizer": null, "kernel_size": [3, 3], "use_bias": true, "bias_constraint": null, "trainable": true, "strides": [2, 2], "bias_initializer": {"config": {}, "class_name": "Zeros"}, "name": "conv2d_75", "dilation_rate": [1, 1], "bias_regularizer": null, "data_format": "channels_last", "kernel_initializer": {"config": {"mode": "fan_avg", "scale": 1.0, "seed": null, "distribution": "uniform"}, "class_name": "VarianceScaling"}, "kernel_constraint": null}, "inbound_nodes": [[["activation_73", 0, 0, {}]]], "class_name": "Conv2D"}, {"name": "batch_normalization_183", "config": {"moving_variance_initializer": {"config": {}, "class_name": "Ones"}, "moving_mean_initializer": {"config": {}, "class_name": "Zeros"}, "axis": -1, "gamma_initializer": {"config": {}, "class_name": "Ones"}, "scale": true, "trainable": true, "beta_regularizer": null, "name": "batch_normalization_183", "epsilon": 0.001, "gamma_constraint": null, "momentum": 0.99, "center": true, "gamma_regularizer": null, "beta_initializer": {"config": {}, "class_name": "Zeros"}, "beta_constraint": null}, "inbound_nodes": [[["conv2d_75", 0, 0, {}]]], "class_name": "BatchNormalization"}, {"name": "activation_74", "config": {"name": "activation_74", "trainable": true, "activation": "relu"}, "inbound_nodes": [[["batch_normalization_183", 0, 0, {}]]], "class_name": "Activation"}, {"name": "conv2d_76", "config": {"padding": "same", "activation": "linear", "filters": 64, "kernel_regularizer": {"config": {"l1": 0.0, "l2": 9.999999747378752e-05}, "class_name": "L1L2"}, "activity_regularizer": null, "kernel_size": [3, 3], "use_bias": true, "bias_constraint": null, "trainable": true, "strides": [1, 1], "bias_initializer": {"config": {}, "class_name": "Zeros"}, "name": "conv2d_76", "dilation_rate": [1, 1], "bias_regularizer": null, "data_format": "channels_last", "kernel_initializer": {"config": {"mode": "fan_avg", "scale": 1.0, "seed": null, "distribution": "uniform"}, "class_name": "VarianceScaling"}, "kernel_constraint": null}, "inbound_nodes": [[["activation_74", 0, 0, {}]]], "class_name": "Conv2D"}, {"name": "conv2d_77", "config": {"padding": "same", "activation": "linear", "filters": 64, "kernel_regularizer": {"config": {"l1": 0.0, "l2": 9.999999747378752e-05}, "class_name": "L1L2"}, "activity_regularizer": null, "kernel_size": [1, 1], "use_bias": true, "bias_constraint": null, "trainable": true, "strides": [2, 2], "bias_initializer": {"config": {}, "class_name": "Zeros"}, "name": "conv2d_77", "dilation_rate": [1, 1], "bias_regularizer": null, "data_format": "channels_last", "kernel_initializer": {"config": {"mode": "fan_avg", "scale": 1.0, "seed": null, "distribution": "uniform"}, "class_name": "VarianceScaling"}, "kernel_constraint": null}, "inbound_nodes": [[["activation_73", 0, 0, {}]]], "class_name": "Conv2D"}, {"name": "batch_normalization_184", "config": {"moving_variance_initializer": {"config": {}, "class_name": "Ones"}, "moving_mean_initializer": {"config": {}, "class_name": "Zeros"}, "axis": -1, "gamma_initializer": {"config": {}, "class_name": "Ones"}, "scale": true, "trainable": true, "beta_regularizer": null, "name": "batch_normalization_184", "epsilon": 0.001, "gamma_constraint": null, "momentum": 0.99, "center": true, "gamma_regularizer": null, "beta_initializer": {"config": {}, "class_name": "Zeros"}, "beta_constraint": null}, "inbound_nodes": [[["conv2d_76", 0, 0, {}]]], "class_name": "BatchNormalization"}, {"name": "add_91", "config": {"name": "add_91", "trainable": true}, "inbound_nodes": [[["conv2d_77", 0, 0, {}], ["batch_normalization_184", 0, 0, {}]]], "class_name": "Add"}, {"name": "activation_75", "config": {"name": "activation_75", "trainable": true, "activation": "relu"}, "inbound_nodes": [[["add_91", 0, 0, {}]]], "class_name": "Activation"}, {"name": "conv2d_78", "config": {"padding": "same", "activation": "linear", "filters": 42, "kernel_regularizer": {"config": {"l1": 0.0, "l2": 9.999999747378752e-05}, "class_name": "L1L2"}, "activity_regularizer": null, "kernel_size": [3, 3], "use_bias": true, "bias_constraint": null, "trainable": true, "strides": [1, 1], "bias_initializer": {"config": {}, "class_name": "Zeros"}, "name": "conv2d_78", "dilation_rate": [1, 1], "bias_regularizer": null, "data_format": "channels_last", "kernel_initializer": {"config": {"mode": "fan_avg", "scale": 1.0, "seed": null, "distribution": "uniform"}, "class_name": "VarianceScaling"}, "kernel_constraint": null}, "inbound_nodes": [[["activation_75", 0, 0, {}]]], "class_name": "Conv2D"}, {"name": "batch_normalization_185", "config": {"moving_variance_initializer": {"config": {}, "class_name": "Ones"}, "moving_mean_initializer": {"config": {}, "class_name": "Zeros"}, "axis": -1, "gamma_initializer": {"config": {}, "class_name": "Ones"}, "scale": true, "trainable": true, "beta_regularizer": null, "name": "batch_normalization_185", "epsilon": 0.001, "gamma_constraint": null, "momentum": 0.99, "center": true, "gamma_regularizer": null, "beta_initializer": {"config": {}, "class_name": "Zeros"}, "beta_constraint": null}, "inbound_nodes": [[["conv2d_78", 0, 0, {}]]], "class_name": "BatchNormalization"}, {"name": "activation_76", "config": {"name": "activation_76", "trainable": true, "activation": "relu"}, "inbound_nodes": [[["batch_normalization_185", 0, 0, {}]]], "class_name": "Activation"}, {"name": "conv2d_79", "config": {"padding": "same", "activation": "linear", "filters": 64, "kernel_regularizer": {"config": {"l1": 0.0, "l2": 9.999999747378752e-05}, "class_name": "L1L2"}, "activity_regularizer": null, "kernel_size": [3, 3], "use_bias": true, "bias_constraint": null, "trainable": true, "strides": [1, 1], "bias_initializer": {"config": {}, "class_name": "Zeros"}, "name": "conv2d_79", "dilation_rate": [1, 1], "bias_regularizer": null, "data_format": "channels_last", "kernel_initializer": {"config": {"mode": "fan_avg", "scale": 1.0, "seed": null, "distribution": "uniform"}, "class_name": "VarianceScaling"}, "kernel_constraint": null}, "inbound_nodes": [[["activation_76", 0, 0, {}]]], "class_name": "Conv2D"}, {"name": "batch_normalization_186", "config": {"moving_variance_initializer": {"config": {}, "class_name": "Ones"}, "moving_mean_initializer": {"config": {}, "class_name": "Zeros"}, "axis": -1, "gamma_initializer": {"config": {}, "class_name": "Ones"}, "scale": true, "trainable": true, "beta_regularizer": null, "name": "batch_normalization_186", "epsilon": 0.001, "gamma_constraint": null, "momentum": 0.99, "center": true, "gamma_regularizer": null, "beta_initializer": {"config": {}, "class_name": "Zeros"}, "beta_constraint": null}, "inbound_nodes": [[["conv2d_79", 0, 0, {}]]], "class_name": "BatchNormalization"}, {"name": "add_92", "config": {"name": "add_92", "trainable": true}, "inbound_nodes": [[["activation_75", 0, 0, {}], ["batch_normalization_186", 0, 0, {}]]], "class_name": "Add"}, {"name": "activation_77", "config": {"name": "activation_77", "trainable": true, "activation": "relu"}, "inbound_nodes": [[["add_92", 0, 0, {}]]], "class_name": "Activation"}, {"name": "conv2d_80", "config": {"padding": "same", "activation": "linear", "filters": 39, "kernel_regularizer": {"config": {"l1": 0.0, "l2": 9.999999747378752e-05}, "class_name": "L1L2"}, "activity_regularizer": null, "kernel_size": [3, 3], "use_bias": true, "bias_constraint": null, "trainable": true, "strides": [1, 1], "bias_initializer": {"config": {}, "class_name": "Zeros"}, "name": "conv2d_80", "dilation_rate": [1, 1], "bias_regularizer": null, "data_format": "channels_last", "kernel_initializer": {"config": {"mode": "fan_avg", "scale": 1.0, "seed": null, "distribution": "uniform"}, "class_name": "VarianceScaling"}, "kernel_constraint": null}, "inbound_nodes": [[["activation_77", 0, 0, {}]]], "class_name": "Conv2D"}, {"name": "batch_normalization_187", "config": {"moving_variance_initializer": {"config": {}, "class_name": "Ones"}, "moving_mean_initializer": {"config": {}, "class_name": "Zeros"}, "axis": -1, "gamma_initializer": {"config": {}, "class_name": "Ones"}, "scale": true, "trainable": true, "beta_regularizer": null, "name": "batch_normalization_187", "epsilon": 0.001, "gamma_constraint": null, "momentum": 0.99, "center": true, "gamma_regularizer": null, "beta_initializer": {"config": {}, "class_name": "Zeros"}, "beta_constraint": null}, "inbound_nodes": [[["conv2d_80", 0, 0, {}]]], "class_name": "BatchNormalization"}, {"name": "activation_78", "config": {"name": "activation_78", "trainable": true, "activation": "relu"}, "inbound_nodes": [[["batch_normalization_187", 0, 0, {}]]], "class_name": "Activation"}, {"name": "conv2d_81", "config": {"padding": "same", "activation": "linear", "filters": 64, "kernel_regularizer": {"config": {"l1": 0.0, "l2": 9.999999747378752e-05}, "class_name": "L1L2"}, "activity_regularizer": null, "kernel_size": [3, 3], "use_bias": true, "bias_constraint": null, "trainable": true, "strides": [1, 1], "bias_initializer": {"config": {}, "class_name": "Zeros"}, "name": "conv2d_81", "dilation_rate": [1, 1], "bias_regularizer": null, "data_format": "channels_last", "kernel_initializer": {"config": {"mode": "fan_avg", "scale": 1.0, "seed": null, "distribution": "uniform"}, "class_name": "VarianceScaling"}, "kernel_constraint": null}, "inbound_nodes": [[["activation_78", 0, 0, {}]]], "class_name": "Conv2D"}, {"name": "batch_normalization_188", "config": {"moving_variance_initializer": {"config": {}, "class_name": "Ones"}, "moving_mean_initializer": {"config": {}, "class_name": "Zeros"}, "axis": -1, "gamma_initializer": {"config": {}, "class_name": "Ones"}, "scale": true, "trainable": true, "beta_regularizer": null, "name": "batch_normalization_188", "epsilon": 0.001, "gamma_constraint": null, "momentum": 0.99, "center": true, "gamma_regularizer": null, "beta_initializer": {"config": {}, "class_name": "Zeros"}, "beta_constraint": null}, "inbound_nodes": [[["conv2d_81", 0, 0, {}]]], "class_name": "BatchNormalization"}, {"name": "add_93", "config": {"name": "add_93", "trainable": true}, "inbound_nodes": [[["activation_77", 0, 0, {}], ["batch_normalization_188", 0, 0, {}]]], "class_name": "Add"}, {"name": "activation_79", "config": {"name": "activation_79", "trainable": true, "activation": "relu"}, "inbound_nodes": [[["add_93", 0, 0, {}]]], "class_name": "Activation"}, {"name": "conv2d_82", "config": {"padding": "same", "activation": "linear", "filters": 31, "kernel_regularizer": {"config": {"l1": 0.0, "l2": 9.999999747378752e-05}, "class_name": "L1L2"}, "activity_regularizer": null, "kernel_size": [3, 3], "use_bias": true, "bias_constraint": null, "trainable": true, "strides": [1, 1], "bias_initializer": {"config": {}, "class_name": "Zeros"}, "name": "conv2d_82", "dilation_rate": [1, 1], "bias_regularizer": null, "data_format": "channels_last", "kernel_initializer": {"config": {"mode": "fan_avg", "scale": 1.0, "seed": null, "distribution": "uniform"}, "class_name": "VarianceScaling"}, "kernel_constraint": null}, "inbound_nodes": [[["activation_79", 0, 0, {}]]], "class_name": "Conv2D"}, {"name": "batch_normalization_189", "config": {"moving_variance_initializer": {"config": {}, "class_name": "Ones"}, "moving_mean_initializer": {"config": {}, "class_name": "Zeros"}, "axis": -1, "gamma_initializer": {"config": {}, "class_name": "Ones"}, "scale": true, "trainable": true, "beta_regularizer": null, "name": "batch_normalization_189", "epsilon": 0.001, "gamma_constraint": null, "momentum": 0.99, "center": true, "gamma_regularizer": null, "beta_initializer": {"config": {}, "class_name": "Zeros"}, "beta_constraint": null}, "inbound_nodes": [[["conv2d_82", 0, 0, {}]]], "class_name": "BatchNormalization"}, {"name": "activation_80", "config": {"name": "activation_80", "trainable": true, "activation": "relu"}, "inbound_nodes": [[["batch_normalization_189", 0, 0, {}]]], "class_name": "Activation"}, {"name": "conv2d_83", "config": {"padding": "same", "activation": "linear", "filters": 64, "kernel_regularizer": {"config": {"l1": 0.0, "l2": 9.999999747378752e-05}, "class_name": "L1L2"}, "activity_regularizer": null, "kernel_size": [3, 3], "use_bias": true, "bias_constraint": null, "trainable": true, "strides": [1, 1], "bias_initializer": {"config": {}, "class_name": "Zeros"}, "name": "conv2d_83", "dilation_rate": [1, 1], "bias_regularizer": null, "data_format": "channels_last", "kernel_initializer": {"config": {"mode": "fan_avg", "scale": 1.0, "seed": null, "distribution": "uniform"}, "class_name": "VarianceScaling"}, "kernel_constraint": null}, "inbound_nodes": [[["activation_80", 0, 0, {}]]], "class_name": "Conv2D"}, {"name": "batch_normalization_190", "config": {"moving_variance_initializer": {"config": {}, "class_name": "Ones"}, "moving_mean_initializer": {"config": {}, "class_name": "Zeros"}, "axis": -1, "gamma_initializer": {"config": {}, "class_name": "Ones"}, "scale": true, "trainable": true, "beta_regularizer": null, "name": "batch_normalization_190", "epsilon": 0.001, "gamma_constraint": null, "momentum": 0.99, "center": true, "gamma_regularizer": null, "beta_initializer": {"config": {}, "class_name": "Zeros"}, "beta_constraint": null}, "inbound_nodes": [[["conv2d_83", 0, 0, {}]]], "class_name": "BatchNormalization"}, {"name": "add_94", "config": {"name": "add_94", "trainable": true}, "inbound_nodes": [[["activation_79", 0, 0, {}], ["batch_normalization_190", 0, 0, {}]]], "class_name": "Add"}, {"name": "activation_81", "config": {"name": "activation_81", "trainable": true, "activation": "relu"}, "inbound_nodes": [[["add_94", 0, 0, {}]]], "class_name": "Activation"}, {"name": "conv2d_84", "config": {"padding": "same", "activation": "linear", "filters": 28, "kernel_regularizer": {"config": {"l1": 0.0, "l2": 9.999999747378752e-05}, "class_name": "L1L2"}, "activity_regularizer": null, "kernel_size": [3, 3], "use_bias": true, "bias_constraint": null, "trainable": true, "strides": [1, 1], "bias_initializer": {"config": {}, "class_name": "Zeros"}, "name": "conv2d_84", "dilation_rate": [1, 1], "bias_regularizer": null, "data_format": "channels_last", "kernel_initializer": {"config": {"mode": "fan_avg", "scale": 1.0, "seed": null, "distribution": "uniform"}, "class_name": "VarianceScaling"}, "kernel_constraint": null}, "inbound_nodes": [[["activation_81", 0, 0, {}]]], "class_name": "Conv2D"}, {"name": "batch_normalization_191", "config": {"moving_variance_initializer": {"config": {}, "class_name": "Ones"}, "moving_mean_initializer": {"config": {}, "class_name": "Zeros"}, "axis": -1, "gamma_initializer": {"config": {}, "class_name": "Ones"}, "scale": true, "trainable": true, "beta_regularizer": null, "name": "batch_normalization_191", "epsilon": 0.001, "gamma_constraint": null, "momentum": 0.99, "center": true, "gamma_regularizer": null, "beta_initializer": {"config": {}, "class_name": "Zeros"}, "beta_constraint": null}, "inbound_nodes": [[["conv2d_84", 0, 0, {}]]], "class_name": "BatchNormalization"}, {"name": "activation_82", "config": {"name": "activation_82", "trainable": true, "activation": "relu"}, "inbound_nodes": [[["batch_normalization_191", 0, 0, {}]]], "class_name": "Activation"}, {"name": "conv2d_85", "config": {"padding": "same", "activation": "linear", "filters": 64, "kernel_regularizer": {"config": {"l1": 0.0, "l2": 9.999999747378752e-05}, "class_name": "L1L2"}, "activity_regularizer": null, "kernel_size": [3, 3], "use_bias": true, "bias_constraint": null, "trainable": true, "strides": [1, 1], "bias_initializer": {"config": {}, "class_name": "Zeros"}, "name": "conv2d_85", "dilation_rate": [1, 1], "bias_regularizer": null, "data_format": "channels_last", "kernel_initializer": {"config": {"mode": "fan_avg", "scale": 1.0, "seed": null, "distribution": "uniform"}, "class_name": "VarianceScaling"}, "kernel_constraint": null}, "inbound_nodes": [[["activation_82", 0, 0, {}]]], "class_name": "Conv2D"}, {"name": "batch_normalization_192", "config": {"moving_variance_initializer": {"config": {}, "class_name": "Ones"}, "moving_mean_initializer": {"config": {}, "class_name": "Zeros"}, "axis": -1, "gamma_initializer": {"config": {}, "class_name": "Ones"}, "scale": true, "trainable": true, "beta_regularizer": null, "name": "batch_normalization_192", "epsilon": 0.001, "gamma_constraint": null, "momentum": 0.99, "center": true, "gamma_regularizer": null, "beta_initializer": {"config": {}, "class_name": "Zeros"}, "beta_constraint": null}, "inbound_nodes": [[["conv2d_85", 0, 0, {}]]], "class_name": "BatchNormalization"}, {"name": "add_95", "config": {"name": "add_95", "trainable": true}, "inbound_nodes": [[["activation_81", 0, 0, {}], ["batch_normalization_192", 0, 0, {}]]], "class_name": "Add"}, {"name": "activation_83", "config": {"name": "activation_83", "trainable": true, "activation": "relu"}, "inbound_nodes": [[["add_95", 0, 0, {}]]], "class_name": "Activation"}, {"name": "conv2d_86", "config": {"padding": "same", "activation": "linear", "filters": 24, "kernel_regularizer": {"config": {"l1": 0.0, "l2": 9.999999747378752e-05}, "class_name": "L1L2"}, "activity_regularizer": null, "kernel_size": [3, 3], "use_bias": true, "bias_constraint": null, "trainable": true, "strides": [1, 1], "bias_initializer": {"config": {}, "class_name": "Zeros"}, "name": "conv2d_86", "dilation_rate": [1, 1], "bias_regularizer": null, "data_format": "channels_last", "kernel_initializer": {"config": {"mode": "fan_avg", "scale": 1.0, "seed": null, "distribution": "uniform"}, "class_name": "VarianceScaling"}, "kernel_constraint": null}, "inbound_nodes": [[["activation_83", 0, 0, {}]]], "class_name": "Conv2D"}, {"name": "batch_normalization_193", "config": {"moving_variance_initializer": {"config": {}, "class_name": "Ones"}, "moving_mean_initializer": {"config": {}, "class_name": "Zeros"}, "axis": -1, "gamma_initializer": {"config": {}, "class_name": "Ones"}, "scale": true, "trainable": true, "beta_regularizer": null, "name": "batch_normalization_193", "epsilon": 0.001, "gamma_constraint": null, "momentum": 0.99, "center": true, "gamma_regularizer": null, "beta_initializer": {"config": {}, "class_name": "Zeros"}, "beta_constraint": null}, "inbound_nodes": [[["conv2d_86", 0, 0, {}]]], "class_name": "BatchNormalization"}, {"name": "activation_84", "config": {"name": "activation_84", "trainable": true, "activation": "relu"}, "inbound_nodes": [[["batch_normalization_193", 0, 0, {}]]], "class_name": "Activation"}, {"name": "conv2d_87", "config": {"padding": "same", "activation": "linear", "filters": 64, "kernel_regularizer": {"config": {"l1": 0.0, "l2": 9.999999747378752e-05}, "class_name": "L1L2"}, "activity_regularizer": null, "kernel_size": [3, 3], "use_bias": true, "bias_constraint": null, "trainable": true, "strides": [1, 1], "bias_initializer": {"config": {}, "class_name": "Zeros"}, "name": "conv2d_87", "dilation_rate": [1, 1], "bias_regularizer": null, "data_format": "channels_last", "kernel_initializer": {"config": {"mode": "fan_avg", "scale": 1.0, "seed": null, "distribution": "uniform"}, "class_name": "VarianceScaling"}, "kernel_constraint": null}, "inbound_nodes": [[["activation_84", 0, 0, {}]]], "class_name": "Conv2D"}, {"name": "batch_normalization_194", "config": {"moving_variance_initializer": {"config": {}, "class_name": "Ones"}, "moving_mean_initializer": {"config": {}, "class_name": "Zeros"}, "axis": -1, "gamma_initializer": {"config": {}, "class_name": "Ones"}, "scale": true, "trainable": true, "beta_regularizer": null, "name": "batch_normalization_194", "epsilon": 0.001, "gamma_constraint": null, "momentum": 0.99, "center": true, "gamma_regularizer": null, "beta_initializer": {"config": {}, "class_name": "Zeros"}, "beta_constraint": null}, "inbound_nodes": [[["conv2d_87", 0, 0, {}]]], "class_name": "BatchNormalization"}, {"name": "add_96", "config": {"name": "add_96", "trainable": true}, "inbound_nodes": [[["activation_83", 0, 0, {}], ["batch_normalization_194", 0, 0, {}]]], "class_name": "Add"}, {"name": "activation_85", "config": {"name": "activation_85", "trainable": true, "activation": "relu"}, "inbound_nodes": [[["add_96", 0, 0, {}]]], "class_name": "Activation"}, {"name": "conv2d_88", "config": {"padding": "same", "activation": "linear", "filters": 27, "kernel_regularizer": {"config": {"l1": 0.0, "l2": 9.999999747378752e-05}, "class_name": "L1L2"}, "activity_regularizer": null, "kernel_size": [3, 3], "use_bias": true, "bias_constraint": null, "trainable": true, "strides": [1, 1], "bias_initializer": {"config": {}, "class_name": "Zeros"}, "name": "conv2d_88", "dilation_rate": [1, 1], "bias_regularizer": null, "data_format": "channels_last", "kernel_initializer": {"config": {"mode": "fan_avg", "scale": 1.0, "seed": null, "distribution": "uniform"}, "class_name": "VarianceScaling"}, "kernel_constraint": null}, "inbound_nodes": [[["activation_85", 0, 0, {}]]], "class_name": "Conv2D"}, {"name": "batch_normalization_195", "config": {"moving_variance_initializer": {"config": {}, "class_name": "Ones"}, "moving_mean_initializer": {"config": {}, "class_name": "Zeros"}, "axis": -1, "gamma_initializer": {"config": {}, "class_name": "Ones"}, "scale": true, "trainable": true, "beta_regularizer": null, "name": "batch_normalization_195", "epsilon": 0.001, "gamma_constraint": null, "momentum": 0.99, "center": true, "gamma_regularizer": null, "beta_initializer": {"config": {}, "class_name": "Zeros"}, "beta_constraint": null}, "inbound_nodes": [[["conv2d_88", 0, 0, {}]]], "class_name": "BatchNormalization"}, {"name": "activation_86", "config": {"name": "activation_86", "trainable": true, "activation": "relu"}, "inbound_nodes": [[["batch_normalization_195", 0, 0, {}]]], "class_name": "Activation"}, {"name": "conv2d_89", "config": {"padding": "same", "activation": "linear", "filters": 64, "kernel_regularizer": {"config": {"l1": 0.0, "l2": 9.999999747378752e-05}, "class_name": "L1L2"}, "activity_regularizer": null, "kernel_size": [3, 3], "use_bias": true, "bias_constraint": null, "trainable": true, "strides": [1, 1], "bias_initializer": {"config": {}, "class_name": "Zeros"}, "name": "conv2d_89", "dilation_rate": [1, 1], "bias_regularizer": null, "data_format": "channels_last", "kernel_initializer": {"config": {"mode": "fan_avg", "scale": 1.0, "seed": null, "distribution": "uniform"}, "class_name": "VarianceScaling"}, "kernel_constraint": null}, "inbound_nodes": [[["activation_86", 0, 0, {}]]], "class_name": "Conv2D"}, {"name": "batch_normalization_196", "config": {"moving_variance_initializer": {"config": {}, "class_name": "Ones"}, "moving_mean_initializer": {"config": {}, "class_name": "Zeros"}, "axis": -1, "gamma_initializer": {"config": {}, "class_name": "Ones"}, "scale": true, "trainable": true, "beta_regularizer": null, "name": "batch_normalization_196", "epsilon": 0.001, "gamma_constraint": null, "momentum": 0.99, "center": true, "gamma_regularizer": null, "beta_initializer": {"config": {}, "class_name": "Zeros"}, "beta_constraint": null}, "inbound_nodes": [[["conv2d_89", 0, 0, {}]]], "class_name": "BatchNormalization"}, {"name": "add_97", "config": {"name": "add_97", "trainable": true}, "inbound_nodes": [[["activation_85", 0, 0, {}], ["batch_normalization_196", 0, 0, {}]]], "class_name": "Add"}, {"name": "activation_87", "config": {"name": "activation_87", "trainable": true, "activation": "relu"}, "inbound_nodes": [[["add_97", 0, 0, {}]]], "class_name": "Activation"}, {"name": "conv2d_90", "config": {"padding": "same", "activation": "linear", "filters": 28, "kernel_regularizer": {"config": {"l1": 0.0, "l2": 9.999999747378752e-05}, "class_name": "L1L2"}, "activity_regularizer": null, "kernel_size": [3, 3], "use_bias": true, "bias_constraint": null, "trainable": true, "strides": [1, 1], "bias_initializer": {"config": {}, "class_name": "Zeros"}, "name": "conv2d_90", "dilation_rate": [1, 1], "bias_regularizer": null, "data_format": "channels_last", "kernel_initializer": {"config": {"mode": "fan_avg", "scale": 1.0, "seed": null, "distribution": "uniform"}, "class_name": "VarianceScaling"}, "kernel_constraint": null}, "inbound_nodes": [[["activation_87", 0, 0, {}]]], "class_name": "Conv2D"}, {"name": "batch_normalization_197", "config": {"moving_variance_initializer": {"config": {}, "class_name": "Ones"}, "moving_mean_initializer": {"config": {}, "class_name": "Zeros"}, "axis": -1, "gamma_initializer": {"config": {}, "class_name": "Ones"}, "scale": true, "trainable": true, "beta_regularizer": null, "name": "batch_normalization_197", "epsilon": 0.001, "gamma_constraint": null, "momentum": 0.99, "center": true, "gamma_regularizer": null, "beta_initializer": {"config": {}, "class_name": "Zeros"}, "beta_constraint": null}, "inbound_nodes": [[["conv2d_90", 0, 0, {}]]], "class_name": "BatchNormalization"}, {"name": "activation_88", "config": {"name": "activation_88", "trainable": true, "activation": "relu"}, "inbound_nodes": [[["batch_normalization_197", 0, 0, {}]]], "class_name": "Activation"}, {"name": "conv2d_91", "config": {"padding": "same", "activation": "linear", "filters": 64, "kernel_regularizer": {"config": {"l1": 0.0, "l2": 9.999999747378752e-05}, "class_name": "L1L2"}, "activity_regularizer": null, "kernel_size": [3, 3], "use_bias": true, "bias_constraint": null, "trainable": true, "strides": [1, 1], "bias_initializer": {"config": {}, "class_name": "Zeros"}, "name": "conv2d_91", "dilation_rate": [1, 1], "bias_regularizer": null, "data_format": "channels_last", "kernel_initializer": {"config": {"mode": "fan_avg", "scale": 1.0, "seed": null, "distribution": "uniform"}, "class_name": "VarianceScaling"}, "kernel_constraint": null}, "inbound_nodes": [[["activation_88", 0, 0, {}]]], "class_name": "Conv2D"}, {"name": "batch_normalization_198", "config": {"moving_variance_initializer": {"config": {}, "class_name": "Ones"}, "moving_mean_initializer": {"config": {}, "class_name": "Zeros"}, "axis": -1, "gamma_initializer": {"config": {}, "class_name": "Ones"}, "scale": true, "trainable": true, "beta_regularizer": null, "name": "batch_normalization_198", "epsilon": 0.001, "gamma_constraint": null, "momentum": 0.99, "center": true, "gamma_regularizer": null, "beta_initializer": {"config": {}, "class_name": "Zeros"}, "beta_constraint": null}, "inbound_nodes": [[["conv2d_91", 0, 0, {}]]], "class_name": "BatchNormalization"}, {"name": "add_98", "config": {"name": "add_98", "trainable": true}, "inbound_nodes": [[["activation_87", 0, 0, {}], ["batch_normalization_198", 0, 0, {}]]], "class_name": "Add"}, {"name": "activation_89", "config": {"name": "activation_89", "trainable": true, "activation": "relu"}, "inbound_nodes": [[["add_98", 0, 0, {}]]], "class_name": "Activation"}, {"name": "conv2d_92", "config": {"padding": "same", "activation": "linear", "filters": 28, "kernel_regularizer": {"config": {"l1": 0.0, "l2": 9.999999747378752e-05}, "class_name": "L1L2"}, "activity_regularizer": null, "kernel_size": [3, 3], "use_bias": true, "bias_constraint": null, "trainable": true, "strides": [1, 1], "bias_initializer": {"config": {}, "class_name": "Zeros"}, "name": "conv2d_92", "dilation_rate": [1, 1], "bias_regularizer": null, "data_format": "channels_last", "kernel_initializer": {"config": {"mode": "fan_avg", "scale": 1.0, "seed": null, "distribution": "uniform"}, "class_name": "VarianceScaling"}, "kernel_constraint": null}, "inbound_nodes": [[["activation_89", 0, 0, {}]]], "class_name": "Conv2D"}, {"name": "batch_normalization_199", "config": {"moving_variance_initializer": {"config": {}, "class_name": "Ones"}, "moving_mean_initializer": {"config": {}, "class_name": "Zeros"}, "axis": -1, "gamma_initializer": {"config": {}, "class_name": "Ones"}, "scale": true, "trainable": true, "beta_regularizer": null, "name": "batch_normalization_199", "epsilon": 0.001, "gamma_constraint": null, "momentum": 0.99, "center": true, "gamma_regularizer": null, "beta_initializer": {"config": {}, "class_name": "Zeros"}, "beta_constraint": null}, "inbound_nodes": [[["conv2d_92", 0, 0, {}]]], "class_name": "BatchNormalization"}, {"name": "activation_90", "config": {"name": "activation_90", "trainable": true, "activation": "relu"}, "inbound_nodes": [[["batch_normalization_199", 0, 0, {}]]], "class_name": "Activation"}, {"name": "conv2d_93", "config": {"padding": "same", "activation": "linear", "filters": 64, "kernel_regularizer": {"config": {"l1": 0.0, "l2": 9.999999747378752e-05}, "class_name": "L1L2"}, "activity_regularizer": null, "kernel_size": [3, 3], "use_bias": true, "bias_constraint": null, "trainable": true, "strides": [1, 1], "bias_initializer": {"config": {}, "class_name": "Zeros"}, "name": "conv2d_93", "dilation_rate": [1, 1], "bias_regularizer": null, "data_format": "channels_last", "kernel_initializer": {"config": {"mode": "fan_avg", "scale": 1.0, "seed": null, "distribution": "uniform"}, "class_name": "VarianceScaling"}, "kernel_constraint": null}, "inbound_nodes": [[["activation_90", 0, 0, {}]]], "class_name": "Conv2D"}, {"name": "batch_normalization_200", "config": {"moving_variance_initializer": {"config": {}, "class_name": "Ones"}, "moving_mean_initializer": {"config": {}, "class_name": "Zeros"}, "axis": -1, "gamma_initializer": {"config": {}, "class_name": "Ones"}, "scale": true, "trainable": true, "beta_regularizer": null, "name": "batch_normalization_200", "epsilon": 0.001, "gamma_constraint": null, "momentum": 0.99, "center": true, "gamma_regularizer": null, "beta_initializer": {"config": {}, "class_name": "Zeros"}, "beta_constraint": null}, "inbound_nodes": [[["conv2d_93", 0, 0, {}]]], "class_name": "BatchNormalization"}, {"name": "add_99", "config": {"name": "add_99", "trainable": true}, "inbound_nodes": [[["activation_89", 0, 0, {}], ["batch_normalization_200", 0, 0, {}]]], "class_name": "Add"}, {"name": "activation_91", "config": {"name": "activation_91", "trainable": true, "activation": "relu"}, "inbound_nodes": [[["add_99", 0, 0, {}]]], "class_name": "Activation"}, {"name": "conv2d_94", "config": {"padding": "same", "activation": "linear", "filters": 28, "kernel_regularizer": {"config": {"l1": 0.0, "l2": 9.999999747378752e-05}, "class_name": "L1L2"}, "activity_regularizer": null, "kernel_size": [3, 3], "use_bias": true, "bias_constraint": null, "trainable": true, "strides": [1, 1], "bias_initializer": {"config": {}, "class_name": "Zeros"}, "name": "conv2d_94", "dilation_rate": [1, 1], "bias_regularizer": null, "data_format": "channels_last", "kernel_initializer": {"config": {"mode": "fan_avg", "scale": 1.0, "seed": null, "distribution": "uniform"}, "class_name": "VarianceScaling"}, "kernel_constraint": null}, "inbound_nodes": [[["activation_91", 0, 0, {}]]], "class_name": "Conv2D"}, {"name": "batch_normalization_201", "config": {"moving_variance_initializer": {"config": {}, "class_name": "Ones"}, "moving_mean_initializer": {"config": {}, "class_name": "Zeros"}, "axis": -1, "gamma_initializer": {"config": {}, "class_name": "Ones"}, "scale": true, "trainable": true, "beta_regularizer": null, "name": "batch_normalization_201", "epsilon": 0.001, "gamma_constraint": null, "momentum": 0.99, "center": true, "gamma_regularizer": null, "beta_initializer": {"config": {}, "class_name": "Zeros"}, "beta_constraint": null}, "inbound_nodes": [[["conv2d_94", 0, 0, {}]]], "class_name": "BatchNormalization"}, {"name": "activation_92", "config": {"name": "activation_92", "trainable": true, "activation": "relu"}, "inbound_nodes": [[["batch_normalization_201", 0, 0, {}]]], "class_name": "Activation"}, {"name": "conv2d_95", "config": {"padding": "same", "activation": "linear", "filters": 64, "kernel_regularizer": {"config": {"l1": 0.0, "l2": 9.999999747378752e-05}, "class_name": "L1L2"}, "activity_regularizer": null, "kernel_size": [3, 3], "use_bias": true, "bias_constraint": null, "trainable": true, "strides": [1, 1], "bias_initializer": {"config": {}, "class_name": "Zeros"}, "name": "conv2d_95", "dilation_rate": [1, 1], "bias_regularizer": null, "data_format": "channels_last", "kernel_initializer": {"config": {"mode": "fan_avg", "scale": 1.0, "seed": null, "distribution": "uniform"}, "class_name": "VarianceScaling"}, "kernel_constraint": null}, "inbound_nodes": [[["activation_92", 0, 0, {}]]], "class_name": "Conv2D"}, {"name": "batch_normalization_202", "config": {"moving_variance_initializer": {"config": {}, "class_name": "Ones"}, "moving_mean_initializer": {"config": {}, "class_name": "Zeros"}, "axis": -1, "gamma_initializer": {"config": {}, "class_name": "Ones"}, "scale": true, "trainable": true, "beta_regularizer": null, "name": "batch_normalization_202", "epsilon": 0.001, "gamma_constraint": null, "momentum": 0.99, "center": true, "gamma_regularizer": null, "beta_initializer": {"config": {}, "class_name": "Zeros"}, "beta_constraint": null}, "inbound_nodes": [[["conv2d_95", 0, 0, {}]]], "class_name": "BatchNormalization"}, {"name": "add_100", "config": {"name": "add_100", "trainable": true}, "inbound_nodes": [[["activation_91", 0, 0, {}], ["batch_normalization_202", 0, 0, {}]]], "class_name": "Add"}, {"name": "activation_93", "config": {"name": "activation_93", "trainable": true, "activation": "relu"}, "inbound_nodes": [[["add_100", 0, 0, {}]]], "class_name": "Activation"}, {"name": "conv2d_96", "config": {"padding": "same", "activation": "linear", "filters": 25, "kernel_regularizer": {"config": {"l1": 0.0, "l2": 9.999999747378752e-05}, "class_name": "L1L2"}, "activity_regularizer": null, "kernel_size": [3, 3], "use_bias": true, "bias_constraint": null, "trainable": true, "strides": [1, 1], "bias_initializer": {"config": {}, "class_name": "Zeros"}, "name": "conv2d_96", "dilation_rate": [1, 1], "bias_regularizer": null, "data_format": "channels_last", "kernel_initializer": {"config": {"mode": "fan_avg", "scale": 1.0, "seed": null, "distribution": "uniform"}, "class_name": "VarianceScaling"}, "kernel_constraint": null}, "inbound_nodes": [[["activation_93", 0, 0, {}]]], "class_name": "Conv2D"}, {"name": "batch_normalization_203", "config": {"moving_variance_initializer": {"config": {}, "class_name": "Ones"}, "moving_mean_initializer": {"config": {}, "class_name": "Zeros"}, "axis": -1, "gamma_initializer": {"config": {}, "class_name": "Ones"}, "scale": true, "trainable": true, "beta_regularizer": null, "name": "batch_normalization_203", "epsilon": 0.001, "gamma_constraint": null, "momentum": 0.99, "center": true, "gamma_regularizer": null, "beta_initializer": {"config": {}, "class_name": "Zeros"}, "beta_constraint": null}, "inbound_nodes": [[["conv2d_96", 0, 0, {}]]], "class_name": "BatchNormalization"}, {"name": "activation_94", "config": {"name": "activation_94", "trainable": true, "activation": "relu"}, "inbound_nodes": [[["batch_normalization_203", 0, 0, {}]]], "class_name": "Activation"}, {"name": "conv2d_97", "config": {"padding": "same", "activation": "linear", "filters": 64, "kernel_regularizer": {"config": {"l1": 0.0, "l2": 9.999999747378752e-05}, "class_name": "L1L2"}, "activity_regularizer": null, "kernel_size": [3, 3], "use_bias": true, "bias_constraint": null, "trainable": true, "strides": [1, 1], "bias_initializer": {"config": {}, "class_name": "Zeros"}, "name": "conv2d_97", "dilation_rate": [1, 1], "bias_regularizer": null, "data_format": "channels_last", "kernel_initializer": {"config": {"mode": "fan_avg", "scale": 1.0, "seed": null, "distribution": "uniform"}, "class_name": "VarianceScaling"}, "kernel_constraint": null}, "inbound_nodes": [[["activation_94", 0, 0, {}]]], "class_name": "Conv2D"}, {"name": "batch_normalization_204", "config": {"moving_variance_initializer": {"config": {}, "class_name": "Ones"}, "moving_mean_initializer": {"config": {}, "class_name": "Zeros"}, "axis": -1, "gamma_initializer": {"config": {}, "class_name": "Ones"}, "scale": true, "trainable": true, "beta_regularizer": null, "name": "batch_normalization_204", "epsilon": 0.001, "gamma_constraint": null, "momentum": 0.99, "center": true, "gamma_regularizer": null, "beta_initializer": {"config": {}, "class_name": "Zeros"}, "beta_constraint": null}, "inbound_nodes": [[["conv2d_97", 0, 0, {}]]], "class_name": "BatchNormalization"}, {"name": "add_101", "config": {"name": "add_101", "trainable": true}, "inbound_nodes": [[["activation_93", 0, 0, {}], ["batch_normalization_204", 0, 0, {}]]], "class_name": "Add"}, {"name": "activation_95", "config": {"name": "activation_95", "trainable": true, "activation": "relu"}, "inbound_nodes": [[["add_101", 0, 0, {}]]], "class_name": "Activation"}, {"name": "conv2d_98", "config": {"padding": "same", "activation": "linear", "filters": 25, "kernel_regularizer": {"config": {"l1": 0.0, "l2": 9.999999747378752e-05}, "class_name": "L1L2"}, "activity_regularizer": null, "kernel_size": [3, 3], "use_bias": true, "bias_constraint": null, "trainable": true, "strides": [1, 1], "bias_initializer": {"config": {}, "class_name": "Zeros"}, "name": "conv2d_98", "dilation_rate": [1, 1], "bias_regularizer": null, "data_format": "channels_last", "kernel_initializer": {"config": {"mode": "fan_avg", "scale": 1.0, "seed": null, "distribution": "uniform"}, "class_name": "VarianceScaling"}, "kernel_constraint": null}, "inbound_nodes": [[["activation_95", 0, 0, {}]]], "class_name": "Conv2D"}, {"name": "batch_normalization_205", "config": {"moving_variance_initializer": {"config": {}, "class_name": "Ones"}, "moving_mean_initializer": {"config": {}, "class_name": "Zeros"}, "axis": -1, "gamma_initializer": {"config": {}, "class_name": "Ones"}, "scale": true, "trainable": true, "beta_regularizer": null, "name": "batch_normalization_205", "epsilon": 0.001, "gamma_constraint": null, "momentum": 0.99, "center": true, "gamma_regularizer": null, "beta_initializer": {"config": {}, "class_name": "Zeros"}, "beta_constraint": null}, "inbound_nodes": [[["conv2d_98", 0, 0, {}]]], "class_name": "BatchNormalization"}, {"name": "activation_96", "config": {"name": "activation_96", "trainable": true, "activation": "relu"}, "inbound_nodes": [[["batch_normalization_205", 0, 0, {}]]], "class_name": "Activation"}, {"name": "conv2d_99", "config": {"padding": "same", "activation": "linear", "filters": 64, "kernel_regularizer": {"config": {"l1": 0.0, "l2": 9.999999747378752e-05}, "class_name": "L1L2"}, "activity_regularizer": null, "kernel_size": [3, 3], "use_bias": true, "bias_constraint": null, "trainable": true, "strides": [1, 1], "bias_initializer": {"config": {}, "class_name": "Zeros"}, "name": "conv2d_99", "dilation_rate": [1, 1], "bias_regularizer": null, "data_format": "channels_last", "kernel_initializer": {"config": {"mode": "fan_avg", "scale": 1.0, "seed": null, "distribution": "uniform"}, "class_name": "VarianceScaling"}, "kernel_constraint": null}, "inbound_nodes": [[["activation_96", 0, 0, {}]]], "class_name": "Conv2D"}, {"name": "batch_normalization_206", "config": {"moving_variance_initializer": {"config": {}, "class_name": "Ones"}, "moving_mean_initializer": {"config": {}, "class_name": "Zeros"}, "axis": -1, "gamma_initializer": {"config": {}, "class_name": "Ones"}, "scale": true, "trainable": true, "beta_regularizer": null, "name": "batch_normalization_206", "epsilon": 0.001, "gamma_constraint": null, "momentum": 0.99, "center": true, "gamma_regularizer": null, "beta_initializer": {"config": {}, "class_name": "Zeros"}, "beta_constraint": null}, "inbound_nodes": [[["conv2d_99", 0, 0, {}]]], "class_name": "BatchNormalization"}, {"name": "add_102", "config": {"name": "add_102", "trainable": true}, "inbound_nodes": [[["activation_95", 0, 0, {}], ["batch_normalization_206", 0, 0, {}]]], "class_name": "Add"}, {"name": "activation_97", "config": {"name": "activation_97", "trainable": true, "activation": "relu"}, "inbound_nodes": [[["add_102", 0, 0, {}]]], "class_name": "Activation"}, {"name": "conv2d_100", "config": {"padding": "same", "activation": "linear", "filters": 18, "kernel_regularizer": {"config": {"l1": 0.0, "l2": 9.999999747378752e-05}, "class_name": "L1L2"}, "activity_regularizer": null, "kernel_size": [3, 3], "use_bias": true, "bias_constraint": null, "trainable": true, "strides": [1, 1], "bias_initializer": {"config": {}, "class_name": "Zeros"}, "name": "conv2d_100", "dilation_rate": [1, 1], "bias_regularizer": null, "data_format": "channels_last", "kernel_initializer": {"config": {"mode": "fan_avg", "scale": 1.0, "seed": null, "distribution": "uniform"}, "class_name": "VarianceScaling"}, "kernel_constraint": null}, "inbound_nodes": [[["activation_97", 0, 0, {}]]], "class_name": "Conv2D"}, {"name": "batch_normalization_207", "config": {"moving_variance_initializer": {"config": {}, "class_name": "Ones"}, "moving_mean_initializer": {"config": {}, "class_name": "Zeros"}, "axis": -1, "gamma_initializer": {"config": {}, "class_name": "Ones"}, "scale": true, "trainable": true, "beta_regularizer": null, "name": "batch_normalization_207", "epsilon": 0.001, "gamma_constraint": null, "momentum": 0.99, "center": true, "gamma_regularizer": null, "beta_initializer": {"config": {}, "class_name": "Zeros"}, "beta_constraint": null}, "inbound_nodes": [[["conv2d_100", 0, 0, {}]]], "class_name": "BatchNormalization"}, {"name": "activation_98", "config": {"name": "activation_98", "trainable": true, "activation": "relu"}, "inbound_nodes": [[["batch_normalization_207", 0, 0, {}]]], "class_name": "Activation"}, {"name": "conv2d_101", "config": {"padding": "same", "activation": "linear", "filters": 64, "kernel_regularizer": {"config": {"l1": 0.0, "l2": 9.999999747378752e-05}, "class_name": "L1L2"}, "activity_regularizer": null, "kernel_size": [3, 3], "use_bias": true, "bias_constraint": null, "trainable": true, "strides": [1, 1], "bias_initializer": {"config": {}, "class_name": "Zeros"}, "name": "conv2d_101", "dilation_rate": [1, 1], "bias_regularizer": null, "data_format": "channels_last", "kernel_initializer": {"config": {"mode": "fan_avg", "scale": 1.0, "seed": null, "distribution": "uniform"}, "class_name": "VarianceScaling"}, "kernel_constraint": null}, "inbound_nodes": [[["activation_98", 0, 0, {}]]], "class_name": "Conv2D"}, {"name": "batch_normalization_208", "config": {"moving_variance_initializer": {"config": {}, "class_name": "Ones"}, "moving_mean_initializer": {"config": {}, "class_name": "Zeros"}, "axis": -1, "gamma_initializer": {"config": {}, "class_name": "Ones"}, "scale": true, "trainable": true, "beta_regularizer": null, "name": "batch_normalization_208", "epsilon": 0.001, "gamma_constraint": null, "momentum": 0.99, "center": true, "gamma_regularizer": null, "beta_initializer": {"config": {}, "class_name": "Zeros"}, "beta_constraint": null}, "inbound_nodes": [[["conv2d_101", 0, 0, {}]]], "class_name": "BatchNormalization"}, {"name": "add_103", "config": {"name": "add_103", "trainable": true}, "inbound_nodes": [[["activation_97", 0, 0, {}], ["batch_normalization_208", 0, 0, {}]]], "class_name": "Add"}, {"name": "activation_99", "config": {"name": "activation_99", "trainable": true, "activation": "relu"}, "inbound_nodes": [[["add_103", 0, 0, {}]]], "class_name": "Activation"}, {"name": "conv2d_102", "config": {"padding": "same", "activation": "linear", "filters": 27, "kernel_regularizer": {"config": {"l1": 0.0, "l2": 9.999999747378752e-05}, "class_name": "L1L2"}, "activity_regularizer": null, "kernel_size": [3, 3], "use_bias": true, "bias_constraint": null, "trainable": true, "strides": [1, 1], "bias_initializer": {"config": {}, "class_name": "Zeros"}, "name": "conv2d_102", "dilation_rate": [1, 1], "bias_regularizer": null, "data_format": "channels_last", "kernel_initializer": {"config": {"mode": "fan_avg", "scale": 1.0, "seed": null, "distribution": "uniform"}, "class_name": "VarianceScaling"}, "kernel_constraint": null}, "inbound_nodes": [[["activation_99", 0, 0, {}]]], "class_name": "Conv2D"}, {"name": "batch_normalization_209", "config": {"moving_variance_initializer": {"config": {}, "class_name": "Ones"}, "moving_mean_initializer": {"config": {}, "class_name": "Zeros"}, "axis": -1, "gamma_initializer": {"config": {}, "class_name": "Ones"}, "scale": true, "trainable": true, "beta_regularizer": null, "name": "batch_normalization_209", "epsilon": 0.001, "gamma_constraint": null, "momentum": 0.99, "center": true, "gamma_regularizer": null, "beta_initializer": {"config": {}, "class_name": "Zeros"}, "beta_constraint": null}, "inbound_nodes": [[["conv2d_102", 0, 0, {}]]], "class_name": "BatchNormalization"}, {"name": "activation_100", "config": {"name": "activation_100", "trainable": true, "activation": "relu"}, "inbound_nodes": [[["batch_normalization_209", 0, 0, {}]]], "class_name": "Activation"}, {"name": "conv2d_103", "config": {"padding": "same", "activation": "linear", "filters": 64, "kernel_regularizer": {"config": {"l1": 0.0, "l2": 9.999999747378752e-05}, "class_name": "L1L2"}, "activity_regularizer": null, "kernel_size": [3, 3], "use_bias": true, "bias_constraint": null, "trainable": true, "strides": [1, 1], "bias_initializer": {"config": {}, "class_name": "Zeros"}, "name": "conv2d_103", "dilation_rate": [1, 1], "bias_regularizer": null, "data_format": "channels_last", "kernel_initializer": {"config": {"mode": "fan_avg", "scale": 1.0, "seed": null, "distribution": "uniform"}, "class_name": "VarianceScaling"}, "kernel_constraint": null}, "inbound_nodes": [[["activation_100", 0, 0, {}]]], "class_name": "Conv2D"}, {"name": "batch_normalization_210", "config": {"moving_variance_initializer": {"config": {}, "class_name": "Ones"}, "moving_mean_initializer": {"config": {}, "class_name": "Zeros"}, "axis": -1, "gamma_initializer": {"config": {}, "class_name": "Ones"}, "scale": true, "trainable": true, "beta_regularizer": null, "name": "batch_normalization_210", "epsilon": 0.001, "gamma_constraint": null, "momentum": 0.99, "center": true, "gamma_regularizer": null, "beta_initializer": {"config": {}, "class_name": "Zeros"}, "beta_constraint": null}, "inbound_nodes": [[["conv2d_103", 0, 0, {}]]], "class_name": "BatchNormalization"}, {"name": "add_104", "config": {"name": "add_104", "trainable": true}, "inbound_nodes": [[["activation_99", 0, 0, {}], ["batch_normalization_210", 0, 0, {}]]], "class_name": "Add"}, {"name": "activation_101", "config": {"name": "activation_101", "trainable": true, "activation": "relu"}, "inbound_nodes": [[["add_104", 0, 0, {}]]], "class_name": "Activation"}, {"name": "conv2d_104", "config": {"padding": "same", "activation": "linear", "filters": 30, "kernel_regularizer": {"config": {"l1": 0.0, "l2": 9.999999747378752e-05}, "class_name": "L1L2"}, "activity_regularizer": null, "kernel_size": [3, 3], "use_bias": true, "bias_constraint": null, "trainable": true, "strides": [1, 1], "bias_initializer": {"config": {}, "class_name": "Zeros"}, "name": "conv2d_104", "dilation_rate": [1, 1], "bias_regularizer": null, "data_format": "channels_last", "kernel_initializer": {"config": {"mode": "fan_avg", "scale": 1.0, "seed": null, "distribution": "uniform"}, "class_name": "VarianceScaling"}, "kernel_constraint": null}, "inbound_nodes": [[["activation_101", 0, 0, {}]]], "class_name": "Conv2D"}, {"name": "batch_normalization_211", "config": {"moving_variance_initializer": {"config": {}, "class_name": "Ones"}, "moving_mean_initializer": {"config": {}, "class_name": "Zeros"}, "axis": -1, "gamma_initializer": {"config": {}, "class_name": "Ones"}, "scale": true, "trainable": true, "beta_regularizer": null, "name": "batch_normalization_211", "epsilon": 0.001, "gamma_constraint": null, "momentum": 0.99, "center": true, "gamma_regularizer": null, "beta_initializer": {"config": {}, "class_name": "Zeros"}, "beta_constraint": null}, "inbound_nodes": [[["conv2d_104", 0, 0, {}]]], "class_name": "BatchNormalization"}, {"name": "activation_102", "config": {"name": "activation_102", "trainable": true, "activation": "relu"}, "inbound_nodes": [[["batch_normalization_211", 0, 0, {}]]], "class_name": "Activation"}, {"name": "conv2d_105", "config": {"padding": "same", "activation": "linear", "filters": 64, "kernel_regularizer": {"config": {"l1": 0.0, "l2": 9.999999747378752e-05}, "class_name": "L1L2"}, "activity_regularizer": null, "kernel_size": [3, 3], "use_bias": true, "bias_constraint": null, "trainable": true, "strides": [1, 1], "bias_initializer": {"config": {}, "class_name": "Zeros"}, "name": "conv2d_105", "dilation_rate": [1, 1], "bias_regularizer": null, "data_format": "channels_last", "kernel_initializer": {"config": {"mode": "fan_avg", "scale": 1.0, "seed": null, "distribution": "uniform"}, "class_name": "VarianceScaling"}, "kernel_constraint": null}, "inbound_nodes": [[["activation_102", 0, 0, {}]]], "class_name": "Conv2D"}, {"name": "batch_normalization_212", "config": {"moving_variance_initializer": {"config": {}, "class_name": "Ones"}, "moving_mean_initializer": {"config": {}, "class_name": "Zeros"}, "axis": -1, "gamma_initializer": {"config": {}, "class_name": "Ones"}, "scale": true, "trainable": true, "beta_regularizer": null, "name": "batch_normalization_212", "epsilon": 0.001, "gamma_constraint": null, "momentum": 0.99, "center": true, "gamma_regularizer": null, "beta_initializer": {"config": {}, "class_name": "Zeros"}, "beta_constraint": null}, "inbound_nodes": [[["conv2d_105", 0, 0, {}]]], "class_name": "BatchNormalization"}, {"name": "add_105", "config": {"name": "add_105", "trainable": true}, "inbound_nodes": [[["activation_101", 0, 0, {}], ["batch_normalization_212", 0, 0, {}]]], "class_name": "Add"}, {"name": "activation_103", "config": {"name": "activation_103", "trainable": true, "activation": "relu"}, "inbound_nodes": [[["add_105", 0, 0, {}]]], "class_name": "Activation"}, {"name": "conv2d_106", "config": {"padding": "same", "activation": "linear", "filters": 36, "kernel_regularizer": {"config": {"l1": 0.0, "l2": 9.999999747378752e-05}, "class_name": "L1L2"}, "activity_regularizer": null, "kernel_size": [3, 3], "use_bias": true, "bias_constraint": null, "trainable": true, "strides": [1, 1], "bias_initializer": {"config": {}, "class_name": "Zeros"}, "name": "conv2d_106", "dilation_rate": [1, 1], "bias_regularizer": null, "data_format": "channels_last", "kernel_initializer": {"config": {"mode": "fan_avg", "scale": 1.0, "seed": null, "distribution": "uniform"}, "class_name": "VarianceScaling"}, "kernel_constraint": null}, "inbound_nodes": [[["activation_103", 0, 0, {}]]], "class_name": "Conv2D"}, {"name": "batch_normalization_213", "config": {"moving_variance_initializer": {"config": {}, "class_name": "Ones"}, "moving_mean_initializer": {"config": {}, "class_name": "Zeros"}, "axis": -1, "gamma_initializer": {"config": {}, "class_name": "Ones"}, "scale": true, "trainable": true, "beta_regularizer": null, "name": "batch_normalization_213", "epsilon": 0.001, "gamma_constraint": null, "momentum": 0.99, "center": true, "gamma_regularizer": null, "beta_initializer": {"config": {}, "class_name": "Zeros"}, "beta_constraint": null}, "inbound_nodes": [[["conv2d_106", 0, 0, {}]]], "class_name": "BatchNormalization"}, {"name": "activation_104", "config": {"name": "activation_104", "trainable": true, "activation": "relu"}, "inbound_nodes": [[["batch_normalization_213", 0, 0, {}]]], "class_name": "Activation"}, {"name": "conv2d_107", "config": {"padding": "same", "activation": "linear", "filters": 64, "kernel_regularizer": {"config": {"l1": 0.0, "l2": 9.999999747378752e-05}, "class_name": "L1L2"}, "activity_regularizer": null, "kernel_size": [3, 3], "use_bias": true, "bias_constraint": null, "trainable": true, "strides": [1, 1], "bias_initializer": {"config": {}, "class_name": "Zeros"}, "name": "conv2d_107", "dilation_rate": [1, 1], "bias_regularizer": null, "data_format": "channels_last", "kernel_initializer": {"config": {"mode": "fan_avg", "scale": 1.0, "seed": null, "distribution": "uniform"}, "class_name": "VarianceScaling"}, "kernel_constraint": null}, "inbound_nodes": [[["activation_104", 0, 0, {}]]], "class_name": "Conv2D"}, {"name": "batch_normalization_214", "config": {"moving_variance_initializer": {"config": {}, "class_name": "Ones"}, "moving_mean_initializer": {"config": {}, "class_name": "Zeros"}, "axis": -1, "gamma_initializer": {"config": {}, "class_name": "Ones"}, "scale": true, "trainable": true, "beta_regularizer": null, "name": "batch_normalization_214", "epsilon": 0.001, "gamma_constraint": null, "momentum": 0.99, "center": true, "gamma_regularizer": null, "beta_initializer": {"config": {}, "class_name": "Zeros"}, "beta_constraint": null}, "inbound_nodes": [[["conv2d_107", 0, 0, {}]]], "class_name": "BatchNormalization"}, {"name": "add_106", "config": {"name": "add_106", "trainable": true}, "inbound_nodes": [[["activation_103", 0, 0, {}], ["batch_normalization_214", 0, 0, {}]]], "class_name": "Add"}, {"name": "activation_105", "config": {"name": "activation_105", "trainable": true, "activation": "relu"}, "inbound_nodes": [[["add_106", 0, 0, {}]]], "class_name": "Activation"}, {"name": "conv2d_108", "config": {"padding": "same", "activation": "linear", "filters": 37, "kernel_regularizer": {"config": {"l1": 0.0, "l2": 9.999999747378752e-05}, "class_name": "L1L2"}, "activity_regularizer": null, "kernel_size": [3, 3], "use_bias": true, "bias_constraint": null, "trainable": true, "strides": [1, 1], "bias_initializer": {"config": {}, "class_name": "Zeros"}, "name": "conv2d_108", "dilation_rate": [1, 1], "bias_regularizer": null, "data_format": "channels_last", "kernel_initializer": {"config": {"mode": "fan_avg", "scale": 1.0, "seed": null, "distribution": "uniform"}, "class_name": "VarianceScaling"}, "kernel_constraint": null}, "inbound_nodes": [[["activation_105", 0, 0, {}]]], "class_name": "Conv2D"}, {"name": "batch_normalization_215", "config": {"moving_variance_initializer": {"config": {}, "class_name": "Ones"}, "moving_mean_initializer": {"config": {}, "class_name": "Zeros"}, "axis": -1, "gamma_initializer": {"config": {}, "class_name": "Ones"}, "scale": true, "trainable": true, "beta_regularizer": null, "name": "batch_normalization_215", "epsilon": 0.001, "gamma_constraint": null, "momentum": 0.99, "center": true, "gamma_regularizer": null, "beta_initializer": {"config": {}, "class_name": "Zeros"}, "beta_constraint": null}, "inbound_nodes": [[["conv2d_108", 0, 0, {}]]], "class_name": "BatchNormalization"}, {"name": "activation_106", "config": {"name": "activation_106", "trainable": true, "activation": "relu"}, "inbound_nodes": [[["batch_normalization_215", 0, 0, {}]]], "class_name": "Activation"}, {"name": "conv2d_109", "config": {"padding": "same", "activation": "linear", "filters": 64, "kernel_regularizer": {"config": {"l1": 0.0, "l2": 9.999999747378752e-05}, "class_name": "L1L2"}, "activity_regularizer": null, "kernel_size": [3, 3], "use_bias": true, "bias_constraint": null, "trainable": true, "strides": [1, 1], "bias_initializer": {"config": {}, "class_name": "Zeros"}, "name": "conv2d_109", "dilation_rate": [1, 1], "bias_regularizer": null, "data_format": "channels_last", "kernel_initializer": {"config": {"mode": "fan_avg", "scale": 1.0, "seed": null, "distribution": "uniform"}, "class_name": "VarianceScaling"}, "kernel_constraint": null}, "inbound_nodes": [[["activation_106", 0, 0, {}]]], "class_name": "Conv2D"}, {"name": "batch_normalization_216", "config": {"moving_variance_initializer": {"config": {}, "class_name": "Ones"}, "moving_mean_initializer": {"config": {}, "class_name": "Zeros"}, "axis": -1, "gamma_initializer": {"config": {}, "class_name": "Ones"}, "scale": true, "trainable": true, "beta_regularizer": null, "name": "batch_normalization_216", "epsilon": 0.001, "gamma_constraint": null, "momentum": 0.99, "center": true, "gamma_regularizer": null, "beta_initializer": {"config": {}, "class_name": "Zeros"}, "beta_constraint": null}, "inbound_nodes": [[["conv2d_109", 0, 0, {}]]], "class_name": "BatchNormalization"}, {"name": "add_107", "config": {"name": "add_107", "trainable": true}, "inbound_nodes": [[["activation_105", 0, 0, {}], ["batch_normalization_216", 0, 0, {}]]], "class_name": "Add"}, {"name": "activation_107", "config": {"name": "activation_107", "trainable": true, "activation": "relu"}, "inbound_nodes": [[["add_107", 0, 0, {}]]], "class_name": "Activation"}, {"name": "conv2d_110", "config": {"padding": "same", "activation": "linear", "filters": 36, "kernel_regularizer": {"config": {"l1": 0.0, "l2": 9.999999747378752e-05}, "class_name": "L1L2"}, "activity_regularizer": null, "kernel_size": [3, 3], "use_bias": true, "bias_constraint": null, "trainable": true, "strides": [1, 1], "bias_initializer": {"config": {}, "class_name": "Zeros"}, "name": "conv2d_110", "dilation_rate": [1, 1], "bias_regularizer": null, "data_format": "channels_last", "kernel_initializer": {"config": {"mode": "fan_avg", "scale": 1.0, "seed": null, "distribution": "uniform"}, "class_name": "VarianceScaling"}, "kernel_constraint": null}, "inbound_nodes": [[["activation_107", 0, 0, {}]]], "class_name": "Conv2D"}, {"name": "batch_normalization_217", "config": {"moving_variance_initializer": {"config": {}, "class_name": "Ones"}, "moving_mean_initializer": {"config": {}, "class_name": "Zeros"}, "axis": -1, "gamma_initializer": {"config": {}, "class_name": "Ones"}, "scale": true, "trainable": true, "beta_regularizer": null, "name": "batch_normalization_217", "epsilon": 0.001, "gamma_constraint": null, "momentum": 0.99, "center": true, "gamma_regularizer": null, "beta_initializer": {"config": {}, "class_name": "Zeros"}, "beta_constraint": null}, "inbound_nodes": [[["conv2d_110", 0, 0, {}]]], "class_name": "BatchNormalization"}, {"name": "activation_108", "config": {"name": "activation_108", "trainable": true, "activation": "relu"}, "inbound_nodes": [[["batch_normalization_217", 0, 0, {}]]], "class_name": "Activation"}, {"name": "conv2d_111", "config": {"padding": "same", "activation": "linear", "filters": 64, "kernel_regularizer": {"config": {"l1": 0.0, "l2": 9.999999747378752e-05}, "class_name": "L1L2"}, "activity_regularizer": null, "kernel_size": [3, 3], "use_bias": true, "bias_constraint": null, "trainable": true, "strides": [1, 1], "bias_initializer": {"config": {}, "class_name": "Zeros"}, "name": "conv2d_111", "dilation_rate": [1, 1], "bias_regularizer": null, "data_format": "channels_last", "kernel_initializer": {"config": {"mode": "fan_avg", "scale": 1.0, "seed": null, "distribution": "uniform"}, "class_name": "VarianceScaling"}, "kernel_constraint": null}, "inbound_nodes": [[["activation_108", 0, 0, {}]]], "class_name": "Conv2D"}, {"name": "batch_normalization_218", "config": {"moving_variance_initializer": {"config": {}, "class_name": "Ones"}, "moving_mean_initializer": {"config": {}, "class_name": "Zeros"}, "axis": -1, "gamma_initializer": {"config": {}, "class_name": "Ones"}, "scale": true, "trainable": true, "beta_regularizer": null, "name": "batch_normalization_218", "epsilon": 0.001, "gamma_constraint": null, "momentum": 0.99, "center": true, "gamma_regularizer": null, "beta_initializer": {"config": {}, "class_name": "Zeros"}, "beta_constraint": null}, "inbound_nodes": [[["conv2d_111", 0, 0, {}]]], "class_name": "BatchNormalization"}, {"name": "add_108", "config": {"name": "add_108", "trainable": true}, "inbound_nodes": [[["activation_107", 0, 0, {}], ["batch_normalization_218", 0, 0, {}]]], "class_name": "Add"}, {"name": "activation_109", "config": {"name": "activation_109", "trainable": true, "activation": "relu"}, "inbound_nodes": [[["add_108", 0, 0, {}]]], "class_name": "Activation"}, {"name": "average_pooling2d_2", "config": {"strides": [8, 8], "name": "average_pooling2d_2", "padding": "valid", "data_format": "channels_last", "pool_size": [8, 8], "trainable": true}, "inbound_nodes": [[["activation_109", 0, 0, {}]]], "class_name": "AveragePooling2D"}, {"name": "flatten_2", "config": {"name": "flatten_2", "trainable": true}, "inbound_nodes": [[["average_pooling2d_2", 0, 0, {}]]], "class_name": "Flatten"}, {"name": "dense_2", "config": {"kernel_initializer": {"config": {"mode": "fan_in", "scale": 2.0, "seed": null, "distribution": "normal"}, "class_name": "VarianceScaling"}, "kernel_constraint": null, "activation": "softmax", "bias_initializer": {"config": {}, "class_name": "Zeros"}, "activity_regularizer": null, "bias_constraint": null, "trainable": true, "units": 10, "name": "dense_2", "bias_regularizer": null, "use_bias": true, "kernel_regularizer": null}, "inbound_nodes": [[["flatten_2", 0, 0, {}]]], "class_name": "Dense"}], "name": "model_226", "output_layers": [["dense_2", 0, 0]], "input_layers": [["input_4", 0, 0]]}, "keras_version": "2.1.2", "class_name": "Model", "backend": "tensorflow"}