{"config": {"layers": [{"name": "input_14", "config": {"sparse": false, "name": "input_14", "dtype": "float32", "batch_input_shape": [null, 32, 32, 3]}, "inbound_nodes": [], "class_name": "InputLayer"}, {"name": "conv2d_1", "config": {"padding": "same", "activation": "linear", "filters": 16, "kernel_regularizer": {"config": {"l1": 0.0, "l2": 9.999999747378752e-05}, "class_name": "L1L2"}, "activity_regularizer": null, "kernel_size": [3, 3], "use_bias": true, "bias_constraint": null, "trainable": true, "strides": [1, 1], "bias_initializer": {"config": {}, "class_name": "Zeros"}, "name": "conv2d_1", "dilation_rate": [1, 1], "bias_regularizer": null, "data_format": "channels_last", "kernel_initializer": {"config": {"mode": "fan_avg", "scale": 1.0, "seed": null, "distribution": "uniform"}, "class_name": "VarianceScaling"}, "kernel_constraint": null}, "inbound_nodes": [[["input_14", 0, 0, {}]]], "class_name": "Conv2D"}, {"name": "batch_normalization_655", "config": {"moving_variance_initializer": {"config": {}, "class_name": "Ones"}, "moving_mean_initializer": {"config": {}, "class_name": "Zeros"}, "axis": -1, "gamma_initializer": {"config": {}, "class_name": "Ones"}, "scale": true, "trainable": true, "beta_regularizer": null, "name": "batch_normalization_655", "epsilon": 0.001, "gamma_constraint": null, "momentum": 0.99, "center": true, "gamma_regularizer": null, "beta_initializer": {"config": {}, "class_name": "Zeros"}, "beta_constraint": null}, "inbound_nodes": [[["conv2d_1", 0, 0, {}]]], "class_name": "BatchNormalization"}, {"name": "activation_1", "config": {"name": "activation_1", "trainable": true, "activation": "relu"}, "inbound_nodes": [[["batch_normalization_655", 0, 0, {}]]], "class_name": "Activation"}, {"name": "conv2d_2", "config": {"padding": "same", "activation": "linear", "filters": 12, "kernel_regularizer": {"config": {"l1": 0.0, "l2": 9.999999747378752e-05}, "class_name": "L1L2"}, "activity_regularizer": null, "kernel_size": [3, 3], "use_bias": true, "bias_constraint": null, "trainable": true, "strides": [1, 1], "bias_initializer": {"config": {}, "class_name": "Zeros"}, "name": "conv2d_2", "dilation_rate": [1, 1], "bias_regularizer": null, "data_format": "channels_last", "kernel_initializer": {"config": {"mode": "fan_avg", "scale": 1.0, "seed": null, "distribution": "uniform"}, "class_name": "VarianceScaling"}, "kernel_constraint": null}, "inbound_nodes": [[["activation_1", 0, 0, {}]]], "class_name": "Conv2D"}, {"name": "batch_normalization_656", "config": {"moving_variance_initializer": {"config": {}, "class_name": "Ones"}, "moving_mean_initializer": {"config": {}, "class_name": "Zeros"}, "axis": -1, "gamma_initializer": {"config": {}, "class_name": "Ones"}, "scale": true, "trainable": true, "beta_regularizer": null, "name": "batch_normalization_656", "epsilon": 0.001, "gamma_constraint": null, "momentum": 0.99, "center": true, "gamma_regularizer": null, "beta_initializer": {"config": {}, "class_name": "Zeros"}, "beta_constraint": null}, "inbound_nodes": [[["conv2d_2", 0, 0, {}]]], "class_name": "BatchNormalization"}, {"name": "activation_2", "config": {"name": "activation_2", "trainable": true, "activation": "relu"}, "inbound_nodes": [[["batch_normalization_656", 0, 0, {}]]], "class_name": "Activation"}, {"name": "conv2d_3", "config": {"padding": "same", "activation": "linear", "filters": 16, "kernel_regularizer": {"config": {"l1": 0.0, "l2": 9.999999747378752e-05}, "class_name": "L1L2"}, "activity_regularizer": null, "kernel_size": [3, 3], "use_bias": true, "bias_constraint": null, "trainable": true, "strides": [1, 1], "bias_initializer": {"config": {}, "class_name": "Zeros"}, "name": "conv2d_3", "dilation_rate": [1, 1], "bias_regularizer": null, "data_format": "channels_last", "kernel_initializer": {"config": {"mode": "fan_avg", "scale": 1.0, "seed": null, "distribution": "uniform"}, "class_name": "VarianceScaling"}, "kernel_constraint": null}, "inbound_nodes": [[["activation_2", 0, 0, {}]]], "class_name": "Conv2D"}, {"name": "batch_normalization_657", "config": {"moving_variance_initializer": {"config": {}, "class_name": "Ones"}, "moving_mean_initializer": {"config": {}, "class_name": "Zeros"}, "axis": -1, "gamma_initializer": {"config": {}, "class_name": "Ones"}, "scale": true, "trainable": true, "beta_regularizer": null, "name": "batch_normalization_657", "epsilon": 0.001, "gamma_constraint": null, "momentum": 0.99, "center": true, "gamma_regularizer": null, "beta_initializer": {"config": {}, "class_name": "Zeros"}, "beta_constraint": null}, "inbound_nodes": [[["conv2d_3", 0, 0, {}]]], "class_name": "BatchNormalization"}, {"name": "add_325", "config": {"name": "add_325", "trainable": true}, "inbound_nodes": [[["activation_1", 0, 0, {}], ["batch_normalization_657", 0, 0, {}]]], "class_name": "Add"}, {"name": "activation_3", "config": {"name": "activation_3", "trainable": true, "activation": "relu"}, "inbound_nodes": [[["add_325", 0, 0, {}]]], "class_name": "Activation"}, {"name": "conv2d_4", "config": {"padding": "same", "activation": "linear", "filters": 14, "kernel_regularizer": {"config": {"l1": 0.0, "l2": 9.999999747378752e-05}, "class_name": "L1L2"}, "activity_regularizer": null, "kernel_size": [3, 3], "use_bias": true, "bias_constraint": null, "trainable": true, "strides": [1, 1], "bias_initializer": {"config": {}, "class_name": "Zeros"}, "name": "conv2d_4", "dilation_rate": [1, 1], "bias_regularizer": null, "data_format": "channels_last", "kernel_initializer": {"config": {"mode": "fan_avg", "scale": 1.0, "seed": null, "distribution": "uniform"}, "class_name": "VarianceScaling"}, "kernel_constraint": null}, "inbound_nodes": [[["activation_3", 0, 0, {}]]], "class_name": "Conv2D"}, {"name": "batch_normalization_658", "config": {"moving_variance_initializer": {"config": {}, "class_name": "Ones"}, "moving_mean_initializer": {"config": {}, "class_name": "Zeros"}, "axis": -1, "gamma_initializer": {"config": {}, "class_name": "Ones"}, "scale": true, "trainable": true, "beta_regularizer": null, "name": "batch_normalization_658", "epsilon": 0.001, "gamma_constraint": null, "momentum": 0.99, "center": true, "gamma_regularizer": null, "beta_initializer": {"config": {}, "class_name": "Zeros"}, "beta_constraint": null}, "inbound_nodes": [[["conv2d_4", 0, 0, {}]]], "class_name": "BatchNormalization"}, {"name": "activation_4", "config": {"name": "activation_4", "trainable": true, "activation": "relu"}, "inbound_nodes": [[["batch_normalization_658", 0, 0, {}]]], "class_name": "Activation"}, {"name": "conv2d_5", "config": {"padding": "same", "activation": "linear", "filters": 16, "kernel_regularizer": {"config": {"l1": 0.0, "l2": 9.999999747378752e-05}, "class_name": "L1L2"}, "activity_regularizer": null, "kernel_size": [3, 3], "use_bias": true, "bias_constraint": null, "trainable": true, "strides": [1, 1], "bias_initializer": {"config": {}, "class_name": "Zeros"}, "name": "conv2d_5", "dilation_rate": [1, 1], "bias_regularizer": null, "data_format": "channels_last", "kernel_initializer": {"config": {"mode": "fan_avg", "scale": 1.0, "seed": null, "distribution": "uniform"}, "class_name": "VarianceScaling"}, "kernel_constraint": null}, "inbound_nodes": [[["activation_4", 0, 0, {}]]], "class_name": "Conv2D"}, {"name": "batch_normalization_659", "config": {"moving_variance_initializer": {"config": {}, "class_name": "Ones"}, "moving_mean_initializer": {"config": {}, "class_name": "Zeros"}, "axis": -1, "gamma_initializer": {"config": {}, "class_name": "Ones"}, "scale": true, "trainable": true, "beta_regularizer": null, "name": "batch_normalization_659", "epsilon": 0.001, "gamma_constraint": null, "momentum": 0.99, "center": true, "gamma_regularizer": null, "beta_initializer": {"config": {}, "class_name": "Zeros"}, "beta_constraint": null}, "inbound_nodes": [[["conv2d_5", 0, 0, {}]]], "class_name": "BatchNormalization"}, {"name": "add_326", "config": {"name": "add_326", "trainable": true}, "inbound_nodes": [[["activation_3", 0, 0, {}], ["batch_normalization_659", 0, 0, {}]]], "class_name": "Add"}, {"name": "activation_5", "config": {"name": "activation_5", "trainable": true, "activation": "relu"}, "inbound_nodes": [[["add_326", 0, 0, {}]]], "class_name": "Activation"}, {"name": "conv2d_6", "config": {"padding": "same", "activation": "linear", "filters": 10, "kernel_regularizer": {"config": {"l1": 0.0, "l2": 9.999999747378752e-05}, "class_name": "L1L2"}, "activity_regularizer": null, "kernel_size": [3, 3], "use_bias": true, "bias_constraint": null, "trainable": true, "strides": [1, 1], "bias_initializer": {"config": {}, "class_name": "Zeros"}, "name": "conv2d_6", "dilation_rate": [1, 1], "bias_regularizer": null, "data_format": "channels_last", "kernel_initializer": {"config": {"mode": "fan_avg", "scale": 1.0, "seed": null, "distribution": "uniform"}, "class_name": "VarianceScaling"}, "kernel_constraint": null}, "inbound_nodes": [[["activation_5", 0, 0, {}]]], "class_name": "Conv2D"}, {"name": "batch_normalization_660", "config": {"moving_variance_initializer": {"config": {}, "class_name": "Ones"}, "moving_mean_initializer": {"config": {}, "class_name": "Zeros"}, "axis": -1, "gamma_initializer": {"config": {}, "class_name": "Ones"}, "scale": true, "trainable": true, "beta_regularizer": null, "name": "batch_normalization_660", "epsilon": 0.001, "gamma_constraint": null, "momentum": 0.99, "center": true, "gamma_regularizer": null, "beta_initializer": {"config": {}, "class_name": "Zeros"}, "beta_constraint": null}, "inbound_nodes": [[["conv2d_6", 0, 0, {}]]], "class_name": "BatchNormalization"}, {"name": "activation_6", "config": {"name": "activation_6", "trainable": true, "activation": "relu"}, "inbound_nodes": [[["batch_normalization_660", 0, 0, {}]]], "class_name": "Activation"}, {"name": "conv2d_7", "config": {"padding": "same", "activation": "linear", "filters": 16, "kernel_regularizer": {"config": {"l1": 0.0, "l2": 9.999999747378752e-05}, "class_name": "L1L2"}, "activity_regularizer": null, "kernel_size": [3, 3], "use_bias": true, "bias_constraint": null, "trainable": true, "strides": [1, 1], "bias_initializer": {"config": {}, "class_name": "Zeros"}, "name": "conv2d_7", "dilation_rate": [1, 1], "bias_regularizer": null, "data_format": "channels_last", "kernel_initializer": {"config": {"mode": "fan_avg", "scale": 1.0, "seed": null, "distribution": "uniform"}, "class_name": "VarianceScaling"}, "kernel_constraint": null}, "inbound_nodes": [[["activation_6", 0, 0, {}]]], "class_name": "Conv2D"}, {"name": "batch_normalization_661", "config": {"moving_variance_initializer": {"config": {}, "class_name": "Ones"}, "moving_mean_initializer": {"config": {}, "class_name": "Zeros"}, "axis": -1, "gamma_initializer": {"config": {}, "class_name": "Ones"}, "scale": true, "trainable": true, "beta_regularizer": null, "name": "batch_normalization_661", "epsilon": 0.001, "gamma_constraint": null, "momentum": 0.99, "center": true, "gamma_regularizer": null, "beta_initializer": {"config": {}, "class_name": "Zeros"}, "beta_constraint": null}, "inbound_nodes": [[["conv2d_7", 0, 0, {}]]], "class_name": "BatchNormalization"}, {"name": "add_327", "config": {"name": "add_327", "trainable": true}, "inbound_nodes": [[["activation_5", 0, 0, {}], ["batch_normalization_661", 0, 0, {}]]], "class_name": "Add"}, {"name": "activation_7", "config": {"name": "activation_7", "trainable": true, "activation": "relu"}, "inbound_nodes": [[["add_327", 0, 0, {}]]], "class_name": "Activation"}, {"name": "conv2d_8", "config": {"padding": "same", "activation": "linear", "filters": 8, "kernel_regularizer": {"config": {"l1": 0.0, "l2": 9.999999747378752e-05}, "class_name": "L1L2"}, "activity_regularizer": null, "kernel_size": [3, 3], "use_bias": true, "bias_constraint": null, "trainable": true, "strides": [1, 1], "bias_initializer": {"config": {}, "class_name": "Zeros"}, "name": "conv2d_8", "dilation_rate": [1, 1], "bias_regularizer": null, "data_format": "channels_last", "kernel_initializer": {"config": {"mode": "fan_avg", "scale": 1.0, "seed": null, "distribution": "uniform"}, "class_name": "VarianceScaling"}, "kernel_constraint": null}, "inbound_nodes": [[["activation_7", 0, 0, {}]]], "class_name": "Conv2D"}, {"name": "batch_normalization_662", "config": {"moving_variance_initializer": {"config": {}, "class_name": "Ones"}, "moving_mean_initializer": {"config": {}, "class_name": "Zeros"}, "axis": -1, "gamma_initializer": {"config": {}, "class_name": "Ones"}, "scale": true, "trainable": true, "beta_regularizer": null, "name": "batch_normalization_662", "epsilon": 0.001, "gamma_constraint": null, "momentum": 0.99, "center": true, "gamma_regularizer": null, "beta_initializer": {"config": {}, "class_name": "Zeros"}, "beta_constraint": null}, "inbound_nodes": [[["conv2d_8", 0, 0, {}]]], "class_name": "BatchNormalization"}, {"name": "activation_8", "config": {"name": "activation_8", "trainable": true, "activation": "relu"}, "inbound_nodes": [[["batch_normalization_662", 0, 0, {}]]], "class_name": "Activation"}, {"name": "conv2d_9", "config": {"padding": "same", "activation": "linear", "filters": 16, "kernel_regularizer": {"config": {"l1": 0.0, "l2": 9.999999747378752e-05}, "class_name": "L1L2"}, "activity_regularizer": null, "kernel_size": [3, 3], "use_bias": true, "bias_constraint": null, "trainable": true, "strides": [1, 1], "bias_initializer": {"config": {}, "class_name": "Zeros"}, "name": "conv2d_9", "dilation_rate": [1, 1], "bias_regularizer": null, "data_format": "channels_last", "kernel_initializer": {"config": {"mode": "fan_avg", "scale": 1.0, "seed": null, "distribution": "uniform"}, "class_name": "VarianceScaling"}, "kernel_constraint": null}, "inbound_nodes": [[["activation_8", 0, 0, {}]]], "class_name": "Conv2D"}, {"name": "batch_normalization_663", "config": {"moving_variance_initializer": {"config": {}, "class_name": "Ones"}, "moving_mean_initializer": {"config": {}, "class_name": "Zeros"}, "axis": -1, "gamma_initializer": {"config": {}, "class_name": "Ones"}, "scale": true, "trainable": true, "beta_regularizer": null, "name": "batch_normalization_663", "epsilon": 0.001, "gamma_constraint": null, "momentum": 0.99, "center": true, "gamma_regularizer": null, "beta_initializer": {"config": {}, "class_name": "Zeros"}, "beta_constraint": null}, "inbound_nodes": [[["conv2d_9", 0, 0, {}]]], "class_name": "BatchNormalization"}, {"name": "add_328", "config": {"name": "add_328", "trainable": true}, "inbound_nodes": [[["activation_7", 0, 0, {}], ["batch_normalization_663", 0, 0, {}]]], "class_name": "Add"}, {"name": "activation_9", "config": {"name": "activation_9", "trainable": true, "activation": "relu"}, "inbound_nodes": [[["add_328", 0, 0, {}]]], "class_name": "Activation"}, {"name": "conv2d_10", "config": {"padding": "same", "activation": "linear", "filters": 9, "kernel_regularizer": {"config": {"l1": 0.0, "l2": 9.999999747378752e-05}, "class_name": "L1L2"}, "activity_regularizer": null, "kernel_size": [3, 3], "use_bias": true, "bias_constraint": null, "trainable": true, "strides": [1, 1], "bias_initializer": {"config": {}, "class_name": "Zeros"}, "name": "conv2d_10", "dilation_rate": [1, 1], "bias_regularizer": null, "data_format": "channels_last", "kernel_initializer": {"config": {"mode": "fan_avg", "scale": 1.0, "seed": null, "distribution": "uniform"}, "class_name": "VarianceScaling"}, "kernel_constraint": null}, "inbound_nodes": [[["activation_9", 0, 0, {}]]], "class_name": "Conv2D"}, {"name": "batch_normalization_664", "config": {"moving_variance_initializer": {"config": {}, "class_name": "Ones"}, "moving_mean_initializer": {"config": {}, "class_name": "Zeros"}, "axis": -1, "gamma_initializer": {"config": {}, "class_name": "Ones"}, "scale": true, "trainable": true, "beta_regularizer": null, "name": "batch_normalization_664", "epsilon": 0.001, "gamma_constraint": null, "momentum": 0.99, "center": true, "gamma_regularizer": null, "beta_initializer": {"config": {}, "class_name": "Zeros"}, "beta_constraint": null}, "inbound_nodes": [[["conv2d_10", 0, 0, {}]]], "class_name": "BatchNormalization"}, {"name": "activation_10", "config": {"name": "activation_10", "trainable": true, "activation": "relu"}, "inbound_nodes": [[["batch_normalization_664", 0, 0, {}]]], "class_name": "Activation"}, {"name": "conv2d_11", "config": {"padding": "same", "activation": "linear", "filters": 16, "kernel_regularizer": {"config": {"l1": 0.0, "l2": 9.999999747378752e-05}, "class_name": "L1L2"}, "activity_regularizer": null, "kernel_size": [3, 3], "use_bias": true, "bias_constraint": null, "trainable": true, "strides": [1, 1], "bias_initializer": {"config": {}, "class_name": "Zeros"}, "name": "conv2d_11", "dilation_rate": [1, 1], "bias_regularizer": null, "data_format": "channels_last", "kernel_initializer": {"config": {"mode": "fan_avg", "scale": 1.0, "seed": null, "distribution": "uniform"}, "class_name": "VarianceScaling"}, "kernel_constraint": null}, "inbound_nodes": [[["activation_10", 0, 0, {}]]], "class_name": "Conv2D"}, {"name": "batch_normalization_665", "config": {"moving_variance_initializer": {"config": {}, "class_name": "Ones"}, "moving_mean_initializer": {"config": {}, "class_name": "Zeros"}, "axis": -1, "gamma_initializer": {"config": {}, "class_name": "Ones"}, "scale": true, "trainable": true, "beta_regularizer": null, "name": "batch_normalization_665", "epsilon": 0.001, "gamma_constraint": null, "momentum": 0.99, "center": true, "gamma_regularizer": null, "beta_initializer": {"config": {}, "class_name": "Zeros"}, "beta_constraint": null}, "inbound_nodes": [[["conv2d_11", 0, 0, {}]]], "class_name": "BatchNormalization"}, {"name": "add_329", "config": {"name": "add_329", "trainable": true}, "inbound_nodes": [[["activation_9", 0, 0, {}], ["batch_normalization_665", 0, 0, {}]]], "class_name": "Add"}, {"name": "activation_11", "config": {"name": "activation_11", "trainable": true, "activation": "relu"}, "inbound_nodes": [[["add_329", 0, 0, {}]]], "class_name": "Activation"}, {"name": "conv2d_12", "config": {"padding": "same", "activation": "linear", "filters": 4, "kernel_regularizer": {"config": {"l1": 0.0, "l2": 9.999999747378752e-05}, "class_name": "L1L2"}, "activity_regularizer": null, "kernel_size": [3, 3], "use_bias": true, "bias_constraint": null, "trainable": true, "strides": [1, 1], "bias_initializer": {"config": {}, "class_name": "Zeros"}, "name": "conv2d_12", "dilation_rate": [1, 1], "bias_regularizer": null, "data_format": "channels_last", "kernel_initializer": {"config": {"mode": "fan_avg", "scale": 1.0, "seed": null, "distribution": "uniform"}, "class_name": "VarianceScaling"}, "kernel_constraint": null}, "inbound_nodes": [[["activation_11", 0, 0, {}]]], "class_name": "Conv2D"}, {"name": "batch_normalization_666", "config": {"moving_variance_initializer": {"config": {}, "class_name": "Ones"}, "moving_mean_initializer": {"config": {}, "class_name": "Zeros"}, "axis": -1, "gamma_initializer": {"config": {}, "class_name": "Ones"}, "scale": true, "trainable": true, "beta_regularizer": null, "name": "batch_normalization_666", "epsilon": 0.001, "gamma_constraint": null, "momentum": 0.99, "center": true, "gamma_regularizer": null, "beta_initializer": {"config": {}, "class_name": "Zeros"}, "beta_constraint": null}, "inbound_nodes": [[["conv2d_12", 0, 0, {}]]], "class_name": "BatchNormalization"}, {"name": "activation_12", "config": {"name": "activation_12", "trainable": true, "activation": "relu"}, "inbound_nodes": [[["batch_normalization_666", 0, 0, {}]]], "class_name": "Activation"}, {"name": "conv2d_13", "config": {"padding": "same", "activation": "linear", "filters": 16, "kernel_regularizer": {"config": {"l1": 0.0, "l2": 9.999999747378752e-05}, "class_name": "L1L2"}, "activity_regularizer": null, "kernel_size": [3, 3], "use_bias": true, "bias_constraint": null, "trainable": true, "strides": [1, 1], "bias_initializer": {"config": {}, "class_name": "Zeros"}, "name": "conv2d_13", "dilation_rate": [1, 1], "bias_regularizer": null, "data_format": "channels_last", "kernel_initializer": {"config": {"mode": "fan_avg", "scale": 1.0, "seed": null, "distribution": "uniform"}, "class_name": "VarianceScaling"}, "kernel_constraint": null}, "inbound_nodes": [[["activation_12", 0, 0, {}]]], "class_name": "Conv2D"}, {"name": "batch_normalization_667", "config": {"moving_variance_initializer": {"config": {}, "class_name": "Ones"}, "moving_mean_initializer": {"config": {}, "class_name": "Zeros"}, "axis": -1, "gamma_initializer": {"config": {}, "class_name": "Ones"}, "scale": true, "trainable": true, "beta_regularizer": null, "name": "batch_normalization_667", "epsilon": 0.001, "gamma_constraint": null, "momentum": 0.99, "center": true, "gamma_regularizer": null, "beta_initializer": {"config": {}, "class_name": "Zeros"}, "beta_constraint": null}, "inbound_nodes": [[["conv2d_13", 0, 0, {}]]], "class_name": "BatchNormalization"}, {"name": "add_330", "config": {"name": "add_330", "trainable": true}, "inbound_nodes": [[["activation_11", 0, 0, {}], ["batch_normalization_667", 0, 0, {}]]], "class_name": "Add"}, {"name": "activation_13", "config": {"name": "activation_13", "trainable": true, "activation": "relu"}, "inbound_nodes": [[["add_330", 0, 0, {}]]], "class_name": "Activation"}, {"name": "conv2d_14", "config": {"padding": "same", "activation": "linear", "filters": 8, "kernel_regularizer": {"config": {"l1": 0.0, "l2": 9.999999747378752e-05}, "class_name": "L1L2"}, "activity_regularizer": null, "kernel_size": [3, 3], "use_bias": true, "bias_constraint": null, "trainable": true, "strides": [1, 1], "bias_initializer": {"config": {}, "class_name": "Zeros"}, "name": "conv2d_14", "dilation_rate": [1, 1], "bias_regularizer": null, "data_format": "channels_last", "kernel_initializer": {"config": {"mode": "fan_avg", "scale": 1.0, "seed": null, "distribution": "uniform"}, "class_name": "VarianceScaling"}, "kernel_constraint": null}, "inbound_nodes": [[["activation_13", 0, 0, {}]]], "class_name": "Conv2D"}, {"name": "batch_normalization_668", "config": {"moving_variance_initializer": {"config": {}, "class_name": "Ones"}, "moving_mean_initializer": {"config": {}, "class_name": "Zeros"}, "axis": -1, "gamma_initializer": {"config": {}, "class_name": "Ones"}, "scale": true, "trainable": true, "beta_regularizer": null, "name": "batch_normalization_668", "epsilon": 0.001, "gamma_constraint": null, "momentum": 0.99, "center": true, "gamma_regularizer": null, "beta_initializer": {"config": {}, "class_name": "Zeros"}, "beta_constraint": null}, "inbound_nodes": [[["conv2d_14", 0, 0, {}]]], "class_name": "BatchNormalization"}, {"name": "activation_14", "config": {"name": "activation_14", "trainable": true, "activation": "relu"}, "inbound_nodes": [[["batch_normalization_668", 0, 0, {}]]], "class_name": "Activation"}, {"name": "conv2d_15", "config": {"padding": "same", "activation": "linear", "filters": 16, "kernel_regularizer": {"config": {"l1": 0.0, "l2": 9.999999747378752e-05}, "class_name": "L1L2"}, "activity_regularizer": null, "kernel_size": [3, 3], "use_bias": true, "bias_constraint": null, "trainable": true, "strides": [1, 1], "bias_initializer": {"config": {}, "class_name": "Zeros"}, "name": "conv2d_15", "dilation_rate": [1, 1], "bias_regularizer": null, "data_format": "channels_last", "kernel_initializer": {"config": {"mode": "fan_avg", "scale": 1.0, "seed": null, "distribution": "uniform"}, "class_name": "VarianceScaling"}, "kernel_constraint": null}, "inbound_nodes": [[["activation_14", 0, 0, {}]]], "class_name": "Conv2D"}, {"name": "batch_normalization_669", "config": {"moving_variance_initializer": {"config": {}, "class_name": "Ones"}, "moving_mean_initializer": {"config": {}, "class_name": "Zeros"}, "axis": -1, "gamma_initializer": {"config": {}, "class_name": "Ones"}, "scale": true, "trainable": true, "beta_regularizer": null, "name": "batch_normalization_669", "epsilon": 0.001, "gamma_constraint": null, "momentum": 0.99, "center": true, "gamma_regularizer": null, "beta_initializer": {"config": {}, "class_name": "Zeros"}, "beta_constraint": null}, "inbound_nodes": [[["conv2d_15", 0, 0, {}]]], "class_name": "BatchNormalization"}, {"name": "add_331", "config": {"name": "add_331", "trainable": true}, "inbound_nodes": [[["activation_13", 0, 0, {}], ["batch_normalization_669", 0, 0, {}]]], "class_name": "Add"}, {"name": "activation_15", "config": {"name": "activation_15", "trainable": true, "activation": "relu"}, "inbound_nodes": [[["add_331", 0, 0, {}]]], "class_name": "Activation"}, {"name": "conv2d_16", "config": {"padding": "same", "activation": "linear", "filters": 11, "kernel_regularizer": {"config": {"l1": 0.0, "l2": 9.999999747378752e-05}, "class_name": "L1L2"}, "activity_regularizer": null, "kernel_size": [3, 3], "use_bias": true, "bias_constraint": null, "trainable": true, "strides": [1, 1], "bias_initializer": {"config": {}, "class_name": "Zeros"}, "name": "conv2d_16", "dilation_rate": [1, 1], "bias_regularizer": null, "data_format": "channels_last", "kernel_initializer": {"config": {"mode": "fan_avg", "scale": 1.0, "seed": null, "distribution": "uniform"}, "class_name": "VarianceScaling"}, "kernel_constraint": null}, "inbound_nodes": [[["activation_15", 0, 0, {}]]], "class_name": "Conv2D"}, {"name": "batch_normalization_670", "config": {"moving_variance_initializer": {"config": {}, "class_name": "Ones"}, "moving_mean_initializer": {"config": {}, "class_name": "Zeros"}, "axis": -1, "gamma_initializer": {"config": {}, "class_name": "Ones"}, "scale": true, "trainable": true, "beta_regularizer": null, "name": "batch_normalization_670", "epsilon": 0.001, "gamma_constraint": null, "momentum": 0.99, "center": true, "gamma_regularizer": null, "beta_initializer": {"config": {}, "class_name": "Zeros"}, "beta_constraint": null}, "inbound_nodes": [[["conv2d_16", 0, 0, {}]]], "class_name": "BatchNormalization"}, {"name": "activation_16", "config": {"name": "activation_16", "trainable": true, "activation": "relu"}, "inbound_nodes": [[["batch_normalization_670", 0, 0, {}]]], "class_name": "Activation"}, {"name": "conv2d_17", "config": {"padding": "same", "activation": "linear", "filters": 16, "kernel_regularizer": {"config": {"l1": 0.0, "l2": 9.999999747378752e-05}, "class_name": "L1L2"}, "activity_regularizer": null, "kernel_size": [3, 3], "use_bias": true, "bias_constraint": null, "trainable": true, "strides": [1, 1], "bias_initializer": {"config": {}, "class_name": "Zeros"}, "name": "conv2d_17", "dilation_rate": [1, 1], "bias_regularizer": null, "data_format": "channels_last", "kernel_initializer": {"config": {"mode": "fan_avg", "scale": 1.0, "seed": null, "distribution": "uniform"}, "class_name": "VarianceScaling"}, "kernel_constraint": null}, "inbound_nodes": [[["activation_16", 0, 0, {}]]], "class_name": "Conv2D"}, {"name": "batch_normalization_671", "config": {"moving_variance_initializer": {"config": {}, "class_name": "Ones"}, "moving_mean_initializer": {"config": {}, "class_name": "Zeros"}, "axis": -1, "gamma_initializer": {"config": {}, "class_name": "Ones"}, "scale": true, "trainable": true, "beta_regularizer": null, "name": "batch_normalization_671", "epsilon": 0.001, "gamma_constraint": null, "momentum": 0.99, "center": true, "gamma_regularizer": null, "beta_initializer": {"config": {}, "class_name": "Zeros"}, "beta_constraint": null}, "inbound_nodes": [[["conv2d_17", 0, 0, {}]]], "class_name": "BatchNormalization"}, {"name": "add_332", "config": {"name": "add_332", "trainable": true}, "inbound_nodes": [[["activation_15", 0, 0, {}], ["batch_normalization_671", 0, 0, {}]]], "class_name": "Add"}, {"name": "activation_17", "config": {"name": "activation_17", "trainable": true, "activation": "relu"}, "inbound_nodes": [[["add_332", 0, 0, {}]]], "class_name": "Activation"}, {"name": "conv2d_18", "config": {"padding": "same", "activation": "linear", "filters": 6, "kernel_regularizer": {"config": {"l1": 0.0, "l2": 9.999999747378752e-05}, "class_name": "L1L2"}, "activity_regularizer": null, "kernel_size": [3, 3], "use_bias": true, "bias_constraint": null, "trainable": true, "strides": [1, 1], "bias_initializer": {"config": {}, "class_name": "Zeros"}, "name": "conv2d_18", "dilation_rate": [1, 1], "bias_regularizer": null, "data_format": "channels_last", "kernel_initializer": {"config": {"mode": "fan_avg", "scale": 1.0, "seed": null, "distribution": "uniform"}, "class_name": "VarianceScaling"}, "kernel_constraint": null}, "inbound_nodes": [[["activation_17", 0, 0, {}]]], "class_name": "Conv2D"}, {"name": "batch_normalization_672", "config": {"moving_variance_initializer": {"config": {}, "class_name": "Ones"}, "moving_mean_initializer": {"config": {}, "class_name": "Zeros"}, "axis": -1, "gamma_initializer": {"config": {}, "class_name": "Ones"}, "scale": true, "trainable": true, "beta_regularizer": null, "name": "batch_normalization_672", "epsilon": 0.001, "gamma_constraint": null, "momentum": 0.99, "center": true, "gamma_regularizer": null, "beta_initializer": {"config": {}, "class_name": "Zeros"}, "beta_constraint": null}, "inbound_nodes": [[["conv2d_18", 0, 0, {}]]], "class_name": "BatchNormalization"}, {"name": "activation_18", "config": {"name": "activation_18", "trainable": true, "activation": "relu"}, "inbound_nodes": [[["batch_normalization_672", 0, 0, {}]]], "class_name": "Activation"}, {"name": "conv2d_19", "config": {"padding": "same", "activation": "linear", "filters": 16, "kernel_regularizer": {"config": {"l1": 0.0, "l2": 9.999999747378752e-05}, "class_name": "L1L2"}, "activity_regularizer": null, "kernel_size": [3, 3], "use_bias": true, "bias_constraint": null, "trainable": true, "strides": [1, 1], "bias_initializer": {"config": {}, "class_name": "Zeros"}, "name": "conv2d_19", "dilation_rate": [1, 1], "bias_regularizer": null, "data_format": "channels_last", "kernel_initializer": {"config": {"mode": "fan_avg", "scale": 1.0, "seed": null, "distribution": "uniform"}, "class_name": "VarianceScaling"}, "kernel_constraint": null}, "inbound_nodes": [[["activation_18", 0, 0, {}]]], "class_name": "Conv2D"}, {"name": "batch_normalization_673", "config": {"moving_variance_initializer": {"config": {}, "class_name": "Ones"}, "moving_mean_initializer": {"config": {}, "class_name": "Zeros"}, "axis": -1, "gamma_initializer": {"config": {}, "class_name": "Ones"}, "scale": true, "trainable": true, "beta_regularizer": null, "name": "batch_normalization_673", "epsilon": 0.001, "gamma_constraint": null, "momentum": 0.99, "center": true, "gamma_regularizer": null, "beta_initializer": {"config": {}, "class_name": "Zeros"}, "beta_constraint": null}, "inbound_nodes": [[["conv2d_19", 0, 0, {}]]], "class_name": "BatchNormalization"}, {"name": "add_333", "config": {"name": "add_333", "trainable": true}, "inbound_nodes": [[["activation_17", 0, 0, {}], ["batch_normalization_673", 0, 0, {}]]], "class_name": "Add"}, {"name": "activation_19", "config": {"name": "activation_19", "trainable": true, "activation": "relu"}, "inbound_nodes": [[["add_333", 0, 0, {}]]], "class_name": "Activation"}, {"name": "conv2d_20", "config": {"padding": "same", "activation": "linear", "filters": 8, "kernel_regularizer": {"config": {"l1": 0.0, "l2": 9.999999747378752e-05}, "class_name": "L1L2"}, "activity_regularizer": null, "kernel_size": [3, 3], "use_bias": true, "bias_constraint": null, "trainable": true, "strides": [1, 1], "bias_initializer": {"config": {}, "class_name": "Zeros"}, "name": "conv2d_20", "dilation_rate": [1, 1], "bias_regularizer": null, "data_format": "channels_last", "kernel_initializer": {"config": {"mode": "fan_avg", "scale": 1.0, "seed": null, "distribution": "uniform"}, "class_name": "VarianceScaling"}, "kernel_constraint": null}, "inbound_nodes": [[["activation_19", 0, 0, {}]]], "class_name": "Conv2D"}, {"name": "batch_normalization_674", "config": {"moving_variance_initializer": {"config": {}, "class_name": "Ones"}, "moving_mean_initializer": {"config": {}, "class_name": "Zeros"}, "axis": -1, "gamma_initializer": {"config": {}, "class_name": "Ones"}, "scale": true, "trainable": true, "beta_regularizer": null, "name": "batch_normalization_674", "epsilon": 0.001, "gamma_constraint": null, "momentum": 0.99, "center": true, "gamma_regularizer": null, "beta_initializer": {"config": {}, "class_name": "Zeros"}, "beta_constraint": null}, "inbound_nodes": [[["conv2d_20", 0, 0, {}]]], "class_name": "BatchNormalization"}, {"name": "activation_20", "config": {"name": "activation_20", "trainable": true, "activation": "relu"}, "inbound_nodes": [[["batch_normalization_674", 0, 0, {}]]], "class_name": "Activation"}, {"name": "conv2d_21", "config": {"padding": "same", "activation": "linear", "filters": 16, "kernel_regularizer": {"config": {"l1": 0.0, "l2": 9.999999747378752e-05}, "class_name": "L1L2"}, "activity_regularizer": null, "kernel_size": [3, 3], "use_bias": true, "bias_constraint": null, "trainable": true, "strides": [1, 1], "bias_initializer": {"config": {}, "class_name": "Zeros"}, "name": "conv2d_21", "dilation_rate": [1, 1], "bias_regularizer": null, "data_format": "channels_last", "kernel_initializer": {"config": {"mode": "fan_avg", "scale": 1.0, "seed": null, "distribution": "uniform"}, "class_name": "VarianceScaling"}, "kernel_constraint": null}, "inbound_nodes": [[["activation_20", 0, 0, {}]]], "class_name": "Conv2D"}, {"name": "batch_normalization_675", "config": {"moving_variance_initializer": {"config": {}, "class_name": "Ones"}, "moving_mean_initializer": {"config": {}, "class_name": "Zeros"}, "axis": -1, "gamma_initializer": {"config": {}, "class_name": "Ones"}, "scale": true, "trainable": true, "beta_regularizer": null, "name": "batch_normalization_675", "epsilon": 0.001, "gamma_constraint": null, "momentum": 0.99, "center": true, "gamma_regularizer": null, "beta_initializer": {"config": {}, "class_name": "Zeros"}, "beta_constraint": null}, "inbound_nodes": [[["conv2d_21", 0, 0, {}]]], "class_name": "BatchNormalization"}, {"name": "add_334", "config": {"name": "add_334", "trainable": true}, "inbound_nodes": [[["activation_19", 0, 0, {}], ["batch_normalization_675", 0, 0, {}]]], "class_name": "Add"}, {"name": "activation_21", "config": {"name": "activation_21", "trainable": true, "activation": "relu"}, "inbound_nodes": [[["add_334", 0, 0, {}]]], "class_name": "Activation"}, {"name": "conv2d_22", "config": {"padding": "same", "activation": "linear", "filters": 6, "kernel_regularizer": {"config": {"l1": 0.0, "l2": 9.999999747378752e-05}, "class_name": "L1L2"}, "activity_regularizer": null, "kernel_size": [3, 3], "use_bias": true, "bias_constraint": null, "trainable": true, "strides": [1, 1], "bias_initializer": {"config": {}, "class_name": "Zeros"}, "name": "conv2d_22", "dilation_rate": [1, 1], "bias_regularizer": null, "data_format": "channels_last", "kernel_initializer": {"config": {"mode": "fan_avg", "scale": 1.0, "seed": null, "distribution": "uniform"}, "class_name": "VarianceScaling"}, "kernel_constraint": null}, "inbound_nodes": [[["activation_21", 0, 0, {}]]], "class_name": "Conv2D"}, {"name": "batch_normalization_676", "config": {"moving_variance_initializer": {"config": {}, "class_name": "Ones"}, "moving_mean_initializer": {"config": {}, "class_name": "Zeros"}, "axis": -1, "gamma_initializer": {"config": {}, "class_name": "Ones"}, "scale": true, "trainable": true, "beta_regularizer": null, "name": "batch_normalization_676", "epsilon": 0.001, "gamma_constraint": null, "momentum": 0.99, "center": true, "gamma_regularizer": null, "beta_initializer": {"config": {}, "class_name": "Zeros"}, "beta_constraint": null}, "inbound_nodes": [[["conv2d_22", 0, 0, {}]]], "class_name": "BatchNormalization"}, {"name": "activation_22", "config": {"name": "activation_22", "trainable": true, "activation": "relu"}, "inbound_nodes": [[["batch_normalization_676", 0, 0, {}]]], "class_name": "Activation"}, {"name": "conv2d_23", "config": {"padding": "same", "activation": "linear", "filters": 16, "kernel_regularizer": {"config": {"l1": 0.0, "l2": 9.999999747378752e-05}, "class_name": "L1L2"}, "activity_regularizer": null, "kernel_size": [3, 3], "use_bias": true, "bias_constraint": null, "trainable": true, "strides": [1, 1], "bias_initializer": {"config": {}, "class_name": "Zeros"}, "name": "conv2d_23", "dilation_rate": [1, 1], "bias_regularizer": null, "data_format": "channels_last", "kernel_initializer": {"config": {"mode": "fan_avg", "scale": 1.0, "seed": null, "distribution": "uniform"}, "class_name": "VarianceScaling"}, "kernel_constraint": null}, "inbound_nodes": [[["activation_22", 0, 0, {}]]], "class_name": "Conv2D"}, {"name": "batch_normalization_677", "config": {"moving_variance_initializer": {"config": {}, "class_name": "Ones"}, "moving_mean_initializer": {"config": {}, "class_name": "Zeros"}, "axis": -1, "gamma_initializer": {"config": {}, "class_name": "Ones"}, "scale": true, "trainable": true, "beta_regularizer": null, "name": "batch_normalization_677", "epsilon": 0.001, "gamma_constraint": null, "momentum": 0.99, "center": true, "gamma_regularizer": null, "beta_initializer": {"config": {}, "class_name": "Zeros"}, "beta_constraint": null}, "inbound_nodes": [[["conv2d_23", 0, 0, {}]]], "class_name": "BatchNormalization"}, {"name": "add_335", "config": {"name": "add_335", "trainable": true}, "inbound_nodes": [[["activation_21", 0, 0, {}], ["batch_normalization_677", 0, 0, {}]]], "class_name": "Add"}, {"name": "activation_23", "config": {"name": "activation_23", "trainable": true, "activation": "relu"}, "inbound_nodes": [[["add_335", 0, 0, {}]]], "class_name": "Activation"}, {"name": "conv2d_24", "config": {"padding": "same", "activation": "linear", "filters": 6, "kernel_regularizer": {"config": {"l1": 0.0, "l2": 9.999999747378752e-05}, "class_name": "L1L2"}, "activity_regularizer": null, "kernel_size": [3, 3], "use_bias": true, "bias_constraint": null, "trainable": true, "strides": [1, 1], "bias_initializer": {"config": {}, "class_name": "Zeros"}, "name": "conv2d_24", "dilation_rate": [1, 1], "bias_regularizer": null, "data_format": "channels_last", "kernel_initializer": {"config": {"mode": "fan_avg", "scale": 1.0, "seed": null, "distribution": "uniform"}, "class_name": "VarianceScaling"}, "kernel_constraint": null}, "inbound_nodes": [[["activation_23", 0, 0, {}]]], "class_name": "Conv2D"}, {"name": "batch_normalization_678", "config": {"moving_variance_initializer": {"config": {}, "class_name": "Ones"}, "moving_mean_initializer": {"config": {}, "class_name": "Zeros"}, "axis": -1, "gamma_initializer": {"config": {}, "class_name": "Ones"}, "scale": true, "trainable": true, "beta_regularizer": null, "name": "batch_normalization_678", "epsilon": 0.001, "gamma_constraint": null, "momentum": 0.99, "center": true, "gamma_regularizer": null, "beta_initializer": {"config": {}, "class_name": "Zeros"}, "beta_constraint": null}, "inbound_nodes": [[["conv2d_24", 0, 0, {}]]], "class_name": "BatchNormalization"}, {"name": "activation_24", "config": {"name": "activation_24", "trainable": true, "activation": "relu"}, "inbound_nodes": [[["batch_normalization_678", 0, 0, {}]]], "class_name": "Activation"}, {"name": "conv2d_25", "config": {"padding": "same", "activation": "linear", "filters": 16, "kernel_regularizer": {"config": {"l1": 0.0, "l2": 9.999999747378752e-05}, "class_name": "L1L2"}, "activity_regularizer": null, "kernel_size": [3, 3], "use_bias": true, "bias_constraint": null, "trainable": true, "strides": [1, 1], "bias_initializer": {"config": {}, "class_name": "Zeros"}, "name": "conv2d_25", "dilation_rate": [1, 1], "bias_regularizer": null, "data_format": "channels_last", "kernel_initializer": {"config": {"mode": "fan_avg", "scale": 1.0, "seed": null, "distribution": "uniform"}, "class_name": "VarianceScaling"}, "kernel_constraint": null}, "inbound_nodes": [[["activation_24", 0, 0, {}]]], "class_name": "Conv2D"}, {"name": "batch_normalization_679", "config": {"moving_variance_initializer": {"config": {}, "class_name": "Ones"}, "moving_mean_initializer": {"config": {}, "class_name": "Zeros"}, "axis": -1, "gamma_initializer": {"config": {}, "class_name": "Ones"}, "scale": true, "trainable": true, "beta_regularizer": null, "name": "batch_normalization_679", "epsilon": 0.001, "gamma_constraint": null, "momentum": 0.99, "center": true, "gamma_regularizer": null, "beta_initializer": {"config": {}, "class_name": "Zeros"}, "beta_constraint": null}, "inbound_nodes": [[["conv2d_25", 0, 0, {}]]], "class_name": "BatchNormalization"}, {"name": "add_336", "config": {"name": "add_336", "trainable": true}, "inbound_nodes": [[["activation_23", 0, 0, {}], ["batch_normalization_679", 0, 0, {}]]], "class_name": "Add"}, {"name": "activation_25", "config": {"name": "activation_25", "trainable": true, "activation": "relu"}, "inbound_nodes": [[["add_336", 0, 0, {}]]], "class_name": "Activation"}, {"name": "conv2d_26", "config": {"padding": "same", "activation": "linear", "filters": 11, "kernel_regularizer": {"config": {"l1": 0.0, "l2": 9.999999747378752e-05}, "class_name": "L1L2"}, "activity_regularizer": null, "kernel_size": [3, 3], "use_bias": true, "bias_constraint": null, "trainable": true, "strides": [1, 1], "bias_initializer": {"config": {}, "class_name": "Zeros"}, "name": "conv2d_26", "dilation_rate": [1, 1], "bias_regularizer": null, "data_format": "channels_last", "kernel_initializer": {"config": {"mode": "fan_avg", "scale": 1.0, "seed": null, "distribution": "uniform"}, "class_name": "VarianceScaling"}, "kernel_constraint": null}, "inbound_nodes": [[["activation_25", 0, 0, {}]]], "class_name": "Conv2D"}, {"name": "batch_normalization_680", "config": {"moving_variance_initializer": {"config": {}, "class_name": "Ones"}, "moving_mean_initializer": {"config": {}, "class_name": "Zeros"}, "axis": -1, "gamma_initializer": {"config": {}, "class_name": "Ones"}, "scale": true, "trainable": true, "beta_regularizer": null, "name": "batch_normalization_680", "epsilon": 0.001, "gamma_constraint": null, "momentum": 0.99, "center": true, "gamma_regularizer": null, "beta_initializer": {"config": {}, "class_name": "Zeros"}, "beta_constraint": null}, "inbound_nodes": [[["conv2d_26", 0, 0, {}]]], "class_name": "BatchNormalization"}, {"name": "activation_26", "config": {"name": "activation_26", "trainable": true, "activation": "relu"}, "inbound_nodes": [[["batch_normalization_680", 0, 0, {}]]], "class_name": "Activation"}, {"name": "conv2d_27", "config": {"padding": "same", "activation": "linear", "filters": 16, "kernel_regularizer": {"config": {"l1": 0.0, "l2": 9.999999747378752e-05}, "class_name": "L1L2"}, "activity_regularizer": null, "kernel_size": [3, 3], "use_bias": true, "bias_constraint": null, "trainable": true, "strides": [1, 1], "bias_initializer": {"config": {}, "class_name": "Zeros"}, "name": "conv2d_27", "dilation_rate": [1, 1], "bias_regularizer": null, "data_format": "channels_last", "kernel_initializer": {"config": {"mode": "fan_avg", "scale": 1.0, "seed": null, "distribution": "uniform"}, "class_name": "VarianceScaling"}, "kernel_constraint": null}, "inbound_nodes": [[["activation_26", 0, 0, {}]]], "class_name": "Conv2D"}, {"name": "batch_normalization_681", "config": {"moving_variance_initializer": {"config": {}, "class_name": "Ones"}, "moving_mean_initializer": {"config": {}, "class_name": "Zeros"}, "axis": -1, "gamma_initializer": {"config": {}, "class_name": "Ones"}, "scale": true, "trainable": true, "beta_regularizer": null, "name": "batch_normalization_681", "epsilon": 0.001, "gamma_constraint": null, "momentum": 0.99, "center": true, "gamma_regularizer": null, "beta_initializer": {"config": {}, "class_name": "Zeros"}, "beta_constraint": null}, "inbound_nodes": [[["conv2d_27", 0, 0, {}]]], "class_name": "BatchNormalization"}, {"name": "add_337", "config": {"name": "add_337", "trainable": true}, "inbound_nodes": [[["activation_25", 0, 0, {}], ["batch_normalization_681", 0, 0, {}]]], "class_name": "Add"}, {"name": "activation_27", "config": {"name": "activation_27", "trainable": true, "activation": "relu"}, "inbound_nodes": [[["add_337", 0, 0, {}]]], "class_name": "Activation"}, {"name": "conv2d_28", "config": {"padding": "same", "activation": "linear", "filters": 5, "kernel_regularizer": {"config": {"l1": 0.0, "l2": 9.999999747378752e-05}, "class_name": "L1L2"}, "activity_regularizer": null, "kernel_size": [3, 3], "use_bias": true, "bias_constraint": null, "trainable": true, "strides": [1, 1], "bias_initializer": {"config": {}, "class_name": "Zeros"}, "name": "conv2d_28", "dilation_rate": [1, 1], "bias_regularizer": null, "data_format": "channels_last", "kernel_initializer": {"config": {"mode": "fan_avg", "scale": 1.0, "seed": null, "distribution": "uniform"}, "class_name": "VarianceScaling"}, "kernel_constraint": null}, "inbound_nodes": [[["activation_27", 0, 0, {}]]], "class_name": "Conv2D"}, {"name": "batch_normalization_682", "config": {"moving_variance_initializer": {"config": {}, "class_name": "Ones"}, "moving_mean_initializer": {"config": {}, "class_name": "Zeros"}, "axis": -1, "gamma_initializer": {"config": {}, "class_name": "Ones"}, "scale": true, "trainable": true, "beta_regularizer": null, "name": "batch_normalization_682", "epsilon": 0.001, "gamma_constraint": null, "momentum": 0.99, "center": true, "gamma_regularizer": null, "beta_initializer": {"config": {}, "class_name": "Zeros"}, "beta_constraint": null}, "inbound_nodes": [[["conv2d_28", 0, 0, {}]]], "class_name": "BatchNormalization"}, {"name": "activation_28", "config": {"name": "activation_28", "trainable": true, "activation": "relu"}, "inbound_nodes": [[["batch_normalization_682", 0, 0, {}]]], "class_name": "Activation"}, {"name": "conv2d_29", "config": {"padding": "same", "activation": "linear", "filters": 16, "kernel_regularizer": {"config": {"l1": 0.0, "l2": 9.999999747378752e-05}, "class_name": "L1L2"}, "activity_regularizer": null, "kernel_size": [3, 3], "use_bias": true, "bias_constraint": null, "trainable": true, "strides": [1, 1], "bias_initializer": {"config": {}, "class_name": "Zeros"}, "name": "conv2d_29", "dilation_rate": [1, 1], "bias_regularizer": null, "data_format": "channels_last", "kernel_initializer": {"config": {"mode": "fan_avg", "scale": 1.0, "seed": null, "distribution": "uniform"}, "class_name": "VarianceScaling"}, "kernel_constraint": null}, "inbound_nodes": [[["activation_28", 0, 0, {}]]], "class_name": "Conv2D"}, {"name": "batch_normalization_683", "config": {"moving_variance_initializer": {"config": {}, "class_name": "Ones"}, "moving_mean_initializer": {"config": {}, "class_name": "Zeros"}, "axis": -1, "gamma_initializer": {"config": {}, "class_name": "Ones"}, "scale": true, "trainable": true, "beta_regularizer": null, "name": "batch_normalization_683", "epsilon": 0.001, "gamma_constraint": null, "momentum": 0.99, "center": true, "gamma_regularizer": null, "beta_initializer": {"config": {}, "class_name": "Zeros"}, "beta_constraint": null}, "inbound_nodes": [[["conv2d_29", 0, 0, {}]]], "class_name": "BatchNormalization"}, {"name": "add_338", "config": {"name": "add_338", "trainable": true}, "inbound_nodes": [[["activation_27", 0, 0, {}], ["batch_normalization_683", 0, 0, {}]]], "class_name": "Add"}, {"name": "activation_29", "config": {"name": "activation_29", "trainable": true, "activation": "relu"}, "inbound_nodes": [[["add_338", 0, 0, {}]]], "class_name": "Activation"}, {"name": "conv2d_30", "config": {"padding": "same", "activation": "linear", "filters": 5, "kernel_regularizer": {"config": {"l1": 0.0, "l2": 9.999999747378752e-05}, "class_name": "L1L2"}, "activity_regularizer": null, "kernel_size": [3, 3], "use_bias": true, "bias_constraint": null, "trainable": true, "strides": [1, 1], "bias_initializer": {"config": {}, "class_name": "Zeros"}, "name": "conv2d_30", "dilation_rate": [1, 1], "bias_regularizer": null, "data_format": "channels_last", "kernel_initializer": {"config": {"mode": "fan_avg", "scale": 1.0, "seed": null, "distribution": "uniform"}, "class_name": "VarianceScaling"}, "kernel_constraint": null}, "inbound_nodes": [[["activation_29", 0, 0, {}]]], "class_name": "Conv2D"}, {"name": "batch_normalization_684", "config": {"moving_variance_initializer": {"config": {}, "class_name": "Ones"}, "moving_mean_initializer": {"config": {}, "class_name": "Zeros"}, "axis": -1, "gamma_initializer": {"config": {}, "class_name": "Ones"}, "scale": true, "trainable": true, "beta_regularizer": null, "name": "batch_normalization_684", "epsilon": 0.001, "gamma_constraint": null, "momentum": 0.99, "center": true, "gamma_regularizer": null, "beta_initializer": {"config": {}, "class_name": "Zeros"}, "beta_constraint": null}, "inbound_nodes": [[["conv2d_30", 0, 0, {}]]], "class_name": "BatchNormalization"}, {"name": "activation_30", "config": {"name": "activation_30", "trainable": true, "activation": "relu"}, "inbound_nodes": [[["batch_normalization_684", 0, 0, {}]]], "class_name": "Activation"}, {"name": "conv2d_31", "config": {"padding": "same", "activation": "linear", "filters": 16, "kernel_regularizer": {"config": {"l1": 0.0, "l2": 9.999999747378752e-05}, "class_name": "L1L2"}, "activity_regularizer": null, "kernel_size": [3, 3], "use_bias": true, "bias_constraint": null, "trainable": true, "strides": [1, 1], "bias_initializer": {"config": {}, "class_name": "Zeros"}, "name": "conv2d_31", "dilation_rate": [1, 1], "bias_regularizer": null, "data_format": "channels_last", "kernel_initializer": {"config": {"mode": "fan_avg", "scale": 1.0, "seed": null, "distribution": "uniform"}, "class_name": "VarianceScaling"}, "kernel_constraint": null}, "inbound_nodes": [[["activation_30", 0, 0, {}]]], "class_name": "Conv2D"}, {"name": "batch_normalization_685", "config": {"moving_variance_initializer": {"config": {}, "class_name": "Ones"}, "moving_mean_initializer": {"config": {}, "class_name": "Zeros"}, "axis": -1, "gamma_initializer": {"config": {}, "class_name": "Ones"}, "scale": true, "trainable": true, "beta_regularizer": null, "name": "batch_normalization_685", "epsilon": 0.001, "gamma_constraint": null, "momentum": 0.99, "center": true, "gamma_regularizer": null, "beta_initializer": {"config": {}, "class_name": "Zeros"}, "beta_constraint": null}, "inbound_nodes": [[["conv2d_31", 0, 0, {}]]], "class_name": "BatchNormalization"}, {"name": "add_339", "config": {"name": "add_339", "trainable": true}, "inbound_nodes": [[["activation_29", 0, 0, {}], ["batch_normalization_685", 0, 0, {}]]], "class_name": "Add"}, {"name": "activation_31", "config": {"name": "activation_31", "trainable": true, "activation": "relu"}, "inbound_nodes": [[["add_339", 0, 0, {}]]], "class_name": "Activation"}, {"name": "conv2d_32", "config": {"padding": "same", "activation": "linear", "filters": 6, "kernel_regularizer": {"config": {"l1": 0.0, "l2": 9.999999747378752e-05}, "class_name": "L1L2"}, "activity_regularizer": null, "kernel_size": [3, 3], "use_bias": true, "bias_constraint": null, "trainable": true, "strides": [1, 1], "bias_initializer": {"config": {}, "class_name": "Zeros"}, "name": "conv2d_32", "dilation_rate": [1, 1], "bias_regularizer": null, "data_format": "channels_last", "kernel_initializer": {"config": {"mode": "fan_avg", "scale": 1.0, "seed": null, "distribution": "uniform"}, "class_name": "VarianceScaling"}, "kernel_constraint": null}, "inbound_nodes": [[["activation_31", 0, 0, {}]]], "class_name": "Conv2D"}, {"name": "batch_normalization_686", "config": {"moving_variance_initializer": {"config": {}, "class_name": "Ones"}, "moving_mean_initializer": {"config": {}, "class_name": "Zeros"}, "axis": -1, "gamma_initializer": {"config": {}, "class_name": "Ones"}, "scale": true, "trainable": true, "beta_regularizer": null, "name": "batch_normalization_686", "epsilon": 0.001, "gamma_constraint": null, "momentum": 0.99, "center": true, "gamma_regularizer": null, "beta_initializer": {"config": {}, "class_name": "Zeros"}, "beta_constraint": null}, "inbound_nodes": [[["conv2d_32", 0, 0, {}]]], "class_name": "BatchNormalization"}, {"name": "activation_32", "config": {"name": "activation_32", "trainable": true, "activation": "relu"}, "inbound_nodes": [[["batch_normalization_686", 0, 0, {}]]], "class_name": "Activation"}, {"name": "conv2d_33", "config": {"padding": "same", "activation": "linear", "filters": 16, "kernel_regularizer": {"config": {"l1": 0.0, "l2": 9.999999747378752e-05}, "class_name": "L1L2"}, "activity_regularizer": null, "kernel_size": [3, 3], "use_bias": true, "bias_constraint": null, "trainable": true, "strides": [1, 1], "bias_initializer": {"config": {}, "class_name": "Zeros"}, "name": "conv2d_33", "dilation_rate": [1, 1], "bias_regularizer": null, "data_format": "channels_last", "kernel_initializer": {"config": {"mode": "fan_avg", "scale": 1.0, "seed": null, "distribution": "uniform"}, "class_name": "VarianceScaling"}, "kernel_constraint": null}, "inbound_nodes": [[["activation_32", 0, 0, {}]]], "class_name": "Conv2D"}, {"name": "batch_normalization_687", "config": {"moving_variance_initializer": {"config": {}, "class_name": "Ones"}, "moving_mean_initializer": {"config": {}, "class_name": "Zeros"}, "axis": -1, "gamma_initializer": {"config": {}, "class_name": "Ones"}, "scale": true, "trainable": true, "beta_regularizer": null, "name": "batch_normalization_687", "epsilon": 0.001, "gamma_constraint": null, "momentum": 0.99, "center": true, "gamma_regularizer": null, "beta_initializer": {"config": {}, "class_name": "Zeros"}, "beta_constraint": null}, "inbound_nodes": [[["conv2d_33", 0, 0, {}]]], "class_name": "BatchNormalization"}, {"name": "add_340", "config": {"name": "add_340", "trainable": true}, "inbound_nodes": [[["activation_31", 0, 0, {}], ["batch_normalization_687", 0, 0, {}]]], "class_name": "Add"}, {"name": "activation_33", "config": {"name": "activation_33", "trainable": true, "activation": "relu"}, "inbound_nodes": [[["add_340", 0, 0, {}]]], "class_name": "Activation"}, {"name": "conv2d_34", "config": {"padding": "same", "activation": "linear", "filters": 4, "kernel_regularizer": {"config": {"l1": 0.0, "l2": 9.999999747378752e-05}, "class_name": "L1L2"}, "activity_regularizer": null, "kernel_size": [3, 3], "use_bias": true, "bias_constraint": null, "trainable": true, "strides": [1, 1], "bias_initializer": {"config": {}, "class_name": "Zeros"}, "name": "conv2d_34", "dilation_rate": [1, 1], "bias_regularizer": null, "data_format": "channels_last", "kernel_initializer": {"config": {"mode": "fan_avg", "scale": 1.0, "seed": null, "distribution": "uniform"}, "class_name": "VarianceScaling"}, "kernel_constraint": null}, "inbound_nodes": [[["activation_33", 0, 0, {}]]], "class_name": "Conv2D"}, {"name": "batch_normalization_688", "config": {"moving_variance_initializer": {"config": {}, "class_name": "Ones"}, "moving_mean_initializer": {"config": {}, "class_name": "Zeros"}, "axis": -1, "gamma_initializer": {"config": {}, "class_name": "Ones"}, "scale": true, "trainable": true, "beta_regularizer": null, "name": "batch_normalization_688", "epsilon": 0.001, "gamma_constraint": null, "momentum": 0.99, "center": true, "gamma_regularizer": null, "beta_initializer": {"config": {}, "class_name": "Zeros"}, "beta_constraint": null}, "inbound_nodes": [[["conv2d_34", 0, 0, {}]]], "class_name": "BatchNormalization"}, {"name": "activation_34", "config": {"name": "activation_34", "trainable": true, "activation": "relu"}, "inbound_nodes": [[["batch_normalization_688", 0, 0, {}]]], "class_name": "Activation"}, {"name": "conv2d_35", "config": {"padding": "same", "activation": "linear", "filters": 16, "kernel_regularizer": {"config": {"l1": 0.0, "l2": 9.999999747378752e-05}, "class_name": "L1L2"}, "activity_regularizer": null, "kernel_size": [3, 3], "use_bias": true, "bias_constraint": null, "trainable": true, "strides": [1, 1], "bias_initializer": {"config": {}, "class_name": "Zeros"}, "name": "conv2d_35", "dilation_rate": [1, 1], "bias_regularizer": null, "data_format": "channels_last", "kernel_initializer": {"config": {"mode": "fan_avg", "scale": 1.0, "seed": null, "distribution": "uniform"}, "class_name": "VarianceScaling"}, "kernel_constraint": null}, "inbound_nodes": [[["activation_34", 0, 0, {}]]], "class_name": "Conv2D"}, {"name": "batch_normalization_689", "config": {"moving_variance_initializer": {"config": {}, "class_name": "Ones"}, "moving_mean_initializer": {"config": {}, "class_name": "Zeros"}, "axis": -1, "gamma_initializer": {"config": {}, "class_name": "Ones"}, "scale": true, "trainable": true, "beta_regularizer": null, "name": "batch_normalization_689", "epsilon": 0.001, "gamma_constraint": null, "momentum": 0.99, "center": true, "gamma_regularizer": null, "beta_initializer": {"config": {}, "class_name": "Zeros"}, "beta_constraint": null}, "inbound_nodes": [[["conv2d_35", 0, 0, {}]]], "class_name": "BatchNormalization"}, {"name": "add_341", "config": {"name": "add_341", "trainable": true}, "inbound_nodes": [[["activation_33", 0, 0, {}], ["batch_normalization_689", 0, 0, {}]]], "class_name": "Add"}, {"name": "activation_35", "config": {"name": "activation_35", "trainable": true, "activation": "relu"}, "inbound_nodes": [[["add_341", 0, 0, {}]]], "class_name": "Activation"}, {"name": "conv2d_36", "config": {"padding": "same", "activation": "linear", "filters": 8, "kernel_regularizer": {"config": {"l1": 0.0, "l2": 9.999999747378752e-05}, "class_name": "L1L2"}, "activity_regularizer": null, "kernel_size": [3, 3], "use_bias": true, "bias_constraint": null, "trainable": true, "strides": [1, 1], "bias_initializer": {"config": {}, "class_name": "Zeros"}, "name": "conv2d_36", "dilation_rate": [1, 1], "bias_regularizer": null, "data_format": "channels_last", "kernel_initializer": {"config": {"mode": "fan_avg", "scale": 1.0, "seed": null, "distribution": "uniform"}, "class_name": "VarianceScaling"}, "kernel_constraint": null}, "inbound_nodes": [[["activation_35", 0, 0, {}]]], "class_name": "Conv2D"}, {"name": "batch_normalization_690", "config": {"moving_variance_initializer": {"config": {}, "class_name": "Ones"}, "moving_mean_initializer": {"config": {}, "class_name": "Zeros"}, "axis": -1, "gamma_initializer": {"config": {}, "class_name": "Ones"}, "scale": true, "trainable": true, "beta_regularizer": null, "name": "batch_normalization_690", "epsilon": 0.001, "gamma_constraint": null, "momentum": 0.99, "center": true, "gamma_regularizer": null, "beta_initializer": {"config": {}, "class_name": "Zeros"}, "beta_constraint": null}, "inbound_nodes": [[["conv2d_36", 0, 0, {}]]], "class_name": "BatchNormalization"}, {"name": "activation_36", "config": {"name": "activation_36", "trainable": true, "activation": "relu"}, "inbound_nodes": [[["batch_normalization_690", 0, 0, {}]]], "class_name": "Activation"}, {"name": "conv2d_37", "config": {"padding": "same", "activation": "linear", "filters": 16, "kernel_regularizer": {"config": {"l1": 0.0, "l2": 9.999999747378752e-05}, "class_name": "L1L2"}, "activity_regularizer": null, "kernel_size": [3, 3], "use_bias": true, "bias_constraint": null, "trainable": true, "strides": [1, 1], "bias_initializer": {"config": {}, "class_name": "Zeros"}, "name": "conv2d_37", "dilation_rate": [1, 1], "bias_regularizer": null, "data_format": "channels_last", "kernel_initializer": {"config": {"mode": "fan_avg", "scale": 1.0, "seed": null, "distribution": "uniform"}, "class_name": "VarianceScaling"}, "kernel_constraint": null}, "inbound_nodes": [[["activation_36", 0, 0, {}]]], "class_name": "Conv2D"}, {"name": "batch_normalization_691", "config": {"moving_variance_initializer": {"config": {}, "class_name": "Ones"}, "moving_mean_initializer": {"config": {}, "class_name": "Zeros"}, "axis": -1, "gamma_initializer": {"config": {}, "class_name": "Ones"}, "scale": true, "trainable": true, "beta_regularizer": null, "name": "batch_normalization_691", "epsilon": 0.001, "gamma_constraint": null, "momentum": 0.99, "center": true, "gamma_regularizer": null, "beta_initializer": {"config": {}, "class_name": "Zeros"}, "beta_constraint": null}, "inbound_nodes": [[["conv2d_37", 0, 0, {}]]], "class_name": "BatchNormalization"}, {"name": "add_342", "config": {"name": "add_342", "trainable": true}, "inbound_nodes": [[["activation_35", 0, 0, {}], ["batch_normalization_691", 0, 0, {}]]], "class_name": "Add"}, {"name": "activation_37", "config": {"name": "activation_37", "trainable": true, "activation": "relu"}, "inbound_nodes": [[["add_342", 0, 0, {}]]], "class_name": "Activation"}, {"name": "conv2d_38", "config": {"padding": "same", "activation": "linear", "filters": 18, "kernel_regularizer": {"config": {"l1": 0.0, "l2": 9.999999747378752e-05}, "class_name": "L1L2"}, "activity_regularizer": null, "kernel_size": [3, 3], "use_bias": true, "bias_constraint": null, "trainable": true, "strides": [2, 2], "bias_initializer": {"config": {}, "class_name": "Zeros"}, "name": "conv2d_38", "dilation_rate": [1, 1], "bias_regularizer": null, "data_format": "channels_last", "kernel_initializer": {"config": {"mode": "fan_avg", "scale": 1.0, "seed": null, "distribution": "uniform"}, "class_name": "VarianceScaling"}, "kernel_constraint": null}, "inbound_nodes": [[["activation_37", 0, 0, {}]]], "class_name": "Conv2D"}, {"name": "batch_normalization_692", "config": {"moving_variance_initializer": {"config": {}, "class_name": "Ones"}, "moving_mean_initializer": {"config": {}, "class_name": "Zeros"}, "axis": -1, "gamma_initializer": {"config": {}, "class_name": "Ones"}, "scale": true, "trainable": true, "beta_regularizer": null, "name": "batch_normalization_692", "epsilon": 0.001, "gamma_constraint": null, "momentum": 0.99, "center": true, "gamma_regularizer": null, "beta_initializer": {"config": {}, "class_name": "Zeros"}, "beta_constraint": null}, "inbound_nodes": [[["conv2d_38", 0, 0, {}]]], "class_name": "BatchNormalization"}, {"name": "activation_38", "config": {"name": "activation_38", "trainable": true, "activation": "relu"}, "inbound_nodes": [[["batch_normalization_692", 0, 0, {}]]], "class_name": "Activation"}, {"name": "conv2d_39", "config": {"padding": "same", "activation": "linear", "filters": 32, "kernel_regularizer": {"config": {"l1": 0.0, "l2": 9.999999747378752e-05}, "class_name": "L1L2"}, "activity_regularizer": null, "kernel_size": [3, 3], "use_bias": true, "bias_constraint": null, "trainable": true, "strides": [1, 1], "bias_initializer": {"config": {}, "class_name": "Zeros"}, "name": "conv2d_39", "dilation_rate": [1, 1], "bias_regularizer": null, "data_format": "channels_last", "kernel_initializer": {"config": {"mode": "fan_avg", "scale": 1.0, "seed": null, "distribution": "uniform"}, "class_name": "VarianceScaling"}, "kernel_constraint": null}, "inbound_nodes": [[["activation_38", 0, 0, {}]]], "class_name": "Conv2D"}, {"name": "conv2d_40", "config": {"padding": "same", "activation": "linear", "filters": 32, "kernel_regularizer": {"config": {"l1": 0.0, "l2": 9.999999747378752e-05}, "class_name": "L1L2"}, "activity_regularizer": null, "kernel_size": [1, 1], "use_bias": true, "bias_constraint": null, "trainable": true, "strides": [2, 2], "bias_initializer": {"config": {}, "class_name": "Zeros"}, "name": "conv2d_40", "dilation_rate": [1, 1], "bias_regularizer": null, "data_format": "channels_last", "kernel_initializer": {"config": {"mode": "fan_avg", "scale": 1.0, "seed": null, "distribution": "uniform"}, "class_name": "VarianceScaling"}, "kernel_constraint": null}, "inbound_nodes": [[["activation_37", 0, 0, {}]]], "class_name": "Conv2D"}, {"name": "batch_normalization_693", "config": {"moving_variance_initializer": {"config": {}, "class_name": "Ones"}, "moving_mean_initializer": {"config": {}, "class_name": "Zeros"}, "axis": -1, "gamma_initializer": {"config": {}, "class_name": "Ones"}, "scale": true, "trainable": true, "beta_regularizer": null, "name": "batch_normalization_693", "epsilon": 0.001, "gamma_constraint": null, "momentum": 0.99, "center": true, "gamma_regularizer": null, "beta_initializer": {"config": {}, "class_name": "Zeros"}, "beta_constraint": null}, "inbound_nodes": [[["conv2d_39", 0, 0, {}]]], "class_name": "BatchNormalization"}, {"name": "add_343", "config": {"name": "add_343", "trainable": true}, "inbound_nodes": [[["conv2d_40", 0, 0, {}], ["batch_normalization_693", 0, 0, {}]]], "class_name": "Add"}, {"name": "activation_39", "config": {"name": "activation_39", "trainable": true, "activation": "relu"}, "inbound_nodes": [[["add_343", 0, 0, {}]]], "class_name": "Activation"}, {"name": "conv2d_41", "config": {"padding": "same", "activation": "linear", "filters": 19, "kernel_regularizer": {"config": {"l1": 0.0, "l2": 9.999999747378752e-05}, "class_name": "L1L2"}, "activity_regularizer": null, "kernel_size": [3, 3], "use_bias": true, "bias_constraint": null, "trainable": true, "strides": [1, 1], "bias_initializer": {"config": {}, "class_name": "Zeros"}, "name": "conv2d_41", "dilation_rate": [1, 1], "bias_regularizer": null, "data_format": "channels_last", "kernel_initializer": {"config": {"mode": "fan_avg", "scale": 1.0, "seed": null, "distribution": "uniform"}, "class_name": "VarianceScaling"}, "kernel_constraint": null}, "inbound_nodes": [[["activation_39", 0, 0, {}]]], "class_name": "Conv2D"}, {"name": "batch_normalization_694", "config": {"moving_variance_initializer": {"config": {}, "class_name": "Ones"}, "moving_mean_initializer": {"config": {}, "class_name": "Zeros"}, "axis": -1, "gamma_initializer": {"config": {}, "class_name": "Ones"}, "scale": true, "trainable": true, "beta_regularizer": null, "name": "batch_normalization_694", "epsilon": 0.001, "gamma_constraint": null, "momentum": 0.99, "center": true, "gamma_regularizer": null, "beta_initializer": {"config": {}, "class_name": "Zeros"}, "beta_constraint": null}, "inbound_nodes": [[["conv2d_41", 0, 0, {}]]], "class_name": "BatchNormalization"}, {"name": "activation_40", "config": {"name": "activation_40", "trainable": true, "activation": "relu"}, "inbound_nodes": [[["batch_normalization_694", 0, 0, {}]]], "class_name": "Activation"}, {"name": "conv2d_42", "config": {"padding": "same", "activation": "linear", "filters": 32, "kernel_regularizer": {"config": {"l1": 0.0, "l2": 9.999999747378752e-05}, "class_name": "L1L2"}, "activity_regularizer": null, "kernel_size": [3, 3], "use_bias": true, "bias_constraint": null, "trainable": true, "strides": [1, 1], "bias_initializer": {"config": {}, "class_name": "Zeros"}, "name": "conv2d_42", "dilation_rate": [1, 1], "bias_regularizer": null, "data_format": "channels_last", "kernel_initializer": {"config": {"mode": "fan_avg", "scale": 1.0, "seed": null, "distribution": "uniform"}, "class_name": "VarianceScaling"}, "kernel_constraint": null}, "inbound_nodes": [[["activation_40", 0, 0, {}]]], "class_name": "Conv2D"}, {"name": "batch_normalization_695", "config": {"moving_variance_initializer": {"config": {}, "class_name": "Ones"}, "moving_mean_initializer": {"config": {}, "class_name": "Zeros"}, "axis": -1, "gamma_initializer": {"config": {}, "class_name": "Ones"}, "scale": true, "trainable": true, "beta_regularizer": null, "name": "batch_normalization_695", "epsilon": 0.001, "gamma_constraint": null, "momentum": 0.99, "center": true, "gamma_regularizer": null, "beta_initializer": {"config": {}, "class_name": "Zeros"}, "beta_constraint": null}, "inbound_nodes": [[["conv2d_42", 0, 0, {}]]], "class_name": "BatchNormalization"}, {"name": "add_344", "config": {"name": "add_344", "trainable": true}, "inbound_nodes": [[["activation_39", 0, 0, {}], ["batch_normalization_695", 0, 0, {}]]], "class_name": "Add"}, {"name": "activation_41", "config": {"name": "activation_41", "trainable": true, "activation": "relu"}, "inbound_nodes": [[["add_344", 0, 0, {}]]], "class_name": "Activation"}, {"name": "conv2d_43", "config": {"padding": "same", "activation": "linear", "filters": 18, "kernel_regularizer": {"config": {"l1": 0.0, "l2": 9.999999747378752e-05}, "class_name": "L1L2"}, "activity_regularizer": null, "kernel_size": [3, 3], "use_bias": true, "bias_constraint": null, "trainable": true, "strides": [1, 1], "bias_initializer": {"config": {}, "class_name": "Zeros"}, "name": "conv2d_43", "dilation_rate": [1, 1], "bias_regularizer": null, "data_format": "channels_last", "kernel_initializer": {"config": {"mode": "fan_avg", "scale": 1.0, "seed": null, "distribution": "uniform"}, "class_name": "VarianceScaling"}, "kernel_constraint": null}, "inbound_nodes": [[["activation_41", 0, 0, {}]]], "class_name": "Conv2D"}, {"name": "batch_normalization_696", "config": {"moving_variance_initializer": {"config": {}, "class_name": "Ones"}, "moving_mean_initializer": {"config": {}, "class_name": "Zeros"}, "axis": -1, "gamma_initializer": {"config": {}, "class_name": "Ones"}, "scale": true, "trainable": true, "beta_regularizer": null, "name": "batch_normalization_696", "epsilon": 0.001, "gamma_constraint": null, "momentum": 0.99, "center": true, "gamma_regularizer": null, "beta_initializer": {"config": {}, "class_name": "Zeros"}, "beta_constraint": null}, "inbound_nodes": [[["conv2d_43", 0, 0, {}]]], "class_name": "BatchNormalization"}, {"name": "activation_42", "config": {"name": "activation_42", "trainable": true, "activation": "relu"}, "inbound_nodes": [[["batch_normalization_696", 0, 0, {}]]], "class_name": "Activation"}, {"name": "conv2d_44", "config": {"padding": "same", "activation": "linear", "filters": 32, "kernel_regularizer": {"config": {"l1": 0.0, "l2": 9.999999747378752e-05}, "class_name": "L1L2"}, "activity_regularizer": null, "kernel_size": [3, 3], "use_bias": true, "bias_constraint": null, "trainable": true, "strides": [1, 1], "bias_initializer": {"config": {}, "class_name": "Zeros"}, "name": "conv2d_44", "dilation_rate": [1, 1], "bias_regularizer": null, "data_format": "channels_last", "kernel_initializer": {"config": {"mode": "fan_avg", "scale": 1.0, "seed": null, "distribution": "uniform"}, "class_name": "VarianceScaling"}, "kernel_constraint": null}, "inbound_nodes": [[["activation_42", 0, 0, {}]]], "class_name": "Conv2D"}, {"name": "batch_normalization_697", "config": {"moving_variance_initializer": {"config": {}, "class_name": "Ones"}, "moving_mean_initializer": {"config": {}, "class_name": "Zeros"}, "axis": -1, "gamma_initializer": {"config": {}, "class_name": "Ones"}, "scale": true, "trainable": true, "beta_regularizer": null, "name": "batch_normalization_697", "epsilon": 0.001, "gamma_constraint": null, "momentum": 0.99, "center": true, "gamma_regularizer": null, "beta_initializer": {"config": {}, "class_name": "Zeros"}, "beta_constraint": null}, "inbound_nodes": [[["conv2d_44", 0, 0, {}]]], "class_name": "BatchNormalization"}, {"name": "add_345", "config": {"name": "add_345", "trainable": true}, "inbound_nodes": [[["activation_41", 0, 0, {}], ["batch_normalization_697", 0, 0, {}]]], "class_name": "Add"}, {"name": "activation_43", "config": {"name": "activation_43", "trainable": true, "activation": "relu"}, "inbound_nodes": [[["add_345", 0, 0, {}]]], "class_name": "Activation"}, {"name": "conv2d_45", "config": {"padding": "same", "activation": "linear", "filters": 14, "kernel_regularizer": {"config": {"l1": 0.0, "l2": 9.999999747378752e-05}, "class_name": "L1L2"}, "activity_regularizer": null, "kernel_size": [3, 3], "use_bias": true, "bias_constraint": null, "trainable": true, "strides": [1, 1], "bias_initializer": {"config": {}, "class_name": "Zeros"}, "name": "conv2d_45", "dilation_rate": [1, 1], "bias_regularizer": null, "data_format": "channels_last", "kernel_initializer": {"config": {"mode": "fan_avg", "scale": 1.0, "seed": null, "distribution": "uniform"}, "class_name": "VarianceScaling"}, "kernel_constraint": null}, "inbound_nodes": [[["activation_43", 0, 0, {}]]], "class_name": "Conv2D"}, {"name": "batch_normalization_698", "config": {"moving_variance_initializer": {"config": {}, "class_name": "Ones"}, "moving_mean_initializer": {"config": {}, "class_name": "Zeros"}, "axis": -1, "gamma_initializer": {"config": {}, "class_name": "Ones"}, "scale": true, "trainable": true, "beta_regularizer": null, "name": "batch_normalization_698", "epsilon": 0.001, "gamma_constraint": null, "momentum": 0.99, "center": true, "gamma_regularizer": null, "beta_initializer": {"config": {}, "class_name": "Zeros"}, "beta_constraint": null}, "inbound_nodes": [[["conv2d_45", 0, 0, {}]]], "class_name": "BatchNormalization"}, {"name": "activation_44", "config": {"name": "activation_44", "trainable": true, "activation": "relu"}, "inbound_nodes": [[["batch_normalization_698", 0, 0, {}]]], "class_name": "Activation"}, {"name": "conv2d_46", "config": {"padding": "same", "activation": "linear", "filters": 32, "kernel_regularizer": {"config": {"l1": 0.0, "l2": 9.999999747378752e-05}, "class_name": "L1L2"}, "activity_regularizer": null, "kernel_size": [3, 3], "use_bias": true, "bias_constraint": null, "trainable": true, "strides": [1, 1], "bias_initializer": {"config": {}, "class_name": "Zeros"}, "name": "conv2d_46", "dilation_rate": [1, 1], "bias_regularizer": null, "data_format": "channels_last", "kernel_initializer": {"config": {"mode": "fan_avg", "scale": 1.0, "seed": null, "distribution": "uniform"}, "class_name": "VarianceScaling"}, "kernel_constraint": null}, "inbound_nodes": [[["activation_44", 0, 0, {}]]], "class_name": "Conv2D"}, {"name": "batch_normalization_699", "config": {"moving_variance_initializer": {"config": {}, "class_name": "Ones"}, "moving_mean_initializer": {"config": {}, "class_name": "Zeros"}, "axis": -1, "gamma_initializer": {"config": {}, "class_name": "Ones"}, "scale": true, "trainable": true, "beta_regularizer": null, "name": "batch_normalization_699", "epsilon": 0.001, "gamma_constraint": null, "momentum": 0.99, "center": true, "gamma_regularizer": null, "beta_initializer": {"config": {}, "class_name": "Zeros"}, "beta_constraint": null}, "inbound_nodes": [[["conv2d_46", 0, 0, {}]]], "class_name": "BatchNormalization"}, {"name": "add_346", "config": {"name": "add_346", "trainable": true}, "inbound_nodes": [[["activation_43", 0, 0, {}], ["batch_normalization_699", 0, 0, {}]]], "class_name": "Add"}, {"name": "activation_45", "config": {"name": "activation_45", "trainable": true, "activation": "relu"}, "inbound_nodes": [[["add_346", 0, 0, {}]]], "class_name": "Activation"}, {"name": "conv2d_47", "config": {"padding": "same", "activation": "linear", "filters": 12, "kernel_regularizer": {"config": {"l1": 0.0, "l2": 9.999999747378752e-05}, "class_name": "L1L2"}, "activity_regularizer": null, "kernel_size": [3, 3], "use_bias": true, "bias_constraint": null, "trainable": true, "strides": [1, 1], "bias_initializer": {"config": {}, "class_name": "Zeros"}, "name": "conv2d_47", "dilation_rate": [1, 1], "bias_regularizer": null, "data_format": "channels_last", "kernel_initializer": {"config": {"mode": "fan_avg", "scale": 1.0, "seed": null, "distribution": "uniform"}, "class_name": "VarianceScaling"}, "kernel_constraint": null}, "inbound_nodes": [[["activation_45", 0, 0, {}]]], "class_name": "Conv2D"}, {"name": "batch_normalization_700", "config": {"moving_variance_initializer": {"config": {}, "class_name": "Ones"}, "moving_mean_initializer": {"config": {}, "class_name": "Zeros"}, "axis": -1, "gamma_initializer": {"config": {}, "class_name": "Ones"}, "scale": true, "trainable": true, "beta_regularizer": null, "name": "batch_normalization_700", "epsilon": 0.001, "gamma_constraint": null, "momentum": 0.99, "center": true, "gamma_regularizer": null, "beta_initializer": {"config": {}, "class_name": "Zeros"}, "beta_constraint": null}, "inbound_nodes": [[["conv2d_47", 0, 0, {}]]], "class_name": "BatchNormalization"}, {"name": "activation_46", "config": {"name": "activation_46", "trainable": true, "activation": "relu"}, "inbound_nodes": [[["batch_normalization_700", 0, 0, {}]]], "class_name": "Activation"}, {"name": "conv2d_48", "config": {"padding": "same", "activation": "linear", "filters": 32, "kernel_regularizer": {"config": {"l1": 0.0, "l2": 9.999999747378752e-05}, "class_name": "L1L2"}, "activity_regularizer": null, "kernel_size": [3, 3], "use_bias": true, "bias_constraint": null, "trainable": true, "strides": [1, 1], "bias_initializer": {"config": {}, "class_name": "Zeros"}, "name": "conv2d_48", "dilation_rate": [1, 1], "bias_regularizer": null, "data_format": "channels_last", "kernel_initializer": {"config": {"mode": "fan_avg", "scale": 1.0, "seed": null, "distribution": "uniform"}, "class_name": "VarianceScaling"}, "kernel_constraint": null}, "inbound_nodes": [[["activation_46", 0, 0, {}]]], "class_name": "Conv2D"}, {"name": "batch_normalization_701", "config": {"moving_variance_initializer": {"config": {}, "class_name": "Ones"}, "moving_mean_initializer": {"config": {}, "class_name": "Zeros"}, "axis": -1, "gamma_initializer": {"config": {}, "class_name": "Ones"}, "scale": true, "trainable": true, "beta_regularizer": null, "name": "batch_normalization_701", "epsilon": 0.001, "gamma_constraint": null, "momentum": 0.99, "center": true, "gamma_regularizer": null, "beta_initializer": {"config": {}, "class_name": "Zeros"}, "beta_constraint": null}, "inbound_nodes": [[["conv2d_48", 0, 0, {}]]], "class_name": "BatchNormalization"}, {"name": "add_347", "config": {"name": "add_347", "trainable": true}, "inbound_nodes": [[["activation_45", 0, 0, {}], ["batch_normalization_701", 0, 0, {}]]], "class_name": "Add"}, {"name": "activation_47", "config": {"name": "activation_47", "trainable": true, "activation": "relu"}, "inbound_nodes": [[["add_347", 0, 0, {}]]], "class_name": "Activation"}, {"name": "conv2d_49", "config": {"padding": "same", "activation": "linear", "filters": 17, "kernel_regularizer": {"config": {"l1": 0.0, "l2": 9.999999747378752e-05}, "class_name": "L1L2"}, "activity_regularizer": null, "kernel_size": [3, 3], "use_bias": true, "bias_constraint": null, "trainable": true, "strides": [1, 1], "bias_initializer": {"config": {}, "class_name": "Zeros"}, "name": "conv2d_49", "dilation_rate": [1, 1], "bias_regularizer": null, "data_format": "channels_last", "kernel_initializer": {"config": {"mode": "fan_avg", "scale": 1.0, "seed": null, "distribution": "uniform"}, "class_name": "VarianceScaling"}, "kernel_constraint": null}, "inbound_nodes": [[["activation_47", 0, 0, {}]]], "class_name": "Conv2D"}, {"name": "batch_normalization_702", "config": {"moving_variance_initializer": {"config": {}, "class_name": "Ones"}, "moving_mean_initializer": {"config": {}, "class_name": "Zeros"}, "axis": -1, "gamma_initializer": {"config": {}, "class_name": "Ones"}, "scale": true, "trainable": true, "beta_regularizer": null, "name": "batch_normalization_702", "epsilon": 0.001, "gamma_constraint": null, "momentum": 0.99, "center": true, "gamma_regularizer": null, "beta_initializer": {"config": {}, "class_name": "Zeros"}, "beta_constraint": null}, "inbound_nodes": [[["conv2d_49", 0, 0, {}]]], "class_name": "BatchNormalization"}, {"name": "activation_48", "config": {"name": "activation_48", "trainable": true, "activation": "relu"}, "inbound_nodes": [[["batch_normalization_702", 0, 0, {}]]], "class_name": "Activation"}, {"name": "conv2d_50", "config": {"padding": "same", "activation": "linear", "filters": 32, "kernel_regularizer": {"config": {"l1": 0.0, "l2": 9.999999747378752e-05}, "class_name": "L1L2"}, "activity_regularizer": null, "kernel_size": [3, 3], "use_bias": true, "bias_constraint": null, "trainable": true, "strides": [1, 1], "bias_initializer": {"config": {}, "class_name": "Zeros"}, "name": "conv2d_50", "dilation_rate": [1, 1], "bias_regularizer": null, "data_format": "channels_last", "kernel_initializer": {"config": {"mode": "fan_avg", "scale": 1.0, "seed": null, "distribution": "uniform"}, "class_name": "VarianceScaling"}, "kernel_constraint": null}, "inbound_nodes": [[["activation_48", 0, 0, {}]]], "class_name": "Conv2D"}, {"name": "batch_normalization_703", "config": {"moving_variance_initializer": {"config": {}, "class_name": "Ones"}, "moving_mean_initializer": {"config": {}, "class_name": "Zeros"}, "axis": -1, "gamma_initializer": {"config": {}, "class_name": "Ones"}, "scale": true, "trainable": true, "beta_regularizer": null, "name": "batch_normalization_703", "epsilon": 0.001, "gamma_constraint": null, "momentum": 0.99, "center": true, "gamma_regularizer": null, "beta_initializer": {"config": {}, "class_name": "Zeros"}, "beta_constraint": null}, "inbound_nodes": [[["conv2d_50", 0, 0, {}]]], "class_name": "BatchNormalization"}, {"name": "add_348", "config": {"name": "add_348", "trainable": true}, "inbound_nodes": [[["activation_47", 0, 0, {}], ["batch_normalization_703", 0, 0, {}]]], "class_name": "Add"}, {"name": "activation_49", "config": {"name": "activation_49", "trainable": true, "activation": "relu"}, "inbound_nodes": [[["add_348", 0, 0, {}]]], "class_name": "Activation"}, {"name": "conv2d_51", "config": {"padding": "same", "activation": "linear", "filters": 13, "kernel_regularizer": {"config": {"l1": 0.0, "l2": 9.999999747378752e-05}, "class_name": "L1L2"}, "activity_regularizer": null, "kernel_size": [3, 3], "use_bias": true, "bias_constraint": null, "trainable": true, "strides": [1, 1], "bias_initializer": {"config": {}, "class_name": "Zeros"}, "name": "conv2d_51", "dilation_rate": [1, 1], "bias_regularizer": null, "data_format": "channels_last", "kernel_initializer": {"config": {"mode": "fan_avg", "scale": 1.0, "seed": null, "distribution": "uniform"}, "class_name": "VarianceScaling"}, "kernel_constraint": null}, "inbound_nodes": [[["activation_49", 0, 0, {}]]], "class_name": "Conv2D"}, {"name": "batch_normalization_704", "config": {"moving_variance_initializer": {"config": {}, "class_name": "Ones"}, "moving_mean_initializer": {"config": {}, "class_name": "Zeros"}, "axis": -1, "gamma_initializer": {"config": {}, "class_name": "Ones"}, "scale": true, "trainable": true, "beta_regularizer": null, "name": "batch_normalization_704", "epsilon": 0.001, "gamma_constraint": null, "momentum": 0.99, "center": true, "gamma_regularizer": null, "beta_initializer": {"config": {}, "class_name": "Zeros"}, "beta_constraint": null}, "inbound_nodes": [[["conv2d_51", 0, 0, {}]]], "class_name": "BatchNormalization"}, {"name": "activation_50", "config": {"name": "activation_50", "trainable": true, "activation": "relu"}, "inbound_nodes": [[["batch_normalization_704", 0, 0, {}]]], "class_name": "Activation"}, {"name": "conv2d_52", "config": {"padding": "same", "activation": "linear", "filters": 32, "kernel_regularizer": {"config": {"l1": 0.0, "l2": 9.999999747378752e-05}, "class_name": "L1L2"}, "activity_regularizer": null, "kernel_size": [3, 3], "use_bias": true, "bias_constraint": null, "trainable": true, "strides": [1, 1], "bias_initializer": {"config": {}, "class_name": "Zeros"}, "name": "conv2d_52", "dilation_rate": [1, 1], "bias_regularizer": null, "data_format": "channels_last", "kernel_initializer": {"config": {"mode": "fan_avg", "scale": 1.0, "seed": null, "distribution": "uniform"}, "class_name": "VarianceScaling"}, "kernel_constraint": null}, "inbound_nodes": [[["activation_50", 0, 0, {}]]], "class_name": "Conv2D"}, {"name": "batch_normalization_705", "config": {"moving_variance_initializer": {"config": {}, "class_name": "Ones"}, "moving_mean_initializer": {"config": {}, "class_name": "Zeros"}, "axis": -1, "gamma_initializer": {"config": {}, "class_name": "Ones"}, "scale": true, "trainable": true, "beta_regularizer": null, "name": "batch_normalization_705", "epsilon": 0.001, "gamma_constraint": null, "momentum": 0.99, "center": true, "gamma_regularizer": null, "beta_initializer": {"config": {}, "class_name": "Zeros"}, "beta_constraint": null}, "inbound_nodes": [[["conv2d_52", 0, 0, {}]]], "class_name": "BatchNormalization"}, {"name": "add_349", "config": {"name": "add_349", "trainable": true}, "inbound_nodes": [[["activation_49", 0, 0, {}], ["batch_normalization_705", 0, 0, {}]]], "class_name": "Add"}, {"name": "activation_51", "config": {"name": "activation_51", "trainable": true, "activation": "relu"}, "inbound_nodes": [[["add_349", 0, 0, {}]]], "class_name": "Activation"}, {"name": "conv2d_53", "config": {"padding": "same", "activation": "linear", "filters": 20, "kernel_regularizer": {"config": {"l1": 0.0, "l2": 9.999999747378752e-05}, "class_name": "L1L2"}, "activity_regularizer": null, "kernel_size": [3, 3], "use_bias": true, "bias_constraint": null, "trainable": true, "strides": [1, 1], "bias_initializer": {"config": {}, "class_name": "Zeros"}, "name": "conv2d_53", "dilation_rate": [1, 1], "bias_regularizer": null, "data_format": "channels_last", "kernel_initializer": {"config": {"mode": "fan_avg", "scale": 1.0, "seed": null, "distribution": "uniform"}, "class_name": "VarianceScaling"}, "kernel_constraint": null}, "inbound_nodes": [[["activation_51", 0, 0, {}]]], "class_name": "Conv2D"}, {"name": "batch_normalization_706", "config": {"moving_variance_initializer": {"config": {}, "class_name": "Ones"}, "moving_mean_initializer": {"config": {}, "class_name": "Zeros"}, "axis": -1, "gamma_initializer": {"config": {}, "class_name": "Ones"}, "scale": true, "trainable": true, "beta_regularizer": null, "name": "batch_normalization_706", "epsilon": 0.001, "gamma_constraint": null, "momentum": 0.99, "center": true, "gamma_regularizer": null, "beta_initializer": {"config": {}, "class_name": "Zeros"}, "beta_constraint": null}, "inbound_nodes": [[["conv2d_53", 0, 0, {}]]], "class_name": "BatchNormalization"}, {"name": "activation_52", "config": {"name": "activation_52", "trainable": true, "activation": "relu"}, "inbound_nodes": [[["batch_normalization_706", 0, 0, {}]]], "class_name": "Activation"}, {"name": "conv2d_54", "config": {"padding": "same", "activation": "linear", "filters": 32, "kernel_regularizer": {"config": {"l1": 0.0, "l2": 9.999999747378752e-05}, "class_name": "L1L2"}, "activity_regularizer": null, "kernel_size": [3, 3], "use_bias": true, "bias_constraint": null, "trainable": true, "strides": [1, 1], "bias_initializer": {"config": {}, "class_name": "Zeros"}, "name": "conv2d_54", "dilation_rate": [1, 1], "bias_regularizer": null, "data_format": "channels_last", "kernel_initializer": {"config": {"mode": "fan_avg", "scale": 1.0, "seed": null, "distribution": "uniform"}, "class_name": "VarianceScaling"}, "kernel_constraint": null}, "inbound_nodes": [[["activation_52", 0, 0, {}]]], "class_name": "Conv2D"}, {"name": "batch_normalization_707", "config": {"moving_variance_initializer": {"config": {}, "class_name": "Ones"}, "moving_mean_initializer": {"config": {}, "class_name": "Zeros"}, "axis": -1, "gamma_initializer": {"config": {}, "class_name": "Ones"}, "scale": true, "trainable": true, "beta_regularizer": null, "name": "batch_normalization_707", "epsilon": 0.001, "gamma_constraint": null, "momentum": 0.99, "center": true, "gamma_regularizer": null, "beta_initializer": {"config": {}, "class_name": "Zeros"}, "beta_constraint": null}, "inbound_nodes": [[["conv2d_54", 0, 0, {}]]], "class_name": "BatchNormalization"}, {"name": "add_350", "config": {"name": "add_350", "trainable": true}, "inbound_nodes": [[["activation_51", 0, 0, {}], ["batch_normalization_707", 0, 0, {}]]], "class_name": "Add"}, {"name": "activation_53", "config": {"name": "activation_53", "trainable": true, "activation": "relu"}, "inbound_nodes": [[["add_350", 0, 0, {}]]], "class_name": "Activation"}, {"name": "conv2d_55", "config": {"padding": "same", "activation": "linear", "filters": 18, "kernel_regularizer": {"config": {"l1": 0.0, "l2": 9.999999747378752e-05}, "class_name": "L1L2"}, "activity_regularizer": null, "kernel_size": [3, 3], "use_bias": true, "bias_constraint": null, "trainable": true, "strides": [1, 1], "bias_initializer": {"config": {}, "class_name": "Zeros"}, "name": "conv2d_55", "dilation_rate": [1, 1], "bias_regularizer": null, "data_format": "channels_last", "kernel_initializer": {"config": {"mode": "fan_avg", "scale": 1.0, "seed": null, "distribution": "uniform"}, "class_name": "VarianceScaling"}, "kernel_constraint": null}, "inbound_nodes": [[["activation_53", 0, 0, {}]]], "class_name": "Conv2D"}, {"name": "batch_normalization_708", "config": {"moving_variance_initializer": {"config": {}, "class_name": "Ones"}, "moving_mean_initializer": {"config": {}, "class_name": "Zeros"}, "axis": -1, "gamma_initializer": {"config": {}, "class_name": "Ones"}, "scale": true, "trainable": true, "beta_regularizer": null, "name": "batch_normalization_708", "epsilon": 0.001, "gamma_constraint": null, "momentum": 0.99, "center": true, "gamma_regularizer": null, "beta_initializer": {"config": {}, "class_name": "Zeros"}, "beta_constraint": null}, "inbound_nodes": [[["conv2d_55", 0, 0, {}]]], "class_name": "BatchNormalization"}, {"name": "activation_54", "config": {"name": "activation_54", "trainable": true, "activation": "relu"}, "inbound_nodes": [[["batch_normalization_708", 0, 0, {}]]], "class_name": "Activation"}, {"name": "conv2d_56", "config": {"padding": "same", "activation": "linear", "filters": 32, "kernel_regularizer": {"config": {"l1": 0.0, "l2": 9.999999747378752e-05}, "class_name": "L1L2"}, "activity_regularizer": null, "kernel_size": [3, 3], "use_bias": true, "bias_constraint": null, "trainable": true, "strides": [1, 1], "bias_initializer": {"config": {}, "class_name": "Zeros"}, "name": "conv2d_56", "dilation_rate": [1, 1], "bias_regularizer": null, "data_format": "channels_last", "kernel_initializer": {"config": {"mode": "fan_avg", "scale": 1.0, "seed": null, "distribution": "uniform"}, "class_name": "VarianceScaling"}, "kernel_constraint": null}, "inbound_nodes": [[["activation_54", 0, 0, {}]]], "class_name": "Conv2D"}, {"name": "batch_normalization_709", "config": {"moving_variance_initializer": {"config": {}, "class_name": "Ones"}, "moving_mean_initializer": {"config": {}, "class_name": "Zeros"}, "axis": -1, "gamma_initializer": {"config": {}, "class_name": "Ones"}, "scale": true, "trainable": true, "beta_regularizer": null, "name": "batch_normalization_709", "epsilon": 0.001, "gamma_constraint": null, "momentum": 0.99, "center": true, "gamma_regularizer": null, "beta_initializer": {"config": {}, "class_name": "Zeros"}, "beta_constraint": null}, "inbound_nodes": [[["conv2d_56", 0, 0, {}]]], "class_name": "BatchNormalization"}, {"name": "add_351", "config": {"name": "add_351", "trainable": true}, "inbound_nodes": [[["activation_53", 0, 0, {}], ["batch_normalization_709", 0, 0, {}]]], "class_name": "Add"}, {"name": "activation_55", "config": {"name": "activation_55", "trainable": true, "activation": "relu"}, "inbound_nodes": [[["add_351", 0, 0, {}]]], "class_name": "Activation"}, {"name": "conv2d_57", "config": {"padding": "same", "activation": "linear", "filters": 9, "kernel_regularizer": {"config": {"l1": 0.0, "l2": 9.999999747378752e-05}, "class_name": "L1L2"}, "activity_regularizer": null, "kernel_size": [3, 3], "use_bias": true, "bias_constraint": null, "trainable": true, "strides": [1, 1], "bias_initializer": {"config": {}, "class_name": "Zeros"}, "name": "conv2d_57", "dilation_rate": [1, 1], "bias_regularizer": null, "data_format": "channels_last", "kernel_initializer": {"config": {"mode": "fan_avg", "scale": 1.0, "seed": null, "distribution": "uniform"}, "class_name": "VarianceScaling"}, "kernel_constraint": null}, "inbound_nodes": [[["activation_55", 0, 0, {}]]], "class_name": "Conv2D"}, {"name": "batch_normalization_710", "config": {"moving_variance_initializer": {"config": {}, "class_name": "Ones"}, "moving_mean_initializer": {"config": {}, "class_name": "Zeros"}, "axis": -1, "gamma_initializer": {"config": {}, "class_name": "Ones"}, "scale": true, "trainable": true, "beta_regularizer": null, "name": "batch_normalization_710", "epsilon": 0.001, "gamma_constraint": null, "momentum": 0.99, "center": true, "gamma_regularizer": null, "beta_initializer": {"config": {}, "class_name": "Zeros"}, "beta_constraint": null}, "inbound_nodes": [[["conv2d_57", 0, 0, {}]]], "class_name": "BatchNormalization"}, {"name": "activation_56", "config": {"name": "activation_56", "trainable": true, "activation": "relu"}, "inbound_nodes": [[["batch_normalization_710", 0, 0, {}]]], "class_name": "Activation"}, {"name": "conv2d_58", "config": {"padding": "same", "activation": "linear", "filters": 32, "kernel_regularizer": {"config": {"l1": 0.0, "l2": 9.999999747378752e-05}, "class_name": "L1L2"}, "activity_regularizer": null, "kernel_size": [3, 3], "use_bias": true, "bias_constraint": null, "trainable": true, "strides": [1, 1], "bias_initializer": {"config": {}, "class_name": "Zeros"}, "name": "conv2d_58", "dilation_rate": [1, 1], "bias_regularizer": null, "data_format": "channels_last", "kernel_initializer": {"config": {"mode": "fan_avg", "scale": 1.0, "seed": null, "distribution": "uniform"}, "class_name": "VarianceScaling"}, "kernel_constraint": null}, "inbound_nodes": [[["activation_56", 0, 0, {}]]], "class_name": "Conv2D"}, {"name": "batch_normalization_711", "config": {"moving_variance_initializer": {"config": {}, "class_name": "Ones"}, "moving_mean_initializer": {"config": {}, "class_name": "Zeros"}, "axis": -1, "gamma_initializer": {"config": {}, "class_name": "Ones"}, "scale": true, "trainable": true, "beta_regularizer": null, "name": "batch_normalization_711", "epsilon": 0.001, "gamma_constraint": null, "momentum": 0.99, "center": true, "gamma_regularizer": null, "beta_initializer": {"config": {}, "class_name": "Zeros"}, "beta_constraint": null}, "inbound_nodes": [[["conv2d_58", 0, 0, {}]]], "class_name": "BatchNormalization"}, {"name": "add_352", "config": {"name": "add_352", "trainable": true}, "inbound_nodes": [[["activation_55", 0, 0, {}], ["batch_normalization_711", 0, 0, {}]]], "class_name": "Add"}, {"name": "activation_57", "config": {"name": "activation_57", "trainable": true, "activation": "relu"}, "inbound_nodes": [[["add_352", 0, 0, {}]]], "class_name": "Activation"}, {"name": "conv2d_59", "config": {"padding": "same", "activation": "linear", "filters": 14, "kernel_regularizer": {"config": {"l1": 0.0, "l2": 9.999999747378752e-05}, "class_name": "L1L2"}, "activity_regularizer": null, "kernel_size": [3, 3], "use_bias": true, "bias_constraint": null, "trainable": true, "strides": [1, 1], "bias_initializer": {"config": {}, "class_name": "Zeros"}, "name": "conv2d_59", "dilation_rate": [1, 1], "bias_regularizer": null, "data_format": "channels_last", "kernel_initializer": {"config": {"mode": "fan_avg", "scale": 1.0, "seed": null, "distribution": "uniform"}, "class_name": "VarianceScaling"}, "kernel_constraint": null}, "inbound_nodes": [[["activation_57", 0, 0, {}]]], "class_name": "Conv2D"}, {"name": "batch_normalization_712", "config": {"moving_variance_initializer": {"config": {}, "class_name": "Ones"}, "moving_mean_initializer": {"config": {}, "class_name": "Zeros"}, "axis": -1, "gamma_initializer": {"config": {}, "class_name": "Ones"}, "scale": true, "trainable": true, "beta_regularizer": null, "name": "batch_normalization_712", "epsilon": 0.001, "gamma_constraint": null, "momentum": 0.99, "center": true, "gamma_regularizer": null, "beta_initializer": {"config": {}, "class_name": "Zeros"}, "beta_constraint": null}, "inbound_nodes": [[["conv2d_59", 0, 0, {}]]], "class_name": "BatchNormalization"}, {"name": "activation_58", "config": {"name": "activation_58", "trainable": true, "activation": "relu"}, "inbound_nodes": [[["batch_normalization_712", 0, 0, {}]]], "class_name": "Activation"}, {"name": "conv2d_60", "config": {"padding": "same", "activation": "linear", "filters": 32, "kernel_regularizer": {"config": {"l1": 0.0, "l2": 9.999999747378752e-05}, "class_name": "L1L2"}, "activity_regularizer": null, "kernel_size": [3, 3], "use_bias": true, "bias_constraint": null, "trainable": true, "strides": [1, 1], "bias_initializer": {"config": {}, "class_name": "Zeros"}, "name": "conv2d_60", "dilation_rate": [1, 1], "bias_regularizer": null, "data_format": "channels_last", "kernel_initializer": {"config": {"mode": "fan_avg", "scale": 1.0, "seed": null, "distribution": "uniform"}, "class_name": "VarianceScaling"}, "kernel_constraint": null}, "inbound_nodes": [[["activation_58", 0, 0, {}]]], "class_name": "Conv2D"}, {"name": "batch_normalization_713", "config": {"moving_variance_initializer": {"config": {}, "class_name": "Ones"}, "moving_mean_initializer": {"config": {}, "class_name": "Zeros"}, "axis": -1, "gamma_initializer": {"config": {}, "class_name": "Ones"}, "scale": true, "trainable": true, "beta_regularizer": null, "name": "batch_normalization_713", "epsilon": 0.001, "gamma_constraint": null, "momentum": 0.99, "center": true, "gamma_regularizer": null, "beta_initializer": {"config": {}, "class_name": "Zeros"}, "beta_constraint": null}, "inbound_nodes": [[["conv2d_60", 0, 0, {}]]], "class_name": "BatchNormalization"}, {"name": "add_353", "config": {"name": "add_353", "trainable": true}, "inbound_nodes": [[["activation_57", 0, 0, {}], ["batch_normalization_713", 0, 0, {}]]], "class_name": "Add"}, {"name": "activation_59", "config": {"name": "activation_59", "trainable": true, "activation": "relu"}, "inbound_nodes": [[["add_353", 0, 0, {}]]], "class_name": "Activation"}, {"name": "conv2d_61", "config": {"padding": "same", "activation": "linear", "filters": 14, "kernel_regularizer": {"config": {"l1": 0.0, "l2": 9.999999747378752e-05}, "class_name": "L1L2"}, "activity_regularizer": null, "kernel_size": [3, 3], "use_bias": true, "bias_constraint": null, "trainable": true, "strides": [1, 1], "bias_initializer": {"config": {}, "class_name": "Zeros"}, "name": "conv2d_61", "dilation_rate": [1, 1], "bias_regularizer": null, "data_format": "channels_last", "kernel_initializer": {"config": {"mode": "fan_avg", "scale": 1.0, "seed": null, "distribution": "uniform"}, "class_name": "VarianceScaling"}, "kernel_constraint": null}, "inbound_nodes": [[["activation_59", 0, 0, {}]]], "class_name": "Conv2D"}, {"name": "batch_normalization_714", "config": {"moving_variance_initializer": {"config": {}, "class_name": "Ones"}, "moving_mean_initializer": {"config": {}, "class_name": "Zeros"}, "axis": -1, "gamma_initializer": {"config": {}, "class_name": "Ones"}, "scale": true, "trainable": true, "beta_regularizer": null, "name": "batch_normalization_714", "epsilon": 0.001, "gamma_constraint": null, "momentum": 0.99, "center": true, "gamma_regularizer": null, "beta_initializer": {"config": {}, "class_name": "Zeros"}, "beta_constraint": null}, "inbound_nodes": [[["conv2d_61", 0, 0, {}]]], "class_name": "BatchNormalization"}, {"name": "activation_60", "config": {"name": "activation_60", "trainable": true, "activation": "relu"}, "inbound_nodes": [[["batch_normalization_714", 0, 0, {}]]], "class_name": "Activation"}, {"name": "conv2d_62", "config": {"padding": "same", "activation": "linear", "filters": 32, "kernel_regularizer": {"config": {"l1": 0.0, "l2": 9.999999747378752e-05}, "class_name": "L1L2"}, "activity_regularizer": null, "kernel_size": [3, 3], "use_bias": true, "bias_constraint": null, "trainable": true, "strides": [1, 1], "bias_initializer": {"config": {}, "class_name": "Zeros"}, "name": "conv2d_62", "dilation_rate": [1, 1], "bias_regularizer": null, "data_format": "channels_last", "kernel_initializer": {"config": {"mode": "fan_avg", "scale": 1.0, "seed": null, "distribution": "uniform"}, "class_name": "VarianceScaling"}, "kernel_constraint": null}, "inbound_nodes": [[["activation_60", 0, 0, {}]]], "class_name": "Conv2D"}, {"name": "batch_normalization_715", "config": {"moving_variance_initializer": {"config": {}, "class_name": "Ones"}, "moving_mean_initializer": {"config": {}, "class_name": "Zeros"}, "axis": -1, "gamma_initializer": {"config": {}, "class_name": "Ones"}, "scale": true, "trainable": true, "beta_regularizer": null, "name": "batch_normalization_715", "epsilon": 0.001, "gamma_constraint": null, "momentum": 0.99, "center": true, "gamma_regularizer": null, "beta_initializer": {"config": {}, "class_name": "Zeros"}, "beta_constraint": null}, "inbound_nodes": [[["conv2d_62", 0, 0, {}]]], "class_name": "BatchNormalization"}, {"name": "add_354", "config": {"name": "add_354", "trainable": true}, "inbound_nodes": [[["activation_59", 0, 0, {}], ["batch_normalization_715", 0, 0, {}]]], "class_name": "Add"}, {"name": "activation_61", "config": {"name": "activation_61", "trainable": true, "activation": "relu"}, "inbound_nodes": [[["add_354", 0, 0, {}]]], "class_name": "Activation"}, {"name": "conv2d_63", "config": {"padding": "same", "activation": "linear", "filters": 10, "kernel_regularizer": {"config": {"l1": 0.0, "l2": 9.999999747378752e-05}, "class_name": "L1L2"}, "activity_regularizer": null, "kernel_size": [3, 3], "use_bias": true, "bias_constraint": null, "trainable": true, "strides": [1, 1], "bias_initializer": {"config": {}, "class_name": "Zeros"}, "name": "conv2d_63", "dilation_rate": [1, 1], "bias_regularizer": null, "data_format": "channels_last", "kernel_initializer": {"config": {"mode": "fan_avg", "scale": 1.0, "seed": null, "distribution": "uniform"}, "class_name": "VarianceScaling"}, "kernel_constraint": null}, "inbound_nodes": [[["activation_61", 0, 0, {}]]], "class_name": "Conv2D"}, {"name": "batch_normalization_716", "config": {"moving_variance_initializer": {"config": {}, "class_name": "Ones"}, "moving_mean_initializer": {"config": {}, "class_name": "Zeros"}, "axis": -1, "gamma_initializer": {"config": {}, "class_name": "Ones"}, "scale": true, "trainable": true, "beta_regularizer": null, "name": "batch_normalization_716", "epsilon": 0.001, "gamma_constraint": null, "momentum": 0.99, "center": true, "gamma_regularizer": null, "beta_initializer": {"config": {}, "class_name": "Zeros"}, "beta_constraint": null}, "inbound_nodes": [[["conv2d_63", 0, 0, {}]]], "class_name": "BatchNormalization"}, {"name": "activation_62", "config": {"name": "activation_62", "trainable": true, "activation": "relu"}, "inbound_nodes": [[["batch_normalization_716", 0, 0, {}]]], "class_name": "Activation"}, {"name": "conv2d_64", "config": {"padding": "same", "activation": "linear", "filters": 32, "kernel_regularizer": {"config": {"l1": 0.0, "l2": 9.999999747378752e-05}, "class_name": "L1L2"}, "activity_regularizer": null, "kernel_size": [3, 3], "use_bias": true, "bias_constraint": null, "trainable": true, "strides": [1, 1], "bias_initializer": {"config": {}, "class_name": "Zeros"}, "name": "conv2d_64", "dilation_rate": [1, 1], "bias_regularizer": null, "data_format": "channels_last", "kernel_initializer": {"config": {"mode": "fan_avg", "scale": 1.0, "seed": null, "distribution": "uniform"}, "class_name": "VarianceScaling"}, "kernel_constraint": null}, "inbound_nodes": [[["activation_62", 0, 0, {}]]], "class_name": "Conv2D"}, {"name": "batch_normalization_717", "config": {"moving_variance_initializer": {"config": {}, "class_name": "Ones"}, "moving_mean_initializer": {"config": {}, "class_name": "Zeros"}, "axis": -1, "gamma_initializer": {"config": {}, "class_name": "Ones"}, "scale": true, "trainable": true, "beta_regularizer": null, "name": "batch_normalization_717", "epsilon": 0.001, "gamma_constraint": null, "momentum": 0.99, "center": true, "gamma_regularizer": null, "beta_initializer": {"config": {}, "class_name": "Zeros"}, "beta_constraint": null}, "inbound_nodes": [[["conv2d_64", 0, 0, {}]]], "class_name": "BatchNormalization"}, {"name": "add_355", "config": {"name": "add_355", "trainable": true}, "inbound_nodes": [[["activation_61", 0, 0, {}], ["batch_normalization_717", 0, 0, {}]]], "class_name": "Add"}, {"name": "activation_63", "config": {"name": "activation_63", "trainable": true, "activation": "relu"}, "inbound_nodes": [[["add_355", 0, 0, {}]]], "class_name": "Activation"}, {"name": "conv2d_65", "config": {"padding": "same", "activation": "linear", "filters": 7, "kernel_regularizer": {"config": {"l1": 0.0, "l2": 9.999999747378752e-05}, "class_name": "L1L2"}, "activity_regularizer": null, "kernel_size": [3, 3], "use_bias": true, "bias_constraint": null, "trainable": true, "strides": [1, 1], "bias_initializer": {"config": {}, "class_name": "Zeros"}, "name": "conv2d_65", "dilation_rate": [1, 1], "bias_regularizer": null, "data_format": "channels_last", "kernel_initializer": {"config": {"mode": "fan_avg", "scale": 1.0, "seed": null, "distribution": "uniform"}, "class_name": "VarianceScaling"}, "kernel_constraint": null}, "inbound_nodes": [[["activation_63", 0, 0, {}]]], "class_name": "Conv2D"}, {"name": "batch_normalization_718", "config": {"moving_variance_initializer": {"config": {}, "class_name": "Ones"}, "moving_mean_initializer": {"config": {}, "class_name": "Zeros"}, "axis": -1, "gamma_initializer": {"config": {}, "class_name": "Ones"}, "scale": true, "trainable": true, "beta_regularizer": null, "name": "batch_normalization_718", "epsilon": 0.001, "gamma_constraint": null, "momentum": 0.99, "center": true, "gamma_regularizer": null, "beta_initializer": {"config": {}, "class_name": "Zeros"}, "beta_constraint": null}, "inbound_nodes": [[["conv2d_65", 0, 0, {}]]], "class_name": "BatchNormalization"}, {"name": "activation_64", "config": {"name": "activation_64", "trainable": true, "activation": "relu"}, "inbound_nodes": [[["batch_normalization_718", 0, 0, {}]]], "class_name": "Activation"}, {"name": "conv2d_66", "config": {"padding": "same", "activation": "linear", "filters": 32, "kernel_regularizer": {"config": {"l1": 0.0, "l2": 9.999999747378752e-05}, "class_name": "L1L2"}, "activity_regularizer": null, "kernel_size": [3, 3], "use_bias": true, "bias_constraint": null, "trainable": true, "strides": [1, 1], "bias_initializer": {"config": {}, "class_name": "Zeros"}, "name": "conv2d_66", "dilation_rate": [1, 1], "bias_regularizer": null, "data_format": "channels_last", "kernel_initializer": {"config": {"mode": "fan_avg", "scale": 1.0, "seed": null, "distribution": "uniform"}, "class_name": "VarianceScaling"}, "kernel_constraint": null}, "inbound_nodes": [[["activation_64", 0, 0, {}]]], "class_name": "Conv2D"}, {"name": "batch_normalization_719", "config": {"moving_variance_initializer": {"config": {}, "class_name": "Ones"}, "moving_mean_initializer": {"config": {}, "class_name": "Zeros"}, "axis": -1, "gamma_initializer": {"config": {}, "class_name": "Ones"}, "scale": true, "trainable": true, "beta_regularizer": null, "name": "batch_normalization_719", "epsilon": 0.001, "gamma_constraint": null, "momentum": 0.99, "center": true, "gamma_regularizer": null, "beta_initializer": {"config": {}, "class_name": "Zeros"}, "beta_constraint": null}, "inbound_nodes": [[["conv2d_66", 0, 0, {}]]], "class_name": "BatchNormalization"}, {"name": "add_356", "config": {"name": "add_356", "trainable": true}, "inbound_nodes": [[["activation_63", 0, 0, {}], ["batch_normalization_719", 0, 0, {}]]], "class_name": "Add"}, {"name": "activation_65", "config": {"name": "activation_65", "trainable": true, "activation": "relu"}, "inbound_nodes": [[["add_356", 0, 0, {}]]], "class_name": "Activation"}, {"name": "conv2d_67", "config": {"padding": "same", "activation": "linear", "filters": 10, "kernel_regularizer": {"config": {"l1": 0.0, "l2": 9.999999747378752e-05}, "class_name": "L1L2"}, "activity_regularizer": null, "kernel_size": [3, 3], "use_bias": true, "bias_constraint": null, "trainable": true, "strides": [1, 1], "bias_initializer": {"config": {}, "class_name": "Zeros"}, "name": "conv2d_67", "dilation_rate": [1, 1], "bias_regularizer": null, "data_format": "channels_last", "kernel_initializer": {"config": {"mode": "fan_avg", "scale": 1.0, "seed": null, "distribution": "uniform"}, "class_name": "VarianceScaling"}, "kernel_constraint": null}, "inbound_nodes": [[["activation_65", 0, 0, {}]]], "class_name": "Conv2D"}, {"name": "batch_normalization_720", "config": {"moving_variance_initializer": {"config": {}, "class_name": "Ones"}, "moving_mean_initializer": {"config": {}, "class_name": "Zeros"}, "axis": -1, "gamma_initializer": {"config": {}, "class_name": "Ones"}, "scale": true, "trainable": true, "beta_regularizer": null, "name": "batch_normalization_720", "epsilon": 0.001, "gamma_constraint": null, "momentum": 0.99, "center": true, "gamma_regularizer": null, "beta_initializer": {"config": {}, "class_name": "Zeros"}, "beta_constraint": null}, "inbound_nodes": [[["conv2d_67", 0, 0, {}]]], "class_name": "BatchNormalization"}, {"name": "activation_66", "config": {"name": "activation_66", "trainable": true, "activation": "relu"}, "inbound_nodes": [[["batch_normalization_720", 0, 0, {}]]], "class_name": "Activation"}, {"name": "conv2d_68", "config": {"padding": "same", "activation": "linear", "filters": 32, "kernel_regularizer": {"config": {"l1": 0.0, "l2": 9.999999747378752e-05}, "class_name": "L1L2"}, "activity_regularizer": null, "kernel_size": [3, 3], "use_bias": true, "bias_constraint": null, "trainable": true, "strides": [1, 1], "bias_initializer": {"config": {}, "class_name": "Zeros"}, "name": "conv2d_68", "dilation_rate": [1, 1], "bias_regularizer": null, "data_format": "channels_last", "kernel_initializer": {"config": {"mode": "fan_avg", "scale": 1.0, "seed": null, "distribution": "uniform"}, "class_name": "VarianceScaling"}, "kernel_constraint": null}, "inbound_nodes": [[["activation_66", 0, 0, {}]]], "class_name": "Conv2D"}, {"name": "batch_normalization_721", "config": {"moving_variance_initializer": {"config": {}, "class_name": "Ones"}, "moving_mean_initializer": {"config": {}, "class_name": "Zeros"}, "axis": -1, "gamma_initializer": {"config": {}, "class_name": "Ones"}, "scale": true, "trainable": true, "beta_regularizer": null, "name": "batch_normalization_721", "epsilon": 0.001, "gamma_constraint": null, "momentum": 0.99, "center": true, "gamma_regularizer": null, "beta_initializer": {"config": {}, "class_name": "Zeros"}, "beta_constraint": null}, "inbound_nodes": [[["conv2d_68", 0, 0, {}]]], "class_name": "BatchNormalization"}, {"name": "add_357", "config": {"name": "add_357", "trainable": true}, "inbound_nodes": [[["activation_65", 0, 0, {}], ["batch_normalization_721", 0, 0, {}]]], "class_name": "Add"}, {"name": "activation_67", "config": {"name": "activation_67", "trainable": true, "activation": "relu"}, "inbound_nodes": [[["add_357", 0, 0, {}]]], "class_name": "Activation"}, {"name": "conv2d_69", "config": {"padding": "same", "activation": "linear", "filters": 12, "kernel_regularizer": {"config": {"l1": 0.0, "l2": 9.999999747378752e-05}, "class_name": "L1L2"}, "activity_regularizer": null, "kernel_size": [3, 3], "use_bias": true, "bias_constraint": null, "trainable": true, "strides": [1, 1], "bias_initializer": {"config": {}, "class_name": "Zeros"}, "name": "conv2d_69", "dilation_rate": [1, 1], "bias_regularizer": null, "data_format": "channels_last", "kernel_initializer": {"config": {"mode": "fan_avg", "scale": 1.0, "seed": null, "distribution": "uniform"}, "class_name": "VarianceScaling"}, "kernel_constraint": null}, "inbound_nodes": [[["activation_67", 0, 0, {}]]], "class_name": "Conv2D"}, {"name": "batch_normalization_722", "config": {"moving_variance_initializer": {"config": {}, "class_name": "Ones"}, "moving_mean_initializer": {"config": {}, "class_name": "Zeros"}, "axis": -1, "gamma_initializer": {"config": {}, "class_name": "Ones"}, "scale": true, "trainable": true, "beta_regularizer": null, "name": "batch_normalization_722", "epsilon": 0.001, "gamma_constraint": null, "momentum": 0.99, "center": true, "gamma_regularizer": null, "beta_initializer": {"config": {}, "class_name": "Zeros"}, "beta_constraint": null}, "inbound_nodes": [[["conv2d_69", 0, 0, {}]]], "class_name": "BatchNormalization"}, {"name": "activation_68", "config": {"name": "activation_68", "trainable": true, "activation": "relu"}, "inbound_nodes": [[["batch_normalization_722", 0, 0, {}]]], "class_name": "Activation"}, {"name": "conv2d_70", "config": {"padding": "same", "activation": "linear", "filters": 32, "kernel_regularizer": {"config": {"l1": 0.0, "l2": 9.999999747378752e-05}, "class_name": "L1L2"}, "activity_regularizer": null, "kernel_size": [3, 3], "use_bias": true, "bias_constraint": null, "trainable": true, "strides": [1, 1], "bias_initializer": {"config": {}, "class_name": "Zeros"}, "name": "conv2d_70", "dilation_rate": [1, 1], "bias_regularizer": null, "data_format": "channels_last", "kernel_initializer": {"config": {"mode": "fan_avg", "scale": 1.0, "seed": null, "distribution": "uniform"}, "class_name": "VarianceScaling"}, "kernel_constraint": null}, "inbound_nodes": [[["activation_68", 0, 0, {}]]], "class_name": "Conv2D"}, {"name": "batch_normalization_723", "config": {"moving_variance_initializer": {"config": {}, "class_name": "Ones"}, "moving_mean_initializer": {"config": {}, "class_name": "Zeros"}, "axis": -1, "gamma_initializer": {"config": {}, "class_name": "Ones"}, "scale": true, "trainable": true, "beta_regularizer": null, "name": "batch_normalization_723", "epsilon": 0.001, "gamma_constraint": null, "momentum": 0.99, "center": true, "gamma_regularizer": null, "beta_initializer": {"config": {}, "class_name": "Zeros"}, "beta_constraint": null}, "inbound_nodes": [[["conv2d_70", 0, 0, {}]]], "class_name": "BatchNormalization"}, {"name": "add_358", "config": {"name": "add_358", "trainable": true}, "inbound_nodes": [[["activation_67", 0, 0, {}], ["batch_normalization_723", 0, 0, {}]]], "class_name": "Add"}, {"name": "activation_69", "config": {"name": "activation_69", "trainable": true, "activation": "relu"}, "inbound_nodes": [[["add_358", 0, 0, {}]]], "class_name": "Activation"}, {"name": "conv2d_71", "config": {"padding": "same", "activation": "linear", "filters": 10, "kernel_regularizer": {"config": {"l1": 0.0, "l2": 9.999999747378752e-05}, "class_name": "L1L2"}, "activity_regularizer": null, "kernel_size": [3, 3], "use_bias": true, "bias_constraint": null, "trainable": true, "strides": [1, 1], "bias_initializer": {"config": {}, "class_name": "Zeros"}, "name": "conv2d_71", "dilation_rate": [1, 1], "bias_regularizer": null, "data_format": "channels_last", "kernel_initializer": {"config": {"mode": "fan_avg", "scale": 1.0, "seed": null, "distribution": "uniform"}, "class_name": "VarianceScaling"}, "kernel_constraint": null}, "inbound_nodes": [[["activation_69", 0, 0, {}]]], "class_name": "Conv2D"}, {"name": "batch_normalization_724", "config": {"moving_variance_initializer": {"config": {}, "class_name": "Ones"}, "moving_mean_initializer": {"config": {}, "class_name": "Zeros"}, "axis": -1, "gamma_initializer": {"config": {}, "class_name": "Ones"}, "scale": true, "trainable": true, "beta_regularizer": null, "name": "batch_normalization_724", "epsilon": 0.001, "gamma_constraint": null, "momentum": 0.99, "center": true, "gamma_regularizer": null, "beta_initializer": {"config": {}, "class_name": "Zeros"}, "beta_constraint": null}, "inbound_nodes": [[["conv2d_71", 0, 0, {}]]], "class_name": "BatchNormalization"}, {"name": "activation_70", "config": {"name": "activation_70", "trainable": true, "activation": "relu"}, "inbound_nodes": [[["batch_normalization_724", 0, 0, {}]]], "class_name": "Activation"}, {"name": "conv2d_72", "config": {"padding": "same", "activation": "linear", "filters": 32, "kernel_regularizer": {"config": {"l1": 0.0, "l2": 9.999999747378752e-05}, "class_name": "L1L2"}, "activity_regularizer": null, "kernel_size": [3, 3], "use_bias": true, "bias_constraint": null, "trainable": true, "strides": [1, 1], "bias_initializer": {"config": {}, "class_name": "Zeros"}, "name": "conv2d_72", "dilation_rate": [1, 1], "bias_regularizer": null, "data_format": "channels_last", "kernel_initializer": {"config": {"mode": "fan_avg", "scale": 1.0, "seed": null, "distribution": "uniform"}, "class_name": "VarianceScaling"}, "kernel_constraint": null}, "inbound_nodes": [[["activation_70", 0, 0, {}]]], "class_name": "Conv2D"}, {"name": "batch_normalization_725", "config": {"moving_variance_initializer": {"config": {}, "class_name": "Ones"}, "moving_mean_initializer": {"config": {}, "class_name": "Zeros"}, "axis": -1, "gamma_initializer": {"config": {}, "class_name": "Ones"}, "scale": true, "trainable": true, "beta_regularizer": null, "name": "batch_normalization_725", "epsilon": 0.001, "gamma_constraint": null, "momentum": 0.99, "center": true, "gamma_regularizer": null, "beta_initializer": {"config": {}, "class_name": "Zeros"}, "beta_constraint": null}, "inbound_nodes": [[["conv2d_72", 0, 0, {}]]], "class_name": "BatchNormalization"}, {"name": "add_359", "config": {"name": "add_359", "trainable": true}, "inbound_nodes": [[["activation_69", 0, 0, {}], ["batch_normalization_725", 0, 0, {}]]], "class_name": "Add"}, {"name": "activation_71", "config": {"name": "activation_71", "trainable": true, "activation": "relu"}, "inbound_nodes": [[["add_359", 0, 0, {}]]], "class_name": "Activation"}, {"name": "conv2d_73", "config": {"padding": "same", "activation": "linear", "filters": 13, "kernel_regularizer": {"config": {"l1": 0.0, "l2": 9.999999747378752e-05}, "class_name": "L1L2"}, "activity_regularizer": null, "kernel_size": [3, 3], "use_bias": true, "bias_constraint": null, "trainable": true, "strides": [1, 1], "bias_initializer": {"config": {}, "class_name": "Zeros"}, "name": "conv2d_73", "dilation_rate": [1, 1], "bias_regularizer": null, "data_format": "channels_last", "kernel_initializer": {"config": {"mode": "fan_avg", "scale": 1.0, "seed": null, "distribution": "uniform"}, "class_name": "VarianceScaling"}, "kernel_constraint": null}, "inbound_nodes": [[["activation_71", 0, 0, {}]]], "class_name": "Conv2D"}, {"name": "batch_normalization_726", "config": {"moving_variance_initializer": {"config": {}, "class_name": "Ones"}, "moving_mean_initializer": {"config": {}, "class_name": "Zeros"}, "axis": -1, "gamma_initializer": {"config": {}, "class_name": "Ones"}, "scale": true, "trainable": true, "beta_regularizer": null, "name": "batch_normalization_726", "epsilon": 0.001, "gamma_constraint": null, "momentum": 0.99, "center": true, "gamma_regularizer": null, "beta_initializer": {"config": {}, "class_name": "Zeros"}, "beta_constraint": null}, "inbound_nodes": [[["conv2d_73", 0, 0, {}]]], "class_name": "BatchNormalization"}, {"name": "activation_72", "config": {"name": "activation_72", "trainable": true, "activation": "relu"}, "inbound_nodes": [[["batch_normalization_726", 0, 0, {}]]], "class_name": "Activation"}, {"name": "conv2d_74", "config": {"padding": "same", "activation": "linear", "filters": 32, "kernel_regularizer": {"config": {"l1": 0.0, "l2": 9.999999747378752e-05}, "class_name": "L1L2"}, "activity_regularizer": null, "kernel_size": [3, 3], "use_bias": true, "bias_constraint": null, "trainable": true, "strides": [1, 1], "bias_initializer": {"config": {}, "class_name": "Zeros"}, "name": "conv2d_74", "dilation_rate": [1, 1], "bias_regularizer": null, "data_format": "channels_last", "kernel_initializer": {"config": {"mode": "fan_avg", "scale": 1.0, "seed": null, "distribution": "uniform"}, "class_name": "VarianceScaling"}, "kernel_constraint": null}, "inbound_nodes": [[["activation_72", 0, 0, {}]]], "class_name": "Conv2D"}, {"name": "batch_normalization_727", "config": {"moving_variance_initializer": {"config": {}, "class_name": "Ones"}, "moving_mean_initializer": {"config": {}, "class_name": "Zeros"}, "axis": -1, "gamma_initializer": {"config": {}, "class_name": "Ones"}, "scale": true, "trainable": true, "beta_regularizer": null, "name": "batch_normalization_727", "epsilon": 0.001, "gamma_constraint": null, "momentum": 0.99, "center": true, "gamma_regularizer": null, "beta_initializer": {"config": {}, "class_name": "Zeros"}, "beta_constraint": null}, "inbound_nodes": [[["conv2d_74", 0, 0, {}]]], "class_name": "BatchNormalization"}, {"name": "add_360", "config": {"name": "add_360", "trainable": true}, "inbound_nodes": [[["activation_71", 0, 0, {}], ["batch_normalization_727", 0, 0, {}]]], "class_name": "Add"}, {"name": "activation_73", "config": {"name": "activation_73", "trainable": true, "activation": "relu"}, "inbound_nodes": [[["add_360", 0, 0, {}]]], "class_name": "Activation"}, {"name": "conv2d_75", "config": {"padding": "same", "activation": "linear", "filters": 29, "kernel_regularizer": {"config": {"l1": 0.0, "l2": 9.999999747378752e-05}, "class_name": "L1L2"}, "activity_regularizer": null, "kernel_size": [3, 3], "use_bias": true, "bias_constraint": null, "trainable": true, "strides": [2, 2], "bias_initializer": {"config": {}, "class_name": "Zeros"}, "name": "conv2d_75", "dilation_rate": [1, 1], "bias_regularizer": null, "data_format": "channels_last", "kernel_initializer": {"config": {"mode": "fan_avg", "scale": 1.0, "seed": null, "distribution": "uniform"}, "class_name": "VarianceScaling"}, "kernel_constraint": null}, "inbound_nodes": [[["activation_73", 0, 0, {}]]], "class_name": "Conv2D"}, {"name": "batch_normalization_728", "config": {"moving_variance_initializer": {"config": {}, "class_name": "Ones"}, "moving_mean_initializer": {"config": {}, "class_name": "Zeros"}, "axis": -1, "gamma_initializer": {"config": {}, "class_name": "Ones"}, "scale": true, "trainable": true, "beta_regularizer": null, "name": "batch_normalization_728", "epsilon": 0.001, "gamma_constraint": null, "momentum": 0.99, "center": true, "gamma_regularizer": null, "beta_initializer": {"config": {}, "class_name": "Zeros"}, "beta_constraint": null}, "inbound_nodes": [[["conv2d_75", 0, 0, {}]]], "class_name": "BatchNormalization"}, {"name": "activation_74", "config": {"name": "activation_74", "trainable": true, "activation": "relu"}, "inbound_nodes": [[["batch_normalization_728", 0, 0, {}]]], "class_name": "Activation"}, {"name": "conv2d_76", "config": {"padding": "same", "activation": "linear", "filters": 64, "kernel_regularizer": {"config": {"l1": 0.0, "l2": 9.999999747378752e-05}, "class_name": "L1L2"}, "activity_regularizer": null, "kernel_size": [3, 3], "use_bias": true, "bias_constraint": null, "trainable": true, "strides": [1, 1], "bias_initializer": {"config": {}, "class_name": "Zeros"}, "name": "conv2d_76", "dilation_rate": [1, 1], "bias_regularizer": null, "data_format": "channels_last", "kernel_initializer": {"config": {"mode": "fan_avg", "scale": 1.0, "seed": null, "distribution": "uniform"}, "class_name": "VarianceScaling"}, "kernel_constraint": null}, "inbound_nodes": [[["activation_74", 0, 0, {}]]], "class_name": "Conv2D"}, {"name": "conv2d_77", "config": {"padding": "same", "activation": "linear", "filters": 64, "kernel_regularizer": {"config": {"l1": 0.0, "l2": 9.999999747378752e-05}, "class_name": "L1L2"}, "activity_regularizer": null, "kernel_size": [1, 1], "use_bias": true, "bias_constraint": null, "trainable": true, "strides": [2, 2], "bias_initializer": {"config": {}, "class_name": "Zeros"}, "name": "conv2d_77", "dilation_rate": [1, 1], "bias_regularizer": null, "data_format": "channels_last", "kernel_initializer": {"config": {"mode": "fan_avg", "scale": 1.0, "seed": null, "distribution": "uniform"}, "class_name": "VarianceScaling"}, "kernel_constraint": null}, "inbound_nodes": [[["activation_73", 0, 0, {}]]], "class_name": "Conv2D"}, {"name": "batch_normalization_729", "config": {"moving_variance_initializer": {"config": {}, "class_name": "Ones"}, "moving_mean_initializer": {"config": {}, "class_name": "Zeros"}, "axis": -1, "gamma_initializer": {"config": {}, "class_name": "Ones"}, "scale": true, "trainable": true, "beta_regularizer": null, "name": "batch_normalization_729", "epsilon": 0.001, "gamma_constraint": null, "momentum": 0.99, "center": true, "gamma_regularizer": null, "beta_initializer": {"config": {}, "class_name": "Zeros"}, "beta_constraint": null}, "inbound_nodes": [[["conv2d_76", 0, 0, {}]]], "class_name": "BatchNormalization"}, {"name": "add_361", "config": {"name": "add_361", "trainable": true}, "inbound_nodes": [[["conv2d_77", 0, 0, {}], ["batch_normalization_729", 0, 0, {}]]], "class_name": "Add"}, {"name": "activation_75", "config": {"name": "activation_75", "trainable": true, "activation": "relu"}, "inbound_nodes": [[["add_361", 0, 0, {}]]], "class_name": "Activation"}, {"name": "conv2d_78", "config": {"padding": "same", "activation": "linear", "filters": 30, "kernel_regularizer": {"config": {"l1": 0.0, "l2": 9.999999747378752e-05}, "class_name": "L1L2"}, "activity_regularizer": null, "kernel_size": [3, 3], "use_bias": true, "bias_constraint": null, "trainable": true, "strides": [1, 1], "bias_initializer": {"config": {}, "class_name": "Zeros"}, "name": "conv2d_78", "dilation_rate": [1, 1], "bias_regularizer": null, "data_format": "channels_last", "kernel_initializer": {"config": {"mode": "fan_avg", "scale": 1.0, "seed": null, "distribution": "uniform"}, "class_name": "VarianceScaling"}, "kernel_constraint": null}, "inbound_nodes": [[["activation_75", 0, 0, {}]]], "class_name": "Conv2D"}, {"name": "batch_normalization_730", "config": {"moving_variance_initializer": {"config": {}, "class_name": "Ones"}, "moving_mean_initializer": {"config": {}, "class_name": "Zeros"}, "axis": -1, "gamma_initializer": {"config": {}, "class_name": "Ones"}, "scale": true, "trainable": true, "beta_regularizer": null, "name": "batch_normalization_730", "epsilon": 0.001, "gamma_constraint": null, "momentum": 0.99, "center": true, "gamma_regularizer": null, "beta_initializer": {"config": {}, "class_name": "Zeros"}, "beta_constraint": null}, "inbound_nodes": [[["conv2d_78", 0, 0, {}]]], "class_name": "BatchNormalization"}, {"name": "activation_76", "config": {"name": "activation_76", "trainable": true, "activation": "relu"}, "inbound_nodes": [[["batch_normalization_730", 0, 0, {}]]], "class_name": "Activation"}, {"name": "conv2d_79", "config": {"padding": "same", "activation": "linear", "filters": 64, "kernel_regularizer": {"config": {"l1": 0.0, "l2": 9.999999747378752e-05}, "class_name": "L1L2"}, "activity_regularizer": null, "kernel_size": [3, 3], "use_bias": true, "bias_constraint": null, "trainable": true, "strides": [1, 1], "bias_initializer": {"config": {}, "class_name": "Zeros"}, "name": "conv2d_79", "dilation_rate": [1, 1], "bias_regularizer": null, "data_format": "channels_last", "kernel_initializer": {"config": {"mode": "fan_avg", "scale": 1.0, "seed": null, "distribution": "uniform"}, "class_name": "VarianceScaling"}, "kernel_constraint": null}, "inbound_nodes": [[["activation_76", 0, 0, {}]]], "class_name": "Conv2D"}, {"name": "batch_normalization_731", "config": {"moving_variance_initializer": {"config": {}, "class_name": "Ones"}, "moving_mean_initializer": {"config": {}, "class_name": "Zeros"}, "axis": -1, "gamma_initializer": {"config": {}, "class_name": "Ones"}, "scale": true, "trainable": true, "beta_regularizer": null, "name": "batch_normalization_731", "epsilon": 0.001, "gamma_constraint": null, "momentum": 0.99, "center": true, "gamma_regularizer": null, "beta_initializer": {"config": {}, "class_name": "Zeros"}, "beta_constraint": null}, "inbound_nodes": [[["conv2d_79", 0, 0, {}]]], "class_name": "BatchNormalization"}, {"name": "add_362", "config": {"name": "add_362", "trainable": true}, "inbound_nodes": [[["activation_75", 0, 0, {}], ["batch_normalization_731", 0, 0, {}]]], "class_name": "Add"}, {"name": "activation_77", "config": {"name": "activation_77", "trainable": true, "activation": "relu"}, "inbound_nodes": [[["add_362", 0, 0, {}]]], "class_name": "Activation"}, {"name": "conv2d_80", "config": {"padding": "same", "activation": "linear", "filters": 27, "kernel_regularizer": {"config": {"l1": 0.0, "l2": 9.999999747378752e-05}, "class_name": "L1L2"}, "activity_regularizer": null, "kernel_size": [3, 3], "use_bias": true, "bias_constraint": null, "trainable": true, "strides": [1, 1], "bias_initializer": {"config": {}, "class_name": "Zeros"}, "name": "conv2d_80", "dilation_rate": [1, 1], "bias_regularizer": null, "data_format": "channels_last", "kernel_initializer": {"config": {"mode": "fan_avg", "scale": 1.0, "seed": null, "distribution": "uniform"}, "class_name": "VarianceScaling"}, "kernel_constraint": null}, "inbound_nodes": [[["activation_77", 0, 0, {}]]], "class_name": "Conv2D"}, {"name": "batch_normalization_732", "config": {"moving_variance_initializer": {"config": {}, "class_name": "Ones"}, "moving_mean_initializer": {"config": {}, "class_name": "Zeros"}, "axis": -1, "gamma_initializer": {"config": {}, "class_name": "Ones"}, "scale": true, "trainable": true, "beta_regularizer": null, "name": "batch_normalization_732", "epsilon": 0.001, "gamma_constraint": null, "momentum": 0.99, "center": true, "gamma_regularizer": null, "beta_initializer": {"config": {}, "class_name": "Zeros"}, "beta_constraint": null}, "inbound_nodes": [[["conv2d_80", 0, 0, {}]]], "class_name": "BatchNormalization"}, {"name": "activation_78", "config": {"name": "activation_78", "trainable": true, "activation": "relu"}, "inbound_nodes": [[["batch_normalization_732", 0, 0, {}]]], "class_name": "Activation"}, {"name": "conv2d_81", "config": {"padding": "same", "activation": "linear", "filters": 64, "kernel_regularizer": {"config": {"l1": 0.0, "l2": 9.999999747378752e-05}, "class_name": "L1L2"}, "activity_regularizer": null, "kernel_size": [3, 3], "use_bias": true, "bias_constraint": null, "trainable": true, "strides": [1, 1], "bias_initializer": {"config": {}, "class_name": "Zeros"}, "name": "conv2d_81", "dilation_rate": [1, 1], "bias_regularizer": null, "data_format": "channels_last", "kernel_initializer": {"config": {"mode": "fan_avg", "scale": 1.0, "seed": null, "distribution": "uniform"}, "class_name": "VarianceScaling"}, "kernel_constraint": null}, "inbound_nodes": [[["activation_78", 0, 0, {}]]], "class_name": "Conv2D"}, {"name": "batch_normalization_733", "config": {"moving_variance_initializer": {"config": {}, "class_name": "Ones"}, "moving_mean_initializer": {"config": {}, "class_name": "Zeros"}, "axis": -1, "gamma_initializer": {"config": {}, "class_name": "Ones"}, "scale": true, "trainable": true, "beta_regularizer": null, "name": "batch_normalization_733", "epsilon": 0.001, "gamma_constraint": null, "momentum": 0.99, "center": true, "gamma_regularizer": null, "beta_initializer": {"config": {}, "class_name": "Zeros"}, "beta_constraint": null}, "inbound_nodes": [[["conv2d_81", 0, 0, {}]]], "class_name": "BatchNormalization"}, {"name": "add_363", "config": {"name": "add_363", "trainable": true}, "inbound_nodes": [[["activation_77", 0, 0, {}], ["batch_normalization_733", 0, 0, {}]]], "class_name": "Add"}, {"name": "activation_79", "config": {"name": "activation_79", "trainable": true, "activation": "relu"}, "inbound_nodes": [[["add_363", 0, 0, {}]]], "class_name": "Activation"}, {"name": "conv2d_82", "config": {"padding": "same", "activation": "linear", "filters": 15, "kernel_regularizer": {"config": {"l1": 0.0, "l2": 9.999999747378752e-05}, "class_name": "L1L2"}, "activity_regularizer": null, "kernel_size": [3, 3], "use_bias": true, "bias_constraint": null, "trainable": true, "strides": [1, 1], "bias_initializer": {"config": {}, "class_name": "Zeros"}, "name": "conv2d_82", "dilation_rate": [1, 1], "bias_regularizer": null, "data_format": "channels_last", "kernel_initializer": {"config": {"mode": "fan_avg", "scale": 1.0, "seed": null, "distribution": "uniform"}, "class_name": "VarianceScaling"}, "kernel_constraint": null}, "inbound_nodes": [[["activation_79", 0, 0, {}]]], "class_name": "Conv2D"}, {"name": "batch_normalization_734", "config": {"moving_variance_initializer": {"config": {}, "class_name": "Ones"}, "moving_mean_initializer": {"config": {}, "class_name": "Zeros"}, "axis": -1, "gamma_initializer": {"config": {}, "class_name": "Ones"}, "scale": true, "trainable": true, "beta_regularizer": null, "name": "batch_normalization_734", "epsilon": 0.001, "gamma_constraint": null, "momentum": 0.99, "center": true, "gamma_regularizer": null, "beta_initializer": {"config": {}, "class_name": "Zeros"}, "beta_constraint": null}, "inbound_nodes": [[["conv2d_82", 0, 0, {}]]], "class_name": "BatchNormalization"}, {"name": "activation_80", "config": {"name": "activation_80", "trainable": true, "activation": "relu"}, "inbound_nodes": [[["batch_normalization_734", 0, 0, {}]]], "class_name": "Activation"}, {"name": "conv2d_83", "config": {"padding": "same", "activation": "linear", "filters": 64, "kernel_regularizer": {"config": {"l1": 0.0, "l2": 9.999999747378752e-05}, "class_name": "L1L2"}, "activity_regularizer": null, "kernel_size": [3, 3], "use_bias": true, "bias_constraint": null, "trainable": true, "strides": [1, 1], "bias_initializer": {"config": {}, "class_name": "Zeros"}, "name": "conv2d_83", "dilation_rate": [1, 1], "bias_regularizer": null, "data_format": "channels_last", "kernel_initializer": {"config": {"mode": "fan_avg", "scale": 1.0, "seed": null, "distribution": "uniform"}, "class_name": "VarianceScaling"}, "kernel_constraint": null}, "inbound_nodes": [[["activation_80", 0, 0, {}]]], "class_name": "Conv2D"}, {"name": "batch_normalization_735", "config": {"moving_variance_initializer": {"config": {}, "class_name": "Ones"}, "moving_mean_initializer": {"config": {}, "class_name": "Zeros"}, "axis": -1, "gamma_initializer": {"config": {}, "class_name": "Ones"}, "scale": true, "trainable": true, "beta_regularizer": null, "name": "batch_normalization_735", "epsilon": 0.001, "gamma_constraint": null, "momentum": 0.99, "center": true, "gamma_regularizer": null, "beta_initializer": {"config": {}, "class_name": "Zeros"}, "beta_constraint": null}, "inbound_nodes": [[["conv2d_83", 0, 0, {}]]], "class_name": "BatchNormalization"}, {"name": "add_364", "config": {"name": "add_364", "trainable": true}, "inbound_nodes": [[["activation_79", 0, 0, {}], ["batch_normalization_735", 0, 0, {}]]], "class_name": "Add"}, {"name": "activation_81", "config": {"name": "activation_81", "trainable": true, "activation": "relu"}, "inbound_nodes": [[["add_364", 0, 0, {}]]], "class_name": "Activation"}, {"name": "conv2d_84", "config": {"padding": "same", "activation": "linear", "filters": 17, "kernel_regularizer": {"config": {"l1": 0.0, "l2": 9.999999747378752e-05}, "class_name": "L1L2"}, "activity_regularizer": null, "kernel_size": [3, 3], "use_bias": true, "bias_constraint": null, "trainable": true, "strides": [1, 1], "bias_initializer": {"config": {}, "class_name": "Zeros"}, "name": "conv2d_84", "dilation_rate": [1, 1], "bias_regularizer": null, "data_format": "channels_last", "kernel_initializer": {"config": {"mode": "fan_avg", "scale": 1.0, "seed": null, "distribution": "uniform"}, "class_name": "VarianceScaling"}, "kernel_constraint": null}, "inbound_nodes": [[["activation_81", 0, 0, {}]]], "class_name": "Conv2D"}, {"name": "batch_normalization_736", "config": {"moving_variance_initializer": {"config": {}, "class_name": "Ones"}, "moving_mean_initializer": {"config": {}, "class_name": "Zeros"}, "axis": -1, "gamma_initializer": {"config": {}, "class_name": "Ones"}, "scale": true, "trainable": true, "beta_regularizer": null, "name": "batch_normalization_736", "epsilon": 0.001, "gamma_constraint": null, "momentum": 0.99, "center": true, "gamma_regularizer": null, "beta_initializer": {"config": {}, "class_name": "Zeros"}, "beta_constraint": null}, "inbound_nodes": [[["conv2d_84", 0, 0, {}]]], "class_name": "BatchNormalization"}, {"name": "activation_82", "config": {"name": "activation_82", "trainable": true, "activation": "relu"}, "inbound_nodes": [[["batch_normalization_736", 0, 0, {}]]], "class_name": "Activation"}, {"name": "conv2d_85", "config": {"padding": "same", "activation": "linear", "filters": 64, "kernel_regularizer": {"config": {"l1": 0.0, "l2": 9.999999747378752e-05}, "class_name": "L1L2"}, "activity_regularizer": null, "kernel_size": [3, 3], "use_bias": true, "bias_constraint": null, "trainable": true, "strides": [1, 1], "bias_initializer": {"config": {}, "class_name": "Zeros"}, "name": "conv2d_85", "dilation_rate": [1, 1], "bias_regularizer": null, "data_format": "channels_last", "kernel_initializer": {"config": {"mode": "fan_avg", "scale": 1.0, "seed": null, "distribution": "uniform"}, "class_name": "VarianceScaling"}, "kernel_constraint": null}, "inbound_nodes": [[["activation_82", 0, 0, {}]]], "class_name": "Conv2D"}, {"name": "batch_normalization_737", "config": {"moving_variance_initializer": {"config": {}, "class_name": "Ones"}, "moving_mean_initializer": {"config": {}, "class_name": "Zeros"}, "axis": -1, "gamma_initializer": {"config": {}, "class_name": "Ones"}, "scale": true, "trainable": true, "beta_regularizer": null, "name": "batch_normalization_737", "epsilon": 0.001, "gamma_constraint": null, "momentum": 0.99, "center": true, "gamma_regularizer": null, "beta_initializer": {"config": {}, "class_name": "Zeros"}, "beta_constraint": null}, "inbound_nodes": [[["conv2d_85", 0, 0, {}]]], "class_name": "BatchNormalization"}, {"name": "add_365", "config": {"name": "add_365", "trainable": true}, "inbound_nodes": [[["activation_81", 0, 0, {}], ["batch_normalization_737", 0, 0, {}]]], "class_name": "Add"}, {"name": "activation_83", "config": {"name": "activation_83", "trainable": true, "activation": "relu"}, "inbound_nodes": [[["add_365", 0, 0, {}]]], "class_name": "Activation"}, {"name": "conv2d_86", "config": {"padding": "same", "activation": "linear", "filters": 16, "kernel_regularizer": {"config": {"l1": 0.0, "l2": 9.999999747378752e-05}, "class_name": "L1L2"}, "activity_regularizer": null, "kernel_size": [3, 3], "use_bias": true, "bias_constraint": null, "trainable": true, "strides": [1, 1], "bias_initializer": {"config": {}, "class_name": "Zeros"}, "name": "conv2d_86", "dilation_rate": [1, 1], "bias_regularizer": null, "data_format": "channels_last", "kernel_initializer": {"config": {"mode": "fan_avg", "scale": 1.0, "seed": null, "distribution": "uniform"}, "class_name": "VarianceScaling"}, "kernel_constraint": null}, "inbound_nodes": [[["activation_83", 0, 0, {}]]], "class_name": "Conv2D"}, {"name": "batch_normalization_738", "config": {"moving_variance_initializer": {"config": {}, "class_name": "Ones"}, "moving_mean_initializer": {"config": {}, "class_name": "Zeros"}, "axis": -1, "gamma_initializer": {"config": {}, "class_name": "Ones"}, "scale": true, "trainable": true, "beta_regularizer": null, "name": "batch_normalization_738", "epsilon": 0.001, "gamma_constraint": null, "momentum": 0.99, "center": true, "gamma_regularizer": null, "beta_initializer": {"config": {}, "class_name": "Zeros"}, "beta_constraint": null}, "inbound_nodes": [[["conv2d_86", 0, 0, {}]]], "class_name": "BatchNormalization"}, {"name": "activation_84", "config": {"name": "activation_84", "trainable": true, "activation": "relu"}, "inbound_nodes": [[["batch_normalization_738", 0, 0, {}]]], "class_name": "Activation"}, {"name": "conv2d_87", "config": {"padding": "same", "activation": "linear", "filters": 64, "kernel_regularizer": {"config": {"l1": 0.0, "l2": 9.999999747378752e-05}, "class_name": "L1L2"}, "activity_regularizer": null, "kernel_size": [3, 3], "use_bias": true, "bias_constraint": null, "trainable": true, "strides": [1, 1], "bias_initializer": {"config": {}, "class_name": "Zeros"}, "name": "conv2d_87", "dilation_rate": [1, 1], "bias_regularizer": null, "data_format": "channels_last", "kernel_initializer": {"config": {"mode": "fan_avg", "scale": 1.0, "seed": null, "distribution": "uniform"}, "class_name": "VarianceScaling"}, "kernel_constraint": null}, "inbound_nodes": [[["activation_84", 0, 0, {}]]], "class_name": "Conv2D"}, {"name": "batch_normalization_739", "config": {"moving_variance_initializer": {"config": {}, "class_name": "Ones"}, "moving_mean_initializer": {"config": {}, "class_name": "Zeros"}, "axis": -1, "gamma_initializer": {"config": {}, "class_name": "Ones"}, "scale": true, "trainable": true, "beta_regularizer": null, "name": "batch_normalization_739", "epsilon": 0.001, "gamma_constraint": null, "momentum": 0.99, "center": true, "gamma_regularizer": null, "beta_initializer": {"config": {}, "class_name": "Zeros"}, "beta_constraint": null}, "inbound_nodes": [[["conv2d_87", 0, 0, {}]]], "class_name": "BatchNormalization"}, {"name": "add_366", "config": {"name": "add_366", "trainable": true}, "inbound_nodes": [[["activation_83", 0, 0, {}], ["batch_normalization_739", 0, 0, {}]]], "class_name": "Add"}, {"name": "activation_85", "config": {"name": "activation_85", "trainable": true, "activation": "relu"}, "inbound_nodes": [[["add_366", 0, 0, {}]]], "class_name": "Activation"}, {"name": "conv2d_88", "config": {"padding": "same", "activation": "linear", "filters": 15, "kernel_regularizer": {"config": {"l1": 0.0, "l2": 9.999999747378752e-05}, "class_name": "L1L2"}, "activity_regularizer": null, "kernel_size": [3, 3], "use_bias": true, "bias_constraint": null, "trainable": true, "strides": [1, 1], "bias_initializer": {"config": {}, "class_name": "Zeros"}, "name": "conv2d_88", "dilation_rate": [1, 1], "bias_regularizer": null, "data_format": "channels_last", "kernel_initializer": {"config": {"mode": "fan_avg", "scale": 1.0, "seed": null, "distribution": "uniform"}, "class_name": "VarianceScaling"}, "kernel_constraint": null}, "inbound_nodes": [[["activation_85", 0, 0, {}]]], "class_name": "Conv2D"}, {"name": "batch_normalization_740", "config": {"moving_variance_initializer": {"config": {}, "class_name": "Ones"}, "moving_mean_initializer": {"config": {}, "class_name": "Zeros"}, "axis": -1, "gamma_initializer": {"config": {}, "class_name": "Ones"}, "scale": true, "trainable": true, "beta_regularizer": null, "name": "batch_normalization_740", "epsilon": 0.001, "gamma_constraint": null, "momentum": 0.99, "center": true, "gamma_regularizer": null, "beta_initializer": {"config": {}, "class_name": "Zeros"}, "beta_constraint": null}, "inbound_nodes": [[["conv2d_88", 0, 0, {}]]], "class_name": "BatchNormalization"}, {"name": "activation_86", "config": {"name": "activation_86", "trainable": true, "activation": "relu"}, "inbound_nodes": [[["batch_normalization_740", 0, 0, {}]]], "class_name": "Activation"}, {"name": "conv2d_89", "config": {"padding": "same", "activation": "linear", "filters": 64, "kernel_regularizer": {"config": {"l1": 0.0, "l2": 9.999999747378752e-05}, "class_name": "L1L2"}, "activity_regularizer": null, "kernel_size": [3, 3], "use_bias": true, "bias_constraint": null, "trainable": true, "strides": [1, 1], "bias_initializer": {"config": {}, "class_name": "Zeros"}, "name": "conv2d_89", "dilation_rate": [1, 1], "bias_regularizer": null, "data_format": "channels_last", "kernel_initializer": {"config": {"mode": "fan_avg", "scale": 1.0, "seed": null, "distribution": "uniform"}, "class_name": "VarianceScaling"}, "kernel_constraint": null}, "inbound_nodes": [[["activation_86", 0, 0, {}]]], "class_name": "Conv2D"}, {"name": "batch_normalization_741", "config": {"moving_variance_initializer": {"config": {}, "class_name": "Ones"}, "moving_mean_initializer": {"config": {}, "class_name": "Zeros"}, "axis": -1, "gamma_initializer": {"config": {}, "class_name": "Ones"}, "scale": true, "trainable": true, "beta_regularizer": null, "name": "batch_normalization_741", "epsilon": 0.001, "gamma_constraint": null, "momentum": 0.99, "center": true, "gamma_regularizer": null, "beta_initializer": {"config": {}, "class_name": "Zeros"}, "beta_constraint": null}, "inbound_nodes": [[["conv2d_89", 0, 0, {}]]], "class_name": "BatchNormalization"}, {"name": "add_367", "config": {"name": "add_367", "trainable": true}, "inbound_nodes": [[["activation_85", 0, 0, {}], ["batch_normalization_741", 0, 0, {}]]], "class_name": "Add"}, {"name": "activation_87", "config": {"name": "activation_87", "trainable": true, "activation": "relu"}, "inbound_nodes": [[["add_367", 0, 0, {}]]], "class_name": "Activation"}, {"name": "conv2d_90", "config": {"padding": "same", "activation": "linear", "filters": 13, "kernel_regularizer": {"config": {"l1": 0.0, "l2": 9.999999747378752e-05}, "class_name": "L1L2"}, "activity_regularizer": null, "kernel_size": [3, 3], "use_bias": true, "bias_constraint": null, "trainable": true, "strides": [1, 1], "bias_initializer": {"config": {}, "class_name": "Zeros"}, "name": "conv2d_90", "dilation_rate": [1, 1], "bias_regularizer": null, "data_format": "channels_last", "kernel_initializer": {"config": {"mode": "fan_avg", "scale": 1.0, "seed": null, "distribution": "uniform"}, "class_name": "VarianceScaling"}, "kernel_constraint": null}, "inbound_nodes": [[["activation_87", 0, 0, {}]]], "class_name": "Conv2D"}, {"name": "batch_normalization_742", "config": {"moving_variance_initializer": {"config": {}, "class_name": "Ones"}, "moving_mean_initializer": {"config": {}, "class_name": "Zeros"}, "axis": -1, "gamma_initializer": {"config": {}, "class_name": "Ones"}, "scale": true, "trainable": true, "beta_regularizer": null, "name": "batch_normalization_742", "epsilon": 0.001, "gamma_constraint": null, "momentum": 0.99, "center": true, "gamma_regularizer": null, "beta_initializer": {"config": {}, "class_name": "Zeros"}, "beta_constraint": null}, "inbound_nodes": [[["conv2d_90", 0, 0, {}]]], "class_name": "BatchNormalization"}, {"name": "activation_88", "config": {"name": "activation_88", "trainable": true, "activation": "relu"}, "inbound_nodes": [[["batch_normalization_742", 0, 0, {}]]], "class_name": "Activation"}, {"name": "conv2d_91", "config": {"padding": "same", "activation": "linear", "filters": 64, "kernel_regularizer": {"config": {"l1": 0.0, "l2": 9.999999747378752e-05}, "class_name": "L1L2"}, "activity_regularizer": null, "kernel_size": [3, 3], "use_bias": true, "bias_constraint": null, "trainable": true, "strides": [1, 1], "bias_initializer": {"config": {}, "class_name": "Zeros"}, "name": "conv2d_91", "dilation_rate": [1, 1], "bias_regularizer": null, "data_format": "channels_last", "kernel_initializer": {"config": {"mode": "fan_avg", "scale": 1.0, "seed": null, "distribution": "uniform"}, "class_name": "VarianceScaling"}, "kernel_constraint": null}, "inbound_nodes": [[["activation_88", 0, 0, {}]]], "class_name": "Conv2D"}, {"name": "batch_normalization_743", "config": {"moving_variance_initializer": {"config": {}, "class_name": "Ones"}, "moving_mean_initializer": {"config": {}, "class_name": "Zeros"}, "axis": -1, "gamma_initializer": {"config": {}, "class_name": "Ones"}, "scale": true, "trainable": true, "beta_regularizer": null, "name": "batch_normalization_743", "epsilon": 0.001, "gamma_constraint": null, "momentum": 0.99, "center": true, "gamma_regularizer": null, "beta_initializer": {"config": {}, "class_name": "Zeros"}, "beta_constraint": null}, "inbound_nodes": [[["conv2d_91", 0, 0, {}]]], "class_name": "BatchNormalization"}, {"name": "add_368", "config": {"name": "add_368", "trainable": true}, "inbound_nodes": [[["activation_87", 0, 0, {}], ["batch_normalization_743", 0, 0, {}]]], "class_name": "Add"}, {"name": "activation_89", "config": {"name": "activation_89", "trainable": true, "activation": "relu"}, "inbound_nodes": [[["add_368", 0, 0, {}]]], "class_name": "Activation"}, {"name": "conv2d_92", "config": {"padding": "same", "activation": "linear", "filters": 16, "kernel_regularizer": {"config": {"l1": 0.0, "l2": 9.999999747378752e-05}, "class_name": "L1L2"}, "activity_regularizer": null, "kernel_size": [3, 3], "use_bias": true, "bias_constraint": null, "trainable": true, "strides": [1, 1], "bias_initializer": {"config": {}, "class_name": "Zeros"}, "name": "conv2d_92", "dilation_rate": [1, 1], "bias_regularizer": null, "data_format": "channels_last", "kernel_initializer": {"config": {"mode": "fan_avg", "scale": 1.0, "seed": null, "distribution": "uniform"}, "class_name": "VarianceScaling"}, "kernel_constraint": null}, "inbound_nodes": [[["activation_89", 0, 0, {}]]], "class_name": "Conv2D"}, {"name": "batch_normalization_744", "config": {"moving_variance_initializer": {"config": {}, "class_name": "Ones"}, "moving_mean_initializer": {"config": {}, "class_name": "Zeros"}, "axis": -1, "gamma_initializer": {"config": {}, "class_name": "Ones"}, "scale": true, "trainable": true, "beta_regularizer": null, "name": "batch_normalization_744", "epsilon": 0.001, "gamma_constraint": null, "momentum": 0.99, "center": true, "gamma_regularizer": null, "beta_initializer": {"config": {}, "class_name": "Zeros"}, "beta_constraint": null}, "inbound_nodes": [[["conv2d_92", 0, 0, {}]]], "class_name": "BatchNormalization"}, {"name": "activation_90", "config": {"name": "activation_90", "trainable": true, "activation": "relu"}, "inbound_nodes": [[["batch_normalization_744", 0, 0, {}]]], "class_name": "Activation"}, {"name": "conv2d_93", "config": {"padding": "same", "activation": "linear", "filters": 64, "kernel_regularizer": {"config": {"l1": 0.0, "l2": 9.999999747378752e-05}, "class_name": "L1L2"}, "activity_regularizer": null, "kernel_size": [3, 3], "use_bias": true, "bias_constraint": null, "trainable": true, "strides": [1, 1], "bias_initializer": {"config": {}, "class_name": "Zeros"}, "name": "conv2d_93", "dilation_rate": [1, 1], "bias_regularizer": null, "data_format": "channels_last", "kernel_initializer": {"config": {"mode": "fan_avg", "scale": 1.0, "seed": null, "distribution": "uniform"}, "class_name": "VarianceScaling"}, "kernel_constraint": null}, "inbound_nodes": [[["activation_90", 0, 0, {}]]], "class_name": "Conv2D"}, {"name": "batch_normalization_745", "config": {"moving_variance_initializer": {"config": {}, "class_name": "Ones"}, "moving_mean_initializer": {"config": {}, "class_name": "Zeros"}, "axis": -1, "gamma_initializer": {"config": {}, "class_name": "Ones"}, "scale": true, "trainable": true, "beta_regularizer": null, "name": "batch_normalization_745", "epsilon": 0.001, "gamma_constraint": null, "momentum": 0.99, "center": true, "gamma_regularizer": null, "beta_initializer": {"config": {}, "class_name": "Zeros"}, "beta_constraint": null}, "inbound_nodes": [[["conv2d_93", 0, 0, {}]]], "class_name": "BatchNormalization"}, {"name": "add_369", "config": {"name": "add_369", "trainable": true}, "inbound_nodes": [[["activation_89", 0, 0, {}], ["batch_normalization_745", 0, 0, {}]]], "class_name": "Add"}, {"name": "activation_91", "config": {"name": "activation_91", "trainable": true, "activation": "relu"}, "inbound_nodes": [[["add_369", 0, 0, {}]]], "class_name": "Activation"}, {"name": "conv2d_94", "config": {"padding": "same", "activation": "linear", "filters": 15, "kernel_regularizer": {"config": {"l1": 0.0, "l2": 9.999999747378752e-05}, "class_name": "L1L2"}, "activity_regularizer": null, "kernel_size": [3, 3], "use_bias": true, "bias_constraint": null, "trainable": true, "strides": [1, 1], "bias_initializer": {"config": {}, "class_name": "Zeros"}, "name": "conv2d_94", "dilation_rate": [1, 1], "bias_regularizer": null, "data_format": "channels_last", "kernel_initializer": {"config": {"mode": "fan_avg", "scale": 1.0, "seed": null, "distribution": "uniform"}, "class_name": "VarianceScaling"}, "kernel_constraint": null}, "inbound_nodes": [[["activation_91", 0, 0, {}]]], "class_name": "Conv2D"}, {"name": "batch_normalization_746", "config": {"moving_variance_initializer": {"config": {}, "class_name": "Ones"}, "moving_mean_initializer": {"config": {}, "class_name": "Zeros"}, "axis": -1, "gamma_initializer": {"config": {}, "class_name": "Ones"}, "scale": true, "trainable": true, "beta_regularizer": null, "name": "batch_normalization_746", "epsilon": 0.001, "gamma_constraint": null, "momentum": 0.99, "center": true, "gamma_regularizer": null, "beta_initializer": {"config": {}, "class_name": "Zeros"}, "beta_constraint": null}, "inbound_nodes": [[["conv2d_94", 0, 0, {}]]], "class_name": "BatchNormalization"}, {"name": "activation_92", "config": {"name": "activation_92", "trainable": true, "activation": "relu"}, "inbound_nodes": [[["batch_normalization_746", 0, 0, {}]]], "class_name": "Activation"}, {"name": "conv2d_95", "config": {"padding": "same", "activation": "linear", "filters": 64, "kernel_regularizer": {"config": {"l1": 0.0, "l2": 9.999999747378752e-05}, "class_name": "L1L2"}, "activity_regularizer": null, "kernel_size": [3, 3], "use_bias": true, "bias_constraint": null, "trainable": true, "strides": [1, 1], "bias_initializer": {"config": {}, "class_name": "Zeros"}, "name": "conv2d_95", "dilation_rate": [1, 1], "bias_regularizer": null, "data_format": "channels_last", "kernel_initializer": {"config": {"mode": "fan_avg", "scale": 1.0, "seed": null, "distribution": "uniform"}, "class_name": "VarianceScaling"}, "kernel_constraint": null}, "inbound_nodes": [[["activation_92", 0, 0, {}]]], "class_name": "Conv2D"}, {"name": "batch_normalization_747", "config": {"moving_variance_initializer": {"config": {}, "class_name": "Ones"}, "moving_mean_initializer": {"config": {}, "class_name": "Zeros"}, "axis": -1, "gamma_initializer": {"config": {}, "class_name": "Ones"}, "scale": true, "trainable": true, "beta_regularizer": null, "name": "batch_normalization_747", "epsilon": 0.001, "gamma_constraint": null, "momentum": 0.99, "center": true, "gamma_regularizer": null, "beta_initializer": {"config": {}, "class_name": "Zeros"}, "beta_constraint": null}, "inbound_nodes": [[["conv2d_95", 0, 0, {}]]], "class_name": "BatchNormalization"}, {"name": "add_370", "config": {"name": "add_370", "trainable": true}, "inbound_nodes": [[["activation_91", 0, 0, {}], ["batch_normalization_747", 0, 0, {}]]], "class_name": "Add"}, {"name": "activation_93", "config": {"name": "activation_93", "trainable": true, "activation": "relu"}, "inbound_nodes": [[["add_370", 0, 0, {}]]], "class_name": "Activation"}, {"name": "conv2d_96", "config": {"padding": "same", "activation": "linear", "filters": 8, "kernel_regularizer": {"config": {"l1": 0.0, "l2": 9.999999747378752e-05}, "class_name": "L1L2"}, "activity_regularizer": null, "kernel_size": [3, 3], "use_bias": true, "bias_constraint": null, "trainable": true, "strides": [1, 1], "bias_initializer": {"config": {}, "class_name": "Zeros"}, "name": "conv2d_96", "dilation_rate": [1, 1], "bias_regularizer": null, "data_format": "channels_last", "kernel_initializer": {"config": {"mode": "fan_avg", "scale": 1.0, "seed": null, "distribution": "uniform"}, "class_name": "VarianceScaling"}, "kernel_constraint": null}, "inbound_nodes": [[["activation_93", 0, 0, {}]]], "class_name": "Conv2D"}, {"name": "batch_normalization_748", "config": {"moving_variance_initializer": {"config": {}, "class_name": "Ones"}, "moving_mean_initializer": {"config": {}, "class_name": "Zeros"}, "axis": -1, "gamma_initializer": {"config": {}, "class_name": "Ones"}, "scale": true, "trainable": true, "beta_regularizer": null, "name": "batch_normalization_748", "epsilon": 0.001, "gamma_constraint": null, "momentum": 0.99, "center": true, "gamma_regularizer": null, "beta_initializer": {"config": {}, "class_name": "Zeros"}, "beta_constraint": null}, "inbound_nodes": [[["conv2d_96", 0, 0, {}]]], "class_name": "BatchNormalization"}, {"name": "activation_94", "config": {"name": "activation_94", "trainable": true, "activation": "relu"}, "inbound_nodes": [[["batch_normalization_748", 0, 0, {}]]], "class_name": "Activation"}, {"name": "conv2d_97", "config": {"padding": "same", "activation": "linear", "filters": 64, "kernel_regularizer": {"config": {"l1": 0.0, "l2": 9.999999747378752e-05}, "class_name": "L1L2"}, "activity_regularizer": null, "kernel_size": [3, 3], "use_bias": true, "bias_constraint": null, "trainable": true, "strides": [1, 1], "bias_initializer": {"config": {}, "class_name": "Zeros"}, "name": "conv2d_97", "dilation_rate": [1, 1], "bias_regularizer": null, "data_format": "channels_last", "kernel_initializer": {"config": {"mode": "fan_avg", "scale": 1.0, "seed": null, "distribution": "uniform"}, "class_name": "VarianceScaling"}, "kernel_constraint": null}, "inbound_nodes": [[["activation_94", 0, 0, {}]]], "class_name": "Conv2D"}, {"name": "batch_normalization_749", "config": {"moving_variance_initializer": {"config": {}, "class_name": "Ones"}, "moving_mean_initializer": {"config": {}, "class_name": "Zeros"}, "axis": -1, "gamma_initializer": {"config": {}, "class_name": "Ones"}, "scale": true, "trainable": true, "beta_regularizer": null, "name": "batch_normalization_749", "epsilon": 0.001, "gamma_constraint": null, "momentum": 0.99, "center": true, "gamma_regularizer": null, "beta_initializer": {"config": {}, "class_name": "Zeros"}, "beta_constraint": null}, "inbound_nodes": [[["conv2d_97", 0, 0, {}]]], "class_name": "BatchNormalization"}, {"name": "add_371", "config": {"name": "add_371", "trainable": true}, "inbound_nodes": [[["activation_93", 0, 0, {}], ["batch_normalization_749", 0, 0, {}]]], "class_name": "Add"}, {"name": "activation_95", "config": {"name": "activation_95", "trainable": true, "activation": "relu"}, "inbound_nodes": [[["add_371", 0, 0, {}]]], "class_name": "Activation"}, {"name": "conv2d_98", "config": {"padding": "same", "activation": "linear", "filters": 14, "kernel_regularizer": {"config": {"l1": 0.0, "l2": 9.999999747378752e-05}, "class_name": "L1L2"}, "activity_regularizer": null, "kernel_size": [3, 3], "use_bias": true, "bias_constraint": null, "trainable": true, "strides": [1, 1], "bias_initializer": {"config": {}, "class_name": "Zeros"}, "name": "conv2d_98", "dilation_rate": [1, 1], "bias_regularizer": null, "data_format": "channels_last", "kernel_initializer": {"config": {"mode": "fan_avg", "scale": 1.0, "seed": null, "distribution": "uniform"}, "class_name": "VarianceScaling"}, "kernel_constraint": null}, "inbound_nodes": [[["activation_95", 0, 0, {}]]], "class_name": "Conv2D"}, {"name": "batch_normalization_750", "config": {"moving_variance_initializer": {"config": {}, "class_name": "Ones"}, "moving_mean_initializer": {"config": {}, "class_name": "Zeros"}, "axis": -1, "gamma_initializer": {"config": {}, "class_name": "Ones"}, "scale": true, "trainable": true, "beta_regularizer": null, "name": "batch_normalization_750", "epsilon": 0.001, "gamma_constraint": null, "momentum": 0.99, "center": true, "gamma_regularizer": null, "beta_initializer": {"config": {}, "class_name": "Zeros"}, "beta_constraint": null}, "inbound_nodes": [[["conv2d_98", 0, 0, {}]]], "class_name": "BatchNormalization"}, {"name": "activation_96", "config": {"name": "activation_96", "trainable": true, "activation": "relu"}, "inbound_nodes": [[["batch_normalization_750", 0, 0, {}]]], "class_name": "Activation"}, {"name": "conv2d_99", "config": {"padding": "same", "activation": "linear", "filters": 64, "kernel_regularizer": {"config": {"l1": 0.0, "l2": 9.999999747378752e-05}, "class_name": "L1L2"}, "activity_regularizer": null, "kernel_size": [3, 3], "use_bias": true, "bias_constraint": null, "trainable": true, "strides": [1, 1], "bias_initializer": {"config": {}, "class_name": "Zeros"}, "name": "conv2d_99", "dilation_rate": [1, 1], "bias_regularizer": null, "data_format": "channels_last", "kernel_initializer": {"config": {"mode": "fan_avg", "scale": 1.0, "seed": null, "distribution": "uniform"}, "class_name": "VarianceScaling"}, "kernel_constraint": null}, "inbound_nodes": [[["activation_96", 0, 0, {}]]], "class_name": "Conv2D"}, {"name": "batch_normalization_751", "config": {"moving_variance_initializer": {"config": {}, "class_name": "Ones"}, "moving_mean_initializer": {"config": {}, "class_name": "Zeros"}, "axis": -1, "gamma_initializer": {"config": {}, "class_name": "Ones"}, "scale": true, "trainable": true, "beta_regularizer": null, "name": "batch_normalization_751", "epsilon": 0.001, "gamma_constraint": null, "momentum": 0.99, "center": true, "gamma_regularizer": null, "beta_initializer": {"config": {}, "class_name": "Zeros"}, "beta_constraint": null}, "inbound_nodes": [[["conv2d_99", 0, 0, {}]]], "class_name": "BatchNormalization"}, {"name": "add_372", "config": {"name": "add_372", "trainable": true}, "inbound_nodes": [[["activation_95", 0, 0, {}], ["batch_normalization_751", 0, 0, {}]]], "class_name": "Add"}, {"name": "activation_97", "config": {"name": "activation_97", "trainable": true, "activation": "relu"}, "inbound_nodes": [[["add_372", 0, 0, {}]]], "class_name": "Activation"}, {"name": "conv2d_100", "config": {"padding": "same", "activation": "linear", "filters": 11, "kernel_regularizer": {"config": {"l1": 0.0, "l2": 9.999999747378752e-05}, "class_name": "L1L2"}, "activity_regularizer": null, "kernel_size": [3, 3], "use_bias": true, "bias_constraint": null, "trainable": true, "strides": [1, 1], "bias_initializer": {"config": {}, "class_name": "Zeros"}, "name": "conv2d_100", "dilation_rate": [1, 1], "bias_regularizer": null, "data_format": "channels_last", "kernel_initializer": {"config": {"mode": "fan_avg", "scale": 1.0, "seed": null, "distribution": "uniform"}, "class_name": "VarianceScaling"}, "kernel_constraint": null}, "inbound_nodes": [[["activation_97", 0, 0, {}]]], "class_name": "Conv2D"}, {"name": "batch_normalization_752", "config": {"moving_variance_initializer": {"config": {}, "class_name": "Ones"}, "moving_mean_initializer": {"config": {}, "class_name": "Zeros"}, "axis": -1, "gamma_initializer": {"config": {}, "class_name": "Ones"}, "scale": true, "trainable": true, "beta_regularizer": null, "name": "batch_normalization_752", "epsilon": 0.001, "gamma_constraint": null, "momentum": 0.99, "center": true, "gamma_regularizer": null, "beta_initializer": {"config": {}, "class_name": "Zeros"}, "beta_constraint": null}, "inbound_nodes": [[["conv2d_100", 0, 0, {}]]], "class_name": "BatchNormalization"}, {"name": "activation_98", "config": {"name": "activation_98", "trainable": true, "activation": "relu"}, "inbound_nodes": [[["batch_normalization_752", 0, 0, {}]]], "class_name": "Activation"}, {"name": "conv2d_101", "config": {"padding": "same", "activation": "linear", "filters": 64, "kernel_regularizer": {"config": {"l1": 0.0, "l2": 9.999999747378752e-05}, "class_name": "L1L2"}, "activity_regularizer": null, "kernel_size": [3, 3], "use_bias": true, "bias_constraint": null, "trainable": true, "strides": [1, 1], "bias_initializer": {"config": {}, "class_name": "Zeros"}, "name": "conv2d_101", "dilation_rate": [1, 1], "bias_regularizer": null, "data_format": "channels_last", "kernel_initializer": {"config": {"mode": "fan_avg", "scale": 1.0, "seed": null, "distribution": "uniform"}, "class_name": "VarianceScaling"}, "kernel_constraint": null}, "inbound_nodes": [[["activation_98", 0, 0, {}]]], "class_name": "Conv2D"}, {"name": "batch_normalization_753", "config": {"moving_variance_initializer": {"config": {}, "class_name": "Ones"}, "moving_mean_initializer": {"config": {}, "class_name": "Zeros"}, "axis": -1, "gamma_initializer": {"config": {}, "class_name": "Ones"}, "scale": true, "trainable": true, "beta_regularizer": null, "name": "batch_normalization_753", "epsilon": 0.001, "gamma_constraint": null, "momentum": 0.99, "center": true, "gamma_regularizer": null, "beta_initializer": {"config": {}, "class_name": "Zeros"}, "beta_constraint": null}, "inbound_nodes": [[["conv2d_101", 0, 0, {}]]], "class_name": "BatchNormalization"}, {"name": "add_373", "config": {"name": "add_373", "trainable": true}, "inbound_nodes": [[["activation_97", 0, 0, {}], ["batch_normalization_753", 0, 0, {}]]], "class_name": "Add"}, {"name": "activation_99", "config": {"name": "activation_99", "trainable": true, "activation": "relu"}, "inbound_nodes": [[["add_373", 0, 0, {}]]], "class_name": "Activation"}, {"name": "conv2d_102", "config": {"padding": "same", "activation": "linear", "filters": 12, "kernel_regularizer": {"config": {"l1": 0.0, "l2": 9.999999747378752e-05}, "class_name": "L1L2"}, "activity_regularizer": null, "kernel_size": [3, 3], "use_bias": true, "bias_constraint": null, "trainable": true, "strides": [1, 1], "bias_initializer": {"config": {}, "class_name": "Zeros"}, "name": "conv2d_102", "dilation_rate": [1, 1], "bias_regularizer": null, "data_format": "channels_last", "kernel_initializer": {"config": {"mode": "fan_avg", "scale": 1.0, "seed": null, "distribution": "uniform"}, "class_name": "VarianceScaling"}, "kernel_constraint": null}, "inbound_nodes": [[["activation_99", 0, 0, {}]]], "class_name": "Conv2D"}, {"name": "batch_normalization_754", "config": {"moving_variance_initializer": {"config": {}, "class_name": "Ones"}, "moving_mean_initializer": {"config": {}, "class_name": "Zeros"}, "axis": -1, "gamma_initializer": {"config": {}, "class_name": "Ones"}, "scale": true, "trainable": true, "beta_regularizer": null, "name": "batch_normalization_754", "epsilon": 0.001, "gamma_constraint": null, "momentum": 0.99, "center": true, "gamma_regularizer": null, "beta_initializer": {"config": {}, "class_name": "Zeros"}, "beta_constraint": null}, "inbound_nodes": [[["conv2d_102", 0, 0, {}]]], "class_name": "BatchNormalization"}, {"name": "activation_100", "config": {"name": "activation_100", "trainable": true, "activation": "relu"}, "inbound_nodes": [[["batch_normalization_754", 0, 0, {}]]], "class_name": "Activation"}, {"name": "conv2d_103", "config": {"padding": "same", "activation": "linear", "filters": 64, "kernel_regularizer": {"config": {"l1": 0.0, "l2": 9.999999747378752e-05}, "class_name": "L1L2"}, "activity_regularizer": null, "kernel_size": [3, 3], "use_bias": true, "bias_constraint": null, "trainable": true, "strides": [1, 1], "bias_initializer": {"config": {}, "class_name": "Zeros"}, "name": "conv2d_103", "dilation_rate": [1, 1], "bias_regularizer": null, "data_format": "channels_last", "kernel_initializer": {"config": {"mode": "fan_avg", "scale": 1.0, "seed": null, "distribution": "uniform"}, "class_name": "VarianceScaling"}, "kernel_constraint": null}, "inbound_nodes": [[["activation_100", 0, 0, {}]]], "class_name": "Conv2D"}, {"name": "batch_normalization_755", "config": {"moving_variance_initializer": {"config": {}, "class_name": "Ones"}, "moving_mean_initializer": {"config": {}, "class_name": "Zeros"}, "axis": -1, "gamma_initializer": {"config": {}, "class_name": "Ones"}, "scale": true, "trainable": true, "beta_regularizer": null, "name": "batch_normalization_755", "epsilon": 0.001, "gamma_constraint": null, "momentum": 0.99, "center": true, "gamma_regularizer": null, "beta_initializer": {"config": {}, "class_name": "Zeros"}, "beta_constraint": null}, "inbound_nodes": [[["conv2d_103", 0, 0, {}]]], "class_name": "BatchNormalization"}, {"name": "add_374", "config": {"name": "add_374", "trainable": true}, "inbound_nodes": [[["activation_99", 0, 0, {}], ["batch_normalization_755", 0, 0, {}]]], "class_name": "Add"}, {"name": "activation_101", "config": {"name": "activation_101", "trainable": true, "activation": "relu"}, "inbound_nodes": [[["add_374", 0, 0, {}]]], "class_name": "Activation"}, {"name": "conv2d_104", "config": {"padding": "same", "activation": "linear", "filters": 17, "kernel_regularizer": {"config": {"l1": 0.0, "l2": 9.999999747378752e-05}, "class_name": "L1L2"}, "activity_regularizer": null, "kernel_size": [3, 3], "use_bias": true, "bias_constraint": null, "trainable": true, "strides": [1, 1], "bias_initializer": {"config": {}, "class_name": "Zeros"}, "name": "conv2d_104", "dilation_rate": [1, 1], "bias_regularizer": null, "data_format": "channels_last", "kernel_initializer": {"config": {"mode": "fan_avg", "scale": 1.0, "seed": null, "distribution": "uniform"}, "class_name": "VarianceScaling"}, "kernel_constraint": null}, "inbound_nodes": [[["activation_101", 0, 0, {}]]], "class_name": "Conv2D"}, {"name": "batch_normalization_756", "config": {"moving_variance_initializer": {"config": {}, "class_name": "Ones"}, "moving_mean_initializer": {"config": {}, "class_name": "Zeros"}, "axis": -1, "gamma_initializer": {"config": {}, "class_name": "Ones"}, "scale": true, "trainable": true, "beta_regularizer": null, "name": "batch_normalization_756", "epsilon": 0.001, "gamma_constraint": null, "momentum": 0.99, "center": true, "gamma_regularizer": null, "beta_initializer": {"config": {}, "class_name": "Zeros"}, "beta_constraint": null}, "inbound_nodes": [[["conv2d_104", 0, 0, {}]]], "class_name": "BatchNormalization"}, {"name": "activation_102", "config": {"name": "activation_102", "trainable": true, "activation": "relu"}, "inbound_nodes": [[["batch_normalization_756", 0, 0, {}]]], "class_name": "Activation"}, {"name": "conv2d_105", "config": {"padding": "same", "activation": "linear", "filters": 64, "kernel_regularizer": {"config": {"l1": 0.0, "l2": 9.999999747378752e-05}, "class_name": "L1L2"}, "activity_regularizer": null, "kernel_size": [3, 3], "use_bias": true, "bias_constraint": null, "trainable": true, "strides": [1, 1], "bias_initializer": {"config": {}, "class_name": "Zeros"}, "name": "conv2d_105", "dilation_rate": [1, 1], "bias_regularizer": null, "data_format": "channels_last", "kernel_initializer": {"config": {"mode": "fan_avg", "scale": 1.0, "seed": null, "distribution": "uniform"}, "class_name": "VarianceScaling"}, "kernel_constraint": null}, "inbound_nodes": [[["activation_102", 0, 0, {}]]], "class_name": "Conv2D"}, {"name": "batch_normalization_757", "config": {"moving_variance_initializer": {"config": {}, "class_name": "Ones"}, "moving_mean_initializer": {"config": {}, "class_name": "Zeros"}, "axis": -1, "gamma_initializer": {"config": {}, "class_name": "Ones"}, "scale": true, "trainable": true, "beta_regularizer": null, "name": "batch_normalization_757", "epsilon": 0.001, "gamma_constraint": null, "momentum": 0.99, "center": true, "gamma_regularizer": null, "beta_initializer": {"config": {}, "class_name": "Zeros"}, "beta_constraint": null}, "inbound_nodes": [[["conv2d_105", 0, 0, {}]]], "class_name": "BatchNormalization"}, {"name": "add_375", "config": {"name": "add_375", "trainable": true}, "inbound_nodes": [[["activation_101", 0, 0, {}], ["batch_normalization_757", 0, 0, {}]]], "class_name": "Add"}, {"name": "activation_103", "config": {"name": "activation_103", "trainable": true, "activation": "relu"}, "inbound_nodes": [[["add_375", 0, 0, {}]]], "class_name": "Activation"}, {"name": "conv2d_106", "config": {"padding": "same", "activation": "linear", "filters": 18, "kernel_regularizer": {"config": {"l1": 0.0, "l2": 9.999999747378752e-05}, "class_name": "L1L2"}, "activity_regularizer": null, "kernel_size": [3, 3], "use_bias": true, "bias_constraint": null, "trainable": true, "strides": [1, 1], "bias_initializer": {"config": {}, "class_name": "Zeros"}, "name": "conv2d_106", "dilation_rate": [1, 1], "bias_regularizer": null, "data_format": "channels_last", "kernel_initializer": {"config": {"mode": "fan_avg", "scale": 1.0, "seed": null, "distribution": "uniform"}, "class_name": "VarianceScaling"}, "kernel_constraint": null}, "inbound_nodes": [[["activation_103", 0, 0, {}]]], "class_name": "Conv2D"}, {"name": "batch_normalization_758", "config": {"moving_variance_initializer": {"config": {}, "class_name": "Ones"}, "moving_mean_initializer": {"config": {}, "class_name": "Zeros"}, "axis": -1, "gamma_initializer": {"config": {}, "class_name": "Ones"}, "scale": true, "trainable": true, "beta_regularizer": null, "name": "batch_normalization_758", "epsilon": 0.001, "gamma_constraint": null, "momentum": 0.99, "center": true, "gamma_regularizer": null, "beta_initializer": {"config": {}, "class_name": "Zeros"}, "beta_constraint": null}, "inbound_nodes": [[["conv2d_106", 0, 0, {}]]], "class_name": "BatchNormalization"}, {"name": "activation_104", "config": {"name": "activation_104", "trainable": true, "activation": "relu"}, "inbound_nodes": [[["batch_normalization_758", 0, 0, {}]]], "class_name": "Activation"}, {"name": "conv2d_107", "config": {"padding": "same", "activation": "linear", "filters": 64, "kernel_regularizer": {"config": {"l1": 0.0, "l2": 9.999999747378752e-05}, "class_name": "L1L2"}, "activity_regularizer": null, "kernel_size": [3, 3], "use_bias": true, "bias_constraint": null, "trainable": true, "strides": [1, 1], "bias_initializer": {"config": {}, "class_name": "Zeros"}, "name": "conv2d_107", "dilation_rate": [1, 1], "bias_regularizer": null, "data_format": "channels_last", "kernel_initializer": {"config": {"mode": "fan_avg", "scale": 1.0, "seed": null, "distribution": "uniform"}, "class_name": "VarianceScaling"}, "kernel_constraint": null}, "inbound_nodes": [[["activation_104", 0, 0, {}]]], "class_name": "Conv2D"}, {"name": "batch_normalization_759", "config": {"moving_variance_initializer": {"config": {}, "class_name": "Ones"}, "moving_mean_initializer": {"config": {}, "class_name": "Zeros"}, "axis": -1, "gamma_initializer": {"config": {}, "class_name": "Ones"}, "scale": true, "trainable": true, "beta_regularizer": null, "name": "batch_normalization_759", "epsilon": 0.001, "gamma_constraint": null, "momentum": 0.99, "center": true, "gamma_regularizer": null, "beta_initializer": {"config": {}, "class_name": "Zeros"}, "beta_constraint": null}, "inbound_nodes": [[["conv2d_107", 0, 0, {}]]], "class_name": "BatchNormalization"}, {"name": "add_376", "config": {"name": "add_376", "trainable": true}, "inbound_nodes": [[["activation_103", 0, 0, {}], ["batch_normalization_759", 0, 0, {}]]], "class_name": "Add"}, {"name": "activation_105", "config": {"name": "activation_105", "trainable": true, "activation": "relu"}, "inbound_nodes": [[["add_376", 0, 0, {}]]], "class_name": "Activation"}, {"name": "conv2d_108", "config": {"padding": "same", "activation": "linear", "filters": 24, "kernel_regularizer": {"config": {"l1": 0.0, "l2": 9.999999747378752e-05}, "class_name": "L1L2"}, "activity_regularizer": null, "kernel_size": [3, 3], "use_bias": true, "bias_constraint": null, "trainable": true, "strides": [1, 1], "bias_initializer": {"config": {}, "class_name": "Zeros"}, "name": "conv2d_108", "dilation_rate": [1, 1], "bias_regularizer": null, "data_format": "channels_last", "kernel_initializer": {"config": {"mode": "fan_avg", "scale": 1.0, "seed": null, "distribution": "uniform"}, "class_name": "VarianceScaling"}, "kernel_constraint": null}, "inbound_nodes": [[["activation_105", 0, 0, {}]]], "class_name": "Conv2D"}, {"name": "batch_normalization_760", "config": {"moving_variance_initializer": {"config": {}, "class_name": "Ones"}, "moving_mean_initializer": {"config": {}, "class_name": "Zeros"}, "axis": -1, "gamma_initializer": {"config": {}, "class_name": "Ones"}, "scale": true, "trainable": true, "beta_regularizer": null, "name": "batch_normalization_760", "epsilon": 0.001, "gamma_constraint": null, "momentum": 0.99, "center": true, "gamma_regularizer": null, "beta_initializer": {"config": {}, "class_name": "Zeros"}, "beta_constraint": null}, "inbound_nodes": [[["conv2d_108", 0, 0, {}]]], "class_name": "BatchNormalization"}, {"name": "activation_106", "config": {"name": "activation_106", "trainable": true, "activation": "relu"}, "inbound_nodes": [[["batch_normalization_760", 0, 0, {}]]], "class_name": "Activation"}, {"name": "conv2d_109", "config": {"padding": "same", "activation": "linear", "filters": 64, "kernel_regularizer": {"config": {"l1": 0.0, "l2": 9.999999747378752e-05}, "class_name": "L1L2"}, "activity_regularizer": null, "kernel_size": [3, 3], "use_bias": true, "bias_constraint": null, "trainable": true, "strides": [1, 1], "bias_initializer": {"config": {}, "class_name": "Zeros"}, "name": "conv2d_109", "dilation_rate": [1, 1], "bias_regularizer": null, "data_format": "channels_last", "kernel_initializer": {"config": {"mode": "fan_avg", "scale": 1.0, "seed": null, "distribution": "uniform"}, "class_name": "VarianceScaling"}, "kernel_constraint": null}, "inbound_nodes": [[["activation_106", 0, 0, {}]]], "class_name": "Conv2D"}, {"name": "batch_normalization_761", "config": {"moving_variance_initializer": {"config": {}, "class_name": "Ones"}, "moving_mean_initializer": {"config": {}, "class_name": "Zeros"}, "axis": -1, "gamma_initializer": {"config": {}, "class_name": "Ones"}, "scale": true, "trainable": true, "beta_regularizer": null, "name": "batch_normalization_761", "epsilon": 0.001, "gamma_constraint": null, "momentum": 0.99, "center": true, "gamma_regularizer": null, "beta_initializer": {"config": {}, "class_name": "Zeros"}, "beta_constraint": null}, "inbound_nodes": [[["conv2d_109", 0, 0, {}]]], "class_name": "BatchNormalization"}, {"name": "add_377", "config": {"name": "add_377", "trainable": true}, "inbound_nodes": [[["activation_105", 0, 0, {}], ["batch_normalization_761", 0, 0, {}]]], "class_name": "Add"}, {"name": "activation_107", "config": {"name": "activation_107", "trainable": true, "activation": "relu"}, "inbound_nodes": [[["add_377", 0, 0, {}]]], "class_name": "Activation"}, {"name": "conv2d_110", "config": {"padding": "same", "activation": "linear", "filters": 17, "kernel_regularizer": {"config": {"l1": 0.0, "l2": 9.999999747378752e-05}, "class_name": "L1L2"}, "activity_regularizer": null, "kernel_size": [3, 3], "use_bias": true, "bias_constraint": null, "trainable": true, "strides": [1, 1], "bias_initializer": {"config": {}, "class_name": "Zeros"}, "name": "conv2d_110", "dilation_rate": [1, 1], "bias_regularizer": null, "data_format": "channels_last", "kernel_initializer": {"config": {"mode": "fan_avg", "scale": 1.0, "seed": null, "distribution": "uniform"}, "class_name": "VarianceScaling"}, "kernel_constraint": null}, "inbound_nodes": [[["activation_107", 0, 0, {}]]], "class_name": "Conv2D"}, {"name": "batch_normalization_762", "config": {"moving_variance_initializer": {"config": {}, "class_name": "Ones"}, "moving_mean_initializer": {"config": {}, "class_name": "Zeros"}, "axis": -1, "gamma_initializer": {"config": {}, "class_name": "Ones"}, "scale": true, "trainable": true, "beta_regularizer": null, "name": "batch_normalization_762", "epsilon": 0.001, "gamma_constraint": null, "momentum": 0.99, "center": true, "gamma_regularizer": null, "beta_initializer": {"config": {}, "class_name": "Zeros"}, "beta_constraint": null}, "inbound_nodes": [[["conv2d_110", 0, 0, {}]]], "class_name": "BatchNormalization"}, {"name": "activation_108", "config": {"name": "activation_108", "trainable": true, "activation": "relu"}, "inbound_nodes": [[["batch_normalization_762", 0, 0, {}]]], "class_name": "Activation"}, {"name": "conv2d_111", "config": {"padding": "same", "activation": "linear", "filters": 64, "kernel_regularizer": {"config": {"l1": 0.0, "l2": 9.999999747378752e-05}, "class_name": "L1L2"}, "activity_regularizer": null, "kernel_size": [3, 3], "use_bias": true, "bias_constraint": null, "trainable": true, "strides": [1, 1], "bias_initializer": {"config": {}, "class_name": "Zeros"}, "name": "conv2d_111", "dilation_rate": [1, 1], "bias_regularizer": null, "data_format": "channels_last", "kernel_initializer": {"config": {"mode": "fan_avg", "scale": 1.0, "seed": null, "distribution": "uniform"}, "class_name": "VarianceScaling"}, "kernel_constraint": null}, "inbound_nodes": [[["activation_108", 0, 0, {}]]], "class_name": "Conv2D"}, {"name": "batch_normalization_763", "config": {"moving_variance_initializer": {"config": {}, "class_name": "Ones"}, "moving_mean_initializer": {"config": {}, "class_name": "Zeros"}, "axis": -1, "gamma_initializer": {"config": {}, "class_name": "Ones"}, "scale": true, "trainable": true, "beta_regularizer": null, "name": "batch_normalization_763", "epsilon": 0.001, "gamma_constraint": null, "momentum": 0.99, "center": true, "gamma_regularizer": null, "beta_initializer": {"config": {}, "class_name": "Zeros"}, "beta_constraint": null}, "inbound_nodes": [[["conv2d_111", 0, 0, {}]]], "class_name": "BatchNormalization"}, {"name": "add_378", "config": {"name": "add_378", "trainable": true}, "inbound_nodes": [[["activation_107", 0, 0, {}], ["batch_normalization_763", 0, 0, {}]]], "class_name": "Add"}, {"name": "activation_109", "config": {"name": "activation_109", "trainable": true, "activation": "relu"}, "inbound_nodes": [[["add_378", 0, 0, {}]]], "class_name": "Activation"}, {"name": "average_pooling2d_7", "config": {"strides": [8, 8], "name": "average_pooling2d_7", "padding": "valid", "data_format": "channels_last", "pool_size": [8, 8], "trainable": true}, "inbound_nodes": [[["activation_109", 0, 0, {}]]], "class_name": "AveragePooling2D"}, {"name": "flatten_7", "config": {"name": "flatten_7", "trainable": true}, "inbound_nodes": [[["average_pooling2d_7", 0, 0, {}]]], "class_name": "Flatten"}, {"name": "dense_7", "config": {"kernel_initializer": {"config": {"mode": "fan_in", "scale": 2.0, "seed": null, "distribution": "normal"}, "class_name": "VarianceScaling"}, "kernel_constraint": null, "activation": "softmax", "bias_initializer": {"config": {}, "class_name": "Zeros"}, "activity_regularizer": null, "bias_constraint": null, "trainable": true, "units": 10, "name": "dense_7", "bias_regularizer": null, "use_bias": true, "kernel_regularizer": null}, "inbound_nodes": [[["flatten_7", 0, 0, {}]]], "class_name": "Dense"}], "name": "model_791", "output_layers": [["dense_7", 0, 0]], "input_layers": [["input_14", 0, 0]]}, "keras_version": "2.1.2", "class_name": "Model", "backend": "tensorflow"}