{"class_name": "Model", "config": {"input_layers": [["input_2", 0, 0]], "layers": [{"config": {"batch_input_shape": [null, 32, 32, 3], "name": "input_2", "dtype": "float32", "sparse": false}, "class_name": "InputLayer", "inbound_nodes": [], "name": "input_2"}, {"config": {"data_format": "channels_last", "trainable": true, "activation": "linear", "use_bias": true, "bias_initializer": {"class_name": "Zeros", "config": {}}, "kernel_size": [3, 3], "kernel_initializer": {"class_name": "VarianceScaling", "config": {"distribution": "uniform", "scale": 1.0, "seed": null, "mode": "fan_avg"}}, "name": "conv2d_1", "bias_regularizer": null, "activity_regularizer": null, "padding": "same", "dilation_rate": [1, 1], "kernel_constraint": null, "filters": 16, "strides": [1, 1], "kernel_regularizer": {"class_name": "L1L2", "config": {"l1": 0.0, "l2": 9.999999747378752e-05}}, "bias_constraint": null}, "class_name": "Conv2D", "inbound_nodes": [[["input_2", 0, 0, {}]]], "name": "conv2d_1"}, {"config": {"gamma_constraint": null, "moving_variance_initializer": {"class_name": "Ones", "config": {}}, "beta_initializer": {"class_name": "Zeros", "config": {}}, "epsilon": 0.001, "trainable": true, "center": true, "momentum": 0.99, "name": "batch_normalization_1", "beta_regularizer": null, "gamma_regularizer": null, "scale": true, "gamma_initializer": {"class_name": "Ones", "config": {}}, "moving_mean_initializer": {"class_name": "Zeros", "config": {}}, "axis": -1, "beta_constraint": null}, "class_name": "BatchNormalization", "inbound_nodes": [[["conv2d_1", 0, 0, {}]]], "name": "batch_normalization_1"}, {"config": {"trainable": true, "activation": "relu", "name": "activation_1"}, "class_name": "Activation", "inbound_nodes": [[["batch_normalization_1", 0, 0, {}]]], "name": "activation_1"}, {"config": {"data_format": "channels_last", "trainable": true, "activation": "linear", "use_bias": true, "bias_initializer": {"class_name": "Zeros", "config": {}}, "kernel_size": [3, 3], "kernel_initializer": {"class_name": "VarianceScaling", "config": {"distribution": "uniform", "scale": 1.0, "seed": null, "mode": "fan_avg"}}, "name": "conv2d_2", "bias_regularizer": null, "activity_regularizer": null, "padding": "same", "dilation_rate": [1, 1], "kernel_constraint": null, "filters": 16, "strides": [1, 1], "kernel_regularizer": {"class_name": "L1L2", "config": {"l1": 0.0, "l2": 9.999999747378752e-05}}, "bias_constraint": null}, "class_name": "Conv2D", "inbound_nodes": [[["activation_1", 0, 0, {}]]], "name": "conv2d_2"}, {"config": {"gamma_constraint": null, "moving_variance_initializer": {"class_name": "Ones", "config": {}}, "beta_initializer": {"class_name": "Zeros", "config": {}}, "epsilon": 0.001, "trainable": true, "center": true, "momentum": 0.99, "name": "batch_normalization_2", "beta_regularizer": null, "gamma_regularizer": null, "scale": true, "gamma_initializer": {"class_name": "Ones", "config": {}}, "moving_mean_initializer": {"class_name": "Zeros", "config": {}}, "axis": -1, "beta_constraint": null}, "class_name": "BatchNormalization", "inbound_nodes": [[["conv2d_2", 0, 0, {}]]], "name": "batch_normalization_2"}, {"config": {"trainable": true, "activation": "relu", "name": "activation_2"}, "class_name": "Activation", "inbound_nodes": [[["batch_normalization_2", 0, 0, {}]]], "name": "activation_2"}, {"config": {"data_format": "channels_last", "trainable": true, "activation": "linear", "use_bias": true, "bias_initializer": {"class_name": "Zeros", "config": {}}, "kernel_size": [3, 3], "kernel_initializer": {"class_name": "VarianceScaling", "config": {"distribution": "uniform", "scale": 1.0, "seed": null, "mode": "fan_avg"}}, "name": "conv2d_3", "bias_regularizer": null, "activity_regularizer": null, "padding": "same", "dilation_rate": [1, 1], "kernel_constraint": null, "filters": 16, "strides": [1, 1], "kernel_regularizer": {"class_name": "L1L2", "config": {"l1": 0.0, "l2": 9.999999747378752e-05}}, "bias_constraint": null}, "class_name": "Conv2D", "inbound_nodes": [[["activation_2", 0, 0, {}]]], "name": "conv2d_3"}, {"config": {"gamma_constraint": null, "moving_variance_initializer": {"class_name": "Ones", "config": {}}, "beta_initializer": {"class_name": "Zeros", "config": {}}, "epsilon": 0.001, "trainable": true, "center": true, "momentum": 0.99, "name": "batch_normalization_3", "beta_regularizer": null, "gamma_regularizer": null, "scale": true, "gamma_initializer": {"class_name": "Ones", "config": {}}, "moving_mean_initializer": {"class_name": "Zeros", "config": {}}, "axis": -1, "beta_constraint": null}, "class_name": "BatchNormalization", "inbound_nodes": [[["conv2d_3", 0, 0, {}]]], "name": "batch_normalization_3"}, {"config": {"trainable": true, "name": "add_1"}, "class_name": "Add", "inbound_nodes": [[["activation_1", 0, 0, {}], ["batch_normalization_3", 0, 0, {}]]], "name": "add_1"}, {"config": {"trainable": true, "activation": "relu", "name": "activation_3"}, "class_name": "Activation", "inbound_nodes": [[["add_1", 0, 0, {}]]], "name": "activation_3"}, {"config": {"data_format": "channels_last", "trainable": true, "activation": "linear", "use_bias": true, "bias_initializer": {"class_name": "Zeros", "config": {}}, "kernel_size": [3, 3], "kernel_initializer": {"class_name": "VarianceScaling", "config": {"distribution": "uniform", "scale": 1.0, "seed": null, "mode": "fan_avg"}}, "name": "conv2d_4", "bias_regularizer": null, "activity_regularizer": null, "padding": "same", "dilation_rate": [1, 1], "kernel_constraint": null, "filters": 16, "strides": [1, 1], "kernel_regularizer": {"class_name": "L1L2", "config": {"l1": 0.0, "l2": 9.999999747378752e-05}}, "bias_constraint": null}, "class_name": "Conv2D", "inbound_nodes": [[["activation_3", 0, 0, {}]]], "name": "conv2d_4"}, {"config": {"gamma_constraint": null, "moving_variance_initializer": {"class_name": "Ones", "config": {}}, "beta_initializer": {"class_name": "Zeros", "config": {}}, "epsilon": 0.001, "trainable": true, "center": true, "momentum": 0.99, "name": "batch_normalization_4", "beta_regularizer": null, "gamma_regularizer": null, "scale": true, "gamma_initializer": {"class_name": "Ones", "config": {}}, "moving_mean_initializer": {"class_name": "Zeros", "config": {}}, "axis": -1, "beta_constraint": null}, "class_name": "BatchNormalization", "inbound_nodes": [[["conv2d_4", 0, 0, {}]]], "name": "batch_normalization_4"}, {"config": {"trainable": true, "activation": "relu", "name": "activation_4"}, "class_name": "Activation", "inbound_nodes": [[["batch_normalization_4", 0, 0, {}]]], "name": "activation_4"}, {"config": {"data_format": "channels_last", "trainable": true, "activation": "linear", "use_bias": true, "bias_initializer": {"class_name": "Zeros", "config": {}}, "kernel_size": [3, 3], "kernel_initializer": {"class_name": "VarianceScaling", "config": {"distribution": "uniform", "scale": 1.0, "seed": null, "mode": "fan_avg"}}, "name": "conv2d_5", "bias_regularizer": null, "activity_regularizer": null, "padding": "same", "dilation_rate": [1, 1], "kernel_constraint": null, "filters": 16, "strides": [1, 1], "kernel_regularizer": {"class_name": "L1L2", "config": {"l1": 0.0, "l2": 9.999999747378752e-05}}, "bias_constraint": null}, "class_name": "Conv2D", "inbound_nodes": [[["activation_4", 0, 0, {}]]], "name": "conv2d_5"}, {"config": {"gamma_constraint": null, "moving_variance_initializer": {"class_name": "Ones", "config": {}}, "beta_initializer": {"class_name": "Zeros", "config": {}}, "epsilon": 0.001, "trainable": true, "center": true, "momentum": 0.99, "name": "batch_normalization_5", "beta_regularizer": null, "gamma_regularizer": null, "scale": true, "gamma_initializer": {"class_name": "Ones", "config": {}}, "moving_mean_initializer": {"class_name": "Zeros", "config": {}}, "axis": -1, "beta_constraint": null}, "class_name": "BatchNormalization", "inbound_nodes": [[["conv2d_5", 0, 0, {}]]], "name": "batch_normalization_5"}, {"config": {"trainable": true, "name": "add_2"}, "class_name": "Add", "inbound_nodes": [[["activation_3", 0, 0, {}], ["batch_normalization_5", 0, 0, {}]]], "name": "add_2"}, {"config": {"trainable": true, "activation": "relu", "name": "activation_5"}, "class_name": "Activation", "inbound_nodes": [[["add_2", 0, 0, {}]]], "name": "activation_5"}, {"config": {"data_format": "channels_last", "trainable": true, "activation": "linear", "use_bias": true, "bias_initializer": {"class_name": "Zeros", "config": {}}, "kernel_size": [3, 3], "kernel_initializer": {"class_name": "VarianceScaling", "config": {"distribution": "uniform", "scale": 1.0, "seed": null, "mode": "fan_avg"}}, "name": "conv2d_6", "bias_regularizer": null, "activity_regularizer": null, "padding": "same", "dilation_rate": [1, 1], "kernel_constraint": null, "filters": 16, "strides": [1, 1], "kernel_regularizer": {"class_name": "L1L2", "config": {"l1": 0.0, "l2": 9.999999747378752e-05}}, "bias_constraint": null}, "class_name": "Conv2D", "inbound_nodes": [[["activation_5", 0, 0, {}]]], "name": "conv2d_6"}, {"config": {"gamma_constraint": null, "moving_variance_initializer": {"class_name": "Ones", "config": {}}, "beta_initializer": {"class_name": "Zeros", "config": {}}, "epsilon": 0.001, "trainable": true, "center": true, "momentum": 0.99, "name": "batch_normalization_6", "beta_regularizer": null, "gamma_regularizer": null, "scale": true, "gamma_initializer": {"class_name": "Ones", "config": {}}, "moving_mean_initializer": {"class_name": "Zeros", "config": {}}, "axis": -1, "beta_constraint": null}, "class_name": "BatchNormalization", "inbound_nodes": [[["conv2d_6", 0, 0, {}]]], "name": "batch_normalization_6"}, {"config": {"trainable": true, "activation": "relu", "name": "activation_6"}, "class_name": "Activation", "inbound_nodes": [[["batch_normalization_6", 0, 0, {}]]], "name": "activation_6"}, {"config": {"data_format": "channels_last", "trainable": true, "activation": "linear", "use_bias": true, "bias_initializer": {"class_name": "Zeros", "config": {}}, "kernel_size": [3, 3], "kernel_initializer": {"class_name": "VarianceScaling", "config": {"distribution": "uniform", "scale": 1.0, "seed": null, "mode": "fan_avg"}}, "name": "conv2d_7", "bias_regularizer": null, "activity_regularizer": null, "padding": "same", "dilation_rate": [1, 1], "kernel_constraint": null, "filters": 16, "strides": [1, 1], "kernel_regularizer": {"class_name": "L1L2", "config": {"l1": 0.0, "l2": 9.999999747378752e-05}}, "bias_constraint": null}, "class_name": "Conv2D", "inbound_nodes": [[["activation_6", 0, 0, {}]]], "name": "conv2d_7"}, {"config": {"gamma_constraint": null, "moving_variance_initializer": {"class_name": "Ones", "config": {}}, "beta_initializer": {"class_name": "Zeros", "config": {}}, "epsilon": 0.001, "trainable": true, "center": true, "momentum": 0.99, "name": "batch_normalization_7", "beta_regularizer": null, "gamma_regularizer": null, "scale": true, "gamma_initializer": {"class_name": "Ones", "config": {}}, "moving_mean_initializer": {"class_name": "Zeros", "config": {}}, "axis": -1, "beta_constraint": null}, "class_name": "BatchNormalization", "inbound_nodes": [[["conv2d_7", 0, 0, {}]]], "name": "batch_normalization_7"}, {"config": {"trainable": true, "name": "add_3"}, "class_name": "Add", "inbound_nodes": [[["activation_5", 0, 0, {}], ["batch_normalization_7", 0, 0, {}]]], "name": "add_3"}, {"config": {"trainable": true, "activation": "relu", "name": "activation_7"}, "class_name": "Activation", "inbound_nodes": [[["add_3", 0, 0, {}]]], "name": "activation_7"}, {"config": {"data_format": "channels_last", "trainable": true, "activation": "linear", "use_bias": true, "bias_initializer": {"class_name": "Zeros", "config": {}}, "kernel_size": [3, 3], "kernel_initializer": {"class_name": "VarianceScaling", "config": {"distribution": "uniform", "scale": 1.0, "seed": null, "mode": "fan_avg"}}, "name": "conv2d_8", "bias_regularizer": null, "activity_regularizer": null, "padding": "same", "dilation_rate": [1, 1], "kernel_constraint": null, "filters": 16, "strides": [1, 1], "kernel_regularizer": {"class_name": "L1L2", "config": {"l1": 0.0, "l2": 9.999999747378752e-05}}, "bias_constraint": null}, "class_name": "Conv2D", "inbound_nodes": [[["activation_7", 0, 0, {}]]], "name": "conv2d_8"}, {"config": {"gamma_constraint": null, "moving_variance_initializer": {"class_name": "Ones", "config": {}}, "beta_initializer": {"class_name": "Zeros", "config": {}}, "epsilon": 0.001, "trainable": true, "center": true, "momentum": 0.99, "name": "batch_normalization_8", "beta_regularizer": null, "gamma_regularizer": null, "scale": true, "gamma_initializer": {"class_name": "Ones", "config": {}}, "moving_mean_initializer": {"class_name": "Zeros", "config": {}}, "axis": -1, "beta_constraint": null}, "class_name": "BatchNormalization", "inbound_nodes": [[["conv2d_8", 0, 0, {}]]], "name": "batch_normalization_8"}, {"config": {"trainable": true, "activation": "relu", "name": "activation_8"}, "class_name": "Activation", "inbound_nodes": [[["batch_normalization_8", 0, 0, {}]]], "name": "activation_8"}, {"config": {"data_format": "channels_last", "trainable": true, "activation": "linear", "use_bias": true, "bias_initializer": {"class_name": "Zeros", "config": {}}, "kernel_size": [3, 3], "kernel_initializer": {"class_name": "VarianceScaling", "config": {"distribution": "uniform", "scale": 1.0, "seed": null, "mode": "fan_avg"}}, "name": "conv2d_9", "bias_regularizer": null, "activity_regularizer": null, "padding": "same", "dilation_rate": [1, 1], "kernel_constraint": null, "filters": 16, "strides": [1, 1], "kernel_regularizer": {"class_name": "L1L2", "config": {"l1": 0.0, "l2": 9.999999747378752e-05}}, "bias_constraint": null}, "class_name": "Conv2D", "inbound_nodes": [[["activation_8", 0, 0, {}]]], "name": "conv2d_9"}, {"config": {"gamma_constraint": null, "moving_variance_initializer": {"class_name": "Ones", "config": {}}, "beta_initializer": {"class_name": "Zeros", "config": {}}, "epsilon": 0.001, "trainable": true, "center": true, "momentum": 0.99, "name": "batch_normalization_9", "beta_regularizer": null, "gamma_regularizer": null, "scale": true, "gamma_initializer": {"class_name": "Ones", "config": {}}, "moving_mean_initializer": {"class_name": "Zeros", "config": {}}, "axis": -1, "beta_constraint": null}, "class_name": "BatchNormalization", "inbound_nodes": [[["conv2d_9", 0, 0, {}]]], "name": "batch_normalization_9"}, {"config": {"trainable": true, "name": "add_4"}, "class_name": "Add", "inbound_nodes": [[["activation_7", 0, 0, {}], ["batch_normalization_9", 0, 0, {}]]], "name": "add_4"}, {"config": {"trainable": true, "activation": "relu", "name": "activation_9"}, "class_name": "Activation", "inbound_nodes": [[["add_4", 0, 0, {}]]], "name": "activation_9"}, {"config": {"data_format": "channels_last", "trainable": true, "activation": "linear", "use_bias": true, "bias_initializer": {"class_name": "Zeros", "config": {}}, "kernel_size": [3, 3], "kernel_initializer": {"class_name": "VarianceScaling", "config": {"distribution": "uniform", "scale": 1.0, "seed": null, "mode": "fan_avg"}}, "name": "conv2d_10", "bias_regularizer": null, "activity_regularizer": null, "padding": "same", "dilation_rate": [1, 1], "kernel_constraint": null, "filters": 16, "strides": [1, 1], "kernel_regularizer": {"class_name": "L1L2", "config": {"l1": 0.0, "l2": 9.999999747378752e-05}}, "bias_constraint": null}, "class_name": "Conv2D", "inbound_nodes": [[["activation_9", 0, 0, {}]]], "name": "conv2d_10"}, {"config": {"gamma_constraint": null, "moving_variance_initializer": {"class_name": "Ones", "config": {}}, "beta_initializer": {"class_name": "Zeros", "config": {}}, "epsilon": 0.001, "trainable": true, "center": true, "momentum": 0.99, "name": "batch_normalization_10", "beta_regularizer": null, "gamma_regularizer": null, "scale": true, "gamma_initializer": {"class_name": "Ones", "config": {}}, "moving_mean_initializer": {"class_name": "Zeros", "config": {}}, "axis": -1, "beta_constraint": null}, "class_name": "BatchNormalization", "inbound_nodes": [[["conv2d_10", 0, 0, {}]]], "name": "batch_normalization_10"}, {"config": {"trainable": true, "activation": "relu", "name": "activation_10"}, "class_name": "Activation", "inbound_nodes": [[["batch_normalization_10", 0, 0, {}]]], "name": "activation_10"}, {"config": {"data_format": "channels_last", "trainable": true, "activation": "linear", "use_bias": true, "bias_initializer": {"class_name": "Zeros", "config": {}}, "kernel_size": [3, 3], "kernel_initializer": {"class_name": "VarianceScaling", "config": {"distribution": "uniform", "scale": 1.0, "seed": null, "mode": "fan_avg"}}, "name": "conv2d_11", "bias_regularizer": null, "activity_regularizer": null, "padding": "same", "dilation_rate": [1, 1], "kernel_constraint": null, "filters": 16, "strides": [1, 1], "kernel_regularizer": {"class_name": "L1L2", "config": {"l1": 0.0, "l2": 9.999999747378752e-05}}, "bias_constraint": null}, "class_name": "Conv2D", "inbound_nodes": [[["activation_10", 0, 0, {}]]], "name": "conv2d_11"}, {"config": {"gamma_constraint": null, "moving_variance_initializer": {"class_name": "Ones", "config": {}}, "beta_initializer": {"class_name": "Zeros", "config": {}}, "epsilon": 0.001, "trainable": true, "center": true, "momentum": 0.99, "name": "batch_normalization_11", "beta_regularizer": null, "gamma_regularizer": null, "scale": true, "gamma_initializer": {"class_name": "Ones", "config": {}}, "moving_mean_initializer": {"class_name": "Zeros", "config": {}}, "axis": -1, "beta_constraint": null}, "class_name": "BatchNormalization", "inbound_nodes": [[["conv2d_11", 0, 0, {}]]], "name": "batch_normalization_11"}, {"config": {"trainable": true, "name": "add_5"}, "class_name": "Add", "inbound_nodes": [[["activation_9", 0, 0, {}], ["batch_normalization_11", 0, 0, {}]]], "name": "add_5"}, {"config": {"trainable": true, "activation": "relu", "name": "activation_11"}, "class_name": "Activation", "inbound_nodes": [[["add_5", 0, 0, {}]]], "name": "activation_11"}, {"config": {"data_format": "channels_last", "trainable": true, "activation": "linear", "use_bias": true, "bias_initializer": {"class_name": "Zeros", "config": {}}, "kernel_size": [3, 3], "kernel_initializer": {"class_name": "VarianceScaling", "config": {"distribution": "uniform", "scale": 1.0, "seed": null, "mode": "fan_avg"}}, "name": "conv2d_12", "bias_regularizer": null, "activity_regularizer": null, "padding": "same", "dilation_rate": [1, 1], "kernel_constraint": null, "filters": 16, "strides": [1, 1], "kernel_regularizer": {"class_name": "L1L2", "config": {"l1": 0.0, "l2": 9.999999747378752e-05}}, "bias_constraint": null}, "class_name": "Conv2D", "inbound_nodes": [[["activation_11", 0, 0, {}]]], "name": "conv2d_12"}, {"config": {"gamma_constraint": null, "moving_variance_initializer": {"class_name": "Ones", "config": {}}, "beta_initializer": {"class_name": "Zeros", "config": {}}, "epsilon": 0.001, "trainable": true, "center": true, "momentum": 0.99, "name": "batch_normalization_12", "beta_regularizer": null, "gamma_regularizer": null, "scale": true, "gamma_initializer": {"class_name": "Ones", "config": {}}, "moving_mean_initializer": {"class_name": "Zeros", "config": {}}, "axis": -1, "beta_constraint": null}, "class_name": "BatchNormalization", "inbound_nodes": [[["conv2d_12", 0, 0, {}]]], "name": "batch_normalization_12"}, {"config": {"trainable": true, "activation": "relu", "name": "activation_12"}, "class_name": "Activation", "inbound_nodes": [[["batch_normalization_12", 0, 0, {}]]], "name": "activation_12"}, {"config": {"data_format": "channels_last", "trainable": true, "activation": "linear", "use_bias": true, "bias_initializer": {"class_name": "Zeros", "config": {}}, "kernel_size": [3, 3], "kernel_initializer": {"class_name": "VarianceScaling", "config": {"distribution": "uniform", "scale": 1.0, "seed": null, "mode": "fan_avg"}}, "name": "conv2d_13", "bias_regularizer": null, "activity_regularizer": null, "padding": "same", "dilation_rate": [1, 1], "kernel_constraint": null, "filters": 16, "strides": [1, 1], "kernel_regularizer": {"class_name": "L1L2", "config": {"l1": 0.0, "l2": 9.999999747378752e-05}}, "bias_constraint": null}, "class_name": "Conv2D", "inbound_nodes": [[["activation_12", 0, 0, {}]]], "name": "conv2d_13"}, {"config": {"gamma_constraint": null, "moving_variance_initializer": {"class_name": "Ones", "config": {}}, "beta_initializer": {"class_name": "Zeros", "config": {}}, "epsilon": 0.001, "trainable": true, "center": true, "momentum": 0.99, "name": "batch_normalization_13", "beta_regularizer": null, "gamma_regularizer": null, "scale": true, "gamma_initializer": {"class_name": "Ones", "config": {}}, "moving_mean_initializer": {"class_name": "Zeros", "config": {}}, "axis": -1, "beta_constraint": null}, "class_name": "BatchNormalization", "inbound_nodes": [[["conv2d_13", 0, 0, {}]]], "name": "batch_normalization_13"}, {"config": {"trainable": true, "name": "add_6"}, "class_name": "Add", "inbound_nodes": [[["activation_11", 0, 0, {}], ["batch_normalization_13", 0, 0, {}]]], "name": "add_6"}, {"config": {"trainable": true, "activation": "relu", "name": "activation_13"}, "class_name": "Activation", "inbound_nodes": [[["add_6", 0, 0, {}]]], "name": "activation_13"}, {"config": {"data_format": "channels_last", "trainable": true, "activation": "linear", "use_bias": true, "bias_initializer": {"class_name": "Zeros", "config": {}}, "kernel_size": [3, 3], "kernel_initializer": {"class_name": "VarianceScaling", "config": {"distribution": "uniform", "scale": 1.0, "seed": null, "mode": "fan_avg"}}, "name": "conv2d_14", "bias_regularizer": null, "activity_regularizer": null, "padding": "same", "dilation_rate": [1, 1], "kernel_constraint": null, "filters": 16, "strides": [1, 1], "kernel_regularizer": {"class_name": "L1L2", "config": {"l1": 0.0, "l2": 9.999999747378752e-05}}, "bias_constraint": null}, "class_name": "Conv2D", "inbound_nodes": [[["activation_13", 0, 0, {}]]], "name": "conv2d_14"}, {"config": {"gamma_constraint": null, "moving_variance_initializer": {"class_name": "Ones", "config": {}}, "beta_initializer": {"class_name": "Zeros", "config": {}}, "epsilon": 0.001, "trainable": true, "center": true, "momentum": 0.99, "name": "batch_normalization_14", "beta_regularizer": null, "gamma_regularizer": null, "scale": true, "gamma_initializer": {"class_name": "Ones", "config": {}}, "moving_mean_initializer": {"class_name": "Zeros", "config": {}}, "axis": -1, "beta_constraint": null}, "class_name": "BatchNormalization", "inbound_nodes": [[["conv2d_14", 0, 0, {}]]], "name": "batch_normalization_14"}, {"config": {"trainable": true, "activation": "relu", "name": "activation_14"}, "class_name": "Activation", "inbound_nodes": [[["batch_normalization_14", 0, 0, {}]]], "name": "activation_14"}, {"config": {"data_format": "channels_last", "trainable": true, "activation": "linear", "use_bias": true, "bias_initializer": {"class_name": "Zeros", "config": {}}, "kernel_size": [3, 3], "kernel_initializer": {"class_name": "VarianceScaling", "config": {"distribution": "uniform", "scale": 1.0, "seed": null, "mode": "fan_avg"}}, "name": "conv2d_15", "bias_regularizer": null, "activity_regularizer": null, "padding": "same", "dilation_rate": [1, 1], "kernel_constraint": null, "filters": 16, "strides": [1, 1], "kernel_regularizer": {"class_name": "L1L2", "config": {"l1": 0.0, "l2": 9.999999747378752e-05}}, "bias_constraint": null}, "class_name": "Conv2D", "inbound_nodes": [[["activation_14", 0, 0, {}]]], "name": "conv2d_15"}, {"config": {"gamma_constraint": null, "moving_variance_initializer": {"class_name": "Ones", "config": {}}, "beta_initializer": {"class_name": "Zeros", "config": {}}, "epsilon": 0.001, "trainable": true, "center": true, "momentum": 0.99, "name": "batch_normalization_15", "beta_regularizer": null, "gamma_regularizer": null, "scale": true, "gamma_initializer": {"class_name": "Ones", "config": {}}, "moving_mean_initializer": {"class_name": "Zeros", "config": {}}, "axis": -1, "beta_constraint": null}, "class_name": "BatchNormalization", "inbound_nodes": [[["conv2d_15", 0, 0, {}]]], "name": "batch_normalization_15"}, {"config": {"trainable": true, "name": "add_7"}, "class_name": "Add", "inbound_nodes": [[["activation_13", 0, 0, {}], ["batch_normalization_15", 0, 0, {}]]], "name": "add_7"}, {"config": {"trainable": true, "activation": "relu", "name": "activation_15"}, "class_name": "Activation", "inbound_nodes": [[["add_7", 0, 0, {}]]], "name": "activation_15"}, {"config": {"data_format": "channels_last", "trainable": true, "activation": "linear", "use_bias": true, "bias_initializer": {"class_name": "Zeros", "config": {}}, "kernel_size": [3, 3], "kernel_initializer": {"class_name": "VarianceScaling", "config": {"distribution": "uniform", "scale": 1.0, "seed": null, "mode": "fan_avg"}}, "name": "conv2d_16", "bias_regularizer": null, "activity_regularizer": null, "padding": "same", "dilation_rate": [1, 1], "kernel_constraint": null, "filters": 16, "strides": [1, 1], "kernel_regularizer": {"class_name": "L1L2", "config": {"l1": 0.0, "l2": 9.999999747378752e-05}}, "bias_constraint": null}, "class_name": "Conv2D", "inbound_nodes": [[["activation_15", 0, 0, {}]]], "name": "conv2d_16"}, {"config": {"gamma_constraint": null, "moving_variance_initializer": {"class_name": "Ones", "config": {}}, "beta_initializer": {"class_name": "Zeros", "config": {}}, "epsilon": 0.001, "trainable": true, "center": true, "momentum": 0.99, "name": "batch_normalization_16", "beta_regularizer": null, "gamma_regularizer": null, "scale": true, "gamma_initializer": {"class_name": "Ones", "config": {}}, "moving_mean_initializer": {"class_name": "Zeros", "config": {}}, "axis": -1, "beta_constraint": null}, "class_name": "BatchNormalization", "inbound_nodes": [[["conv2d_16", 0, 0, {}]]], "name": "batch_normalization_16"}, {"config": {"trainable": true, "activation": "relu", "name": "activation_16"}, "class_name": "Activation", "inbound_nodes": [[["batch_normalization_16", 0, 0, {}]]], "name": "activation_16"}, {"config": {"data_format": "channels_last", "trainable": true, "activation": "linear", "use_bias": true, "bias_initializer": {"class_name": "Zeros", "config": {}}, "kernel_size": [3, 3], "kernel_initializer": {"class_name": "VarianceScaling", "config": {"distribution": "uniform", "scale": 1.0, "seed": null, "mode": "fan_avg"}}, "name": "conv2d_17", "bias_regularizer": null, "activity_regularizer": null, "padding": "same", "dilation_rate": [1, 1], "kernel_constraint": null, "filters": 16, "strides": [1, 1], "kernel_regularizer": {"class_name": "L1L2", "config": {"l1": 0.0, "l2": 9.999999747378752e-05}}, "bias_constraint": null}, "class_name": "Conv2D", "inbound_nodes": [[["activation_16", 0, 0, {}]]], "name": "conv2d_17"}, {"config": {"gamma_constraint": null, "moving_variance_initializer": {"class_name": "Ones", "config": {}}, "beta_initializer": {"class_name": "Zeros", "config": {}}, "epsilon": 0.001, "trainable": true, "center": true, "momentum": 0.99, "name": "batch_normalization_17", "beta_regularizer": null, "gamma_regularizer": null, "scale": true, "gamma_initializer": {"class_name": "Ones", "config": {}}, "moving_mean_initializer": {"class_name": "Zeros", "config": {}}, "axis": -1, "beta_constraint": null}, "class_name": "BatchNormalization", "inbound_nodes": [[["conv2d_17", 0, 0, {}]]], "name": "batch_normalization_17"}, {"config": {"trainable": true, "name": "add_8"}, "class_name": "Add", "inbound_nodes": [[["activation_15", 0, 0, {}], ["batch_normalization_17", 0, 0, {}]]], "name": "add_8"}, {"config": {"trainable": true, "activation": "relu", "name": "activation_17"}, "class_name": "Activation", "inbound_nodes": [[["add_8", 0, 0, {}]]], "name": "activation_17"}, {"config": {"data_format": "channels_last", "trainable": true, "activation": "linear", "use_bias": true, "bias_initializer": {"class_name": "Zeros", "config": {}}, "kernel_size": [3, 3], "kernel_initializer": {"class_name": "VarianceScaling", "config": {"distribution": "uniform", "scale": 1.0, "seed": null, "mode": "fan_avg"}}, "name": "conv2d_18", "bias_regularizer": null, "activity_regularizer": null, "padding": "same", "dilation_rate": [1, 1], "kernel_constraint": null, "filters": 15, "strides": [1, 1], "kernel_regularizer": {"class_name": "L1L2", "config": {"l1": 0.0, "l2": 9.999999747378752e-05}}, "bias_constraint": null}, "class_name": "Conv2D", "inbound_nodes": [[["activation_17", 0, 0, {}]]], "name": "conv2d_18"}, {"config": {"gamma_constraint": null, "moving_variance_initializer": {"class_name": "Ones", "config": {}}, "beta_initializer": {"class_name": "Zeros", "config": {}}, "epsilon": 0.001, "trainable": true, "center": true, "momentum": 0.99, "name": "batch_normalization_18", "beta_regularizer": null, "gamma_regularizer": null, "scale": true, "gamma_initializer": {"class_name": "Ones", "config": {}}, "moving_mean_initializer": {"class_name": "Zeros", "config": {}}, "axis": -1, "beta_constraint": null}, "class_name": "BatchNormalization", "inbound_nodes": [[["conv2d_18", 0, 0, {}]]], "name": "batch_normalization_18"}, {"config": {"trainable": true, "activation": "relu", "name": "activation_18"}, "class_name": "Activation", "inbound_nodes": [[["batch_normalization_18", 0, 0, {}]]], "name": "activation_18"}, {"config": {"data_format": "channels_last", "trainable": true, "activation": "linear", "use_bias": true, "bias_initializer": {"class_name": "Zeros", "config": {}}, "kernel_size": [3, 3], "kernel_initializer": {"class_name": "VarianceScaling", "config": {"distribution": "uniform", "scale": 1.0, "seed": null, "mode": "fan_avg"}}, "name": "conv2d_19", "bias_regularizer": null, "activity_regularizer": null, "padding": "same", "dilation_rate": [1, 1], "kernel_constraint": null, "filters": 16, "strides": [1, 1], "kernel_regularizer": {"class_name": "L1L2", "config": {"l1": 0.0, "l2": 9.999999747378752e-05}}, "bias_constraint": null}, "class_name": "Conv2D", "inbound_nodes": [[["activation_18", 0, 0, {}]]], "name": "conv2d_19"}, {"config": {"gamma_constraint": null, "moving_variance_initializer": {"class_name": "Ones", "config": {}}, "beta_initializer": {"class_name": "Zeros", "config": {}}, "epsilon": 0.001, "trainable": true, "center": true, "momentum": 0.99, "name": "batch_normalization_19", "beta_regularizer": null, "gamma_regularizer": null, "scale": true, "gamma_initializer": {"class_name": "Ones", "config": {}}, "moving_mean_initializer": {"class_name": "Zeros", "config": {}}, "axis": -1, "beta_constraint": null}, "class_name": "BatchNormalization", "inbound_nodes": [[["conv2d_19", 0, 0, {}]]], "name": "batch_normalization_19"}, {"config": {"trainable": true, "name": "add_9"}, "class_name": "Add", "inbound_nodes": [[["activation_17", 0, 0, {}], ["batch_normalization_19", 0, 0, {}]]], "name": "add_9"}, {"config": {"trainable": true, "activation": "relu", "name": "activation_19"}, "class_name": "Activation", "inbound_nodes": [[["add_9", 0, 0, {}]]], "name": "activation_19"}, {"config": {"data_format": "channels_last", "trainable": true, "activation": "linear", "use_bias": true, "bias_initializer": {"class_name": "Zeros", "config": {}}, "kernel_size": [3, 3], "kernel_initializer": {"class_name": "VarianceScaling", "config": {"distribution": "uniform", "scale": 1.0, "seed": null, "mode": "fan_avg"}}, "name": "conv2d_20", "bias_regularizer": null, "activity_regularizer": null, "padding": "same", "dilation_rate": [1, 1], "kernel_constraint": null, "filters": 16, "strides": [1, 1], "kernel_regularizer": {"class_name": "L1L2", "config": {"l1": 0.0, "l2": 9.999999747378752e-05}}, "bias_constraint": null}, "class_name": "Conv2D", "inbound_nodes": [[["activation_19", 0, 0, {}]]], "name": "conv2d_20"}, {"config": {"gamma_constraint": null, "moving_variance_initializer": {"class_name": "Ones", "config": {}}, "beta_initializer": {"class_name": "Zeros", "config": {}}, "epsilon": 0.001, "trainable": true, "center": true, "momentum": 0.99, "name": "batch_normalization_20", "beta_regularizer": null, "gamma_regularizer": null, "scale": true, "gamma_initializer": {"class_name": "Ones", "config": {}}, "moving_mean_initializer": {"class_name": "Zeros", "config": {}}, "axis": -1, "beta_constraint": null}, "class_name": "BatchNormalization", "inbound_nodes": [[["conv2d_20", 0, 0, {}]]], "name": "batch_normalization_20"}, {"config": {"trainable": true, "activation": "relu", "name": "activation_20"}, "class_name": "Activation", "inbound_nodes": [[["batch_normalization_20", 0, 0, {}]]], "name": "activation_20"}, {"config": {"data_format": "channels_last", "trainable": true, "activation": "linear", "use_bias": true, "bias_initializer": {"class_name": "Zeros", "config": {}}, "kernel_size": [3, 3], "kernel_initializer": {"class_name": "VarianceScaling", "config": {"distribution": "uniform", "scale": 1.0, "seed": null, "mode": "fan_avg"}}, "name": "conv2d_21", "bias_regularizer": null, "activity_regularizer": null, "padding": "same", "dilation_rate": [1, 1], "kernel_constraint": null, "filters": 16, "strides": [1, 1], "kernel_regularizer": {"class_name": "L1L2", "config": {"l1": 0.0, "l2": 9.999999747378752e-05}}, "bias_constraint": null}, "class_name": "Conv2D", "inbound_nodes": [[["activation_20", 0, 0, {}]]], "name": "conv2d_21"}, {"config": {"gamma_constraint": null, "moving_variance_initializer": {"class_name": "Ones", "config": {}}, "beta_initializer": {"class_name": "Zeros", "config": {}}, "epsilon": 0.001, "trainable": true, "center": true, "momentum": 0.99, "name": "batch_normalization_21", "beta_regularizer": null, "gamma_regularizer": null, "scale": true, "gamma_initializer": {"class_name": "Ones", "config": {}}, "moving_mean_initializer": {"class_name": "Zeros", "config": {}}, "axis": -1, "beta_constraint": null}, "class_name": "BatchNormalization", "inbound_nodes": [[["conv2d_21", 0, 0, {}]]], "name": "batch_normalization_21"}, {"config": {"trainable": true, "name": "add_10"}, "class_name": "Add", "inbound_nodes": [[["activation_19", 0, 0, {}], ["batch_normalization_21", 0, 0, {}]]], "name": "add_10"}, {"config": {"trainable": true, "activation": "relu", "name": "activation_21"}, "class_name": "Activation", "inbound_nodes": [[["add_10", 0, 0, {}]]], "name": "activation_21"}, {"config": {"data_format": "channels_last", "trainable": true, "activation": "linear", "use_bias": true, "bias_initializer": {"class_name": "Zeros", "config": {}}, "kernel_size": [3, 3], "kernel_initializer": {"class_name": "VarianceScaling", "config": {"distribution": "uniform", "scale": 1.0, "seed": null, "mode": "fan_avg"}}, "name": "conv2d_22", "bias_regularizer": null, "activity_regularizer": null, "padding": "same", "dilation_rate": [1, 1], "kernel_constraint": null, "filters": 16, "strides": [1, 1], "kernel_regularizer": {"class_name": "L1L2", "config": {"l1": 0.0, "l2": 9.999999747378752e-05}}, "bias_constraint": null}, "class_name": "Conv2D", "inbound_nodes": [[["activation_21", 0, 0, {}]]], "name": "conv2d_22"}, {"config": {"gamma_constraint": null, "moving_variance_initializer": {"class_name": "Ones", "config": {}}, "beta_initializer": {"class_name": "Zeros", "config": {}}, "epsilon": 0.001, "trainable": true, "center": true, "momentum": 0.99, "name": "batch_normalization_22", "beta_regularizer": null, "gamma_regularizer": null, "scale": true, "gamma_initializer": {"class_name": "Ones", "config": {}}, "moving_mean_initializer": {"class_name": "Zeros", "config": {}}, "axis": -1, "beta_constraint": null}, "class_name": "BatchNormalization", "inbound_nodes": [[["conv2d_22", 0, 0, {}]]], "name": "batch_normalization_22"}, {"config": {"trainable": true, "activation": "relu", "name": "activation_22"}, "class_name": "Activation", "inbound_nodes": [[["batch_normalization_22", 0, 0, {}]]], "name": "activation_22"}, {"config": {"data_format": "channels_last", "trainable": true, "activation": "linear", "use_bias": true, "bias_initializer": {"class_name": "Zeros", "config": {}}, "kernel_size": [3, 3], "kernel_initializer": {"class_name": "VarianceScaling", "config": {"distribution": "uniform", "scale": 1.0, "seed": null, "mode": "fan_avg"}}, "name": "conv2d_23", "bias_regularizer": null, "activity_regularizer": null, "padding": "same", "dilation_rate": [1, 1], "kernel_constraint": null, "filters": 16, "strides": [1, 1], "kernel_regularizer": {"class_name": "L1L2", "config": {"l1": 0.0, "l2": 9.999999747378752e-05}}, "bias_constraint": null}, "class_name": "Conv2D", "inbound_nodes": [[["activation_22", 0, 0, {}]]], "name": "conv2d_23"}, {"config": {"gamma_constraint": null, "moving_variance_initializer": {"class_name": "Ones", "config": {}}, "beta_initializer": {"class_name": "Zeros", "config": {}}, "epsilon": 0.001, "trainable": true, "center": true, "momentum": 0.99, "name": "batch_normalization_23", "beta_regularizer": null, "gamma_regularizer": null, "scale": true, "gamma_initializer": {"class_name": "Ones", "config": {}}, "moving_mean_initializer": {"class_name": "Zeros", "config": {}}, "axis": -1, "beta_constraint": null}, "class_name": "BatchNormalization", "inbound_nodes": [[["conv2d_23", 0, 0, {}]]], "name": "batch_normalization_23"}, {"config": {"trainable": true, "name": "add_11"}, "class_name": "Add", "inbound_nodes": [[["activation_21", 0, 0, {}], ["batch_normalization_23", 0, 0, {}]]], "name": "add_11"}, {"config": {"trainable": true, "activation": "relu", "name": "activation_23"}, "class_name": "Activation", "inbound_nodes": [[["add_11", 0, 0, {}]]], "name": "activation_23"}, {"config": {"data_format": "channels_last", "trainable": true, "activation": "linear", "use_bias": true, "bias_initializer": {"class_name": "Zeros", "config": {}}, "kernel_size": [3, 3], "kernel_initializer": {"class_name": "VarianceScaling", "config": {"distribution": "uniform", "scale": 1.0, "seed": null, "mode": "fan_avg"}}, "name": "conv2d_24", "bias_regularizer": null, "activity_regularizer": null, "padding": "same", "dilation_rate": [1, 1], "kernel_constraint": null, "filters": 16, "strides": [1, 1], "kernel_regularizer": {"class_name": "L1L2", "config": {"l1": 0.0, "l2": 9.999999747378752e-05}}, "bias_constraint": null}, "class_name": "Conv2D", "inbound_nodes": [[["activation_23", 0, 0, {}]]], "name": "conv2d_24"}, {"config": {"gamma_constraint": null, "moving_variance_initializer": {"class_name": "Ones", "config": {}}, "beta_initializer": {"class_name": "Zeros", "config": {}}, "epsilon": 0.001, "trainable": true, "center": true, "momentum": 0.99, "name": "batch_normalization_24", "beta_regularizer": null, "gamma_regularizer": null, "scale": true, "gamma_initializer": {"class_name": "Ones", "config": {}}, "moving_mean_initializer": {"class_name": "Zeros", "config": {}}, "axis": -1, "beta_constraint": null}, "class_name": "BatchNormalization", "inbound_nodes": [[["conv2d_24", 0, 0, {}]]], "name": "batch_normalization_24"}, {"config": {"trainable": true, "activation": "relu", "name": "activation_24"}, "class_name": "Activation", "inbound_nodes": [[["batch_normalization_24", 0, 0, {}]]], "name": "activation_24"}, {"config": {"data_format": "channels_last", "trainable": true, "activation": "linear", "use_bias": true, "bias_initializer": {"class_name": "Zeros", "config": {}}, "kernel_size": [3, 3], "kernel_initializer": {"class_name": "VarianceScaling", "config": {"distribution": "uniform", "scale": 1.0, "seed": null, "mode": "fan_avg"}}, "name": "conv2d_25", "bias_regularizer": null, "activity_regularizer": null, "padding": "same", "dilation_rate": [1, 1], "kernel_constraint": null, "filters": 16, "strides": [1, 1], "kernel_regularizer": {"class_name": "L1L2", "config": {"l1": 0.0, "l2": 9.999999747378752e-05}}, "bias_constraint": null}, "class_name": "Conv2D", "inbound_nodes": [[["activation_24", 0, 0, {}]]], "name": "conv2d_25"}, {"config": {"gamma_constraint": null, "moving_variance_initializer": {"class_name": "Ones", "config": {}}, "beta_initializer": {"class_name": "Zeros", "config": {}}, "epsilon": 0.001, "trainable": true, "center": true, "momentum": 0.99, "name": "batch_normalization_25", "beta_regularizer": null, "gamma_regularizer": null, "scale": true, "gamma_initializer": {"class_name": "Ones", "config": {}}, "moving_mean_initializer": {"class_name": "Zeros", "config": {}}, "axis": -1, "beta_constraint": null}, "class_name": "BatchNormalization", "inbound_nodes": [[["conv2d_25", 0, 0, {}]]], "name": "batch_normalization_25"}, {"config": {"trainable": true, "name": "add_12"}, "class_name": "Add", "inbound_nodes": [[["activation_23", 0, 0, {}], ["batch_normalization_25", 0, 0, {}]]], "name": "add_12"}, {"config": {"trainable": true, "activation": "relu", "name": "activation_25"}, "class_name": "Activation", "inbound_nodes": [[["add_12", 0, 0, {}]]], "name": "activation_25"}, {"config": {"data_format": "channels_last", "trainable": true, "activation": "linear", "use_bias": true, "bias_initializer": {"class_name": "Zeros", "config": {}}, "kernel_size": [3, 3], "kernel_initializer": {"class_name": "VarianceScaling", "config": {"distribution": "uniform", "scale": 1.0, "seed": null, "mode": "fan_avg"}}, "name": "conv2d_26", "bias_regularizer": null, "activity_regularizer": null, "padding": "same", "dilation_rate": [1, 1], "kernel_constraint": null, "filters": 16, "strides": [1, 1], "kernel_regularizer": {"class_name": "L1L2", "config": {"l1": 0.0, "l2": 9.999999747378752e-05}}, "bias_constraint": null}, "class_name": "Conv2D", "inbound_nodes": [[["activation_25", 0, 0, {}]]], "name": "conv2d_26"}, {"config": {"gamma_constraint": null, "moving_variance_initializer": {"class_name": "Ones", "config": {}}, "beta_initializer": {"class_name": "Zeros", "config": {}}, "epsilon": 0.001, "trainable": true, "center": true, "momentum": 0.99, "name": "batch_normalization_26", "beta_regularizer": null, "gamma_regularizer": null, "scale": true, "gamma_initializer": {"class_name": "Ones", "config": {}}, "moving_mean_initializer": {"class_name": "Zeros", "config": {}}, "axis": -1, "beta_constraint": null}, "class_name": "BatchNormalization", "inbound_nodes": [[["conv2d_26", 0, 0, {}]]], "name": "batch_normalization_26"}, {"config": {"trainable": true, "activation": "relu", "name": "activation_26"}, "class_name": "Activation", "inbound_nodes": [[["batch_normalization_26", 0, 0, {}]]], "name": "activation_26"}, {"config": {"data_format": "channels_last", "trainable": true, "activation": "linear", "use_bias": true, "bias_initializer": {"class_name": "Zeros", "config": {}}, "kernel_size": [3, 3], "kernel_initializer": {"class_name": "VarianceScaling", "config": {"distribution": "uniform", "scale": 1.0, "seed": null, "mode": "fan_avg"}}, "name": "conv2d_27", "bias_regularizer": null, "activity_regularizer": null, "padding": "same", "dilation_rate": [1, 1], "kernel_constraint": null, "filters": 16, "strides": [1, 1], "kernel_regularizer": {"class_name": "L1L2", "config": {"l1": 0.0, "l2": 9.999999747378752e-05}}, "bias_constraint": null}, "class_name": "Conv2D", "inbound_nodes": [[["activation_26", 0, 0, {}]]], "name": "conv2d_27"}, {"config": {"gamma_constraint": null, "moving_variance_initializer": {"class_name": "Ones", "config": {}}, "beta_initializer": {"class_name": "Zeros", "config": {}}, "epsilon": 0.001, "trainable": true, "center": true, "momentum": 0.99, "name": "batch_normalization_27", "beta_regularizer": null, "gamma_regularizer": null, "scale": true, "gamma_initializer": {"class_name": "Ones", "config": {}}, "moving_mean_initializer": {"class_name": "Zeros", "config": {}}, "axis": -1, "beta_constraint": null}, "class_name": "BatchNormalization", "inbound_nodes": [[["conv2d_27", 0, 0, {}]]], "name": "batch_normalization_27"}, {"config": {"trainable": true, "name": "add_13"}, "class_name": "Add", "inbound_nodes": [[["activation_25", 0, 0, {}], ["batch_normalization_27", 0, 0, {}]]], "name": "add_13"}, {"config": {"trainable": true, "activation": "relu", "name": "activation_27"}, "class_name": "Activation", "inbound_nodes": [[["add_13", 0, 0, {}]]], "name": "activation_27"}, {"config": {"data_format": "channels_last", "trainable": true, "activation": "linear", "use_bias": true, "bias_initializer": {"class_name": "Zeros", "config": {}}, "kernel_size": [3, 3], "kernel_initializer": {"class_name": "VarianceScaling", "config": {"distribution": "uniform", "scale": 1.0, "seed": null, "mode": "fan_avg"}}, "name": "conv2d_28", "bias_regularizer": null, "activity_regularizer": null, "padding": "same", "dilation_rate": [1, 1], "kernel_constraint": null, "filters": 16, "strides": [1, 1], "kernel_regularizer": {"class_name": "L1L2", "config": {"l1": 0.0, "l2": 9.999999747378752e-05}}, "bias_constraint": null}, "class_name": "Conv2D", "inbound_nodes": [[["activation_27", 0, 0, {}]]], "name": "conv2d_28"}, {"config": {"gamma_constraint": null, "moving_variance_initializer": {"class_name": "Ones", "config": {}}, "beta_initializer": {"class_name": "Zeros", "config": {}}, "epsilon": 0.001, "trainable": true, "center": true, "momentum": 0.99, "name": "batch_normalization_28", "beta_regularizer": null, "gamma_regularizer": null, "scale": true, "gamma_initializer": {"class_name": "Ones", "config": {}}, "moving_mean_initializer": {"class_name": "Zeros", "config": {}}, "axis": -1, "beta_constraint": null}, "class_name": "BatchNormalization", "inbound_nodes": [[["conv2d_28", 0, 0, {}]]], "name": "batch_normalization_28"}, {"config": {"trainable": true, "activation": "relu", "name": "activation_28"}, "class_name": "Activation", "inbound_nodes": [[["batch_normalization_28", 0, 0, {}]]], "name": "activation_28"}, {"config": {"data_format": "channels_last", "trainable": true, "activation": "linear", "use_bias": true, "bias_initializer": {"class_name": "Zeros", "config": {}}, "kernel_size": [3, 3], "kernel_initializer": {"class_name": "VarianceScaling", "config": {"distribution": "uniform", "scale": 1.0, "seed": null, "mode": "fan_avg"}}, "name": "conv2d_29", "bias_regularizer": null, "activity_regularizer": null, "padding": "same", "dilation_rate": [1, 1], "kernel_constraint": null, "filters": 16, "strides": [1, 1], "kernel_regularizer": {"class_name": "L1L2", "config": {"l1": 0.0, "l2": 9.999999747378752e-05}}, "bias_constraint": null}, "class_name": "Conv2D", "inbound_nodes": [[["activation_28", 0, 0, {}]]], "name": "conv2d_29"}, {"config": {"gamma_constraint": null, "moving_variance_initializer": {"class_name": "Ones", "config": {}}, "beta_initializer": {"class_name": "Zeros", "config": {}}, "epsilon": 0.001, "trainable": true, "center": true, "momentum": 0.99, "name": "batch_normalization_29", "beta_regularizer": null, "gamma_regularizer": null, "scale": true, "gamma_initializer": {"class_name": "Ones", "config": {}}, "moving_mean_initializer": {"class_name": "Zeros", "config": {}}, "axis": -1, "beta_constraint": null}, "class_name": "BatchNormalization", "inbound_nodes": [[["conv2d_29", 0, 0, {}]]], "name": "batch_normalization_29"}, {"config": {"trainable": true, "name": "add_14"}, "class_name": "Add", "inbound_nodes": [[["activation_27", 0, 0, {}], ["batch_normalization_29", 0, 0, {}]]], "name": "add_14"}, {"config": {"trainable": true, "activation": "relu", "name": "activation_29"}, "class_name": "Activation", "inbound_nodes": [[["add_14", 0, 0, {}]]], "name": "activation_29"}, {"config": {"data_format": "channels_last", "trainable": true, "activation": "linear", "use_bias": true, "bias_initializer": {"class_name": "Zeros", "config": {}}, "kernel_size": [3, 3], "kernel_initializer": {"class_name": "VarianceScaling", "config": {"distribution": "uniform", "scale": 1.0, "seed": null, "mode": "fan_avg"}}, "name": "conv2d_30", "bias_regularizer": null, "activity_regularizer": null, "padding": "same", "dilation_rate": [1, 1], "kernel_constraint": null, "filters": 16, "strides": [1, 1], "kernel_regularizer": {"class_name": "L1L2", "config": {"l1": 0.0, "l2": 9.999999747378752e-05}}, "bias_constraint": null}, "class_name": "Conv2D", "inbound_nodes": [[["activation_29", 0, 0, {}]]], "name": "conv2d_30"}, {"config": {"gamma_constraint": null, "moving_variance_initializer": {"class_name": "Ones", "config": {}}, "beta_initializer": {"class_name": "Zeros", "config": {}}, "epsilon": 0.001, "trainable": true, "center": true, "momentum": 0.99, "name": "batch_normalization_30", "beta_regularizer": null, "gamma_regularizer": null, "scale": true, "gamma_initializer": {"class_name": "Ones", "config": {}}, "moving_mean_initializer": {"class_name": "Zeros", "config": {}}, "axis": -1, "beta_constraint": null}, "class_name": "BatchNormalization", "inbound_nodes": [[["conv2d_30", 0, 0, {}]]], "name": "batch_normalization_30"}, {"config": {"trainable": true, "activation": "relu", "name": "activation_30"}, "class_name": "Activation", "inbound_nodes": [[["batch_normalization_30", 0, 0, {}]]], "name": "activation_30"}, {"config": {"data_format": "channels_last", "trainable": true, "activation": "linear", "use_bias": true, "bias_initializer": {"class_name": "Zeros", "config": {}}, "kernel_size": [3, 3], "kernel_initializer": {"class_name": "VarianceScaling", "config": {"distribution": "uniform", "scale": 1.0, "seed": null, "mode": "fan_avg"}}, "name": "conv2d_31", "bias_regularizer": null, "activity_regularizer": null, "padding": "same", "dilation_rate": [1, 1], "kernel_constraint": null, "filters": 16, "strides": [1, 1], "kernel_regularizer": {"class_name": "L1L2", "config": {"l1": 0.0, "l2": 9.999999747378752e-05}}, "bias_constraint": null}, "class_name": "Conv2D", "inbound_nodes": [[["activation_30", 0, 0, {}]]], "name": "conv2d_31"}, {"config": {"gamma_constraint": null, "moving_variance_initializer": {"class_name": "Ones", "config": {}}, "beta_initializer": {"class_name": "Zeros", "config": {}}, "epsilon": 0.001, "trainable": true, "center": true, "momentum": 0.99, "name": "batch_normalization_31", "beta_regularizer": null, "gamma_regularizer": null, "scale": true, "gamma_initializer": {"class_name": "Ones", "config": {}}, "moving_mean_initializer": {"class_name": "Zeros", "config": {}}, "axis": -1, "beta_constraint": null}, "class_name": "BatchNormalization", "inbound_nodes": [[["conv2d_31", 0, 0, {}]]], "name": "batch_normalization_31"}, {"config": {"trainable": true, "name": "add_15"}, "class_name": "Add", "inbound_nodes": [[["activation_29", 0, 0, {}], ["batch_normalization_31", 0, 0, {}]]], "name": "add_15"}, {"config": {"trainable": true, "activation": "relu", "name": "activation_31"}, "class_name": "Activation", "inbound_nodes": [[["add_15", 0, 0, {}]]], "name": "activation_31"}, {"config": {"data_format": "channels_last", "trainable": true, "activation": "linear", "use_bias": true, "bias_initializer": {"class_name": "Zeros", "config": {}}, "kernel_size": [3, 3], "kernel_initializer": {"class_name": "VarianceScaling", "config": {"distribution": "uniform", "scale": 1.0, "seed": null, "mode": "fan_avg"}}, "name": "conv2d_32", "bias_regularizer": null, "activity_regularizer": null, "padding": "same", "dilation_rate": [1, 1], "kernel_constraint": null, "filters": 16, "strides": [1, 1], "kernel_regularizer": {"class_name": "L1L2", "config": {"l1": 0.0, "l2": 9.999999747378752e-05}}, "bias_constraint": null}, "class_name": "Conv2D", "inbound_nodes": [[["activation_31", 0, 0, {}]]], "name": "conv2d_32"}, {"config": {"gamma_constraint": null, "moving_variance_initializer": {"class_name": "Ones", "config": {}}, "beta_initializer": {"class_name": "Zeros", "config": {}}, "epsilon": 0.001, "trainable": true, "center": true, "momentum": 0.99, "name": "batch_normalization_32", "beta_regularizer": null, "gamma_regularizer": null, "scale": true, "gamma_initializer": {"class_name": "Ones", "config": {}}, "moving_mean_initializer": {"class_name": "Zeros", "config": {}}, "axis": -1, "beta_constraint": null}, "class_name": "BatchNormalization", "inbound_nodes": [[["conv2d_32", 0, 0, {}]]], "name": "batch_normalization_32"}, {"config": {"trainable": true, "activation": "relu", "name": "activation_32"}, "class_name": "Activation", "inbound_nodes": [[["batch_normalization_32", 0, 0, {}]]], "name": "activation_32"}, {"config": {"data_format": "channels_last", "trainable": true, "activation": "linear", "use_bias": true, "bias_initializer": {"class_name": "Zeros", "config": {}}, "kernel_size": [3, 3], "kernel_initializer": {"class_name": "VarianceScaling", "config": {"distribution": "uniform", "scale": 1.0, "seed": null, "mode": "fan_avg"}}, "name": "conv2d_33", "bias_regularizer": null, "activity_regularizer": null, "padding": "same", "dilation_rate": [1, 1], "kernel_constraint": null, "filters": 16, "strides": [1, 1], "kernel_regularizer": {"class_name": "L1L2", "config": {"l1": 0.0, "l2": 9.999999747378752e-05}}, "bias_constraint": null}, "class_name": "Conv2D", "inbound_nodes": [[["activation_32", 0, 0, {}]]], "name": "conv2d_33"}, {"config": {"gamma_constraint": null, "moving_variance_initializer": {"class_name": "Ones", "config": {}}, "beta_initializer": {"class_name": "Zeros", "config": {}}, "epsilon": 0.001, "trainable": true, "center": true, "momentum": 0.99, "name": "batch_normalization_33", "beta_regularizer": null, "gamma_regularizer": null, "scale": true, "gamma_initializer": {"class_name": "Ones", "config": {}}, "moving_mean_initializer": {"class_name": "Zeros", "config": {}}, "axis": -1, "beta_constraint": null}, "class_name": "BatchNormalization", "inbound_nodes": [[["conv2d_33", 0, 0, {}]]], "name": "batch_normalization_33"}, {"config": {"trainable": true, "name": "add_16"}, "class_name": "Add", "inbound_nodes": [[["activation_31", 0, 0, {}], ["batch_normalization_33", 0, 0, {}]]], "name": "add_16"}, {"config": {"trainable": true, "activation": "relu", "name": "activation_33"}, "class_name": "Activation", "inbound_nodes": [[["add_16", 0, 0, {}]]], "name": "activation_33"}, {"config": {"data_format": "channels_last", "trainable": true, "activation": "linear", "use_bias": true, "bias_initializer": {"class_name": "Zeros", "config": {}}, "kernel_size": [3, 3], "kernel_initializer": {"class_name": "VarianceScaling", "config": {"distribution": "uniform", "scale": 1.0, "seed": null, "mode": "fan_avg"}}, "name": "conv2d_34", "bias_regularizer": null, "activity_regularizer": null, "padding": "same", "dilation_rate": [1, 1], "kernel_constraint": null, "filters": 16, "strides": [1, 1], "kernel_regularizer": {"class_name": "L1L2", "config": {"l1": 0.0, "l2": 9.999999747378752e-05}}, "bias_constraint": null}, "class_name": "Conv2D", "inbound_nodes": [[["activation_33", 0, 0, {}]]], "name": "conv2d_34"}, {"config": {"gamma_constraint": null, "moving_variance_initializer": {"class_name": "Ones", "config": {}}, "beta_initializer": {"class_name": "Zeros", "config": {}}, "epsilon": 0.001, "trainable": true, "center": true, "momentum": 0.99, "name": "batch_normalization_34", "beta_regularizer": null, "gamma_regularizer": null, "scale": true, "gamma_initializer": {"class_name": "Ones", "config": {}}, "moving_mean_initializer": {"class_name": "Zeros", "config": {}}, "axis": -1, "beta_constraint": null}, "class_name": "BatchNormalization", "inbound_nodes": [[["conv2d_34", 0, 0, {}]]], "name": "batch_normalization_34"}, {"config": {"trainable": true, "activation": "relu", "name": "activation_34"}, "class_name": "Activation", "inbound_nodes": [[["batch_normalization_34", 0, 0, {}]]], "name": "activation_34"}, {"config": {"data_format": "channels_last", "trainable": true, "activation": "linear", "use_bias": true, "bias_initializer": {"class_name": "Zeros", "config": {}}, "kernel_size": [3, 3], "kernel_initializer": {"class_name": "VarianceScaling", "config": {"distribution": "uniform", "scale": 1.0, "seed": null, "mode": "fan_avg"}}, "name": "conv2d_35", "bias_regularizer": null, "activity_regularizer": null, "padding": "same", "dilation_rate": [1, 1], "kernel_constraint": null, "filters": 16, "strides": [1, 1], "kernel_regularizer": {"class_name": "L1L2", "config": {"l1": 0.0, "l2": 9.999999747378752e-05}}, "bias_constraint": null}, "class_name": "Conv2D", "inbound_nodes": [[["activation_34", 0, 0, {}]]], "name": "conv2d_35"}, {"config": {"gamma_constraint": null, "moving_variance_initializer": {"class_name": "Ones", "config": {}}, "beta_initializer": {"class_name": "Zeros", "config": {}}, "epsilon": 0.001, "trainable": true, "center": true, "momentum": 0.99, "name": "batch_normalization_35", "beta_regularizer": null, "gamma_regularizer": null, "scale": true, "gamma_initializer": {"class_name": "Ones", "config": {}}, "moving_mean_initializer": {"class_name": "Zeros", "config": {}}, "axis": -1, "beta_constraint": null}, "class_name": "BatchNormalization", "inbound_nodes": [[["conv2d_35", 0, 0, {}]]], "name": "batch_normalization_35"}, {"config": {"trainable": true, "name": "add_17"}, "class_name": "Add", "inbound_nodes": [[["activation_33", 0, 0, {}], ["batch_normalization_35", 0, 0, {}]]], "name": "add_17"}, {"config": {"trainable": true, "activation": "relu", "name": "activation_35"}, "class_name": "Activation", "inbound_nodes": [[["add_17", 0, 0, {}]]], "name": "activation_35"}, {"config": {"data_format": "channels_last", "trainable": true, "activation": "linear", "use_bias": true, "bias_initializer": {"class_name": "Zeros", "config": {}}, "kernel_size": [3, 3], "kernel_initializer": {"class_name": "VarianceScaling", "config": {"distribution": "uniform", "scale": 1.0, "seed": null, "mode": "fan_avg"}}, "name": "conv2d_36", "bias_regularizer": null, "activity_regularizer": null, "padding": "same", "dilation_rate": [1, 1], "kernel_constraint": null, "filters": 15, "strides": [1, 1], "kernel_regularizer": {"class_name": "L1L2", "config": {"l1": 0.0, "l2": 9.999999747378752e-05}}, "bias_constraint": null}, "class_name": "Conv2D", "inbound_nodes": [[["activation_35", 0, 0, {}]]], "name": "conv2d_36"}, {"config": {"gamma_constraint": null, "moving_variance_initializer": {"class_name": "Ones", "config": {}}, "beta_initializer": {"class_name": "Zeros", "config": {}}, "epsilon": 0.001, "trainable": true, "center": true, "momentum": 0.99, "name": "batch_normalization_36", "beta_regularizer": null, "gamma_regularizer": null, "scale": true, "gamma_initializer": {"class_name": "Ones", "config": {}}, "moving_mean_initializer": {"class_name": "Zeros", "config": {}}, "axis": -1, "beta_constraint": null}, "class_name": "BatchNormalization", "inbound_nodes": [[["conv2d_36", 0, 0, {}]]], "name": "batch_normalization_36"}, {"config": {"trainable": true, "activation": "relu", "name": "activation_36"}, "class_name": "Activation", "inbound_nodes": [[["batch_normalization_36", 0, 0, {}]]], "name": "activation_36"}, {"config": {"data_format": "channels_last", "trainable": true, "activation": "linear", "use_bias": true, "bias_initializer": {"class_name": "Zeros", "config": {}}, "kernel_size": [3, 3], "kernel_initializer": {"class_name": "VarianceScaling", "config": {"distribution": "uniform", "scale": 1.0, "seed": null, "mode": "fan_avg"}}, "name": "conv2d_37", "bias_regularizer": null, "activity_regularizer": null, "padding": "same", "dilation_rate": [1, 1], "kernel_constraint": null, "filters": 16, "strides": [1, 1], "kernel_regularizer": {"class_name": "L1L2", "config": {"l1": 0.0, "l2": 9.999999747378752e-05}}, "bias_constraint": null}, "class_name": "Conv2D", "inbound_nodes": [[["activation_36", 0, 0, {}]]], "name": "conv2d_37"}, {"config": {"gamma_constraint": null, "moving_variance_initializer": {"class_name": "Ones", "config": {}}, "beta_initializer": {"class_name": "Zeros", "config": {}}, "epsilon": 0.001, "trainable": true, "center": true, "momentum": 0.99, "name": "batch_normalization_37", "beta_regularizer": null, "gamma_regularizer": null, "scale": true, "gamma_initializer": {"class_name": "Ones", "config": {}}, "moving_mean_initializer": {"class_name": "Zeros", "config": {}}, "axis": -1, "beta_constraint": null}, "class_name": "BatchNormalization", "inbound_nodes": [[["conv2d_37", 0, 0, {}]]], "name": "batch_normalization_37"}, {"config": {"trainable": true, "name": "add_18"}, "class_name": "Add", "inbound_nodes": [[["activation_35", 0, 0, {}], ["batch_normalization_37", 0, 0, {}]]], "name": "add_18"}, {"config": {"trainable": true, "activation": "relu", "name": "activation_37"}, "class_name": "Activation", "inbound_nodes": [[["add_18", 0, 0, {}]]], "name": "activation_37"}, {"config": {"data_format": "channels_last", "trainable": true, "activation": "linear", "use_bias": true, "bias_initializer": {"class_name": "Zeros", "config": {}}, "kernel_size": [3, 3], "kernel_initializer": {"class_name": "VarianceScaling", "config": {"distribution": "uniform", "scale": 1.0, "seed": null, "mode": "fan_avg"}}, "name": "conv2d_38", "bias_regularizer": null, "activity_regularizer": null, "padding": "same", "dilation_rate": [1, 1], "kernel_constraint": null, "filters": 30, "strides": [2, 2], "kernel_regularizer": {"class_name": "L1L2", "config": {"l1": 0.0, "l2": 9.999999747378752e-05}}, "bias_constraint": null}, "class_name": "Conv2D", "inbound_nodes": [[["activation_37", 0, 0, {}]]], "name": "conv2d_38"}, {"config": {"gamma_constraint": null, "moving_variance_initializer": {"class_name": "Ones", "config": {}}, "beta_initializer": {"class_name": "Zeros", "config": {}}, "epsilon": 0.001, "trainable": true, "center": true, "momentum": 0.99, "name": "batch_normalization_38", "beta_regularizer": null, "gamma_regularizer": null, "scale": true, "gamma_initializer": {"class_name": "Ones", "config": {}}, "moving_mean_initializer": {"class_name": "Zeros", "config": {}}, "axis": -1, "beta_constraint": null}, "class_name": "BatchNormalization", "inbound_nodes": [[["conv2d_38", 0, 0, {}]]], "name": "batch_normalization_38"}, {"config": {"trainable": true, "activation": "relu", "name": "activation_38"}, "class_name": "Activation", "inbound_nodes": [[["batch_normalization_38", 0, 0, {}]]], "name": "activation_38"}, {"config": {"data_format": "channels_last", "trainable": true, "activation": "linear", "use_bias": true, "bias_initializer": {"class_name": "Zeros", "config": {}}, "kernel_size": [3, 3], "kernel_initializer": {"class_name": "VarianceScaling", "config": {"distribution": "uniform", "scale": 1.0, "seed": null, "mode": "fan_avg"}}, "name": "conv2d_39", "bias_regularizer": null, "activity_regularizer": null, "padding": "same", "dilation_rate": [1, 1], "kernel_constraint": null, "filters": 32, "strides": [1, 1], "kernel_regularizer": {"class_name": "L1L2", "config": {"l1": 0.0, "l2": 9.999999747378752e-05}}, "bias_constraint": null}, "class_name": "Conv2D", "inbound_nodes": [[["activation_38", 0, 0, {}]]], "name": "conv2d_39"}, {"config": {"data_format": "channels_last", "trainable": true, "activation": "linear", "use_bias": true, "bias_initializer": {"class_name": "Zeros", "config": {}}, "kernel_size": [1, 1], "kernel_initializer": {"class_name": "VarianceScaling", "config": {"distribution": "uniform", "scale": 1.0, "seed": null, "mode": "fan_avg"}}, "name": "conv2d_40", "bias_regularizer": null, "activity_regularizer": null, "padding": "same", "dilation_rate": [1, 1], "kernel_constraint": null, "filters": 32, "strides": [2, 2], "kernel_regularizer": {"class_name": "L1L2", "config": {"l1": 0.0, "l2": 9.999999747378752e-05}}, "bias_constraint": null}, "class_name": "Conv2D", "inbound_nodes": [[["activation_37", 0, 0, {}]]], "name": "conv2d_40"}, {"config": {"gamma_constraint": null, "moving_variance_initializer": {"class_name": "Ones", "config": {}}, "beta_initializer": {"class_name": "Zeros", "config": {}}, "epsilon": 0.001, "trainable": true, "center": true, "momentum": 0.99, "name": "batch_normalization_39", "beta_regularizer": null, "gamma_regularizer": null, "scale": true, "gamma_initializer": {"class_name": "Ones", "config": {}}, "moving_mean_initializer": {"class_name": "Zeros", "config": {}}, "axis": -1, "beta_constraint": null}, "class_name": "BatchNormalization", "inbound_nodes": [[["conv2d_39", 0, 0, {}]]], "name": "batch_normalization_39"}, {"config": {"trainable": true, "name": "add_19"}, "class_name": "Add", "inbound_nodes": [[["conv2d_40", 0, 0, {}], ["batch_normalization_39", 0, 0, {}]]], "name": "add_19"}, {"config": {"trainable": true, "activation": "relu", "name": "activation_39"}, "class_name": "Activation", "inbound_nodes": [[["add_19", 0, 0, {}]]], "name": "activation_39"}, {"config": {"data_format": "channels_last", "trainable": true, "activation": "linear", "use_bias": true, "bias_initializer": {"class_name": "Zeros", "config": {}}, "kernel_size": [3, 3], "kernel_initializer": {"class_name": "VarianceScaling", "config": {"distribution": "uniform", "scale": 1.0, "seed": null, "mode": "fan_avg"}}, "name": "conv2d_41", "bias_regularizer": null, "activity_regularizer": null, "padding": "same", "dilation_rate": [1, 1], "kernel_constraint": null, "filters": 31, "strides": [1, 1], "kernel_regularizer": {"class_name": "L1L2", "config": {"l1": 0.0, "l2": 9.999999747378752e-05}}, "bias_constraint": null}, "class_name": "Conv2D", "inbound_nodes": [[["activation_39", 0, 0, {}]]], "name": "conv2d_41"}, {"config": {"gamma_constraint": null, "moving_variance_initializer": {"class_name": "Ones", "config": {}}, "beta_initializer": {"class_name": "Zeros", "config": {}}, "epsilon": 0.001, "trainable": true, "center": true, "momentum": 0.99, "name": "batch_normalization_40", "beta_regularizer": null, "gamma_regularizer": null, "scale": true, "gamma_initializer": {"class_name": "Ones", "config": {}}, "moving_mean_initializer": {"class_name": "Zeros", "config": {}}, "axis": -1, "beta_constraint": null}, "class_name": "BatchNormalization", "inbound_nodes": [[["conv2d_41", 0, 0, {}]]], "name": "batch_normalization_40"}, {"config": {"trainable": true, "activation": "relu", "name": "activation_40"}, "class_name": "Activation", "inbound_nodes": [[["batch_normalization_40", 0, 0, {}]]], "name": "activation_40"}, {"config": {"data_format": "channels_last", "trainable": true, "activation": "linear", "use_bias": true, "bias_initializer": {"class_name": "Zeros", "config": {}}, "kernel_size": [3, 3], "kernel_initializer": {"class_name": "VarianceScaling", "config": {"distribution": "uniform", "scale": 1.0, "seed": null, "mode": "fan_avg"}}, "name": "conv2d_42", "bias_regularizer": null, "activity_regularizer": null, "padding": "same", "dilation_rate": [1, 1], "kernel_constraint": null, "filters": 32, "strides": [1, 1], "kernel_regularizer": {"class_name": "L1L2", "config": {"l1": 0.0, "l2": 9.999999747378752e-05}}, "bias_constraint": null}, "class_name": "Conv2D", "inbound_nodes": [[["activation_40", 0, 0, {}]]], "name": "conv2d_42"}, {"config": {"gamma_constraint": null, "moving_variance_initializer": {"class_name": "Ones", "config": {}}, "beta_initializer": {"class_name": "Zeros", "config": {}}, "epsilon": 0.001, "trainable": true, "center": true, "momentum": 0.99, "name": "batch_normalization_41", "beta_regularizer": null, "gamma_regularizer": null, "scale": true, "gamma_initializer": {"class_name": "Ones", "config": {}}, "moving_mean_initializer": {"class_name": "Zeros", "config": {}}, "axis": -1, "beta_constraint": null}, "class_name": "BatchNormalization", "inbound_nodes": [[["conv2d_42", 0, 0, {}]]], "name": "batch_normalization_41"}, {"config": {"trainable": true, "name": "add_20"}, "class_name": "Add", "inbound_nodes": [[["activation_39", 0, 0, {}], ["batch_normalization_41", 0, 0, {}]]], "name": "add_20"}, {"config": {"trainable": true, "activation": "relu", "name": "activation_41"}, "class_name": "Activation", "inbound_nodes": [[["add_20", 0, 0, {}]]], "name": "activation_41"}, {"config": {"data_format": "channels_last", "trainable": true, "activation": "linear", "use_bias": true, "bias_initializer": {"class_name": "Zeros", "config": {}}, "kernel_size": [3, 3], "kernel_initializer": {"class_name": "VarianceScaling", "config": {"distribution": "uniform", "scale": 1.0, "seed": null, "mode": "fan_avg"}}, "name": "conv2d_43", "bias_regularizer": null, "activity_regularizer": null, "padding": "same", "dilation_rate": [1, 1], "kernel_constraint": null, "filters": 30, "strides": [1, 1], "kernel_regularizer": {"class_name": "L1L2", "config": {"l1": 0.0, "l2": 9.999999747378752e-05}}, "bias_constraint": null}, "class_name": "Conv2D", "inbound_nodes": [[["activation_41", 0, 0, {}]]], "name": "conv2d_43"}, {"config": {"gamma_constraint": null, "moving_variance_initializer": {"class_name": "Ones", "config": {}}, "beta_initializer": {"class_name": "Zeros", "config": {}}, "epsilon": 0.001, "trainable": true, "center": true, "momentum": 0.99, "name": "batch_normalization_42", "beta_regularizer": null, "gamma_regularizer": null, "scale": true, "gamma_initializer": {"class_name": "Ones", "config": {}}, "moving_mean_initializer": {"class_name": "Zeros", "config": {}}, "axis": -1, "beta_constraint": null}, "class_name": "BatchNormalization", "inbound_nodes": [[["conv2d_43", 0, 0, {}]]], "name": "batch_normalization_42"}, {"config": {"trainable": true, "activation": "relu", "name": "activation_42"}, "class_name": "Activation", "inbound_nodes": [[["batch_normalization_42", 0, 0, {}]]], "name": "activation_42"}, {"config": {"data_format": "channels_last", "trainable": true, "activation": "linear", "use_bias": true, "bias_initializer": {"class_name": "Zeros", "config": {}}, "kernel_size": [3, 3], "kernel_initializer": {"class_name": "VarianceScaling", "config": {"distribution": "uniform", "scale": 1.0, "seed": null, "mode": "fan_avg"}}, "name": "conv2d_44", "bias_regularizer": null, "activity_regularizer": null, "padding": "same", "dilation_rate": [1, 1], "kernel_constraint": null, "filters": 32, "strides": [1, 1], "kernel_regularizer": {"class_name": "L1L2", "config": {"l1": 0.0, "l2": 9.999999747378752e-05}}, "bias_constraint": null}, "class_name": "Conv2D", "inbound_nodes": [[["activation_42", 0, 0, {}]]], "name": "conv2d_44"}, {"config": {"gamma_constraint": null, "moving_variance_initializer": {"class_name": "Ones", "config": {}}, "beta_initializer": {"class_name": "Zeros", "config": {}}, "epsilon": 0.001, "trainable": true, "center": true, "momentum": 0.99, "name": "batch_normalization_43", "beta_regularizer": null, "gamma_regularizer": null, "scale": true, "gamma_initializer": {"class_name": "Ones", "config": {}}, "moving_mean_initializer": {"class_name": "Zeros", "config": {}}, "axis": -1, "beta_constraint": null}, "class_name": "BatchNormalization", "inbound_nodes": [[["conv2d_44", 0, 0, {}]]], "name": "batch_normalization_43"}, {"config": {"trainable": true, "name": "add_21"}, "class_name": "Add", "inbound_nodes": [[["activation_41", 0, 0, {}], ["batch_normalization_43", 0, 0, {}]]], "name": "add_21"}, {"config": {"trainable": true, "activation": "relu", "name": "activation_43"}, "class_name": "Activation", "inbound_nodes": [[["add_21", 0, 0, {}]]], "name": "activation_43"}, {"config": {"data_format": "channels_last", "trainable": true, "activation": "linear", "use_bias": true, "bias_initializer": {"class_name": "Zeros", "config": {}}, "kernel_size": [3, 3], "kernel_initializer": {"class_name": "VarianceScaling", "config": {"distribution": "uniform", "scale": 1.0, "seed": null, "mode": "fan_avg"}}, "name": "conv2d_45", "bias_regularizer": null, "activity_regularizer": null, "padding": "same", "dilation_rate": [1, 1], "kernel_constraint": null, "filters": 30, "strides": [1, 1], "kernel_regularizer": {"class_name": "L1L2", "config": {"l1": 0.0, "l2": 9.999999747378752e-05}}, "bias_constraint": null}, "class_name": "Conv2D", "inbound_nodes": [[["activation_43", 0, 0, {}]]], "name": "conv2d_45"}, {"config": {"gamma_constraint": null, "moving_variance_initializer": {"class_name": "Ones", "config": {}}, "beta_initializer": {"class_name": "Zeros", "config": {}}, "epsilon": 0.001, "trainable": true, "center": true, "momentum": 0.99, "name": "batch_normalization_44", "beta_regularizer": null, "gamma_regularizer": null, "scale": true, "gamma_initializer": {"class_name": "Ones", "config": {}}, "moving_mean_initializer": {"class_name": "Zeros", "config": {}}, "axis": -1, "beta_constraint": null}, "class_name": "BatchNormalization", "inbound_nodes": [[["conv2d_45", 0, 0, {}]]], "name": "batch_normalization_44"}, {"config": {"trainable": true, "activation": "relu", "name": "activation_44"}, "class_name": "Activation", "inbound_nodes": [[["batch_normalization_44", 0, 0, {}]]], "name": "activation_44"}, {"config": {"data_format": "channels_last", "trainable": true, "activation": "linear", "use_bias": true, "bias_initializer": {"class_name": "Zeros", "config": {}}, "kernel_size": [3, 3], "kernel_initializer": {"class_name": "VarianceScaling", "config": {"distribution": "uniform", "scale": 1.0, "seed": null, "mode": "fan_avg"}}, "name": "conv2d_46", "bias_regularizer": null, "activity_regularizer": null, "padding": "same", "dilation_rate": [1, 1], "kernel_constraint": null, "filters": 32, "strides": [1, 1], "kernel_regularizer": {"class_name": "L1L2", "config": {"l1": 0.0, "l2": 9.999999747378752e-05}}, "bias_constraint": null}, "class_name": "Conv2D", "inbound_nodes": [[["activation_44", 0, 0, {}]]], "name": "conv2d_46"}, {"config": {"gamma_constraint": null, "moving_variance_initializer": {"class_name": "Ones", "config": {}}, "beta_initializer": {"class_name": "Zeros", "config": {}}, "epsilon": 0.001, "trainable": true, "center": true, "momentum": 0.99, "name": "batch_normalization_45", "beta_regularizer": null, "gamma_regularizer": null, "scale": true, "gamma_initializer": {"class_name": "Ones", "config": {}}, "moving_mean_initializer": {"class_name": "Zeros", "config": {}}, "axis": -1, "beta_constraint": null}, "class_name": "BatchNormalization", "inbound_nodes": [[["conv2d_46", 0, 0, {}]]], "name": "batch_normalization_45"}, {"config": {"trainable": true, "name": "add_22"}, "class_name": "Add", "inbound_nodes": [[["activation_43", 0, 0, {}], ["batch_normalization_45", 0, 0, {}]]], "name": "add_22"}, {"config": {"trainable": true, "activation": "relu", "name": "activation_45"}, "class_name": "Activation", "inbound_nodes": [[["add_22", 0, 0, {}]]], "name": "activation_45"}, {"config": {"data_format": "channels_last", "trainable": true, "activation": "linear", "use_bias": true, "bias_initializer": {"class_name": "Zeros", "config": {}}, "kernel_size": [3, 3], "kernel_initializer": {"class_name": "VarianceScaling", "config": {"distribution": "uniform", "scale": 1.0, "seed": null, "mode": "fan_avg"}}, "name": "conv2d_47", "bias_regularizer": null, "activity_regularizer": null, "padding": "same", "dilation_rate": [1, 1], "kernel_constraint": null, "filters": 31, "strides": [1, 1], "kernel_regularizer": {"class_name": "L1L2", "config": {"l1": 0.0, "l2": 9.999999747378752e-05}}, "bias_constraint": null}, "class_name": "Conv2D", "inbound_nodes": [[["activation_45", 0, 0, {}]]], "name": "conv2d_47"}, {"config": {"gamma_constraint": null, "moving_variance_initializer": {"class_name": "Ones", "config": {}}, "beta_initializer": {"class_name": "Zeros", "config": {}}, "epsilon": 0.001, "trainable": true, "center": true, "momentum": 0.99, "name": "batch_normalization_46", "beta_regularizer": null, "gamma_regularizer": null, "scale": true, "gamma_initializer": {"class_name": "Ones", "config": {}}, "moving_mean_initializer": {"class_name": "Zeros", "config": {}}, "axis": -1, "beta_constraint": null}, "class_name": "BatchNormalization", "inbound_nodes": [[["conv2d_47", 0, 0, {}]]], "name": "batch_normalization_46"}, {"config": {"trainable": true, "activation": "relu", "name": "activation_46"}, "class_name": "Activation", "inbound_nodes": [[["batch_normalization_46", 0, 0, {}]]], "name": "activation_46"}, {"config": {"data_format": "channels_last", "trainable": true, "activation": "linear", "use_bias": true, "bias_initializer": {"class_name": "Zeros", "config": {}}, "kernel_size": [3, 3], "kernel_initializer": {"class_name": "VarianceScaling", "config": {"distribution": "uniform", "scale": 1.0, "seed": null, "mode": "fan_avg"}}, "name": "conv2d_48", "bias_regularizer": null, "activity_regularizer": null, "padding": "same", "dilation_rate": [1, 1], "kernel_constraint": null, "filters": 32, "strides": [1, 1], "kernel_regularizer": {"class_name": "L1L2", "config": {"l1": 0.0, "l2": 9.999999747378752e-05}}, "bias_constraint": null}, "class_name": "Conv2D", "inbound_nodes": [[["activation_46", 0, 0, {}]]], "name": "conv2d_48"}, {"config": {"gamma_constraint": null, "moving_variance_initializer": {"class_name": "Ones", "config": {}}, "beta_initializer": {"class_name": "Zeros", "config": {}}, "epsilon": 0.001, "trainable": true, "center": true, "momentum": 0.99, "name": "batch_normalization_47", "beta_regularizer": null, "gamma_regularizer": null, "scale": true, "gamma_initializer": {"class_name": "Ones", "config": {}}, "moving_mean_initializer": {"class_name": "Zeros", "config": {}}, "axis": -1, "beta_constraint": null}, "class_name": "BatchNormalization", "inbound_nodes": [[["conv2d_48", 0, 0, {}]]], "name": "batch_normalization_47"}, {"config": {"trainable": true, "name": "add_23"}, "class_name": "Add", "inbound_nodes": [[["activation_45", 0, 0, {}], ["batch_normalization_47", 0, 0, {}]]], "name": "add_23"}, {"config": {"trainable": true, "activation": "relu", "name": "activation_47"}, "class_name": "Activation", "inbound_nodes": [[["add_23", 0, 0, {}]]], "name": "activation_47"}, {"config": {"data_format": "channels_last", "trainable": true, "activation": "linear", "use_bias": true, "bias_initializer": {"class_name": "Zeros", "config": {}}, "kernel_size": [3, 3], "kernel_initializer": {"class_name": "VarianceScaling", "config": {"distribution": "uniform", "scale": 1.0, "seed": null, "mode": "fan_avg"}}, "name": "conv2d_49", "bias_regularizer": null, "activity_regularizer": null, "padding": "same", "dilation_rate": [1, 1], "kernel_constraint": null, "filters": 32, "strides": [1, 1], "kernel_regularizer": {"class_name": "L1L2", "config": {"l1": 0.0, "l2": 9.999999747378752e-05}}, "bias_constraint": null}, "class_name": "Conv2D", "inbound_nodes": [[["activation_47", 0, 0, {}]]], "name": "conv2d_49"}, {"config": {"gamma_constraint": null, "moving_variance_initializer": {"class_name": "Ones", "config": {}}, "beta_initializer": {"class_name": "Zeros", "config": {}}, "epsilon": 0.001, "trainable": true, "center": true, "momentum": 0.99, "name": "batch_normalization_48", "beta_regularizer": null, "gamma_regularizer": null, "scale": true, "gamma_initializer": {"class_name": "Ones", "config": {}}, "moving_mean_initializer": {"class_name": "Zeros", "config": {}}, "axis": -1, "beta_constraint": null}, "class_name": "BatchNormalization", "inbound_nodes": [[["conv2d_49", 0, 0, {}]]], "name": "batch_normalization_48"}, {"config": {"trainable": true, "activation": "relu", "name": "activation_48"}, "class_name": "Activation", "inbound_nodes": [[["batch_normalization_48", 0, 0, {}]]], "name": "activation_48"}, {"config": {"data_format": "channels_last", "trainable": true, "activation": "linear", "use_bias": true, "bias_initializer": {"class_name": "Zeros", "config": {}}, "kernel_size": [3, 3], "kernel_initializer": {"class_name": "VarianceScaling", "config": {"distribution": "uniform", "scale": 1.0, "seed": null, "mode": "fan_avg"}}, "name": "conv2d_50", "bias_regularizer": null, "activity_regularizer": null, "padding": "same", "dilation_rate": [1, 1], "kernel_constraint": null, "filters": 32, "strides": [1, 1], "kernel_regularizer": {"class_name": "L1L2", "config": {"l1": 0.0, "l2": 9.999999747378752e-05}}, "bias_constraint": null}, "class_name": "Conv2D", "inbound_nodes": [[["activation_48", 0, 0, {}]]], "name": "conv2d_50"}, {"config": {"gamma_constraint": null, "moving_variance_initializer": {"class_name": "Ones", "config": {}}, "beta_initializer": {"class_name": "Zeros", "config": {}}, "epsilon": 0.001, "trainable": true, "center": true, "momentum": 0.99, "name": "batch_normalization_49", "beta_regularizer": null, "gamma_regularizer": null, "scale": true, "gamma_initializer": {"class_name": "Ones", "config": {}}, "moving_mean_initializer": {"class_name": "Zeros", "config": {}}, "axis": -1, "beta_constraint": null}, "class_name": "BatchNormalization", "inbound_nodes": [[["conv2d_50", 0, 0, {}]]], "name": "batch_normalization_49"}, {"config": {"trainable": true, "name": "add_24"}, "class_name": "Add", "inbound_nodes": [[["activation_47", 0, 0, {}], ["batch_normalization_49", 0, 0, {}]]], "name": "add_24"}, {"config": {"trainable": true, "activation": "relu", "name": "activation_49"}, "class_name": "Activation", "inbound_nodes": [[["add_24", 0, 0, {}]]], "name": "activation_49"}, {"config": {"data_format": "channels_last", "trainable": true, "activation": "linear", "use_bias": true, "bias_initializer": {"class_name": "Zeros", "config": {}}, "kernel_size": [3, 3], "kernel_initializer": {"class_name": "VarianceScaling", "config": {"distribution": "uniform", "scale": 1.0, "seed": null, "mode": "fan_avg"}}, "name": "conv2d_51", "bias_regularizer": null, "activity_regularizer": null, "padding": "same", "dilation_rate": [1, 1], "kernel_constraint": null, "filters": 28, "strides": [1, 1], "kernel_regularizer": {"class_name": "L1L2", "config": {"l1": 0.0, "l2": 9.999999747378752e-05}}, "bias_constraint": null}, "class_name": "Conv2D", "inbound_nodes": [[["activation_49", 0, 0, {}]]], "name": "conv2d_51"}, {"config": {"gamma_constraint": null, "moving_variance_initializer": {"class_name": "Ones", "config": {}}, "beta_initializer": {"class_name": "Zeros", "config": {}}, "epsilon": 0.001, "trainable": true, "center": true, "momentum": 0.99, "name": "batch_normalization_50", "beta_regularizer": null, "gamma_regularizer": null, "scale": true, "gamma_initializer": {"class_name": "Ones", "config": {}}, "moving_mean_initializer": {"class_name": "Zeros", "config": {}}, "axis": -1, "beta_constraint": null}, "class_name": "BatchNormalization", "inbound_nodes": [[["conv2d_51", 0, 0, {}]]], "name": "batch_normalization_50"}, {"config": {"trainable": true, "activation": "relu", "name": "activation_50"}, "class_name": "Activation", "inbound_nodes": [[["batch_normalization_50", 0, 0, {}]]], "name": "activation_50"}, {"config": {"data_format": "channels_last", "trainable": true, "activation": "linear", "use_bias": true, "bias_initializer": {"class_name": "Zeros", "config": {}}, "kernel_size": [3, 3], "kernel_initializer": {"class_name": "VarianceScaling", "config": {"distribution": "uniform", "scale": 1.0, "seed": null, "mode": "fan_avg"}}, "name": "conv2d_52", "bias_regularizer": null, "activity_regularizer": null, "padding": "same", "dilation_rate": [1, 1], "kernel_constraint": null, "filters": 32, "strides": [1, 1], "kernel_regularizer": {"class_name": "L1L2", "config": {"l1": 0.0, "l2": 9.999999747378752e-05}}, "bias_constraint": null}, "class_name": "Conv2D", "inbound_nodes": [[["activation_50", 0, 0, {}]]], "name": "conv2d_52"}, {"config": {"gamma_constraint": null, "moving_variance_initializer": {"class_name": "Ones", "config": {}}, "beta_initializer": {"class_name": "Zeros", "config": {}}, "epsilon": 0.001, "trainable": true, "center": true, "momentum": 0.99, "name": "batch_normalization_51", "beta_regularizer": null, "gamma_regularizer": null, "scale": true, "gamma_initializer": {"class_name": "Ones", "config": {}}, "moving_mean_initializer": {"class_name": "Zeros", "config": {}}, "axis": -1, "beta_constraint": null}, "class_name": "BatchNormalization", "inbound_nodes": [[["conv2d_52", 0, 0, {}]]], "name": "batch_normalization_51"}, {"config": {"trainable": true, "name": "add_25"}, "class_name": "Add", "inbound_nodes": [[["activation_49", 0, 0, {}], ["batch_normalization_51", 0, 0, {}]]], "name": "add_25"}, {"config": {"trainable": true, "activation": "relu", "name": "activation_51"}, "class_name": "Activation", "inbound_nodes": [[["add_25", 0, 0, {}]]], "name": "activation_51"}, {"config": {"data_format": "channels_last", "trainable": true, "activation": "linear", "use_bias": true, "bias_initializer": {"class_name": "Zeros", "config": {}}, "kernel_size": [3, 3], "kernel_initializer": {"class_name": "VarianceScaling", "config": {"distribution": "uniform", "scale": 1.0, "seed": null, "mode": "fan_avg"}}, "name": "conv2d_53", "bias_regularizer": null, "activity_regularizer": null, "padding": "same", "dilation_rate": [1, 1], "kernel_constraint": null, "filters": 29, "strides": [1, 1], "kernel_regularizer": {"class_name": "L1L2", "config": {"l1": 0.0, "l2": 9.999999747378752e-05}}, "bias_constraint": null}, "class_name": "Conv2D", "inbound_nodes": [[["activation_51", 0, 0, {}]]], "name": "conv2d_53"}, {"config": {"gamma_constraint": null, "moving_variance_initializer": {"class_name": "Ones", "config": {}}, "beta_initializer": {"class_name": "Zeros", "config": {}}, "epsilon": 0.001, "trainable": true, "center": true, "momentum": 0.99, "name": "batch_normalization_52", "beta_regularizer": null, "gamma_regularizer": null, "scale": true, "gamma_initializer": {"class_name": "Ones", "config": {}}, "moving_mean_initializer": {"class_name": "Zeros", "config": {}}, "axis": -1, "beta_constraint": null}, "class_name": "BatchNormalization", "inbound_nodes": [[["conv2d_53", 0, 0, {}]]], "name": "batch_normalization_52"}, {"config": {"trainable": true, "activation": "relu", "name": "activation_52"}, "class_name": "Activation", "inbound_nodes": [[["batch_normalization_52", 0, 0, {}]]], "name": "activation_52"}, {"config": {"data_format": "channels_last", "trainable": true, "activation": "linear", "use_bias": true, "bias_initializer": {"class_name": "Zeros", "config": {}}, "kernel_size": [3, 3], "kernel_initializer": {"class_name": "VarianceScaling", "config": {"distribution": "uniform", "scale": 1.0, "seed": null, "mode": "fan_avg"}}, "name": "conv2d_54", "bias_regularizer": null, "activity_regularizer": null, "padding": "same", "dilation_rate": [1, 1], "kernel_constraint": null, "filters": 32, "strides": [1, 1], "kernel_regularizer": {"class_name": "L1L2", "config": {"l1": 0.0, "l2": 9.999999747378752e-05}}, "bias_constraint": null}, "class_name": "Conv2D", "inbound_nodes": [[["activation_52", 0, 0, {}]]], "name": "conv2d_54"}, {"config": {"gamma_constraint": null, "moving_variance_initializer": {"class_name": "Ones", "config": {}}, "beta_initializer": {"class_name": "Zeros", "config": {}}, "epsilon": 0.001, "trainable": true, "center": true, "momentum": 0.99, "name": "batch_normalization_53", "beta_regularizer": null, "gamma_regularizer": null, "scale": true, "gamma_initializer": {"class_name": "Ones", "config": {}}, "moving_mean_initializer": {"class_name": "Zeros", "config": {}}, "axis": -1, "beta_constraint": null}, "class_name": "BatchNormalization", "inbound_nodes": [[["conv2d_54", 0, 0, {}]]], "name": "batch_normalization_53"}, {"config": {"trainable": true, "name": "add_26"}, "class_name": "Add", "inbound_nodes": [[["activation_51", 0, 0, {}], ["batch_normalization_53", 0, 0, {}]]], "name": "add_26"}, {"config": {"trainable": true, "activation": "relu", "name": "activation_53"}, "class_name": "Activation", "inbound_nodes": [[["add_26", 0, 0, {}]]], "name": "activation_53"}, {"config": {"data_format": "channels_last", "trainable": true, "activation": "linear", "use_bias": true, "bias_initializer": {"class_name": "Zeros", "config": {}}, "kernel_size": [3, 3], "kernel_initializer": {"class_name": "VarianceScaling", "config": {"distribution": "uniform", "scale": 1.0, "seed": null, "mode": "fan_avg"}}, "name": "conv2d_55", "bias_regularizer": null, "activity_regularizer": null, "padding": "same", "dilation_rate": [1, 1], "kernel_constraint": null, "filters": 32, "strides": [1, 1], "kernel_regularizer": {"class_name": "L1L2", "config": {"l1": 0.0, "l2": 9.999999747378752e-05}}, "bias_constraint": null}, "class_name": "Conv2D", "inbound_nodes": [[["activation_53", 0, 0, {}]]], "name": "conv2d_55"}, {"config": {"gamma_constraint": null, "moving_variance_initializer": {"class_name": "Ones", "config": {}}, "beta_initializer": {"class_name": "Zeros", "config": {}}, "epsilon": 0.001, "trainable": true, "center": true, "momentum": 0.99, "name": "batch_normalization_54", "beta_regularizer": null, "gamma_regularizer": null, "scale": true, "gamma_initializer": {"class_name": "Ones", "config": {}}, "moving_mean_initializer": {"class_name": "Zeros", "config": {}}, "axis": -1, "beta_constraint": null}, "class_name": "BatchNormalization", "inbound_nodes": [[["conv2d_55", 0, 0, {}]]], "name": "batch_normalization_54"}, {"config": {"trainable": true, "activation": "relu", "name": "activation_54"}, "class_name": "Activation", "inbound_nodes": [[["batch_normalization_54", 0, 0, {}]]], "name": "activation_54"}, {"config": {"data_format": "channels_last", "trainable": true, "activation": "linear", "use_bias": true, "bias_initializer": {"class_name": "Zeros", "config": {}}, "kernel_size": [3, 3], "kernel_initializer": {"class_name": "VarianceScaling", "config": {"distribution": "uniform", "scale": 1.0, "seed": null, "mode": "fan_avg"}}, "name": "conv2d_56", "bias_regularizer": null, "activity_regularizer": null, "padding": "same", "dilation_rate": [1, 1], "kernel_constraint": null, "filters": 32, "strides": [1, 1], "kernel_regularizer": {"class_name": "L1L2", "config": {"l1": 0.0, "l2": 9.999999747378752e-05}}, "bias_constraint": null}, "class_name": "Conv2D", "inbound_nodes": [[["activation_54", 0, 0, {}]]], "name": "conv2d_56"}, {"config": {"gamma_constraint": null, "moving_variance_initializer": {"class_name": "Ones", "config": {}}, "beta_initializer": {"class_name": "Zeros", "config": {}}, "epsilon": 0.001, "trainable": true, "center": true, "momentum": 0.99, "name": "batch_normalization_55", "beta_regularizer": null, "gamma_regularizer": null, "scale": true, "gamma_initializer": {"class_name": "Ones", "config": {}}, "moving_mean_initializer": {"class_name": "Zeros", "config": {}}, "axis": -1, "beta_constraint": null}, "class_name": "BatchNormalization", "inbound_nodes": [[["conv2d_56", 0, 0, {}]]], "name": "batch_normalization_55"}, {"config": {"trainable": true, "name": "add_27"}, "class_name": "Add", "inbound_nodes": [[["activation_53", 0, 0, {}], ["batch_normalization_55", 0, 0, {}]]], "name": "add_27"}, {"config": {"trainable": true, "activation": "relu", "name": "activation_55"}, "class_name": "Activation", "inbound_nodes": [[["add_27", 0, 0, {}]]], "name": "activation_55"}, {"config": {"data_format": "channels_last", "trainable": true, "activation": "linear", "use_bias": true, "bias_initializer": {"class_name": "Zeros", "config": {}}, "kernel_size": [3, 3], "kernel_initializer": {"class_name": "VarianceScaling", "config": {"distribution": "uniform", "scale": 1.0, "seed": null, "mode": "fan_avg"}}, "name": "conv2d_57", "bias_regularizer": null, "activity_regularizer": null, "padding": "same", "dilation_rate": [1, 1], "kernel_constraint": null, "filters": 30, "strides": [1, 1], "kernel_regularizer": {"class_name": "L1L2", "config": {"l1": 0.0, "l2": 9.999999747378752e-05}}, "bias_constraint": null}, "class_name": "Conv2D", "inbound_nodes": [[["activation_55", 0, 0, {}]]], "name": "conv2d_57"}, {"config": {"gamma_constraint": null, "moving_variance_initializer": {"class_name": "Ones", "config": {}}, "beta_initializer": {"class_name": "Zeros", "config": {}}, "epsilon": 0.001, "trainable": true, "center": true, "momentum": 0.99, "name": "batch_normalization_56", "beta_regularizer": null, "gamma_regularizer": null, "scale": true, "gamma_initializer": {"class_name": "Ones", "config": {}}, "moving_mean_initializer": {"class_name": "Zeros", "config": {}}, "axis": -1, "beta_constraint": null}, "class_name": "BatchNormalization", "inbound_nodes": [[["conv2d_57", 0, 0, {}]]], "name": "batch_normalization_56"}, {"config": {"trainable": true, "activation": "relu", "name": "activation_56"}, "class_name": "Activation", "inbound_nodes": [[["batch_normalization_56", 0, 0, {}]]], "name": "activation_56"}, {"config": {"data_format": "channels_last", "trainable": true, "activation": "linear", "use_bias": true, "bias_initializer": {"class_name": "Zeros", "config": {}}, "kernel_size": [3, 3], "kernel_initializer": {"class_name": "VarianceScaling", "config": {"distribution": "uniform", "scale": 1.0, "seed": null, "mode": "fan_avg"}}, "name": "conv2d_58", "bias_regularizer": null, "activity_regularizer": null, "padding": "same", "dilation_rate": [1, 1], "kernel_constraint": null, "filters": 32, "strides": [1, 1], "kernel_regularizer": {"class_name": "L1L2", "config": {"l1": 0.0, "l2": 9.999999747378752e-05}}, "bias_constraint": null}, "class_name": "Conv2D", "inbound_nodes": [[["activation_56", 0, 0, {}]]], "name": "conv2d_58"}, {"config": {"gamma_constraint": null, "moving_variance_initializer": {"class_name": "Ones", "config": {}}, "beta_initializer": {"class_name": "Zeros", "config": {}}, "epsilon": 0.001, "trainable": true, "center": true, "momentum": 0.99, "name": "batch_normalization_57", "beta_regularizer": null, "gamma_regularizer": null, "scale": true, "gamma_initializer": {"class_name": "Ones", "config": {}}, "moving_mean_initializer": {"class_name": "Zeros", "config": {}}, "axis": -1, "beta_constraint": null}, "class_name": "BatchNormalization", "inbound_nodes": [[["conv2d_58", 0, 0, {}]]], "name": "batch_normalization_57"}, {"config": {"trainable": true, "name": "add_28"}, "class_name": "Add", "inbound_nodes": [[["activation_55", 0, 0, {}], ["batch_normalization_57", 0, 0, {}]]], "name": "add_28"}, {"config": {"trainable": true, "activation": "relu", "name": "activation_57"}, "class_name": "Activation", "inbound_nodes": [[["add_28", 0, 0, {}]]], "name": "activation_57"}, {"config": {"data_format": "channels_last", "trainable": true, "activation": "linear", "use_bias": true, "bias_initializer": {"class_name": "Zeros", "config": {}}, "kernel_size": [3, 3], "kernel_initializer": {"class_name": "VarianceScaling", "config": {"distribution": "uniform", "scale": 1.0, "seed": null, "mode": "fan_avg"}}, "name": "conv2d_59", "bias_regularizer": null, "activity_regularizer": null, "padding": "same", "dilation_rate": [1, 1], "kernel_constraint": null, "filters": 30, "strides": [1, 1], "kernel_regularizer": {"class_name": "L1L2", "config": {"l1": 0.0, "l2": 9.999999747378752e-05}}, "bias_constraint": null}, "class_name": "Conv2D", "inbound_nodes": [[["activation_57", 0, 0, {}]]], "name": "conv2d_59"}, {"config": {"gamma_constraint": null, "moving_variance_initializer": {"class_name": "Ones", "config": {}}, "beta_initializer": {"class_name": "Zeros", "config": {}}, "epsilon": 0.001, "trainable": true, "center": true, "momentum": 0.99, "name": "batch_normalization_58", "beta_regularizer": null, "gamma_regularizer": null, "scale": true, "gamma_initializer": {"class_name": "Ones", "config": {}}, "moving_mean_initializer": {"class_name": "Zeros", "config": {}}, "axis": -1, "beta_constraint": null}, "class_name": "BatchNormalization", "inbound_nodes": [[["conv2d_59", 0, 0, {}]]], "name": "batch_normalization_58"}, {"config": {"trainable": true, "activation": "relu", "name": "activation_58"}, "class_name": "Activation", "inbound_nodes": [[["batch_normalization_58", 0, 0, {}]]], "name": "activation_58"}, {"config": {"data_format": "channels_last", "trainable": true, "activation": "linear", "use_bias": true, "bias_initializer": {"class_name": "Zeros", "config": {}}, "kernel_size": [3, 3], "kernel_initializer": {"class_name": "VarianceScaling", "config": {"distribution": "uniform", "scale": 1.0, "seed": null, "mode": "fan_avg"}}, "name": "conv2d_60", "bias_regularizer": null, "activity_regularizer": null, "padding": "same", "dilation_rate": [1, 1], "kernel_constraint": null, "filters": 32, "strides": [1, 1], "kernel_regularizer": {"class_name": "L1L2", "config": {"l1": 0.0, "l2": 9.999999747378752e-05}}, "bias_constraint": null}, "class_name": "Conv2D", "inbound_nodes": [[["activation_58", 0, 0, {}]]], "name": "conv2d_60"}, {"config": {"gamma_constraint": null, "moving_variance_initializer": {"class_name": "Ones", "config": {}}, "beta_initializer": {"class_name": "Zeros", "config": {}}, "epsilon": 0.001, "trainable": true, "center": true, "momentum": 0.99, "name": "batch_normalization_59", "beta_regularizer": null, "gamma_regularizer": null, "scale": true, "gamma_initializer": {"class_name": "Ones", "config": {}}, "moving_mean_initializer": {"class_name": "Zeros", "config": {}}, "axis": -1, "beta_constraint": null}, "class_name": "BatchNormalization", "inbound_nodes": [[["conv2d_60", 0, 0, {}]]], "name": "batch_normalization_59"}, {"config": {"trainable": true, "name": "add_29"}, "class_name": "Add", "inbound_nodes": [[["activation_57", 0, 0, {}], ["batch_normalization_59", 0, 0, {}]]], "name": "add_29"}, {"config": {"trainable": true, "activation": "relu", "name": "activation_59"}, "class_name": "Activation", "inbound_nodes": [[["add_29", 0, 0, {}]]], "name": "activation_59"}, {"config": {"data_format": "channels_last", "trainable": true, "activation": "linear", "use_bias": true, "bias_initializer": {"class_name": "Zeros", "config": {}}, "kernel_size": [3, 3], "kernel_initializer": {"class_name": "VarianceScaling", "config": {"distribution": "uniform", "scale": 1.0, "seed": null, "mode": "fan_avg"}}, "name": "conv2d_61", "bias_regularizer": null, "activity_regularizer": null, "padding": "same", "dilation_rate": [1, 1], "kernel_constraint": null, "filters": 30, "strides": [1, 1], "kernel_regularizer": {"class_name": "L1L2", "config": {"l1": 0.0, "l2": 9.999999747378752e-05}}, "bias_constraint": null}, "class_name": "Conv2D", "inbound_nodes": [[["activation_59", 0, 0, {}]]], "name": "conv2d_61"}, {"config": {"gamma_constraint": null, "moving_variance_initializer": {"class_name": "Ones", "config": {}}, "beta_initializer": {"class_name": "Zeros", "config": {}}, "epsilon": 0.001, "trainable": true, "center": true, "momentum": 0.99, "name": "batch_normalization_60", "beta_regularizer": null, "gamma_regularizer": null, "scale": true, "gamma_initializer": {"class_name": "Ones", "config": {}}, "moving_mean_initializer": {"class_name": "Zeros", "config": {}}, "axis": -1, "beta_constraint": null}, "class_name": "BatchNormalization", "inbound_nodes": [[["conv2d_61", 0, 0, {}]]], "name": "batch_normalization_60"}, {"config": {"trainable": true, "activation": "relu", "name": "activation_60"}, "class_name": "Activation", "inbound_nodes": [[["batch_normalization_60", 0, 0, {}]]], "name": "activation_60"}, {"config": {"data_format": "channels_last", "trainable": true, "activation": "linear", "use_bias": true, "bias_initializer": {"class_name": "Zeros", "config": {}}, "kernel_size": [3, 3], "kernel_initializer": {"class_name": "VarianceScaling", "config": {"distribution": "uniform", "scale": 1.0, "seed": null, "mode": "fan_avg"}}, "name": "conv2d_62", "bias_regularizer": null, "activity_regularizer": null, "padding": "same", "dilation_rate": [1, 1], "kernel_constraint": null, "filters": 32, "strides": [1, 1], "kernel_regularizer": {"class_name": "L1L2", "config": {"l1": 0.0, "l2": 9.999999747378752e-05}}, "bias_constraint": null}, "class_name": "Conv2D", "inbound_nodes": [[["activation_60", 0, 0, {}]]], "name": "conv2d_62"}, {"config": {"gamma_constraint": null, "moving_variance_initializer": {"class_name": "Ones", "config": {}}, "beta_initializer": {"class_name": "Zeros", "config": {}}, "epsilon": 0.001, "trainable": true, "center": true, "momentum": 0.99, "name": "batch_normalization_61", "beta_regularizer": null, "gamma_regularizer": null, "scale": true, "gamma_initializer": {"class_name": "Ones", "config": {}}, "moving_mean_initializer": {"class_name": "Zeros", "config": {}}, "axis": -1, "beta_constraint": null}, "class_name": "BatchNormalization", "inbound_nodes": [[["conv2d_62", 0, 0, {}]]], "name": "batch_normalization_61"}, {"config": {"trainable": true, "name": "add_30"}, "class_name": "Add", "inbound_nodes": [[["activation_59", 0, 0, {}], ["batch_normalization_61", 0, 0, {}]]], "name": "add_30"}, {"config": {"trainable": true, "activation": "relu", "name": "activation_61"}, "class_name": "Activation", "inbound_nodes": [[["add_30", 0, 0, {}]]], "name": "activation_61"}, {"config": {"data_format": "channels_last", "trainable": true, "activation": "linear", "use_bias": true, "bias_initializer": {"class_name": "Zeros", "config": {}}, "kernel_size": [3, 3], "kernel_initializer": {"class_name": "VarianceScaling", "config": {"distribution": "uniform", "scale": 1.0, "seed": null, "mode": "fan_avg"}}, "name": "conv2d_63", "bias_regularizer": null, "activity_regularizer": null, "padding": "same", "dilation_rate": [1, 1], "kernel_constraint": null, "filters": 29, "strides": [1, 1], "kernel_regularizer": {"class_name": "L1L2", "config": {"l1": 0.0, "l2": 9.999999747378752e-05}}, "bias_constraint": null}, "class_name": "Conv2D", "inbound_nodes": [[["activation_61", 0, 0, {}]]], "name": "conv2d_63"}, {"config": {"gamma_constraint": null, "moving_variance_initializer": {"class_name": "Ones", "config": {}}, "beta_initializer": {"class_name": "Zeros", "config": {}}, "epsilon": 0.001, "trainable": true, "center": true, "momentum": 0.99, "name": "batch_normalization_62", "beta_regularizer": null, "gamma_regularizer": null, "scale": true, "gamma_initializer": {"class_name": "Ones", "config": {}}, "moving_mean_initializer": {"class_name": "Zeros", "config": {}}, "axis": -1, "beta_constraint": null}, "class_name": "BatchNormalization", "inbound_nodes": [[["conv2d_63", 0, 0, {}]]], "name": "batch_normalization_62"}, {"config": {"trainable": true, "activation": "relu", "name": "activation_62"}, "class_name": "Activation", "inbound_nodes": [[["batch_normalization_62", 0, 0, {}]]], "name": "activation_62"}, {"config": {"data_format": "channels_last", "trainable": true, "activation": "linear", "use_bias": true, "bias_initializer": {"class_name": "Zeros", "config": {}}, "kernel_size": [3, 3], "kernel_initializer": {"class_name": "VarianceScaling", "config": {"distribution": "uniform", "scale": 1.0, "seed": null, "mode": "fan_avg"}}, "name": "conv2d_64", "bias_regularizer": null, "activity_regularizer": null, "padding": "same", "dilation_rate": [1, 1], "kernel_constraint": null, "filters": 32, "strides": [1, 1], "kernel_regularizer": {"class_name": "L1L2", "config": {"l1": 0.0, "l2": 9.999999747378752e-05}}, "bias_constraint": null}, "class_name": "Conv2D", "inbound_nodes": [[["activation_62", 0, 0, {}]]], "name": "conv2d_64"}, {"config": {"gamma_constraint": null, "moving_variance_initializer": {"class_name": "Ones", "config": {}}, "beta_initializer": {"class_name": "Zeros", "config": {}}, "epsilon": 0.001, "trainable": true, "center": true, "momentum": 0.99, "name": "batch_normalization_63", "beta_regularizer": null, "gamma_regularizer": null, "scale": true, "gamma_initializer": {"class_name": "Ones", "config": {}}, "moving_mean_initializer": {"class_name": "Zeros", "config": {}}, "axis": -1, "beta_constraint": null}, "class_name": "BatchNormalization", "inbound_nodes": [[["conv2d_64", 0, 0, {}]]], "name": "batch_normalization_63"}, {"config": {"trainable": true, "name": "add_31"}, "class_name": "Add", "inbound_nodes": [[["activation_61", 0, 0, {}], ["batch_normalization_63", 0, 0, {}]]], "name": "add_31"}, {"config": {"trainable": true, "activation": "relu", "name": "activation_63"}, "class_name": "Activation", "inbound_nodes": [[["add_31", 0, 0, {}]]], "name": "activation_63"}, {"config": {"data_format": "channels_last", "trainable": true, "activation": "linear", "use_bias": true, "bias_initializer": {"class_name": "Zeros", "config": {}}, "kernel_size": [3, 3], "kernel_initializer": {"class_name": "VarianceScaling", "config": {"distribution": "uniform", "scale": 1.0, "seed": null, "mode": "fan_avg"}}, "name": "conv2d_65", "bias_regularizer": null, "activity_regularizer": null, "padding": "same", "dilation_rate": [1, 1], "kernel_constraint": null, "filters": 31, "strides": [1, 1], "kernel_regularizer": {"class_name": "L1L2", "config": {"l1": 0.0, "l2": 9.999999747378752e-05}}, "bias_constraint": null}, "class_name": "Conv2D", "inbound_nodes": [[["activation_63", 0, 0, {}]]], "name": "conv2d_65"}, {"config": {"gamma_constraint": null, "moving_variance_initializer": {"class_name": "Ones", "config": {}}, "beta_initializer": {"class_name": "Zeros", "config": {}}, "epsilon": 0.001, "trainable": true, "center": true, "momentum": 0.99, "name": "batch_normalization_64", "beta_regularizer": null, "gamma_regularizer": null, "scale": true, "gamma_initializer": {"class_name": "Ones", "config": {}}, "moving_mean_initializer": {"class_name": "Zeros", "config": {}}, "axis": -1, "beta_constraint": null}, "class_name": "BatchNormalization", "inbound_nodes": [[["conv2d_65", 0, 0, {}]]], "name": "batch_normalization_64"}, {"config": {"trainable": true, "activation": "relu", "name": "activation_64"}, "class_name": "Activation", "inbound_nodes": [[["batch_normalization_64", 0, 0, {}]]], "name": "activation_64"}, {"config": {"data_format": "channels_last", "trainable": true, "activation": "linear", "use_bias": true, "bias_initializer": {"class_name": "Zeros", "config": {}}, "kernel_size": [3, 3], "kernel_initializer": {"class_name": "VarianceScaling", "config": {"distribution": "uniform", "scale": 1.0, "seed": null, "mode": "fan_avg"}}, "name": "conv2d_66", "bias_regularizer": null, "activity_regularizer": null, "padding": "same", "dilation_rate": [1, 1], "kernel_constraint": null, "filters": 32, "strides": [1, 1], "kernel_regularizer": {"class_name": "L1L2", "config": {"l1": 0.0, "l2": 9.999999747378752e-05}}, "bias_constraint": null}, "class_name": "Conv2D", "inbound_nodes": [[["activation_64", 0, 0, {}]]], "name": "conv2d_66"}, {"config": {"gamma_constraint": null, "moving_variance_initializer": {"class_name": "Ones", "config": {}}, "beta_initializer": {"class_name": "Zeros", "config": {}}, "epsilon": 0.001, "trainable": true, "center": true, "momentum": 0.99, "name": "batch_normalization_65", "beta_regularizer": null, "gamma_regularizer": null, "scale": true, "gamma_initializer": {"class_name": "Ones", "config": {}}, "moving_mean_initializer": {"class_name": "Zeros", "config": {}}, "axis": -1, "beta_constraint": null}, "class_name": "BatchNormalization", "inbound_nodes": [[["conv2d_66", 0, 0, {}]]], "name": "batch_normalization_65"}, {"config": {"trainable": true, "name": "add_32"}, "class_name": "Add", "inbound_nodes": [[["activation_63", 0, 0, {}], ["batch_normalization_65", 0, 0, {}]]], "name": "add_32"}, {"config": {"trainable": true, "activation": "relu", "name": "activation_65"}, "class_name": "Activation", "inbound_nodes": [[["add_32", 0, 0, {}]]], "name": "activation_65"}, {"config": {"data_format": "channels_last", "trainable": true, "activation": "linear", "use_bias": true, "bias_initializer": {"class_name": "Zeros", "config": {}}, "kernel_size": [3, 3], "kernel_initializer": {"class_name": "VarianceScaling", "config": {"distribution": "uniform", "scale": 1.0, "seed": null, "mode": "fan_avg"}}, "name": "conv2d_67", "bias_regularizer": null, "activity_regularizer": null, "padding": "same", "dilation_rate": [1, 1], "kernel_constraint": null, "filters": 31, "strides": [1, 1], "kernel_regularizer": {"class_name": "L1L2", "config": {"l1": 0.0, "l2": 9.999999747378752e-05}}, "bias_constraint": null}, "class_name": "Conv2D", "inbound_nodes": [[["activation_65", 0, 0, {}]]], "name": "conv2d_67"}, {"config": {"gamma_constraint": null, "moving_variance_initializer": {"class_name": "Ones", "config": {}}, "beta_initializer": {"class_name": "Zeros", "config": {}}, "epsilon": 0.001, "trainable": true, "center": true, "momentum": 0.99, "name": "batch_normalization_66", "beta_regularizer": null, "gamma_regularizer": null, "scale": true, "gamma_initializer": {"class_name": "Ones", "config": {}}, "moving_mean_initializer": {"class_name": "Zeros", "config": {}}, "axis": -1, "beta_constraint": null}, "class_name": "BatchNormalization", "inbound_nodes": [[["conv2d_67", 0, 0, {}]]], "name": "batch_normalization_66"}, {"config": {"trainable": true, "activation": "relu", "name": "activation_66"}, "class_name": "Activation", "inbound_nodes": [[["batch_normalization_66", 0, 0, {}]]], "name": "activation_66"}, {"config": {"data_format": "channels_last", "trainable": true, "activation": "linear", "use_bias": true, "bias_initializer": {"class_name": "Zeros", "config": {}}, "kernel_size": [3, 3], "kernel_initializer": {"class_name": "VarianceScaling", "config": {"distribution": "uniform", "scale": 1.0, "seed": null, "mode": "fan_avg"}}, "name": "conv2d_68", "bias_regularizer": null, "activity_regularizer": null, "padding": "same", "dilation_rate": [1, 1], "kernel_constraint": null, "filters": 32, "strides": [1, 1], "kernel_regularizer": {"class_name": "L1L2", "config": {"l1": 0.0, "l2": 9.999999747378752e-05}}, "bias_constraint": null}, "class_name": "Conv2D", "inbound_nodes": [[["activation_66", 0, 0, {}]]], "name": "conv2d_68"}, {"config": {"gamma_constraint": null, "moving_variance_initializer": {"class_name": "Ones", "config": {}}, "beta_initializer": {"class_name": "Zeros", "config": {}}, "epsilon": 0.001, "trainable": true, "center": true, "momentum": 0.99, "name": "batch_normalization_67", "beta_regularizer": null, "gamma_regularizer": null, "scale": true, "gamma_initializer": {"class_name": "Ones", "config": {}}, "moving_mean_initializer": {"class_name": "Zeros", "config": {}}, "axis": -1, "beta_constraint": null}, "class_name": "BatchNormalization", "inbound_nodes": [[["conv2d_68", 0, 0, {}]]], "name": "batch_normalization_67"}, {"config": {"trainable": true, "name": "add_33"}, "class_name": "Add", "inbound_nodes": [[["activation_65", 0, 0, {}], ["batch_normalization_67", 0, 0, {}]]], "name": "add_33"}, {"config": {"trainable": true, "activation": "relu", "name": "activation_67"}, "class_name": "Activation", "inbound_nodes": [[["add_33", 0, 0, {}]]], "name": "activation_67"}, {"config": {"data_format": "channels_last", "trainable": true, "activation": "linear", "use_bias": true, "bias_initializer": {"class_name": "Zeros", "config": {}}, "kernel_size": [3, 3], "kernel_initializer": {"class_name": "VarianceScaling", "config": {"distribution": "uniform", "scale": 1.0, "seed": null, "mode": "fan_avg"}}, "name": "conv2d_69", "bias_regularizer": null, "activity_regularizer": null, "padding": "same", "dilation_rate": [1, 1], "kernel_constraint": null, "filters": 29, "strides": [1, 1], "kernel_regularizer": {"class_name": "L1L2", "config": {"l1": 0.0, "l2": 9.999999747378752e-05}}, "bias_constraint": null}, "class_name": "Conv2D", "inbound_nodes": [[["activation_67", 0, 0, {}]]], "name": "conv2d_69"}, {"config": {"gamma_constraint": null, "moving_variance_initializer": {"class_name": "Ones", "config": {}}, "beta_initializer": {"class_name": "Zeros", "config": {}}, "epsilon": 0.001, "trainable": true, "center": true, "momentum": 0.99, "name": "batch_normalization_68", "beta_regularizer": null, "gamma_regularizer": null, "scale": true, "gamma_initializer": {"class_name": "Ones", "config": {}}, "moving_mean_initializer": {"class_name": "Zeros", "config": {}}, "axis": -1, "beta_constraint": null}, "class_name": "BatchNormalization", "inbound_nodes": [[["conv2d_69", 0, 0, {}]]], "name": "batch_normalization_68"}, {"config": {"trainable": true, "activation": "relu", "name": "activation_68"}, "class_name": "Activation", "inbound_nodes": [[["batch_normalization_68", 0, 0, {}]]], "name": "activation_68"}, {"config": {"data_format": "channels_last", "trainable": true, "activation": "linear", "use_bias": true, "bias_initializer": {"class_name": "Zeros", "config": {}}, "kernel_size": [3, 3], "kernel_initializer": {"class_name": "VarianceScaling", "config": {"distribution": "uniform", "scale": 1.0, "seed": null, "mode": "fan_avg"}}, "name": "conv2d_70", "bias_regularizer": null, "activity_regularizer": null, "padding": "same", "dilation_rate": [1, 1], "kernel_constraint": null, "filters": 32, "strides": [1, 1], "kernel_regularizer": {"class_name": "L1L2", "config": {"l1": 0.0, "l2": 9.999999747378752e-05}}, "bias_constraint": null}, "class_name": "Conv2D", "inbound_nodes": [[["activation_68", 0, 0, {}]]], "name": "conv2d_70"}, {"config": {"gamma_constraint": null, "moving_variance_initializer": {"class_name": "Ones", "config": {}}, "beta_initializer": {"class_name": "Zeros", "config": {}}, "epsilon": 0.001, "trainable": true, "center": true, "momentum": 0.99, "name": "batch_normalization_69", "beta_regularizer": null, "gamma_regularizer": null, "scale": true, "gamma_initializer": {"class_name": "Ones", "config": {}}, "moving_mean_initializer": {"class_name": "Zeros", "config": {}}, "axis": -1, "beta_constraint": null}, "class_name": "BatchNormalization", "inbound_nodes": [[["conv2d_70", 0, 0, {}]]], "name": "batch_normalization_69"}, {"config": {"trainable": true, "name": "add_34"}, "class_name": "Add", "inbound_nodes": [[["activation_67", 0, 0, {}], ["batch_normalization_69", 0, 0, {}]]], "name": "add_34"}, {"config": {"trainable": true, "activation": "relu", "name": "activation_69"}, "class_name": "Activation", "inbound_nodes": [[["add_34", 0, 0, {}]]], "name": "activation_69"}, {"config": {"data_format": "channels_last", "trainable": true, "activation": "linear", "use_bias": true, "bias_initializer": {"class_name": "Zeros", "config": {}}, "kernel_size": [3, 3], "kernel_initializer": {"class_name": "VarianceScaling", "config": {"distribution": "uniform", "scale": 1.0, "seed": null, "mode": "fan_avg"}}, "name": "conv2d_71", "bias_regularizer": null, "activity_regularizer": null, "padding": "same", "dilation_rate": [1, 1], "kernel_constraint": null, "filters": 32, "strides": [1, 1], "kernel_regularizer": {"class_name": "L1L2", "config": {"l1": 0.0, "l2": 9.999999747378752e-05}}, "bias_constraint": null}, "class_name": "Conv2D", "inbound_nodes": [[["activation_69", 0, 0, {}]]], "name": "conv2d_71"}, {"config": {"gamma_constraint": null, "moving_variance_initializer": {"class_name": "Ones", "config": {}}, "beta_initializer": {"class_name": "Zeros", "config": {}}, "epsilon": 0.001, "trainable": true, "center": true, "momentum": 0.99, "name": "batch_normalization_70", "beta_regularizer": null, "gamma_regularizer": null, "scale": true, "gamma_initializer": {"class_name": "Ones", "config": {}}, "moving_mean_initializer": {"class_name": "Zeros", "config": {}}, "axis": -1, "beta_constraint": null}, "class_name": "BatchNormalization", "inbound_nodes": [[["conv2d_71", 0, 0, {}]]], "name": "batch_normalization_70"}, {"config": {"trainable": true, "activation": "relu", "name": "activation_70"}, "class_name": "Activation", "inbound_nodes": [[["batch_normalization_70", 0, 0, {}]]], "name": "activation_70"}, {"config": {"data_format": "channels_last", "trainable": true, "activation": "linear", "use_bias": true, "bias_initializer": {"class_name": "Zeros", "config": {}}, "kernel_size": [3, 3], "kernel_initializer": {"class_name": "VarianceScaling", "config": {"distribution": "uniform", "scale": 1.0, "seed": null, "mode": "fan_avg"}}, "name": "conv2d_72", "bias_regularizer": null, "activity_regularizer": null, "padding": "same", "dilation_rate": [1, 1], "kernel_constraint": null, "filters": 32, "strides": [1, 1], "kernel_regularizer": {"class_name": "L1L2", "config": {"l1": 0.0, "l2": 9.999999747378752e-05}}, "bias_constraint": null}, "class_name": "Conv2D", "inbound_nodes": [[["activation_70", 0, 0, {}]]], "name": "conv2d_72"}, {"config": {"gamma_constraint": null, "moving_variance_initializer": {"class_name": "Ones", "config": {}}, "beta_initializer": {"class_name": "Zeros", "config": {}}, "epsilon": 0.001, "trainable": true, "center": true, "momentum": 0.99, "name": "batch_normalization_71", "beta_regularizer": null, "gamma_regularizer": null, "scale": true, "gamma_initializer": {"class_name": "Ones", "config": {}}, "moving_mean_initializer": {"class_name": "Zeros", "config": {}}, "axis": -1, "beta_constraint": null}, "class_name": "BatchNormalization", "inbound_nodes": [[["conv2d_72", 0, 0, {}]]], "name": "batch_normalization_71"}, {"config": {"trainable": true, "name": "add_35"}, "class_name": "Add", "inbound_nodes": [[["activation_69", 0, 0, {}], ["batch_normalization_71", 0, 0, {}]]], "name": "add_35"}, {"config": {"trainable": true, "activation": "relu", "name": "activation_71"}, "class_name": "Activation", "inbound_nodes": [[["add_35", 0, 0, {}]]], "name": "activation_71"}, {"config": {"data_format": "channels_last", "trainable": true, "activation": "linear", "use_bias": true, "bias_initializer": {"class_name": "Zeros", "config": {}}, "kernel_size": [3, 3], "kernel_initializer": {"class_name": "VarianceScaling", "config": {"distribution": "uniform", "scale": 1.0, "seed": null, "mode": "fan_avg"}}, "name": "conv2d_73", "bias_regularizer": null, "activity_regularizer": null, "padding": "same", "dilation_rate": [1, 1], "kernel_constraint": null, "filters": 31, "strides": [1, 1], "kernel_regularizer": {"class_name": "L1L2", "config": {"l1": 0.0, "l2": 9.999999747378752e-05}}, "bias_constraint": null}, "class_name": "Conv2D", "inbound_nodes": [[["activation_71", 0, 0, {}]]], "name": "conv2d_73"}, {"config": {"gamma_constraint": null, "moving_variance_initializer": {"class_name": "Ones", "config": {}}, "beta_initializer": {"class_name": "Zeros", "config": {}}, "epsilon": 0.001, "trainable": true, "center": true, "momentum": 0.99, "name": "batch_normalization_72", "beta_regularizer": null, "gamma_regularizer": null, "scale": true, "gamma_initializer": {"class_name": "Ones", "config": {}}, "moving_mean_initializer": {"class_name": "Zeros", "config": {}}, "axis": -1, "beta_constraint": null}, "class_name": "BatchNormalization", "inbound_nodes": [[["conv2d_73", 0, 0, {}]]], "name": "batch_normalization_72"}, {"config": {"trainable": true, "activation": "relu", "name": "activation_72"}, "class_name": "Activation", "inbound_nodes": [[["batch_normalization_72", 0, 0, {}]]], "name": "activation_72"}, {"config": {"data_format": "channels_last", "trainable": true, "activation": "linear", "use_bias": true, "bias_initializer": {"class_name": "Zeros", "config": {}}, "kernel_size": [3, 3], "kernel_initializer": {"class_name": "VarianceScaling", "config": {"distribution": "uniform", "scale": 1.0, "seed": null, "mode": "fan_avg"}}, "name": "conv2d_74", "bias_regularizer": null, "activity_regularizer": null, "padding": "same", "dilation_rate": [1, 1], "kernel_constraint": null, "filters": 32, "strides": [1, 1], "kernel_regularizer": {"class_name": "L1L2", "config": {"l1": 0.0, "l2": 9.999999747378752e-05}}, "bias_constraint": null}, "class_name": "Conv2D", "inbound_nodes": [[["activation_72", 0, 0, {}]]], "name": "conv2d_74"}, {"config": {"gamma_constraint": null, "moving_variance_initializer": {"class_name": "Ones", "config": {}}, "beta_initializer": {"class_name": "Zeros", "config": {}}, "epsilon": 0.001, "trainable": true, "center": true, "momentum": 0.99, "name": "batch_normalization_73", "beta_regularizer": null, "gamma_regularizer": null, "scale": true, "gamma_initializer": {"class_name": "Ones", "config": {}}, "moving_mean_initializer": {"class_name": "Zeros", "config": {}}, "axis": -1, "beta_constraint": null}, "class_name": "BatchNormalization", "inbound_nodes": [[["conv2d_74", 0, 0, {}]]], "name": "batch_normalization_73"}, {"config": {"trainable": true, "name": "add_36"}, "class_name": "Add", "inbound_nodes": [[["activation_71", 0, 0, {}], ["batch_normalization_73", 0, 0, {}]]], "name": "add_36"}, {"config": {"trainable": true, "activation": "relu", "name": "activation_73"}, "class_name": "Activation", "inbound_nodes": [[["add_36", 0, 0, {}]]], "name": "activation_73"}, {"config": {"data_format": "channels_last", "trainable": true, "activation": "linear", "use_bias": true, "bias_initializer": {"class_name": "Zeros", "config": {}}, "kernel_size": [3, 3], "kernel_initializer": {"class_name": "VarianceScaling", "config": {"distribution": "uniform", "scale": 1.0, "seed": null, "mode": "fan_avg"}}, "name": "conv2d_75", "bias_regularizer": null, "activity_regularizer": null, "padding": "same", "dilation_rate": [1, 1], "kernel_constraint": null, "filters": 57, "strides": [2, 2], "kernel_regularizer": {"class_name": "L1L2", "config": {"l1": 0.0, "l2": 9.999999747378752e-05}}, "bias_constraint": null}, "class_name": "Conv2D", "inbound_nodes": [[["activation_73", 0, 0, {}]]], "name": "conv2d_75"}, {"config": {"gamma_constraint": null, "moving_variance_initializer": {"class_name": "Ones", "config": {}}, "beta_initializer": {"class_name": "Zeros", "config": {}}, "epsilon": 0.001, "trainable": true, "center": true, "momentum": 0.99, "name": "batch_normalization_74", "beta_regularizer": null, "gamma_regularizer": null, "scale": true, "gamma_initializer": {"class_name": "Ones", "config": {}}, "moving_mean_initializer": {"class_name": "Zeros", "config": {}}, "axis": -1, "beta_constraint": null}, "class_name": "BatchNormalization", "inbound_nodes": [[["conv2d_75", 0, 0, {}]]], "name": "batch_normalization_74"}, {"config": {"trainable": true, "activation": "relu", "name": "activation_74"}, "class_name": "Activation", "inbound_nodes": [[["batch_normalization_74", 0, 0, {}]]], "name": "activation_74"}, {"config": {"data_format": "channels_last", "trainable": true, "activation": "linear", "use_bias": true, "bias_initializer": {"class_name": "Zeros", "config": {}}, "kernel_size": [3, 3], "kernel_initializer": {"class_name": "VarianceScaling", "config": {"distribution": "uniform", "scale": 1.0, "seed": null, "mode": "fan_avg"}}, "name": "conv2d_76", "bias_regularizer": null, "activity_regularizer": null, "padding": "same", "dilation_rate": [1, 1], "kernel_constraint": null, "filters": 64, "strides": [1, 1], "kernel_regularizer": {"class_name": "L1L2", "config": {"l1": 0.0, "l2": 9.999999747378752e-05}}, "bias_constraint": null}, "class_name": "Conv2D", "inbound_nodes": [[["activation_74", 0, 0, {}]]], "name": "conv2d_76"}, {"config": {"data_format": "channels_last", "trainable": true, "activation": "linear", "use_bias": true, "bias_initializer": {"class_name": "Zeros", "config": {}}, "kernel_size": [1, 1], "kernel_initializer": {"class_name": "VarianceScaling", "config": {"distribution": "uniform", "scale": 1.0, "seed": null, "mode": "fan_avg"}}, "name": "conv2d_77", "bias_regularizer": null, "activity_regularizer": null, "padding": "same", "dilation_rate": [1, 1], "kernel_constraint": null, "filters": 64, "strides": [2, 2], "kernel_regularizer": {"class_name": "L1L2", "config": {"l1": 0.0, "l2": 9.999999747378752e-05}}, "bias_constraint": null}, "class_name": "Conv2D", "inbound_nodes": [[["activation_73", 0, 0, {}]]], "name": "conv2d_77"}, {"config": {"gamma_constraint": null, "moving_variance_initializer": {"class_name": "Ones", "config": {}}, "beta_initializer": {"class_name": "Zeros", "config": {}}, "epsilon": 0.001, "trainable": true, "center": true, "momentum": 0.99, "name": "batch_normalization_75", "beta_regularizer": null, "gamma_regularizer": null, "scale": true, "gamma_initializer": {"class_name": "Ones", "config": {}}, "moving_mean_initializer": {"class_name": "Zeros", "config": {}}, "axis": -1, "beta_constraint": null}, "class_name": "BatchNormalization", "inbound_nodes": [[["conv2d_76", 0, 0, {}]]], "name": "batch_normalization_75"}, {"config": {"trainable": true, "name": "add_37"}, "class_name": "Add", "inbound_nodes": [[["conv2d_77", 0, 0, {}], ["batch_normalization_75", 0, 0, {}]]], "name": "add_37"}, {"config": {"trainable": true, "activation": "relu", "name": "activation_75"}, "class_name": "Activation", "inbound_nodes": [[["add_37", 0, 0, {}]]], "name": "activation_75"}, {"config": {"data_format": "channels_last", "trainable": true, "activation": "linear", "use_bias": true, "bias_initializer": {"class_name": "Zeros", "config": {}}, "kernel_size": [3, 3], "kernel_initializer": {"class_name": "VarianceScaling", "config": {"distribution": "uniform", "scale": 1.0, "seed": null, "mode": "fan_avg"}}, "name": "conv2d_78", "bias_regularizer": null, "activity_regularizer": null, "padding": "same", "dilation_rate": [1, 1], "kernel_constraint": null, "filters": 60, "strides": [1, 1], "kernel_regularizer": {"class_name": "L1L2", "config": {"l1": 0.0, "l2": 9.999999747378752e-05}}, "bias_constraint": null}, "class_name": "Conv2D", "inbound_nodes": [[["activation_75", 0, 0, {}]]], "name": "conv2d_78"}, {"config": {"gamma_constraint": null, "moving_variance_initializer": {"class_name": "Ones", "config": {}}, "beta_initializer": {"class_name": "Zeros", "config": {}}, "epsilon": 0.001, "trainable": true, "center": true, "momentum": 0.99, "name": "batch_normalization_76", "beta_regularizer": null, "gamma_regularizer": null, "scale": true, "gamma_initializer": {"class_name": "Ones", "config": {}}, "moving_mean_initializer": {"class_name": "Zeros", "config": {}}, "axis": -1, "beta_constraint": null}, "class_name": "BatchNormalization", "inbound_nodes": [[["conv2d_78", 0, 0, {}]]], "name": "batch_normalization_76"}, {"config": {"trainable": true, "activation": "relu", "name": "activation_76"}, "class_name": "Activation", "inbound_nodes": [[["batch_normalization_76", 0, 0, {}]]], "name": "activation_76"}, {"config": {"data_format": "channels_last", "trainable": true, "activation": "linear", "use_bias": true, "bias_initializer": {"class_name": "Zeros", "config": {}}, "kernel_size": [3, 3], "kernel_initializer": {"class_name": "VarianceScaling", "config": {"distribution": "uniform", "scale": 1.0, "seed": null, "mode": "fan_avg"}}, "name": "conv2d_79", "bias_regularizer": null, "activity_regularizer": null, "padding": "same", "dilation_rate": [1, 1], "kernel_constraint": null, "filters": 64, "strides": [1, 1], "kernel_regularizer": {"class_name": "L1L2", "config": {"l1": 0.0, "l2": 9.999999747378752e-05}}, "bias_constraint": null}, "class_name": "Conv2D", "inbound_nodes": [[["activation_76", 0, 0, {}]]], "name": "conv2d_79"}, {"config": {"gamma_constraint": null, "moving_variance_initializer": {"class_name": "Ones", "config": {}}, "beta_initializer": {"class_name": "Zeros", "config": {}}, "epsilon": 0.001, "trainable": true, "center": true, "momentum": 0.99, "name": "batch_normalization_77", "beta_regularizer": null, "gamma_regularizer": null, "scale": true, "gamma_initializer": {"class_name": "Ones", "config": {}}, "moving_mean_initializer": {"class_name": "Zeros", "config": {}}, "axis": -1, "beta_constraint": null}, "class_name": "BatchNormalization", "inbound_nodes": [[["conv2d_79", 0, 0, {}]]], "name": "batch_normalization_77"}, {"config": {"trainable": true, "name": "add_38"}, "class_name": "Add", "inbound_nodes": [[["activation_75", 0, 0, {}], ["batch_normalization_77", 0, 0, {}]]], "name": "add_38"}, {"config": {"trainable": true, "activation": "relu", "name": "activation_77"}, "class_name": "Activation", "inbound_nodes": [[["add_38", 0, 0, {}]]], "name": "activation_77"}, {"config": {"data_format": "channels_last", "trainable": true, "activation": "linear", "use_bias": true, "bias_initializer": {"class_name": "Zeros", "config": {}}, "kernel_size": [3, 3], "kernel_initializer": {"class_name": "VarianceScaling", "config": {"distribution": "uniform", "scale": 1.0, "seed": null, "mode": "fan_avg"}}, "name": "conv2d_80", "bias_regularizer": null, "activity_regularizer": null, "padding": "same", "dilation_rate": [1, 1], "kernel_constraint": null, "filters": 57, "strides": [1, 1], "kernel_regularizer": {"class_name": "L1L2", "config": {"l1": 0.0, "l2": 9.999999747378752e-05}}, "bias_constraint": null}, "class_name": "Conv2D", "inbound_nodes": [[["activation_77", 0, 0, {}]]], "name": "conv2d_80"}, {"config": {"gamma_constraint": null, "moving_variance_initializer": {"class_name": "Ones", "config": {}}, "beta_initializer": {"class_name": "Zeros", "config": {}}, "epsilon": 0.001, "trainable": true, "center": true, "momentum": 0.99, "name": "batch_normalization_78", "beta_regularizer": null, "gamma_regularizer": null, "scale": true, "gamma_initializer": {"class_name": "Ones", "config": {}}, "moving_mean_initializer": {"class_name": "Zeros", "config": {}}, "axis": -1, "beta_constraint": null}, "class_name": "BatchNormalization", "inbound_nodes": [[["conv2d_80", 0, 0, {}]]], "name": "batch_normalization_78"}, {"config": {"trainable": true, "activation": "relu", "name": "activation_78"}, "class_name": "Activation", "inbound_nodes": [[["batch_normalization_78", 0, 0, {}]]], "name": "activation_78"}, {"config": {"data_format": "channels_last", "trainable": true, "activation": "linear", "use_bias": true, "bias_initializer": {"class_name": "Zeros", "config": {}}, "kernel_size": [3, 3], "kernel_initializer": {"class_name": "VarianceScaling", "config": {"distribution": "uniform", "scale": 1.0, "seed": null, "mode": "fan_avg"}}, "name": "conv2d_81", "bias_regularizer": null, "activity_regularizer": null, "padding": "same", "dilation_rate": [1, 1], "kernel_constraint": null, "filters": 64, "strides": [1, 1], "kernel_regularizer": {"class_name": "L1L2", "config": {"l1": 0.0, "l2": 9.999999747378752e-05}}, "bias_constraint": null}, "class_name": "Conv2D", "inbound_nodes": [[["activation_78", 0, 0, {}]]], "name": "conv2d_81"}, {"config": {"gamma_constraint": null, "moving_variance_initializer": {"class_name": "Ones", "config": {}}, "beta_initializer": {"class_name": "Zeros", "config": {}}, "epsilon": 0.001, "trainable": true, "center": true, "momentum": 0.99, "name": "batch_normalization_79", "beta_regularizer": null, "gamma_regularizer": null, "scale": true, "gamma_initializer": {"class_name": "Ones", "config": {}}, "moving_mean_initializer": {"class_name": "Zeros", "config": {}}, "axis": -1, "beta_constraint": null}, "class_name": "BatchNormalization", "inbound_nodes": [[["conv2d_81", 0, 0, {}]]], "name": "batch_normalization_79"}, {"config": {"trainable": true, "name": "add_39"}, "class_name": "Add", "inbound_nodes": [[["activation_77", 0, 0, {}], ["batch_normalization_79", 0, 0, {}]]], "name": "add_39"}, {"config": {"trainable": true, "activation": "relu", "name": "activation_79"}, "class_name": "Activation", "inbound_nodes": [[["add_39", 0, 0, {}]]], "name": "activation_79"}, {"config": {"data_format": "channels_last", "trainable": true, "activation": "linear", "use_bias": true, "bias_initializer": {"class_name": "Zeros", "config": {}}, "kernel_size": [3, 3], "kernel_initializer": {"class_name": "VarianceScaling", "config": {"distribution": "uniform", "scale": 1.0, "seed": null, "mode": "fan_avg"}}, "name": "conv2d_82", "bias_regularizer": null, "activity_regularizer": null, "padding": "same", "dilation_rate": [1, 1], "kernel_constraint": null, "filters": 57, "strides": [1, 1], "kernel_regularizer": {"class_name": "L1L2", "config": {"l1": 0.0, "l2": 9.999999747378752e-05}}, "bias_constraint": null}, "class_name": "Conv2D", "inbound_nodes": [[["activation_79", 0, 0, {}]]], "name": "conv2d_82"}, {"config": {"gamma_constraint": null, "moving_variance_initializer": {"class_name": "Ones", "config": {}}, "beta_initializer": {"class_name": "Zeros", "config": {}}, "epsilon": 0.001, "trainable": true, "center": true, "momentum": 0.99, "name": "batch_normalization_80", "beta_regularizer": null, "gamma_regularizer": null, "scale": true, "gamma_initializer": {"class_name": "Ones", "config": {}}, "moving_mean_initializer": {"class_name": "Zeros", "config": {}}, "axis": -1, "beta_constraint": null}, "class_name": "BatchNormalization", "inbound_nodes": [[["conv2d_82", 0, 0, {}]]], "name": "batch_normalization_80"}, {"config": {"trainable": true, "activation": "relu", "name": "activation_80"}, "class_name": "Activation", "inbound_nodes": [[["batch_normalization_80", 0, 0, {}]]], "name": "activation_80"}, {"config": {"data_format": "channels_last", "trainable": true, "activation": "linear", "use_bias": true, "bias_initializer": {"class_name": "Zeros", "config": {}}, "kernel_size": [3, 3], "kernel_initializer": {"class_name": "VarianceScaling", "config": {"distribution": "uniform", "scale": 1.0, "seed": null, "mode": "fan_avg"}}, "name": "conv2d_83", "bias_regularizer": null, "activity_regularizer": null, "padding": "same", "dilation_rate": [1, 1], "kernel_constraint": null, "filters": 64, "strides": [1, 1], "kernel_regularizer": {"class_name": "L1L2", "config": {"l1": 0.0, "l2": 9.999999747378752e-05}}, "bias_constraint": null}, "class_name": "Conv2D", "inbound_nodes": [[["activation_80", 0, 0, {}]]], "name": "conv2d_83"}, {"config": {"gamma_constraint": null, "moving_variance_initializer": {"class_name": "Ones", "config": {}}, "beta_initializer": {"class_name": "Zeros", "config": {}}, "epsilon": 0.001, "trainable": true, "center": true, "momentum": 0.99, "name": "batch_normalization_81", "beta_regularizer": null, "gamma_regularizer": null, "scale": true, "gamma_initializer": {"class_name": "Ones", "config": {}}, "moving_mean_initializer": {"class_name": "Zeros", "config": {}}, "axis": -1, "beta_constraint": null}, "class_name": "BatchNormalization", "inbound_nodes": [[["conv2d_83", 0, 0, {}]]], "name": "batch_normalization_81"}, {"config": {"trainable": true, "name": "add_40"}, "class_name": "Add", "inbound_nodes": [[["activation_79", 0, 0, {}], ["batch_normalization_81", 0, 0, {}]]], "name": "add_40"}, {"config": {"trainable": true, "activation": "relu", "name": "activation_81"}, "class_name": "Activation", "inbound_nodes": [[["add_40", 0, 0, {}]]], "name": "activation_81"}, {"config": {"data_format": "channels_last", "trainable": true, "activation": "linear", "use_bias": true, "bias_initializer": {"class_name": "Zeros", "config": {}}, "kernel_size": [3, 3], "kernel_initializer": {"class_name": "VarianceScaling", "config": {"distribution": "uniform", "scale": 1.0, "seed": null, "mode": "fan_avg"}}, "name": "conv2d_84", "bias_regularizer": null, "activity_regularizer": null, "padding": "same", "dilation_rate": [1, 1], "kernel_constraint": null, "filters": 49, "strides": [1, 1], "kernel_regularizer": {"class_name": "L1L2", "config": {"l1": 0.0, "l2": 9.999999747378752e-05}}, "bias_constraint": null}, "class_name": "Conv2D", "inbound_nodes": [[["activation_81", 0, 0, {}]]], "name": "conv2d_84"}, {"config": {"gamma_constraint": null, "moving_variance_initializer": {"class_name": "Ones", "config": {}}, "beta_initializer": {"class_name": "Zeros", "config": {}}, "epsilon": 0.001, "trainable": true, "center": true, "momentum": 0.99, "name": "batch_normalization_82", "beta_regularizer": null, "gamma_regularizer": null, "scale": true, "gamma_initializer": {"class_name": "Ones", "config": {}}, "moving_mean_initializer": {"class_name": "Zeros", "config": {}}, "axis": -1, "beta_constraint": null}, "class_name": "BatchNormalization", "inbound_nodes": [[["conv2d_84", 0, 0, {}]]], "name": "batch_normalization_82"}, {"config": {"trainable": true, "activation": "relu", "name": "activation_82"}, "class_name": "Activation", "inbound_nodes": [[["batch_normalization_82", 0, 0, {}]]], "name": "activation_82"}, {"config": {"data_format": "channels_last", "trainable": true, "activation": "linear", "use_bias": true, "bias_initializer": {"class_name": "Zeros", "config": {}}, "kernel_size": [3, 3], "kernel_initializer": {"class_name": "VarianceScaling", "config": {"distribution": "uniform", "scale": 1.0, "seed": null, "mode": "fan_avg"}}, "name": "conv2d_85", "bias_regularizer": null, "activity_regularizer": null, "padding": "same", "dilation_rate": [1, 1], "kernel_constraint": null, "filters": 64, "strides": [1, 1], "kernel_regularizer": {"class_name": "L1L2", "config": {"l1": 0.0, "l2": 9.999999747378752e-05}}, "bias_constraint": null}, "class_name": "Conv2D", "inbound_nodes": [[["activation_82", 0, 0, {}]]], "name": "conv2d_85"}, {"config": {"gamma_constraint": null, "moving_variance_initializer": {"class_name": "Ones", "config": {}}, "beta_initializer": {"class_name": "Zeros", "config": {}}, "epsilon": 0.001, "trainable": true, "center": true, "momentum": 0.99, "name": "batch_normalization_83", "beta_regularizer": null, "gamma_regularizer": null, "scale": true, "gamma_initializer": {"class_name": "Ones", "config": {}}, "moving_mean_initializer": {"class_name": "Zeros", "config": {}}, "axis": -1, "beta_constraint": null}, "class_name": "BatchNormalization", "inbound_nodes": [[["conv2d_85", 0, 0, {}]]], "name": "batch_normalization_83"}, {"config": {"trainable": true, "name": "add_41"}, "class_name": "Add", "inbound_nodes": [[["activation_81", 0, 0, {}], ["batch_normalization_83", 0, 0, {}]]], "name": "add_41"}, {"config": {"trainable": true, "activation": "relu", "name": "activation_83"}, "class_name": "Activation", "inbound_nodes": [[["add_41", 0, 0, {}]]], "name": "activation_83"}, {"config": {"data_format": "channels_last", "trainable": true, "activation": "linear", "use_bias": true, "bias_initializer": {"class_name": "Zeros", "config": {}}, "kernel_size": [3, 3], "kernel_initializer": {"class_name": "VarianceScaling", "config": {"distribution": "uniform", "scale": 1.0, "seed": null, "mode": "fan_avg"}}, "name": "conv2d_86", "bias_regularizer": null, "activity_regularizer": null, "padding": "same", "dilation_rate": [1, 1], "kernel_constraint": null, "filters": 48, "strides": [1, 1], "kernel_regularizer": {"class_name": "L1L2", "config": {"l1": 0.0, "l2": 9.999999747378752e-05}}, "bias_constraint": null}, "class_name": "Conv2D", "inbound_nodes": [[["activation_83", 0, 0, {}]]], "name": "conv2d_86"}, {"config": {"gamma_constraint": null, "moving_variance_initializer": {"class_name": "Ones", "config": {}}, "beta_initializer": {"class_name": "Zeros", "config": {}}, "epsilon": 0.001, "trainable": true, "center": true, "momentum": 0.99, "name": "batch_normalization_84", "beta_regularizer": null, "gamma_regularizer": null, "scale": true, "gamma_initializer": {"class_name": "Ones", "config": {}}, "moving_mean_initializer": {"class_name": "Zeros", "config": {}}, "axis": -1, "beta_constraint": null}, "class_name": "BatchNormalization", "inbound_nodes": [[["conv2d_86", 0, 0, {}]]], "name": "batch_normalization_84"}, {"config": {"trainable": true, "activation": "relu", "name": "activation_84"}, "class_name": "Activation", "inbound_nodes": [[["batch_normalization_84", 0, 0, {}]]], "name": "activation_84"}, {"config": {"data_format": "channels_last", "trainable": true, "activation": "linear", "use_bias": true, "bias_initializer": {"class_name": "Zeros", "config": {}}, "kernel_size": [3, 3], "kernel_initializer": {"class_name": "VarianceScaling", "config": {"distribution": "uniform", "scale": 1.0, "seed": null, "mode": "fan_avg"}}, "name": "conv2d_87", "bias_regularizer": null, "activity_regularizer": null, "padding": "same", "dilation_rate": [1, 1], "kernel_constraint": null, "filters": 64, "strides": [1, 1], "kernel_regularizer": {"class_name": "L1L2", "config": {"l1": 0.0, "l2": 9.999999747378752e-05}}, "bias_constraint": null}, "class_name": "Conv2D", "inbound_nodes": [[["activation_84", 0, 0, {}]]], "name": "conv2d_87"}, {"config": {"gamma_constraint": null, "moving_variance_initializer": {"class_name": "Ones", "config": {}}, "beta_initializer": {"class_name": "Zeros", "config": {}}, "epsilon": 0.001, "trainable": true, "center": true, "momentum": 0.99, "name": "batch_normalization_85", "beta_regularizer": null, "gamma_regularizer": null, "scale": true, "gamma_initializer": {"class_name": "Ones", "config": {}}, "moving_mean_initializer": {"class_name": "Zeros", "config": {}}, "axis": -1, "beta_constraint": null}, "class_name": "BatchNormalization", "inbound_nodes": [[["conv2d_87", 0, 0, {}]]], "name": "batch_normalization_85"}, {"config": {"trainable": true, "name": "add_42"}, "class_name": "Add", "inbound_nodes": [[["activation_83", 0, 0, {}], ["batch_normalization_85", 0, 0, {}]]], "name": "add_42"}, {"config": {"trainable": true, "activation": "relu", "name": "activation_85"}, "class_name": "Activation", "inbound_nodes": [[["add_42", 0, 0, {}]]], "name": "activation_85"}, {"config": {"data_format": "channels_last", "trainable": true, "activation": "linear", "use_bias": true, "bias_initializer": {"class_name": "Zeros", "config": {}}, "kernel_size": [3, 3], "kernel_initializer": {"class_name": "VarianceScaling", "config": {"distribution": "uniform", "scale": 1.0, "seed": null, "mode": "fan_avg"}}, "name": "conv2d_88", "bias_regularizer": null, "activity_regularizer": null, "padding": "same", "dilation_rate": [1, 1], "kernel_constraint": null, "filters": 59, "strides": [1, 1], "kernel_regularizer": {"class_name": "L1L2", "config": {"l1": 0.0, "l2": 9.999999747378752e-05}}, "bias_constraint": null}, "class_name": "Conv2D", "inbound_nodes": [[["activation_85", 0, 0, {}]]], "name": "conv2d_88"}, {"config": {"gamma_constraint": null, "moving_variance_initializer": {"class_name": "Ones", "config": {}}, "beta_initializer": {"class_name": "Zeros", "config": {}}, "epsilon": 0.001, "trainable": true, "center": true, "momentum": 0.99, "name": "batch_normalization_86", "beta_regularizer": null, "gamma_regularizer": null, "scale": true, "gamma_initializer": {"class_name": "Ones", "config": {}}, "moving_mean_initializer": {"class_name": "Zeros", "config": {}}, "axis": -1, "beta_constraint": null}, "class_name": "BatchNormalization", "inbound_nodes": [[["conv2d_88", 0, 0, {}]]], "name": "batch_normalization_86"}, {"config": {"trainable": true, "activation": "relu", "name": "activation_86"}, "class_name": "Activation", "inbound_nodes": [[["batch_normalization_86", 0, 0, {}]]], "name": "activation_86"}, {"config": {"data_format": "channels_last", "trainable": true, "activation": "linear", "use_bias": true, "bias_initializer": {"class_name": "Zeros", "config": {}}, "kernel_size": [3, 3], "kernel_initializer": {"class_name": "VarianceScaling", "config": {"distribution": "uniform", "scale": 1.0, "seed": null, "mode": "fan_avg"}}, "name": "conv2d_89", "bias_regularizer": null, "activity_regularizer": null, "padding": "same", "dilation_rate": [1, 1], "kernel_constraint": null, "filters": 64, "strides": [1, 1], "kernel_regularizer": {"class_name": "L1L2", "config": {"l1": 0.0, "l2": 9.999999747378752e-05}}, "bias_constraint": null}, "class_name": "Conv2D", "inbound_nodes": [[["activation_86", 0, 0, {}]]], "name": "conv2d_89"}, {"config": {"gamma_constraint": null, "moving_variance_initializer": {"class_name": "Ones", "config": {}}, "beta_initializer": {"class_name": "Zeros", "config": {}}, "epsilon": 0.001, "trainable": true, "center": true, "momentum": 0.99, "name": "batch_normalization_87", "beta_regularizer": null, "gamma_regularizer": null, "scale": true, "gamma_initializer": {"class_name": "Ones", "config": {}}, "moving_mean_initializer": {"class_name": "Zeros", "config": {}}, "axis": -1, "beta_constraint": null}, "class_name": "BatchNormalization", "inbound_nodes": [[["conv2d_89", 0, 0, {}]]], "name": "batch_normalization_87"}, {"config": {"trainable": true, "name": "add_43"}, "class_name": "Add", "inbound_nodes": [[["activation_85", 0, 0, {}], ["batch_normalization_87", 0, 0, {}]]], "name": "add_43"}, {"config": {"trainable": true, "activation": "relu", "name": "activation_87"}, "class_name": "Activation", "inbound_nodes": [[["add_43", 0, 0, {}]]], "name": "activation_87"}, {"config": {"data_format": "channels_last", "trainable": true, "activation": "linear", "use_bias": true, "bias_initializer": {"class_name": "Zeros", "config": {}}, "kernel_size": [3, 3], "kernel_initializer": {"class_name": "VarianceScaling", "config": {"distribution": "uniform", "scale": 1.0, "seed": null, "mode": "fan_avg"}}, "name": "conv2d_90", "bias_regularizer": null, "activity_regularizer": null, "padding": "same", "dilation_rate": [1, 1], "kernel_constraint": null, "filters": 47, "strides": [1, 1], "kernel_regularizer": {"class_name": "L1L2", "config": {"l1": 0.0, "l2": 9.999999747378752e-05}}, "bias_constraint": null}, "class_name": "Conv2D", "inbound_nodes": [[["activation_87", 0, 0, {}]]], "name": "conv2d_90"}, {"config": {"gamma_constraint": null, "moving_variance_initializer": {"class_name": "Ones", "config": {}}, "beta_initializer": {"class_name": "Zeros", "config": {}}, "epsilon": 0.001, "trainable": true, "center": true, "momentum": 0.99, "name": "batch_normalization_88", "beta_regularizer": null, "gamma_regularizer": null, "scale": true, "gamma_initializer": {"class_name": "Ones", "config": {}}, "moving_mean_initializer": {"class_name": "Zeros", "config": {}}, "axis": -1, "beta_constraint": null}, "class_name": "BatchNormalization", "inbound_nodes": [[["conv2d_90", 0, 0, {}]]], "name": "batch_normalization_88"}, {"config": {"trainable": true, "activation": "relu", "name": "activation_88"}, "class_name": "Activation", "inbound_nodes": [[["batch_normalization_88", 0, 0, {}]]], "name": "activation_88"}, {"config": {"data_format": "channels_last", "trainable": true, "activation": "linear", "use_bias": true, "bias_initializer": {"class_name": "Zeros", "config": {}}, "kernel_size": [3, 3], "kernel_initializer": {"class_name": "VarianceScaling", "config": {"distribution": "uniform", "scale": 1.0, "seed": null, "mode": "fan_avg"}}, "name": "conv2d_91", "bias_regularizer": null, "activity_regularizer": null, "padding": "same", "dilation_rate": [1, 1], "kernel_constraint": null, "filters": 64, "strides": [1, 1], "kernel_regularizer": {"class_name": "L1L2", "config": {"l1": 0.0, "l2": 9.999999747378752e-05}}, "bias_constraint": null}, "class_name": "Conv2D", "inbound_nodes": [[["activation_88", 0, 0, {}]]], "name": "conv2d_91"}, {"config": {"gamma_constraint": null, "moving_variance_initializer": {"class_name": "Ones", "config": {}}, "beta_initializer": {"class_name": "Zeros", "config": {}}, "epsilon": 0.001, "trainable": true, "center": true, "momentum": 0.99, "name": "batch_normalization_89", "beta_regularizer": null, "gamma_regularizer": null, "scale": true, "gamma_initializer": {"class_name": "Ones", "config": {}}, "moving_mean_initializer": {"class_name": "Zeros", "config": {}}, "axis": -1, "beta_constraint": null}, "class_name": "BatchNormalization", "inbound_nodes": [[["conv2d_91", 0, 0, {}]]], "name": "batch_normalization_89"}, {"config": {"trainable": true, "name": "add_44"}, "class_name": "Add", "inbound_nodes": [[["activation_87", 0, 0, {}], ["batch_normalization_89", 0, 0, {}]]], "name": "add_44"}, {"config": {"trainable": true, "activation": "relu", "name": "activation_89"}, "class_name": "Activation", "inbound_nodes": [[["add_44", 0, 0, {}]]], "name": "activation_89"}, {"config": {"data_format": "channels_last", "trainable": true, "activation": "linear", "use_bias": true, "bias_initializer": {"class_name": "Zeros", "config": {}}, "kernel_size": [3, 3], "kernel_initializer": {"class_name": "VarianceScaling", "config": {"distribution": "uniform", "scale": 1.0, "seed": null, "mode": "fan_avg"}}, "name": "conv2d_92", "bias_regularizer": null, "activity_regularizer": null, "padding": "same", "dilation_rate": [1, 1], "kernel_constraint": null, "filters": 55, "strides": [1, 1], "kernel_regularizer": {"class_name": "L1L2", "config": {"l1": 0.0, "l2": 9.999999747378752e-05}}, "bias_constraint": null}, "class_name": "Conv2D", "inbound_nodes": [[["activation_89", 0, 0, {}]]], "name": "conv2d_92"}, {"config": {"gamma_constraint": null, "moving_variance_initializer": {"class_name": "Ones", "config": {}}, "beta_initializer": {"class_name": "Zeros", "config": {}}, "epsilon": 0.001, "trainable": true, "center": true, "momentum": 0.99, "name": "batch_normalization_90", "beta_regularizer": null, "gamma_regularizer": null, "scale": true, "gamma_initializer": {"class_name": "Ones", "config": {}}, "moving_mean_initializer": {"class_name": "Zeros", "config": {}}, "axis": -1, "beta_constraint": null}, "class_name": "BatchNormalization", "inbound_nodes": [[["conv2d_92", 0, 0, {}]]], "name": "batch_normalization_90"}, {"config": {"trainable": true, "activation": "relu", "name": "activation_90"}, "class_name": "Activation", "inbound_nodes": [[["batch_normalization_90", 0, 0, {}]]], "name": "activation_90"}, {"config": {"data_format": "channels_last", "trainable": true, "activation": "linear", "use_bias": true, "bias_initializer": {"class_name": "Zeros", "config": {}}, "kernel_size": [3, 3], "kernel_initializer": {"class_name": "VarianceScaling", "config": {"distribution": "uniform", "scale": 1.0, "seed": null, "mode": "fan_avg"}}, "name": "conv2d_93", "bias_regularizer": null, "activity_regularizer": null, "padding": "same", "dilation_rate": [1, 1], "kernel_constraint": null, "filters": 64, "strides": [1, 1], "kernel_regularizer": {"class_name": "L1L2", "config": {"l1": 0.0, "l2": 9.999999747378752e-05}}, "bias_constraint": null}, "class_name": "Conv2D", "inbound_nodes": [[["activation_90", 0, 0, {}]]], "name": "conv2d_93"}, {"config": {"gamma_constraint": null, "moving_variance_initializer": {"class_name": "Ones", "config": {}}, "beta_initializer": {"class_name": "Zeros", "config": {}}, "epsilon": 0.001, "trainable": true, "center": true, "momentum": 0.99, "name": "batch_normalization_91", "beta_regularizer": null, "gamma_regularizer": null, "scale": true, "gamma_initializer": {"class_name": "Ones", "config": {}}, "moving_mean_initializer": {"class_name": "Zeros", "config": {}}, "axis": -1, "beta_constraint": null}, "class_name": "BatchNormalization", "inbound_nodes": [[["conv2d_93", 0, 0, {}]]], "name": "batch_normalization_91"}, {"config": {"trainable": true, "name": "add_45"}, "class_name": "Add", "inbound_nodes": [[["activation_89", 0, 0, {}], ["batch_normalization_91", 0, 0, {}]]], "name": "add_45"}, {"config": {"trainable": true, "activation": "relu", "name": "activation_91"}, "class_name": "Activation", "inbound_nodes": [[["add_45", 0, 0, {}]]], "name": "activation_91"}, {"config": {"data_format": "channels_last", "trainable": true, "activation": "linear", "use_bias": true, "bias_initializer": {"class_name": "Zeros", "config": {}}, "kernel_size": [3, 3], "kernel_initializer": {"class_name": "VarianceScaling", "config": {"distribution": "uniform", "scale": 1.0, "seed": null, "mode": "fan_avg"}}, "name": "conv2d_94", "bias_regularizer": null, "activity_regularizer": null, "padding": "same", "dilation_rate": [1, 1], "kernel_constraint": null, "filters": 53, "strides": [1, 1], "kernel_regularizer": {"class_name": "L1L2", "config": {"l1": 0.0, "l2": 9.999999747378752e-05}}, "bias_constraint": null}, "class_name": "Conv2D", "inbound_nodes": [[["activation_91", 0, 0, {}]]], "name": "conv2d_94"}, {"config": {"gamma_constraint": null, "moving_variance_initializer": {"class_name": "Ones", "config": {}}, "beta_initializer": {"class_name": "Zeros", "config": {}}, "epsilon": 0.001, "trainable": true, "center": true, "momentum": 0.99, "name": "batch_normalization_92", "beta_regularizer": null, "gamma_regularizer": null, "scale": true, "gamma_initializer": {"class_name": "Ones", "config": {}}, "moving_mean_initializer": {"class_name": "Zeros", "config": {}}, "axis": -1, "beta_constraint": null}, "class_name": "BatchNormalization", "inbound_nodes": [[["conv2d_94", 0, 0, {}]]], "name": "batch_normalization_92"}, {"config": {"trainable": true, "activation": "relu", "name": "activation_92"}, "class_name": "Activation", "inbound_nodes": [[["batch_normalization_92", 0, 0, {}]]], "name": "activation_92"}, {"config": {"data_format": "channels_last", "trainable": true, "activation": "linear", "use_bias": true, "bias_initializer": {"class_name": "Zeros", "config": {}}, "kernel_size": [3, 3], "kernel_initializer": {"class_name": "VarianceScaling", "config": {"distribution": "uniform", "scale": 1.0, "seed": null, "mode": "fan_avg"}}, "name": "conv2d_95", "bias_regularizer": null, "activity_regularizer": null, "padding": "same", "dilation_rate": [1, 1], "kernel_constraint": null, "filters": 64, "strides": [1, 1], "kernel_regularizer": {"class_name": "L1L2", "config": {"l1": 0.0, "l2": 9.999999747378752e-05}}, "bias_constraint": null}, "class_name": "Conv2D", "inbound_nodes": [[["activation_92", 0, 0, {}]]], "name": "conv2d_95"}, {"config": {"gamma_constraint": null, "moving_variance_initializer": {"class_name": "Ones", "config": {}}, "beta_initializer": {"class_name": "Zeros", "config": {}}, "epsilon": 0.001, "trainable": true, "center": true, "momentum": 0.99, "name": "batch_normalization_93", "beta_regularizer": null, "gamma_regularizer": null, "scale": true, "gamma_initializer": {"class_name": "Ones", "config": {}}, "moving_mean_initializer": {"class_name": "Zeros", "config": {}}, "axis": -1, "beta_constraint": null}, "class_name": "BatchNormalization", "inbound_nodes": [[["conv2d_95", 0, 0, {}]]], "name": "batch_normalization_93"}, {"config": {"trainable": true, "name": "add_46"}, "class_name": "Add", "inbound_nodes": [[["activation_91", 0, 0, {}], ["batch_normalization_93", 0, 0, {}]]], "name": "add_46"}, {"config": {"trainable": true, "activation": "relu", "name": "activation_93"}, "class_name": "Activation", "inbound_nodes": [[["add_46", 0, 0, {}]]], "name": "activation_93"}, {"config": {"data_format": "channels_last", "trainable": true, "activation": "linear", "use_bias": true, "bias_initializer": {"class_name": "Zeros", "config": {}}, "kernel_size": [3, 3], "kernel_initializer": {"class_name": "VarianceScaling", "config": {"distribution": "uniform", "scale": 1.0, "seed": null, "mode": "fan_avg"}}, "name": "conv2d_96", "bias_regularizer": null, "activity_regularizer": null, "padding": "same", "dilation_rate": [1, 1], "kernel_constraint": null, "filters": 51, "strides": [1, 1], "kernel_regularizer": {"class_name": "L1L2", "config": {"l1": 0.0, "l2": 9.999999747378752e-05}}, "bias_constraint": null}, "class_name": "Conv2D", "inbound_nodes": [[["activation_93", 0, 0, {}]]], "name": "conv2d_96"}, {"config": {"gamma_constraint": null, "moving_variance_initializer": {"class_name": "Ones", "config": {}}, "beta_initializer": {"class_name": "Zeros", "config": {}}, "epsilon": 0.001, "trainable": true, "center": true, "momentum": 0.99, "name": "batch_normalization_94", "beta_regularizer": null, "gamma_regularizer": null, "scale": true, "gamma_initializer": {"class_name": "Ones", "config": {}}, "moving_mean_initializer": {"class_name": "Zeros", "config": {}}, "axis": -1, "beta_constraint": null}, "class_name": "BatchNormalization", "inbound_nodes": [[["conv2d_96", 0, 0, {}]]], "name": "batch_normalization_94"}, {"config": {"trainable": true, "activation": "relu", "name": "activation_94"}, "class_name": "Activation", "inbound_nodes": [[["batch_normalization_94", 0, 0, {}]]], "name": "activation_94"}, {"config": {"data_format": "channels_last", "trainable": true, "activation": "linear", "use_bias": true, "bias_initializer": {"class_name": "Zeros", "config": {}}, "kernel_size": [3, 3], "kernel_initializer": {"class_name": "VarianceScaling", "config": {"distribution": "uniform", "scale": 1.0, "seed": null, "mode": "fan_avg"}}, "name": "conv2d_97", "bias_regularizer": null, "activity_regularizer": null, "padding": "same", "dilation_rate": [1, 1], "kernel_constraint": null, "filters": 64, "strides": [1, 1], "kernel_regularizer": {"class_name": "L1L2", "config": {"l1": 0.0, "l2": 9.999999747378752e-05}}, "bias_constraint": null}, "class_name": "Conv2D", "inbound_nodes": [[["activation_94", 0, 0, {}]]], "name": "conv2d_97"}, {"config": {"gamma_constraint": null, "moving_variance_initializer": {"class_name": "Ones", "config": {}}, "beta_initializer": {"class_name": "Zeros", "config": {}}, "epsilon": 0.001, "trainable": true, "center": true, "momentum": 0.99, "name": "batch_normalization_95", "beta_regularizer": null, "gamma_regularizer": null, "scale": true, "gamma_initializer": {"class_name": "Ones", "config": {}}, "moving_mean_initializer": {"class_name": "Zeros", "config": {}}, "axis": -1, "beta_constraint": null}, "class_name": "BatchNormalization", "inbound_nodes": [[["conv2d_97", 0, 0, {}]]], "name": "batch_normalization_95"}, {"config": {"trainable": true, "name": "add_47"}, "class_name": "Add", "inbound_nodes": [[["activation_93", 0, 0, {}], ["batch_normalization_95", 0, 0, {}]]], "name": "add_47"}, {"config": {"trainable": true, "activation": "relu", "name": "activation_95"}, "class_name": "Activation", "inbound_nodes": [[["add_47", 0, 0, {}]]], "name": "activation_95"}, {"config": {"data_format": "channels_last", "trainable": true, "activation": "linear", "use_bias": true, "bias_initializer": {"class_name": "Zeros", "config": {}}, "kernel_size": [3, 3], "kernel_initializer": {"class_name": "VarianceScaling", "config": {"distribution": "uniform", "scale": 1.0, "seed": null, "mode": "fan_avg"}}, "name": "conv2d_98", "bias_regularizer": null, "activity_regularizer": null, "padding": "same", "dilation_rate": [1, 1], "kernel_constraint": null, "filters": 47, "strides": [1, 1], "kernel_regularizer": {"class_name": "L1L2", "config": {"l1": 0.0, "l2": 9.999999747378752e-05}}, "bias_constraint": null}, "class_name": "Conv2D", "inbound_nodes": [[["activation_95", 0, 0, {}]]], "name": "conv2d_98"}, {"config": {"gamma_constraint": null, "moving_variance_initializer": {"class_name": "Ones", "config": {}}, "beta_initializer": {"class_name": "Zeros", "config": {}}, "epsilon": 0.001, "trainable": true, "center": true, "momentum": 0.99, "name": "batch_normalization_96", "beta_regularizer": null, "gamma_regularizer": null, "scale": true, "gamma_initializer": {"class_name": "Ones", "config": {}}, "moving_mean_initializer": {"class_name": "Zeros", "config": {}}, "axis": -1, "beta_constraint": null}, "class_name": "BatchNormalization", "inbound_nodes": [[["conv2d_98", 0, 0, {}]]], "name": "batch_normalization_96"}, {"config": {"trainable": true, "activation": "relu", "name": "activation_96"}, "class_name": "Activation", "inbound_nodes": [[["batch_normalization_96", 0, 0, {}]]], "name": "activation_96"}, {"config": {"data_format": "channels_last", "trainable": true, "activation": "linear", "use_bias": true, "bias_initializer": {"class_name": "Zeros", "config": {}}, "kernel_size": [3, 3], "kernel_initializer": {"class_name": "VarianceScaling", "config": {"distribution": "uniform", "scale": 1.0, "seed": null, "mode": "fan_avg"}}, "name": "conv2d_99", "bias_regularizer": null, "activity_regularizer": null, "padding": "same", "dilation_rate": [1, 1], "kernel_constraint": null, "filters": 64, "strides": [1, 1], "kernel_regularizer": {"class_name": "L1L2", "config": {"l1": 0.0, "l2": 9.999999747378752e-05}}, "bias_constraint": null}, "class_name": "Conv2D", "inbound_nodes": [[["activation_96", 0, 0, {}]]], "name": "conv2d_99"}, {"config": {"gamma_constraint": null, "moving_variance_initializer": {"class_name": "Ones", "config": {}}, "beta_initializer": {"class_name": "Zeros", "config": {}}, "epsilon": 0.001, "trainable": true, "center": true, "momentum": 0.99, "name": "batch_normalization_97", "beta_regularizer": null, "gamma_regularizer": null, "scale": true, "gamma_initializer": {"class_name": "Ones", "config": {}}, "moving_mean_initializer": {"class_name": "Zeros", "config": {}}, "axis": -1, "beta_constraint": null}, "class_name": "BatchNormalization", "inbound_nodes": [[["conv2d_99", 0, 0, {}]]], "name": "batch_normalization_97"}, {"config": {"trainable": true, "name": "add_48"}, "class_name": "Add", "inbound_nodes": [[["activation_95", 0, 0, {}], ["batch_normalization_97", 0, 0, {}]]], "name": "add_48"}, {"config": {"trainable": true, "activation": "relu", "name": "activation_97"}, "class_name": "Activation", "inbound_nodes": [[["add_48", 0, 0, {}]]], "name": "activation_97"}, {"config": {"data_format": "channels_last", "trainable": true, "activation": "linear", "use_bias": true, "bias_initializer": {"class_name": "Zeros", "config": {}}, "kernel_size": [3, 3], "kernel_initializer": {"class_name": "VarianceScaling", "config": {"distribution": "uniform", "scale": 1.0, "seed": null, "mode": "fan_avg"}}, "name": "conv2d_100", "bias_regularizer": null, "activity_regularizer": null, "padding": "same", "dilation_rate": [1, 1], "kernel_constraint": null, "filters": 52, "strides": [1, 1], "kernel_regularizer": {"class_name": "L1L2", "config": {"l1": 0.0, "l2": 9.999999747378752e-05}}, "bias_constraint": null}, "class_name": "Conv2D", "inbound_nodes": [[["activation_97", 0, 0, {}]]], "name": "conv2d_100"}, {"config": {"gamma_constraint": null, "moving_variance_initializer": {"class_name": "Ones", "config": {}}, "beta_initializer": {"class_name": "Zeros", "config": {}}, "epsilon": 0.001, "trainable": true, "center": true, "momentum": 0.99, "name": "batch_normalization_98", "beta_regularizer": null, "gamma_regularizer": null, "scale": true, "gamma_initializer": {"class_name": "Ones", "config": {}}, "moving_mean_initializer": {"class_name": "Zeros", "config": {}}, "axis": -1, "beta_constraint": null}, "class_name": "BatchNormalization", "inbound_nodes": [[["conv2d_100", 0, 0, {}]]], "name": "batch_normalization_98"}, {"config": {"trainable": true, "activation": "relu", "name": "activation_98"}, "class_name": "Activation", "inbound_nodes": [[["batch_normalization_98", 0, 0, {}]]], "name": "activation_98"}, {"config": {"data_format": "channels_last", "trainable": true, "activation": "linear", "use_bias": true, "bias_initializer": {"class_name": "Zeros", "config": {}}, "kernel_size": [3, 3], "kernel_initializer": {"class_name": "VarianceScaling", "config": {"distribution": "uniform", "scale": 1.0, "seed": null, "mode": "fan_avg"}}, "name": "conv2d_101", "bias_regularizer": null, "activity_regularizer": null, "padding": "same", "dilation_rate": [1, 1], "kernel_constraint": null, "filters": 64, "strides": [1, 1], "kernel_regularizer": {"class_name": "L1L2", "config": {"l1": 0.0, "l2": 9.999999747378752e-05}}, "bias_constraint": null}, "class_name": "Conv2D", "inbound_nodes": [[["activation_98", 0, 0, {}]]], "name": "conv2d_101"}, {"config": {"gamma_constraint": null, "moving_variance_initializer": {"class_name": "Ones", "config": {}}, "beta_initializer": {"class_name": "Zeros", "config": {}}, "epsilon": 0.001, "trainable": true, "center": true, "momentum": 0.99, "name": "batch_normalization_99", "beta_regularizer": null, "gamma_regularizer": null, "scale": true, "gamma_initializer": {"class_name": "Ones", "config": {}}, "moving_mean_initializer": {"class_name": "Zeros", "config": {}}, "axis": -1, "beta_constraint": null}, "class_name": "BatchNormalization", "inbound_nodes": [[["conv2d_101", 0, 0, {}]]], "name": "batch_normalization_99"}, {"config": {"trainable": true, "name": "add_49"}, "class_name": "Add", "inbound_nodes": [[["activation_97", 0, 0, {}], ["batch_normalization_99", 0, 0, {}]]], "name": "add_49"}, {"config": {"trainable": true, "activation": "relu", "name": "activation_99"}, "class_name": "Activation", "inbound_nodes": [[["add_49", 0, 0, {}]]], "name": "activation_99"}, {"config": {"data_format": "channels_last", "trainable": true, "activation": "linear", "use_bias": true, "bias_initializer": {"class_name": "Zeros", "config": {}}, "kernel_size": [3, 3], "kernel_initializer": {"class_name": "VarianceScaling", "config": {"distribution": "uniform", "scale": 1.0, "seed": null, "mode": "fan_avg"}}, "name": "conv2d_102", "bias_regularizer": null, "activity_regularizer": null, "padding": "same", "dilation_rate": [1, 1], "kernel_constraint": null, "filters": 57, "strides": [1, 1], "kernel_regularizer": {"class_name": "L1L2", "config": {"l1": 0.0, "l2": 9.999999747378752e-05}}, "bias_constraint": null}, "class_name": "Conv2D", "inbound_nodes": [[["activation_99", 0, 0, {}]]], "name": "conv2d_102"}, {"config": {"gamma_constraint": null, "moving_variance_initializer": {"class_name": "Ones", "config": {}}, "beta_initializer": {"class_name": "Zeros", "config": {}}, "epsilon": 0.001, "trainable": true, "center": true, "momentum": 0.99, "name": "batch_normalization_100", "beta_regularizer": null, "gamma_regularizer": null, "scale": true, "gamma_initializer": {"class_name": "Ones", "config": {}}, "moving_mean_initializer": {"class_name": "Zeros", "config": {}}, "axis": -1, "beta_constraint": null}, "class_name": "BatchNormalization", "inbound_nodes": [[["conv2d_102", 0, 0, {}]]], "name": "batch_normalization_100"}, {"config": {"trainable": true, "activation": "relu", "name": "activation_100"}, "class_name": "Activation", "inbound_nodes": [[["batch_normalization_100", 0, 0, {}]]], "name": "activation_100"}, {"config": {"data_format": "channels_last", "trainable": true, "activation": "linear", "use_bias": true, "bias_initializer": {"class_name": "Zeros", "config": {}}, "kernel_size": [3, 3], "kernel_initializer": {"class_name": "VarianceScaling", "config": {"distribution": "uniform", "scale": 1.0, "seed": null, "mode": "fan_avg"}}, "name": "conv2d_103", "bias_regularizer": null, "activity_regularizer": null, "padding": "same", "dilation_rate": [1, 1], "kernel_constraint": null, "filters": 64, "strides": [1, 1], "kernel_regularizer": {"class_name": "L1L2", "config": {"l1": 0.0, "l2": 9.999999747378752e-05}}, "bias_constraint": null}, "class_name": "Conv2D", "inbound_nodes": [[["activation_100", 0, 0, {}]]], "name": "conv2d_103"}, {"config": {"gamma_constraint": null, "moving_variance_initializer": {"class_name": "Ones", "config": {}}, "beta_initializer": {"class_name": "Zeros", "config": {}}, "epsilon": 0.001, "trainable": true, "center": true, "momentum": 0.99, "name": "batch_normalization_101", "beta_regularizer": null, "gamma_regularizer": null, "scale": true, "gamma_initializer": {"class_name": "Ones", "config": {}}, "moving_mean_initializer": {"class_name": "Zeros", "config": {}}, "axis": -1, "beta_constraint": null}, "class_name": "BatchNormalization", "inbound_nodes": [[["conv2d_103", 0, 0, {}]]], "name": "batch_normalization_101"}, {"config": {"trainable": true, "name": "add_50"}, "class_name": "Add", "inbound_nodes": [[["activation_99", 0, 0, {}], ["batch_normalization_101", 0, 0, {}]]], "name": "add_50"}, {"config": {"trainable": true, "activation": "relu", "name": "activation_101"}, "class_name": "Activation", "inbound_nodes": [[["add_50", 0, 0, {}]]], "name": "activation_101"}, {"config": {"data_format": "channels_last", "trainable": true, "activation": "linear", "use_bias": true, "bias_initializer": {"class_name": "Zeros", "config": {}}, "kernel_size": [3, 3], "kernel_initializer": {"class_name": "VarianceScaling", "config": {"distribution": "uniform", "scale": 1.0, "seed": null, "mode": "fan_avg"}}, "name": "conv2d_104", "bias_regularizer": null, "activity_regularizer": null, "padding": "same", "dilation_rate": [1, 1], "kernel_constraint": null, "filters": 57, "strides": [1, 1], "kernel_regularizer": {"class_name": "L1L2", "config": {"l1": 0.0, "l2": 9.999999747378752e-05}}, "bias_constraint": null}, "class_name": "Conv2D", "inbound_nodes": [[["activation_101", 0, 0, {}]]], "name": "conv2d_104"}, {"config": {"gamma_constraint": null, "moving_variance_initializer": {"class_name": "Ones", "config": {}}, "beta_initializer": {"class_name": "Zeros", "config": {}}, "epsilon": 0.001, "trainable": true, "center": true, "momentum": 0.99, "name": "batch_normalization_102", "beta_regularizer": null, "gamma_regularizer": null, "scale": true, "gamma_initializer": {"class_name": "Ones", "config": {}}, "moving_mean_initializer": {"class_name": "Zeros", "config": {}}, "axis": -1, "beta_constraint": null}, "class_name": "BatchNormalization", "inbound_nodes": [[["conv2d_104", 0, 0, {}]]], "name": "batch_normalization_102"}, {"config": {"trainable": true, "activation": "relu", "name": "activation_102"}, "class_name": "Activation", "inbound_nodes": [[["batch_normalization_102", 0, 0, {}]]], "name": "activation_102"}, {"config": {"data_format": "channels_last", "trainable": true, "activation": "linear", "use_bias": true, "bias_initializer": {"class_name": "Zeros", "config": {}}, "kernel_size": [3, 3], "kernel_initializer": {"class_name": "VarianceScaling", "config": {"distribution": "uniform", "scale": 1.0, "seed": null, "mode": "fan_avg"}}, "name": "conv2d_105", "bias_regularizer": null, "activity_regularizer": null, "padding": "same", "dilation_rate": [1, 1], "kernel_constraint": null, "filters": 64, "strides": [1, 1], "kernel_regularizer": {"class_name": "L1L2", "config": {"l1": 0.0, "l2": 9.999999747378752e-05}}, "bias_constraint": null}, "class_name": "Conv2D", "inbound_nodes": [[["activation_102", 0, 0, {}]]], "name": "conv2d_105"}, {"config": {"gamma_constraint": null, "moving_variance_initializer": {"class_name": "Ones", "config": {}}, "beta_initializer": {"class_name": "Zeros", "config": {}}, "epsilon": 0.001, "trainable": true, "center": true, "momentum": 0.99, "name": "batch_normalization_103", "beta_regularizer": null, "gamma_regularizer": null, "scale": true, "gamma_initializer": {"class_name": "Ones", "config": {}}, "moving_mean_initializer": {"class_name": "Zeros", "config": {}}, "axis": -1, "beta_constraint": null}, "class_name": "BatchNormalization", "inbound_nodes": [[["conv2d_105", 0, 0, {}]]], "name": "batch_normalization_103"}, {"config": {"trainable": true, "name": "add_51"}, "class_name": "Add", "inbound_nodes": [[["activation_101", 0, 0, {}], ["batch_normalization_103", 0, 0, {}]]], "name": "add_51"}, {"config": {"trainable": true, "activation": "relu", "name": "activation_103"}, "class_name": "Activation", "inbound_nodes": [[["add_51", 0, 0, {}]]], "name": "activation_103"}, {"config": {"data_format": "channels_last", "trainable": true, "activation": "linear", "use_bias": true, "bias_initializer": {"class_name": "Zeros", "config": {}}, "kernel_size": [3, 3], "kernel_initializer": {"class_name": "VarianceScaling", "config": {"distribution": "uniform", "scale": 1.0, "seed": null, "mode": "fan_avg"}}, "name": "conv2d_106", "bias_regularizer": null, "activity_regularizer": null, "padding": "same", "dilation_rate": [1, 1], "kernel_constraint": null, "filters": 59, "strides": [1, 1], "kernel_regularizer": {"class_name": "L1L2", "config": {"l1": 0.0, "l2": 9.999999747378752e-05}}, "bias_constraint": null}, "class_name": "Conv2D", "inbound_nodes": [[["activation_103", 0, 0, {}]]], "name": "conv2d_106"}, {"config": {"gamma_constraint": null, "moving_variance_initializer": {"class_name": "Ones", "config": {}}, "beta_initializer": {"class_name": "Zeros", "config": {}}, "epsilon": 0.001, "trainable": true, "center": true, "momentum": 0.99, "name": "batch_normalization_104", "beta_regularizer": null, "gamma_regularizer": null, "scale": true, "gamma_initializer": {"class_name": "Ones", "config": {}}, "moving_mean_initializer": {"class_name": "Zeros", "config": {}}, "axis": -1, "beta_constraint": null}, "class_name": "BatchNormalization", "inbound_nodes": [[["conv2d_106", 0, 0, {}]]], "name": "batch_normalization_104"}, {"config": {"trainable": true, "activation": "relu", "name": "activation_104"}, "class_name": "Activation", "inbound_nodes": [[["batch_normalization_104", 0, 0, {}]]], "name": "activation_104"}, {"config": {"data_format": "channels_last", "trainable": true, "activation": "linear", "use_bias": true, "bias_initializer": {"class_name": "Zeros", "config": {}}, "kernel_size": [3, 3], "kernel_initializer": {"class_name": "VarianceScaling", "config": {"distribution": "uniform", "scale": 1.0, "seed": null, "mode": "fan_avg"}}, "name": "conv2d_107", "bias_regularizer": null, "activity_regularizer": null, "padding": "same", "dilation_rate": [1, 1], "kernel_constraint": null, "filters": 64, "strides": [1, 1], "kernel_regularizer": {"class_name": "L1L2", "config": {"l1": 0.0, "l2": 9.999999747378752e-05}}, "bias_constraint": null}, "class_name": "Conv2D", "inbound_nodes": [[["activation_104", 0, 0, {}]]], "name": "conv2d_107"}, {"config": {"gamma_constraint": null, "moving_variance_initializer": {"class_name": "Ones", "config": {}}, "beta_initializer": {"class_name": "Zeros", "config": {}}, "epsilon": 0.001, "trainable": true, "center": true, "momentum": 0.99, "name": "batch_normalization_105", "beta_regularizer": null, "gamma_regularizer": null, "scale": true, "gamma_initializer": {"class_name": "Ones", "config": {}}, "moving_mean_initializer": {"class_name": "Zeros", "config": {}}, "axis": -1, "beta_constraint": null}, "class_name": "BatchNormalization", "inbound_nodes": [[["conv2d_107", 0, 0, {}]]], "name": "batch_normalization_105"}, {"config": {"trainable": true, "name": "add_52"}, "class_name": "Add", "inbound_nodes": [[["activation_103", 0, 0, {}], ["batch_normalization_105", 0, 0, {}]]], "name": "add_52"}, {"config": {"trainable": true, "activation": "relu", "name": "activation_105"}, "class_name": "Activation", "inbound_nodes": [[["add_52", 0, 0, {}]]], "name": "activation_105"}, {"config": {"data_format": "channels_last", "trainable": true, "activation": "linear", "use_bias": true, "bias_initializer": {"class_name": "Zeros", "config": {}}, "kernel_size": [3, 3], "kernel_initializer": {"class_name": "VarianceScaling", "config": {"distribution": "uniform", "scale": 1.0, "seed": null, "mode": "fan_avg"}}, "name": "conv2d_108", "bias_regularizer": null, "activity_regularizer": null, "padding": "same", "dilation_rate": [1, 1], "kernel_constraint": null, "filters": 59, "strides": [1, 1], "kernel_regularizer": {"class_name": "L1L2", "config": {"l1": 0.0, "l2": 9.999999747378752e-05}}, "bias_constraint": null}, "class_name": "Conv2D", "inbound_nodes": [[["activation_105", 0, 0, {}]]], "name": "conv2d_108"}, {"config": {"gamma_constraint": null, "moving_variance_initializer": {"class_name": "Ones", "config": {}}, "beta_initializer": {"class_name": "Zeros", "config": {}}, "epsilon": 0.001, "trainable": true, "center": true, "momentum": 0.99, "name": "batch_normalization_106", "beta_regularizer": null, "gamma_regularizer": null, "scale": true, "gamma_initializer": {"class_name": "Ones", "config": {}}, "moving_mean_initializer": {"class_name": "Zeros", "config": {}}, "axis": -1, "beta_constraint": null}, "class_name": "BatchNormalization", "inbound_nodes": [[["conv2d_108", 0, 0, {}]]], "name": "batch_normalization_106"}, {"config": {"trainable": true, "activation": "relu", "name": "activation_106"}, "class_name": "Activation", "inbound_nodes": [[["batch_normalization_106", 0, 0, {}]]], "name": "activation_106"}, {"config": {"data_format": "channels_last", "trainable": true, "activation": "linear", "use_bias": true, "bias_initializer": {"class_name": "Zeros", "config": {}}, "kernel_size": [3, 3], "kernel_initializer": {"class_name": "VarianceScaling", "config": {"distribution": "uniform", "scale": 1.0, "seed": null, "mode": "fan_avg"}}, "name": "conv2d_109", "bias_regularizer": null, "activity_regularizer": null, "padding": "same", "dilation_rate": [1, 1], "kernel_constraint": null, "filters": 64, "strides": [1, 1], "kernel_regularizer": {"class_name": "L1L2", "config": {"l1": 0.0, "l2": 9.999999747378752e-05}}, "bias_constraint": null}, "class_name": "Conv2D", "inbound_nodes": [[["activation_106", 0, 0, {}]]], "name": "conv2d_109"}, {"config": {"gamma_constraint": null, "moving_variance_initializer": {"class_name": "Ones", "config": {}}, "beta_initializer": {"class_name": "Zeros", "config": {}}, "epsilon": 0.001, "trainable": true, "center": true, "momentum": 0.99, "name": "batch_normalization_107", "beta_regularizer": null, "gamma_regularizer": null, "scale": true, "gamma_initializer": {"class_name": "Ones", "config": {}}, "moving_mean_initializer": {"class_name": "Zeros", "config": {}}, "axis": -1, "beta_constraint": null}, "class_name": "BatchNormalization", "inbound_nodes": [[["conv2d_109", 0, 0, {}]]], "name": "batch_normalization_107"}, {"config": {"trainable": true, "name": "add_53"}, "class_name": "Add", "inbound_nodes": [[["activation_105", 0, 0, {}], ["batch_normalization_107", 0, 0, {}]]], "name": "add_53"}, {"config": {"trainable": true, "activation": "relu", "name": "activation_107"}, "class_name": "Activation", "inbound_nodes": [[["add_53", 0, 0, {}]]], "name": "activation_107"}, {"config": {"data_format": "channels_last", "trainable": true, "activation": "linear", "use_bias": true, "bias_initializer": {"class_name": "Zeros", "config": {}}, "kernel_size": [3, 3], "kernel_initializer": {"class_name": "VarianceScaling", "config": {"distribution": "uniform", "scale": 1.0, "seed": null, "mode": "fan_avg"}}, "name": "conv2d_110", "bias_regularizer": null, "activity_regularizer": null, "padding": "same", "dilation_rate": [1, 1], "kernel_constraint": null, "filters": 58, "strides": [1, 1], "kernel_regularizer": {"class_name": "L1L2", "config": {"l1": 0.0, "l2": 9.999999747378752e-05}}, "bias_constraint": null}, "class_name": "Conv2D", "inbound_nodes": [[["activation_107", 0, 0, {}]]], "name": "conv2d_110"}, {"config": {"gamma_constraint": null, "moving_variance_initializer": {"class_name": "Ones", "config": {}}, "beta_initializer": {"class_name": "Zeros", "config": {}}, "epsilon": 0.001, "trainable": true, "center": true, "momentum": 0.99, "name": "batch_normalization_108", "beta_regularizer": null, "gamma_regularizer": null, "scale": true, "gamma_initializer": {"class_name": "Ones", "config": {}}, "moving_mean_initializer": {"class_name": "Zeros", "config": {}}, "axis": -1, "beta_constraint": null}, "class_name": "BatchNormalization", "inbound_nodes": [[["conv2d_110", 0, 0, {}]]], "name": "batch_normalization_108"}, {"config": {"trainable": true, "activation": "relu", "name": "activation_108"}, "class_name": "Activation", "inbound_nodes": [[["batch_normalization_108", 0, 0, {}]]], "name": "activation_108"}, {"config": {"data_format": "channels_last", "trainable": true, "activation": "linear", "use_bias": true, "bias_initializer": {"class_name": "Zeros", "config": {}}, "kernel_size": [3, 3], "kernel_initializer": {"class_name": "VarianceScaling", "config": {"distribution": "uniform", "scale": 1.0, "seed": null, "mode": "fan_avg"}}, "name": "conv2d_111", "bias_regularizer": null, "activity_regularizer": null, "padding": "same", "dilation_rate": [1, 1], "kernel_constraint": null, "filters": 64, "strides": [1, 1], "kernel_regularizer": {"class_name": "L1L2", "config": {"l1": 0.0, "l2": 9.999999747378752e-05}}, "bias_constraint": null}, "class_name": "Conv2D", "inbound_nodes": [[["activation_108", 0, 0, {}]]], "name": "conv2d_111"}, {"config": {"gamma_constraint": null, "moving_variance_initializer": {"class_name": "Ones", "config": {}}, "beta_initializer": {"class_name": "Zeros", "config": {}}, "epsilon": 0.001, "trainable": true, "center": true, "momentum": 0.99, "name": "batch_normalization_109", "beta_regularizer": null, "gamma_regularizer": null, "scale": true, "gamma_initializer": {"class_name": "Ones", "config": {}}, "moving_mean_initializer": {"class_name": "Zeros", "config": {}}, "axis": -1, "beta_constraint": null}, "class_name": "BatchNormalization", "inbound_nodes": [[["conv2d_111", 0, 0, {}]]], "name": "batch_normalization_109"}, {"config": {"trainable": true, "name": "add_54"}, "class_name": "Add", "inbound_nodes": [[["activation_107", 0, 0, {}], ["batch_normalization_109", 0, 0, {}]]], "name": "add_54"}, {"config": {"trainable": true, "activation": "relu", "name": "activation_109"}, "class_name": "Activation", "inbound_nodes": [[["add_54", 0, 0, {}]]], "name": "activation_109"}, {"config": {"trainable": true, "padding": "valid", "strides": [8, 8], "data_format": "channels_last", "name": "average_pooling2d_1", "pool_size": [8, 8]}, "class_name": "AveragePooling2D", "inbound_nodes": [[["activation_109", 0, 0, {}]]], "name": "average_pooling2d_1"}, {"config": {"trainable": true, "name": "flatten_1"}, "class_name": "Flatten", "inbound_nodes": [[["average_pooling2d_1", 0, 0, {}]]], "name": "flatten_1"}, {"config": {"activation": "softmax", "use_bias": true, "bias_initializer": {"class_name": "Zeros", "config": {}}, "kernel_initializer": {"class_name": "VarianceScaling", "config": {"distribution": "normal", "scale": 2.0, "seed": null, "mode": "fan_in"}}, "name": "dense_1", "bias_regularizer": null, "activity_regularizer": null, "trainable": true, "kernel_constraint": null, "units": 10, "kernel_regularizer": null, "bias_constraint": null}, "class_name": "Dense", "inbound_nodes": [[["flatten_1", 0, 0, {}]]], "name": "dense_1"}], "name": "model_113", "output_layers": [["dense_1", 0, 0]]}, "keras_version": "2.1.2", "backend": "tensorflow"}