{"config": {"output_layers": [["dense_1", 0, 0]], "input_layers": [["input_2", 0, 0]], "name": "model_59", "layers": [{"config": {"dtype": "float32", "batch_input_shape": [null, 32, 32, 3], "name": "input_2", "sparse": false}, "inbound_nodes": [], "class_name": "InputLayer", "name": "input_2"}, {"config": {"use_bias": true, "kernel_size": [3, 3], "activity_regularizer": null, "bias_initializer": {"config": {}, "class_name": "Zeros"}, "data_format": "channels_last", "trainable": true, "activation": "linear", "padding": "same", "kernel_initializer": {"config": {"distribution": "uniform", "seed": null, "scale": 1.0, "mode": "fan_avg"}, "class_name": "VarianceScaling"}, "name": "conv2d_1", "kernel_regularizer": {"config": {"l1": 0.0, "l2": 9.999999747378752e-05}, "class_name": "L1L2"}, "bias_regularizer": null, "filters": 16, "bias_constraint": null, "kernel_constraint": null, "dilation_rate": [1, 1], "strides": [1, 1]}, "inbound_nodes": [[["input_2", 0, 0, {}]]], "class_name": "Conv2D", "name": "conv2d_1"}, {"config": {"scale": true, "beta_constraint": null, "gamma_initializer": {"config": {}, "class_name": "Ones"}, "gamma_regularizer": null, "center": true, "name": "batch_normalization_1", "moving_mean_initializer": {"config": {}, "class_name": "Zeros"}, "beta_regularizer": null, "axis": -1, "moving_variance_initializer": {"config": {}, "class_name": "Ones"}, "beta_initializer": {"config": {}, "class_name": "Zeros"}, "momentum": 0.99, "gamma_constraint": null, "trainable": true, "epsilon": 0.001}, "inbound_nodes": [[["conv2d_1", 0, 0, {}]]], "class_name": "BatchNormalization", "name": "batch_normalization_1"}, {"config": {"trainable": true, "activation": "relu", "name": "activation_1"}, "inbound_nodes": [[["batch_normalization_1", 0, 0, {}]]], "class_name": "Activation", "name": "activation_1"}, {"config": {"use_bias": true, "kernel_size": [3, 3], "activity_regularizer": null, "bias_initializer": {"config": {}, "class_name": "Zeros"}, "data_format": "channels_last", "trainable": true, "activation": "linear", "padding": "same", "kernel_initializer": {"config": {"distribution": "uniform", "seed": null, "scale": 1.0, "mode": "fan_avg"}, "class_name": "VarianceScaling"}, "name": "conv2d_2", "kernel_regularizer": {"config": {"l1": 0.0, "l2": 9.999999747378752e-05}, "class_name": "L1L2"}, "bias_regularizer": null, "filters": 16, "bias_constraint": null, "kernel_constraint": null, "dilation_rate": [1, 1], "strides": [1, 1]}, "inbound_nodes": [[["activation_1", 0, 0, {}]]], "class_name": "Conv2D", "name": "conv2d_2"}, {"config": {"scale": true, "beta_constraint": null, "gamma_initializer": {"config": {}, "class_name": "Ones"}, "gamma_regularizer": null, "center": true, "name": "batch_normalization_2", "moving_mean_initializer": {"config": {}, "class_name": "Zeros"}, "beta_regularizer": null, "axis": -1, "moving_variance_initializer": {"config": {}, "class_name": "Ones"}, "beta_initializer": {"config": {}, "class_name": "Zeros"}, "momentum": 0.99, "gamma_constraint": null, "trainable": true, "epsilon": 0.001}, "inbound_nodes": [[["conv2d_2", 0, 0, {}]]], "class_name": "BatchNormalization", "name": "batch_normalization_2"}, {"config": {"trainable": true, "activation": "relu", "name": "activation_2"}, "inbound_nodes": [[["batch_normalization_2", 0, 0, {}]]], "class_name": "Activation", "name": "activation_2"}, {"config": {"use_bias": true, "kernel_size": [3, 3], "activity_regularizer": null, "bias_initializer": {"config": {}, "class_name": "Zeros"}, "data_format": "channels_last", "trainable": true, "activation": "linear", "padding": "same", "kernel_initializer": {"config": {"distribution": "uniform", "seed": null, "scale": 1.0, "mode": "fan_avg"}, "class_name": "VarianceScaling"}, "name": "conv2d_3", "kernel_regularizer": {"config": {"l1": 0.0, "l2": 9.999999747378752e-05}, "class_name": "L1L2"}, "bias_regularizer": null, "filters": 16, "bias_constraint": null, "kernel_constraint": null, "dilation_rate": [1, 1], "strides": [1, 1]}, "inbound_nodes": [[["activation_2", 0, 0, {}]]], "class_name": "Conv2D", "name": "conv2d_3"}, {"config": {"scale": true, "beta_constraint": null, "gamma_initializer": {"config": {}, "class_name": "Ones"}, "gamma_regularizer": null, "center": true, "name": "batch_normalization_3", "moving_mean_initializer": {"config": {}, "class_name": "Zeros"}, "beta_regularizer": null, "axis": -1, "moving_variance_initializer": {"config": {}, "class_name": "Ones"}, "beta_initializer": {"config": {}, "class_name": "Zeros"}, "momentum": 0.99, "gamma_constraint": null, "trainable": true, "epsilon": 0.001}, "inbound_nodes": [[["conv2d_3", 0, 0, {}]]], "class_name": "BatchNormalization", "name": "batch_normalization_3"}, {"config": {"trainable": true, "name": "add_1"}, "inbound_nodes": [[["activation_1", 0, 0, {}], ["batch_normalization_3", 0, 0, {}]]], "class_name": "Add", "name": "add_1"}, {"config": {"trainable": true, "activation": "relu", "name": "activation_3"}, "inbound_nodes": [[["add_1", 0, 0, {}]]], "class_name": "Activation", "name": "activation_3"}, {"config": {"use_bias": true, "kernel_size": [3, 3], "activity_regularizer": null, "bias_initializer": {"config": {}, "class_name": "Zeros"}, "data_format": "channels_last", "trainable": true, "activation": "linear", "padding": "same", "kernel_initializer": {"config": {"distribution": "uniform", "seed": null, "scale": 1.0, "mode": "fan_avg"}, "class_name": "VarianceScaling"}, "name": "conv2d_4", "kernel_regularizer": {"config": {"l1": 0.0, "l2": 9.999999747378752e-05}, "class_name": "L1L2"}, "bias_regularizer": null, "filters": 16, "bias_constraint": null, "kernel_constraint": null, "dilation_rate": [1, 1], "strides": [1, 1]}, "inbound_nodes": [[["activation_3", 0, 0, {}]]], "class_name": "Conv2D", "name": "conv2d_4"}, {"config": {"scale": true, "beta_constraint": null, "gamma_initializer": {"config": {}, "class_name": "Ones"}, "gamma_regularizer": null, "center": true, "name": "batch_normalization_4", "moving_mean_initializer": {"config": {}, "class_name": "Zeros"}, "beta_regularizer": null, "axis": -1, "moving_variance_initializer": {"config": {}, "class_name": "Ones"}, "beta_initializer": {"config": {}, "class_name": "Zeros"}, "momentum": 0.99, "gamma_constraint": null, "trainable": true, "epsilon": 0.001}, "inbound_nodes": [[["conv2d_4", 0, 0, {}]]], "class_name": "BatchNormalization", "name": "batch_normalization_4"}, {"config": {"trainable": true, "activation": "relu", "name": "activation_4"}, "inbound_nodes": [[["batch_normalization_4", 0, 0, {}]]], "class_name": "Activation", "name": "activation_4"}, {"config": {"use_bias": true, "kernel_size": [3, 3], "activity_regularizer": null, "bias_initializer": {"config": {}, "class_name": "Zeros"}, "data_format": "channels_last", "trainable": true, "activation": "linear", "padding": "same", "kernel_initializer": {"config": {"distribution": "uniform", "seed": null, "scale": 1.0, "mode": "fan_avg"}, "class_name": "VarianceScaling"}, "name": "conv2d_5", "kernel_regularizer": {"config": {"l1": 0.0, "l2": 9.999999747378752e-05}, "class_name": "L1L2"}, "bias_regularizer": null, "filters": 16, "bias_constraint": null, "kernel_constraint": null, "dilation_rate": [1, 1], "strides": [1, 1]}, "inbound_nodes": [[["activation_4", 0, 0, {}]]], "class_name": "Conv2D", "name": "conv2d_5"}, {"config": {"scale": true, "beta_constraint": null, "gamma_initializer": {"config": {}, "class_name": "Ones"}, "gamma_regularizer": null, "center": true, "name": "batch_normalization_5", "moving_mean_initializer": {"config": {}, "class_name": "Zeros"}, "beta_regularizer": null, "axis": -1, "moving_variance_initializer": {"config": {}, "class_name": "Ones"}, "beta_initializer": {"config": {}, "class_name": "Zeros"}, "momentum": 0.99, "gamma_constraint": null, "trainable": true, "epsilon": 0.001}, "inbound_nodes": [[["conv2d_5", 0, 0, {}]]], "class_name": "BatchNormalization", "name": "batch_normalization_5"}, {"config": {"trainable": true, "name": "add_2"}, "inbound_nodes": [[["activation_3", 0, 0, {}], ["batch_normalization_5", 0, 0, {}]]], "class_name": "Add", "name": "add_2"}, {"config": {"trainable": true, "activation": "relu", "name": "activation_5"}, "inbound_nodes": [[["add_2", 0, 0, {}]]], "class_name": "Activation", "name": "activation_5"}, {"config": {"use_bias": true, "kernel_size": [3, 3], "activity_regularizer": null, "bias_initializer": {"config": {}, "class_name": "Zeros"}, "data_format": "channels_last", "trainable": true, "activation": "linear", "padding": "same", "kernel_initializer": {"config": {"distribution": "uniform", "seed": null, "scale": 1.0, "mode": "fan_avg"}, "class_name": "VarianceScaling"}, "name": "conv2d_6", "kernel_regularizer": {"config": {"l1": 0.0, "l2": 9.999999747378752e-05}, "class_name": "L1L2"}, "bias_regularizer": null, "filters": 16, "bias_constraint": null, "kernel_constraint": null, "dilation_rate": [1, 1], "strides": [1, 1]}, "inbound_nodes": [[["activation_5", 0, 0, {}]]], "class_name": "Conv2D", "name": "conv2d_6"}, {"config": {"scale": true, "beta_constraint": null, "gamma_initializer": {"config": {}, "class_name": "Ones"}, "gamma_regularizer": null, "center": true, "name": "batch_normalization_6", "moving_mean_initializer": {"config": {}, "class_name": "Zeros"}, "beta_regularizer": null, "axis": -1, "moving_variance_initializer": {"config": {}, "class_name": "Ones"}, "beta_initializer": {"config": {}, "class_name": "Zeros"}, "momentum": 0.99, "gamma_constraint": null, "trainable": true, "epsilon": 0.001}, "inbound_nodes": [[["conv2d_6", 0, 0, {}]]], "class_name": "BatchNormalization", "name": "batch_normalization_6"}, {"config": {"trainable": true, "activation": "relu", "name": "activation_6"}, "inbound_nodes": [[["batch_normalization_6", 0, 0, {}]]], "class_name": "Activation", "name": "activation_6"}, {"config": {"use_bias": true, "kernel_size": [3, 3], "activity_regularizer": null, "bias_initializer": {"config": {}, "class_name": "Zeros"}, "data_format": "channels_last", "trainable": true, "activation": "linear", "padding": "same", "kernel_initializer": {"config": {"distribution": "uniform", "seed": null, "scale": 1.0, "mode": "fan_avg"}, "class_name": "VarianceScaling"}, "name": "conv2d_7", "kernel_regularizer": {"config": {"l1": 0.0, "l2": 9.999999747378752e-05}, "class_name": "L1L2"}, "bias_regularizer": null, "filters": 16, "bias_constraint": null, "kernel_constraint": null, "dilation_rate": [1, 1], "strides": [1, 1]}, "inbound_nodes": [[["activation_6", 0, 0, {}]]], "class_name": "Conv2D", "name": "conv2d_7"}, {"config": {"scale": true, "beta_constraint": null, "gamma_initializer": {"config": {}, "class_name": "Ones"}, "gamma_regularizer": null, "center": true, "name": "batch_normalization_7", "moving_mean_initializer": {"config": {}, "class_name": "Zeros"}, "beta_regularizer": null, "axis": -1, "moving_variance_initializer": {"config": {}, "class_name": "Ones"}, "beta_initializer": {"config": {}, "class_name": "Zeros"}, "momentum": 0.99, "gamma_constraint": null, "trainable": true, "epsilon": 0.001}, "inbound_nodes": [[["conv2d_7", 0, 0, {}]]], "class_name": "BatchNormalization", "name": "batch_normalization_7"}, {"config": {"trainable": true, "name": "add_3"}, "inbound_nodes": [[["activation_5", 0, 0, {}], ["batch_normalization_7", 0, 0, {}]]], "class_name": "Add", "name": "add_3"}, {"config": {"trainable": true, "activation": "relu", "name": "activation_7"}, "inbound_nodes": [[["add_3", 0, 0, {}]]], "class_name": "Activation", "name": "activation_7"}, {"config": {"use_bias": true, "kernel_size": [3, 3], "activity_regularizer": null, "bias_initializer": {"config": {}, "class_name": "Zeros"}, "data_format": "channels_last", "trainable": true, "activation": "linear", "padding": "same", "kernel_initializer": {"config": {"distribution": "uniform", "seed": null, "scale": 1.0, "mode": "fan_avg"}, "class_name": "VarianceScaling"}, "name": "conv2d_8", "kernel_regularizer": {"config": {"l1": 0.0, "l2": 9.999999747378752e-05}, "class_name": "L1L2"}, "bias_regularizer": null, "filters": 16, "bias_constraint": null, "kernel_constraint": null, "dilation_rate": [1, 1], "strides": [1, 1]}, "inbound_nodes": [[["activation_7", 0, 0, {}]]], "class_name": "Conv2D", "name": "conv2d_8"}, {"config": {"scale": true, "beta_constraint": null, "gamma_initializer": {"config": {}, "class_name": "Ones"}, "gamma_regularizer": null, "center": true, "name": "batch_normalization_8", "moving_mean_initializer": {"config": {}, "class_name": "Zeros"}, "beta_regularizer": null, "axis": -1, "moving_variance_initializer": {"config": {}, "class_name": "Ones"}, "beta_initializer": {"config": {}, "class_name": "Zeros"}, "momentum": 0.99, "gamma_constraint": null, "trainable": true, "epsilon": 0.001}, "inbound_nodes": [[["conv2d_8", 0, 0, {}]]], "class_name": "BatchNormalization", "name": "batch_normalization_8"}, {"config": {"trainable": true, "activation": "relu", "name": "activation_8"}, "inbound_nodes": [[["batch_normalization_8", 0, 0, {}]]], "class_name": "Activation", "name": "activation_8"}, {"config": {"use_bias": true, "kernel_size": [3, 3], "activity_regularizer": null, "bias_initializer": {"config": {}, "class_name": "Zeros"}, "data_format": "channels_last", "trainable": true, "activation": "linear", "padding": "same", "kernel_initializer": {"config": {"distribution": "uniform", "seed": null, "scale": 1.0, "mode": "fan_avg"}, "class_name": "VarianceScaling"}, "name": "conv2d_9", "kernel_regularizer": {"config": {"l1": 0.0, "l2": 9.999999747378752e-05}, "class_name": "L1L2"}, "bias_regularizer": null, "filters": 16, "bias_constraint": null, "kernel_constraint": null, "dilation_rate": [1, 1], "strides": [1, 1]}, "inbound_nodes": [[["activation_8", 0, 0, {}]]], "class_name": "Conv2D", "name": "conv2d_9"}, {"config": {"scale": true, "beta_constraint": null, "gamma_initializer": {"config": {}, "class_name": "Ones"}, "gamma_regularizer": null, "center": true, "name": "batch_normalization_9", "moving_mean_initializer": {"config": {}, "class_name": "Zeros"}, "beta_regularizer": null, "axis": -1, "moving_variance_initializer": {"config": {}, "class_name": "Ones"}, "beta_initializer": {"config": {}, "class_name": "Zeros"}, "momentum": 0.99, "gamma_constraint": null, "trainable": true, "epsilon": 0.001}, "inbound_nodes": [[["conv2d_9", 0, 0, {}]]], "class_name": "BatchNormalization", "name": "batch_normalization_9"}, {"config": {"trainable": true, "name": "add_4"}, "inbound_nodes": [[["activation_7", 0, 0, {}], ["batch_normalization_9", 0, 0, {}]]], "class_name": "Add", "name": "add_4"}, {"config": {"trainable": true, "activation": "relu", "name": "activation_9"}, "inbound_nodes": [[["add_4", 0, 0, {}]]], "class_name": "Activation", "name": "activation_9"}, {"config": {"use_bias": true, "kernel_size": [3, 3], "activity_regularizer": null, "bias_initializer": {"config": {}, "class_name": "Zeros"}, "data_format": "channels_last", "trainable": true, "activation": "linear", "padding": "same", "kernel_initializer": {"config": {"distribution": "uniform", "seed": null, "scale": 1.0, "mode": "fan_avg"}, "class_name": "VarianceScaling"}, "name": "conv2d_10", "kernel_regularizer": {"config": {"l1": 0.0, "l2": 9.999999747378752e-05}, "class_name": "L1L2"}, "bias_regularizer": null, "filters": 14, "bias_constraint": null, "kernel_constraint": null, "dilation_rate": [1, 1], "strides": [1, 1]}, "inbound_nodes": [[["activation_9", 0, 0, {}]]], "class_name": "Conv2D", "name": "conv2d_10"}, {"config": {"scale": true, "beta_constraint": null, "gamma_initializer": {"config": {}, "class_name": "Ones"}, "gamma_regularizer": null, "center": true, "name": "batch_normalization_10", "moving_mean_initializer": {"config": {}, "class_name": "Zeros"}, "beta_regularizer": null, "axis": -1, "moving_variance_initializer": {"config": {}, "class_name": "Ones"}, "beta_initializer": {"config": {}, "class_name": "Zeros"}, "momentum": 0.99, "gamma_constraint": null, "trainable": true, "epsilon": 0.001}, "inbound_nodes": [[["conv2d_10", 0, 0, {}]]], "class_name": "BatchNormalization", "name": "batch_normalization_10"}, {"config": {"trainable": true, "activation": "relu", "name": "activation_10"}, "inbound_nodes": [[["batch_normalization_10", 0, 0, {}]]], "class_name": "Activation", "name": "activation_10"}, {"config": {"use_bias": true, "kernel_size": [3, 3], "activity_regularizer": null, "bias_initializer": {"config": {}, "class_name": "Zeros"}, "data_format": "channels_last", "trainable": true, "activation": "linear", "padding": "same", "kernel_initializer": {"config": {"distribution": "uniform", "seed": null, "scale": 1.0, "mode": "fan_avg"}, "class_name": "VarianceScaling"}, "name": "conv2d_11", "kernel_regularizer": {"config": {"l1": 0.0, "l2": 9.999999747378752e-05}, "class_name": "L1L2"}, "bias_regularizer": null, "filters": 16, "bias_constraint": null, "kernel_constraint": null, "dilation_rate": [1, 1], "strides": [1, 1]}, "inbound_nodes": [[["activation_10", 0, 0, {}]]], "class_name": "Conv2D", "name": "conv2d_11"}, {"config": {"scale": true, "beta_constraint": null, "gamma_initializer": {"config": {}, "class_name": "Ones"}, "gamma_regularizer": null, "center": true, "name": "batch_normalization_11", "moving_mean_initializer": {"config": {}, "class_name": "Zeros"}, "beta_regularizer": null, "axis": -1, "moving_variance_initializer": {"config": {}, "class_name": "Ones"}, "beta_initializer": {"config": {}, "class_name": "Zeros"}, "momentum": 0.99, "gamma_constraint": null, "trainable": true, "epsilon": 0.001}, "inbound_nodes": [[["conv2d_11", 0, 0, {}]]], "class_name": "BatchNormalization", "name": "batch_normalization_11"}, {"config": {"trainable": true, "name": "add_5"}, "inbound_nodes": [[["activation_9", 0, 0, {}], ["batch_normalization_11", 0, 0, {}]]], "class_name": "Add", "name": "add_5"}, {"config": {"trainable": true, "activation": "relu", "name": "activation_11"}, "inbound_nodes": [[["add_5", 0, 0, {}]]], "class_name": "Activation", "name": "activation_11"}, {"config": {"use_bias": true, "kernel_size": [3, 3], "activity_regularizer": null, "bias_initializer": {"config": {}, "class_name": "Zeros"}, "data_format": "channels_last", "trainable": true, "activation": "linear", "padding": "same", "kernel_initializer": {"config": {"distribution": "uniform", "seed": null, "scale": 1.0, "mode": "fan_avg"}, "class_name": "VarianceScaling"}, "name": "conv2d_12", "kernel_regularizer": {"config": {"l1": 0.0, "l2": 9.999999747378752e-05}, "class_name": "L1L2"}, "bias_regularizer": null, "filters": 15, "bias_constraint": null, "kernel_constraint": null, "dilation_rate": [1, 1], "strides": [1, 1]}, "inbound_nodes": [[["activation_11", 0, 0, {}]]], "class_name": "Conv2D", "name": "conv2d_12"}, {"config": {"scale": true, "beta_constraint": null, "gamma_initializer": {"config": {}, "class_name": "Ones"}, "gamma_regularizer": null, "center": true, "name": "batch_normalization_12", "moving_mean_initializer": {"config": {}, "class_name": "Zeros"}, "beta_regularizer": null, "axis": -1, "moving_variance_initializer": {"config": {}, "class_name": "Ones"}, "beta_initializer": {"config": {}, "class_name": "Zeros"}, "momentum": 0.99, "gamma_constraint": null, "trainable": true, "epsilon": 0.001}, "inbound_nodes": [[["conv2d_12", 0, 0, {}]]], "class_name": "BatchNormalization", "name": "batch_normalization_12"}, {"config": {"trainable": true, "activation": "relu", "name": "activation_12"}, "inbound_nodes": [[["batch_normalization_12", 0, 0, {}]]], "class_name": "Activation", "name": "activation_12"}, {"config": {"use_bias": true, "kernel_size": [3, 3], "activity_regularizer": null, "bias_initializer": {"config": {}, "class_name": "Zeros"}, "data_format": "channels_last", "trainable": true, "activation": "linear", "padding": "same", "kernel_initializer": {"config": {"distribution": "uniform", "seed": null, "scale": 1.0, "mode": "fan_avg"}, "class_name": "VarianceScaling"}, "name": "conv2d_13", "kernel_regularizer": {"config": {"l1": 0.0, "l2": 9.999999747378752e-05}, "class_name": "L1L2"}, "bias_regularizer": null, "filters": 16, "bias_constraint": null, "kernel_constraint": null, "dilation_rate": [1, 1], "strides": [1, 1]}, "inbound_nodes": [[["activation_12", 0, 0, {}]]], "class_name": "Conv2D", "name": "conv2d_13"}, {"config": {"scale": true, "beta_constraint": null, "gamma_initializer": {"config": {}, "class_name": "Ones"}, "gamma_regularizer": null, "center": true, "name": "batch_normalization_13", "moving_mean_initializer": {"config": {}, "class_name": "Zeros"}, "beta_regularizer": null, "axis": -1, "moving_variance_initializer": {"config": {}, "class_name": "Ones"}, "beta_initializer": {"config": {}, "class_name": "Zeros"}, "momentum": 0.99, "gamma_constraint": null, "trainable": true, "epsilon": 0.001}, "inbound_nodes": [[["conv2d_13", 0, 0, {}]]], "class_name": "BatchNormalization", "name": "batch_normalization_13"}, {"config": {"trainable": true, "name": "add_6"}, "inbound_nodes": [[["activation_11", 0, 0, {}], ["batch_normalization_13", 0, 0, {}]]], "class_name": "Add", "name": "add_6"}, {"config": {"trainable": true, "activation": "relu", "name": "activation_13"}, "inbound_nodes": [[["add_6", 0, 0, {}]]], "class_name": "Activation", "name": "activation_13"}, {"config": {"use_bias": true, "kernel_size": [3, 3], "activity_regularizer": null, "bias_initializer": {"config": {}, "class_name": "Zeros"}, "data_format": "channels_last", "trainable": true, "activation": "linear", "padding": "same", "kernel_initializer": {"config": {"distribution": "uniform", "seed": null, "scale": 1.0, "mode": "fan_avg"}, "class_name": "VarianceScaling"}, "name": "conv2d_14", "kernel_regularizer": {"config": {"l1": 0.0, "l2": 9.999999747378752e-05}, "class_name": "L1L2"}, "bias_regularizer": null, "filters": 16, "bias_constraint": null, "kernel_constraint": null, "dilation_rate": [1, 1], "strides": [1, 1]}, "inbound_nodes": [[["activation_13", 0, 0, {}]]], "class_name": "Conv2D", "name": "conv2d_14"}, {"config": {"scale": true, "beta_constraint": null, "gamma_initializer": {"config": {}, "class_name": "Ones"}, "gamma_regularizer": null, "center": true, "name": "batch_normalization_14", "moving_mean_initializer": {"config": {}, "class_name": "Zeros"}, "beta_regularizer": null, "axis": -1, "moving_variance_initializer": {"config": {}, "class_name": "Ones"}, "beta_initializer": {"config": {}, "class_name": "Zeros"}, "momentum": 0.99, "gamma_constraint": null, "trainable": true, "epsilon": 0.001}, "inbound_nodes": [[["conv2d_14", 0, 0, {}]]], "class_name": "BatchNormalization", "name": "batch_normalization_14"}, {"config": {"trainable": true, "activation": "relu", "name": "activation_14"}, "inbound_nodes": [[["batch_normalization_14", 0, 0, {}]]], "class_name": "Activation", "name": "activation_14"}, {"config": {"use_bias": true, "kernel_size": [3, 3], "activity_regularizer": null, "bias_initializer": {"config": {}, "class_name": "Zeros"}, "data_format": "channels_last", "trainable": true, "activation": "linear", "padding": "same", "kernel_initializer": {"config": {"distribution": "uniform", "seed": null, "scale": 1.0, "mode": "fan_avg"}, "class_name": "VarianceScaling"}, "name": "conv2d_15", "kernel_regularizer": {"config": {"l1": 0.0, "l2": 9.999999747378752e-05}, "class_name": "L1L2"}, "bias_regularizer": null, "filters": 16, "bias_constraint": null, "kernel_constraint": null, "dilation_rate": [1, 1], "strides": [1, 1]}, "inbound_nodes": [[["activation_14", 0, 0, {}]]], "class_name": "Conv2D", "name": "conv2d_15"}, {"config": {"scale": true, "beta_constraint": null, "gamma_initializer": {"config": {}, "class_name": "Ones"}, "gamma_regularizer": null, "center": true, "name": "batch_normalization_15", "moving_mean_initializer": {"config": {}, "class_name": "Zeros"}, "beta_regularizer": null, "axis": -1, "moving_variance_initializer": {"config": {}, "class_name": "Ones"}, "beta_initializer": {"config": {}, "class_name": "Zeros"}, "momentum": 0.99, "gamma_constraint": null, "trainable": true, "epsilon": 0.001}, "inbound_nodes": [[["conv2d_15", 0, 0, {}]]], "class_name": "BatchNormalization", "name": "batch_normalization_15"}, {"config": {"trainable": true, "name": "add_7"}, "inbound_nodes": [[["activation_13", 0, 0, {}], ["batch_normalization_15", 0, 0, {}]]], "class_name": "Add", "name": "add_7"}, {"config": {"trainable": true, "activation": "relu", "name": "activation_15"}, "inbound_nodes": [[["add_7", 0, 0, {}]]], "class_name": "Activation", "name": "activation_15"}, {"config": {"use_bias": true, "kernel_size": [3, 3], "activity_regularizer": null, "bias_initializer": {"config": {}, "class_name": "Zeros"}, "data_format": "channels_last", "trainable": true, "activation": "linear", "padding": "same", "kernel_initializer": {"config": {"distribution": "uniform", "seed": null, "scale": 1.0, "mode": "fan_avg"}, "class_name": "VarianceScaling"}, "name": "conv2d_16", "kernel_regularizer": {"config": {"l1": 0.0, "l2": 9.999999747378752e-05}, "class_name": "L1L2"}, "bias_regularizer": null, "filters": 16, "bias_constraint": null, "kernel_constraint": null, "dilation_rate": [1, 1], "strides": [1, 1]}, "inbound_nodes": [[["activation_15", 0, 0, {}]]], "class_name": "Conv2D", "name": "conv2d_16"}, {"config": {"scale": true, "beta_constraint": null, "gamma_initializer": {"config": {}, "class_name": "Ones"}, "gamma_regularizer": null, "center": true, "name": "batch_normalization_16", "moving_mean_initializer": {"config": {}, "class_name": "Zeros"}, "beta_regularizer": null, "axis": -1, "moving_variance_initializer": {"config": {}, "class_name": "Ones"}, "beta_initializer": {"config": {}, "class_name": "Zeros"}, "momentum": 0.99, "gamma_constraint": null, "trainable": true, "epsilon": 0.001}, "inbound_nodes": [[["conv2d_16", 0, 0, {}]]], "class_name": "BatchNormalization", "name": "batch_normalization_16"}, {"config": {"trainable": true, "activation": "relu", "name": "activation_16"}, "inbound_nodes": [[["batch_normalization_16", 0, 0, {}]]], "class_name": "Activation", "name": "activation_16"}, {"config": {"use_bias": true, "kernel_size": [3, 3], "activity_regularizer": null, "bias_initializer": {"config": {}, "class_name": "Zeros"}, "data_format": "channels_last", "trainable": true, "activation": "linear", "padding": "same", "kernel_initializer": {"config": {"distribution": "uniform", "seed": null, "scale": 1.0, "mode": "fan_avg"}, "class_name": "VarianceScaling"}, "name": "conv2d_17", "kernel_regularizer": {"config": {"l1": 0.0, "l2": 9.999999747378752e-05}, "class_name": "L1L2"}, "bias_regularizer": null, "filters": 16, "bias_constraint": null, "kernel_constraint": null, "dilation_rate": [1, 1], "strides": [1, 1]}, "inbound_nodes": [[["activation_16", 0, 0, {}]]], "class_name": "Conv2D", "name": "conv2d_17"}, {"config": {"scale": true, "beta_constraint": null, "gamma_initializer": {"config": {}, "class_name": "Ones"}, "gamma_regularizer": null, "center": true, "name": "batch_normalization_17", "moving_mean_initializer": {"config": {}, "class_name": "Zeros"}, "beta_regularizer": null, "axis": -1, "moving_variance_initializer": {"config": {}, "class_name": "Ones"}, "beta_initializer": {"config": {}, "class_name": "Zeros"}, "momentum": 0.99, "gamma_constraint": null, "trainable": true, "epsilon": 0.001}, "inbound_nodes": [[["conv2d_17", 0, 0, {}]]], "class_name": "BatchNormalization", "name": "batch_normalization_17"}, {"config": {"trainable": true, "name": "add_8"}, "inbound_nodes": [[["activation_15", 0, 0, {}], ["batch_normalization_17", 0, 0, {}]]], "class_name": "Add", "name": "add_8"}, {"config": {"trainable": true, "activation": "relu", "name": "activation_17"}, "inbound_nodes": [[["add_8", 0, 0, {}]]], "class_name": "Activation", "name": "activation_17"}, {"config": {"use_bias": true, "kernel_size": [3, 3], "activity_regularizer": null, "bias_initializer": {"config": {}, "class_name": "Zeros"}, "data_format": "channels_last", "trainable": true, "activation": "linear", "padding": "same", "kernel_initializer": {"config": {"distribution": "uniform", "seed": null, "scale": 1.0, "mode": "fan_avg"}, "class_name": "VarianceScaling"}, "name": "conv2d_18", "kernel_regularizer": {"config": {"l1": 0.0, "l2": 9.999999747378752e-05}, "class_name": "L1L2"}, "bias_regularizer": null, "filters": 16, "bias_constraint": null, "kernel_constraint": null, "dilation_rate": [1, 1], "strides": [1, 1]}, "inbound_nodes": [[["activation_17", 0, 0, {}]]], "class_name": "Conv2D", "name": "conv2d_18"}, {"config": {"scale": true, "beta_constraint": null, "gamma_initializer": {"config": {}, "class_name": "Ones"}, "gamma_regularizer": null, "center": true, "name": "batch_normalization_18", "moving_mean_initializer": {"config": {}, "class_name": "Zeros"}, "beta_regularizer": null, "axis": -1, "moving_variance_initializer": {"config": {}, "class_name": "Ones"}, "beta_initializer": {"config": {}, "class_name": "Zeros"}, "momentum": 0.99, "gamma_constraint": null, "trainable": true, "epsilon": 0.001}, "inbound_nodes": [[["conv2d_18", 0, 0, {}]]], "class_name": "BatchNormalization", "name": "batch_normalization_18"}, {"config": {"trainable": true, "activation": "relu", "name": "activation_18"}, "inbound_nodes": [[["batch_normalization_18", 0, 0, {}]]], "class_name": "Activation", "name": "activation_18"}, {"config": {"use_bias": true, "kernel_size": [3, 3], "activity_regularizer": null, "bias_initializer": {"config": {}, "class_name": "Zeros"}, "data_format": "channels_last", "trainable": true, "activation": "linear", "padding": "same", "kernel_initializer": {"config": {"distribution": "uniform", "seed": null, "scale": 1.0, "mode": "fan_avg"}, "class_name": "VarianceScaling"}, "name": "conv2d_19", "kernel_regularizer": {"config": {"l1": 0.0, "l2": 9.999999747378752e-05}, "class_name": "L1L2"}, "bias_regularizer": null, "filters": 16, "bias_constraint": null, "kernel_constraint": null, "dilation_rate": [1, 1], "strides": [1, 1]}, "inbound_nodes": [[["activation_18", 0, 0, {}]]], "class_name": "Conv2D", "name": "conv2d_19"}, {"config": {"scale": true, "beta_constraint": null, "gamma_initializer": {"config": {}, "class_name": "Ones"}, "gamma_regularizer": null, "center": true, "name": "batch_normalization_19", "moving_mean_initializer": {"config": {}, "class_name": "Zeros"}, "beta_regularizer": null, "axis": -1, "moving_variance_initializer": {"config": {}, "class_name": "Ones"}, "beta_initializer": {"config": {}, "class_name": "Zeros"}, "momentum": 0.99, "gamma_constraint": null, "trainable": true, "epsilon": 0.001}, "inbound_nodes": [[["conv2d_19", 0, 0, {}]]], "class_name": "BatchNormalization", "name": "batch_normalization_19"}, {"config": {"trainable": true, "name": "add_9"}, "inbound_nodes": [[["activation_17", 0, 0, {}], ["batch_normalization_19", 0, 0, {}]]], "class_name": "Add", "name": "add_9"}, {"config": {"trainable": true, "activation": "relu", "name": "activation_19"}, "inbound_nodes": [[["add_9", 0, 0, {}]]], "class_name": "Activation", "name": "activation_19"}, {"config": {"use_bias": true, "kernel_size": [3, 3], "activity_regularizer": null, "bias_initializer": {"config": {}, "class_name": "Zeros"}, "data_format": "channels_last", "trainable": true, "activation": "linear", "padding": "same", "kernel_initializer": {"config": {"distribution": "uniform", "seed": null, "scale": 1.0, "mode": "fan_avg"}, "class_name": "VarianceScaling"}, "name": "conv2d_20", "kernel_regularizer": {"config": {"l1": 0.0, "l2": 9.999999747378752e-05}, "class_name": "L1L2"}, "bias_regularizer": null, "filters": 32, "bias_constraint": null, "kernel_constraint": null, "dilation_rate": [1, 1], "strides": [2, 2]}, "inbound_nodes": [[["activation_19", 0, 0, {}]]], "class_name": "Conv2D", "name": "conv2d_20"}, {"config": {"scale": true, "beta_constraint": null, "gamma_initializer": {"config": {}, "class_name": "Ones"}, "gamma_regularizer": null, "center": true, "name": "batch_normalization_20", "moving_mean_initializer": {"config": {}, "class_name": "Zeros"}, "beta_regularizer": null, "axis": -1, "moving_variance_initializer": {"config": {}, "class_name": "Ones"}, "beta_initializer": {"config": {}, "class_name": "Zeros"}, "momentum": 0.99, "gamma_constraint": null, "trainable": true, "epsilon": 0.001}, "inbound_nodes": [[["conv2d_20", 0, 0, {}]]], "class_name": "BatchNormalization", "name": "batch_normalization_20"}, {"config": {"trainable": true, "activation": "relu", "name": "activation_20"}, "inbound_nodes": [[["batch_normalization_20", 0, 0, {}]]], "class_name": "Activation", "name": "activation_20"}, {"config": {"use_bias": true, "kernel_size": [3, 3], "activity_regularizer": null, "bias_initializer": {"config": {}, "class_name": "Zeros"}, "data_format": "channels_last", "trainable": true, "activation": "linear", "padding": "same", "kernel_initializer": {"config": {"distribution": "uniform", "seed": null, "scale": 1.0, "mode": "fan_avg"}, "class_name": "VarianceScaling"}, "name": "conv2d_21", "kernel_regularizer": {"config": {"l1": 0.0, "l2": 9.999999747378752e-05}, "class_name": "L1L2"}, "bias_regularizer": null, "filters": 32, "bias_constraint": null, "kernel_constraint": null, "dilation_rate": [1, 1], "strides": [1, 1]}, "inbound_nodes": [[["activation_20", 0, 0, {}]]], "class_name": "Conv2D", "name": "conv2d_21"}, {"config": {"use_bias": true, "kernel_size": [1, 1], "activity_regularizer": null, "bias_initializer": {"config": {}, "class_name": "Zeros"}, "data_format": "channels_last", "trainable": true, "activation": "linear", "padding": "same", "kernel_initializer": {"config": {"distribution": "uniform", "seed": null, "scale": 1.0, "mode": "fan_avg"}, "class_name": "VarianceScaling"}, "name": "conv2d_22", "kernel_regularizer": {"config": {"l1": 0.0, "l2": 9.999999747378752e-05}, "class_name": "L1L2"}, "bias_regularizer": null, "filters": 32, "bias_constraint": null, "kernel_constraint": null, "dilation_rate": [1, 1], "strides": [2, 2]}, "inbound_nodes": [[["activation_19", 0, 0, {}]]], "class_name": "Conv2D", "name": "conv2d_22"}, {"config": {"scale": true, "beta_constraint": null, "gamma_initializer": {"config": {}, "class_name": "Ones"}, "gamma_regularizer": null, "center": true, "name": "batch_normalization_21", "moving_mean_initializer": {"config": {}, "class_name": "Zeros"}, "beta_regularizer": null, "axis": -1, "moving_variance_initializer": {"config": {}, "class_name": "Ones"}, "beta_initializer": {"config": {}, "class_name": "Zeros"}, "momentum": 0.99, "gamma_constraint": null, "trainable": true, "epsilon": 0.001}, "inbound_nodes": [[["conv2d_21", 0, 0, {}]]], "class_name": "BatchNormalization", "name": "batch_normalization_21"}, {"config": {"trainable": true, "name": "add_10"}, "inbound_nodes": [[["conv2d_22", 0, 0, {}], ["batch_normalization_21", 0, 0, {}]]], "class_name": "Add", "name": "add_10"}, {"config": {"trainable": true, "activation": "relu", "name": "activation_21"}, "inbound_nodes": [[["add_10", 0, 0, {}]]], "class_name": "Activation", "name": "activation_21"}, {"config": {"use_bias": true, "kernel_size": [3, 3], "activity_regularizer": null, "bias_initializer": {"config": {}, "class_name": "Zeros"}, "data_format": "channels_last", "trainable": true, "activation": "linear", "padding": "same", "kernel_initializer": {"config": {"distribution": "uniform", "seed": null, "scale": 1.0, "mode": "fan_avg"}, "class_name": "VarianceScaling"}, "name": "conv2d_23", "kernel_regularizer": {"config": {"l1": 0.0, "l2": 9.999999747378752e-05}, "class_name": "L1L2"}, "bias_regularizer": null, "filters": 32, "bias_constraint": null, "kernel_constraint": null, "dilation_rate": [1, 1], "strides": [1, 1]}, "inbound_nodes": [[["activation_21", 0, 0, {}]]], "class_name": "Conv2D", "name": "conv2d_23"}, {"config": {"scale": true, "beta_constraint": null, "gamma_initializer": {"config": {}, "class_name": "Ones"}, "gamma_regularizer": null, "center": true, "name": "batch_normalization_22", "moving_mean_initializer": {"config": {}, "class_name": "Zeros"}, "beta_regularizer": null, "axis": -1, "moving_variance_initializer": {"config": {}, "class_name": "Ones"}, "beta_initializer": {"config": {}, "class_name": "Zeros"}, "momentum": 0.99, "gamma_constraint": null, "trainable": true, "epsilon": 0.001}, "inbound_nodes": [[["conv2d_23", 0, 0, {}]]], "class_name": "BatchNormalization", "name": "batch_normalization_22"}, {"config": {"trainable": true, "activation": "relu", "name": "activation_22"}, "inbound_nodes": [[["batch_normalization_22", 0, 0, {}]]], "class_name": "Activation", "name": "activation_22"}, {"config": {"use_bias": true, "kernel_size": [3, 3], "activity_regularizer": null, "bias_initializer": {"config": {}, "class_name": "Zeros"}, "data_format": "channels_last", "trainable": true, "activation": "linear", "padding": "same", "kernel_initializer": {"config": {"distribution": "uniform", "seed": null, "scale": 1.0, "mode": "fan_avg"}, "class_name": "VarianceScaling"}, "name": "conv2d_24", "kernel_regularizer": {"config": {"l1": 0.0, "l2": 9.999999747378752e-05}, "class_name": "L1L2"}, "bias_regularizer": null, "filters": 32, "bias_constraint": null, "kernel_constraint": null, "dilation_rate": [1, 1], "strides": [1, 1]}, "inbound_nodes": [[["activation_22", 0, 0, {}]]], "class_name": "Conv2D", "name": "conv2d_24"}, {"config": {"scale": true, "beta_constraint": null, "gamma_initializer": {"config": {}, "class_name": "Ones"}, "gamma_regularizer": null, "center": true, "name": "batch_normalization_23", "moving_mean_initializer": {"config": {}, "class_name": "Zeros"}, "beta_regularizer": null, "axis": -1, "moving_variance_initializer": {"config": {}, "class_name": "Ones"}, "beta_initializer": {"config": {}, "class_name": "Zeros"}, "momentum": 0.99, "gamma_constraint": null, "trainable": true, "epsilon": 0.001}, "inbound_nodes": [[["conv2d_24", 0, 0, {}]]], "class_name": "BatchNormalization", "name": "batch_normalization_23"}, {"config": {"trainable": true, "name": "add_11"}, "inbound_nodes": [[["activation_21", 0, 0, {}], ["batch_normalization_23", 0, 0, {}]]], "class_name": "Add", "name": "add_11"}, {"config": {"trainable": true, "activation": "relu", "name": "activation_23"}, "inbound_nodes": [[["add_11", 0, 0, {}]]], "class_name": "Activation", "name": "activation_23"}, {"config": {"use_bias": true, "kernel_size": [3, 3], "activity_regularizer": null, "bias_initializer": {"config": {}, "class_name": "Zeros"}, "data_format": "channels_last", "trainable": true, "activation": "linear", "padding": "same", "kernel_initializer": {"config": {"distribution": "uniform", "seed": null, "scale": 1.0, "mode": "fan_avg"}, "class_name": "VarianceScaling"}, "name": "conv2d_25", "kernel_regularizer": {"config": {"l1": 0.0, "l2": 9.999999747378752e-05}, "class_name": "L1L2"}, "bias_regularizer": null, "filters": 32, "bias_constraint": null, "kernel_constraint": null, "dilation_rate": [1, 1], "strides": [1, 1]}, "inbound_nodes": [[["activation_23", 0, 0, {}]]], "class_name": "Conv2D", "name": "conv2d_25"}, {"config": {"scale": true, "beta_constraint": null, "gamma_initializer": {"config": {}, "class_name": "Ones"}, "gamma_regularizer": null, "center": true, "name": "batch_normalization_24", "moving_mean_initializer": {"config": {}, "class_name": "Zeros"}, "beta_regularizer": null, "axis": -1, "moving_variance_initializer": {"config": {}, "class_name": "Ones"}, "beta_initializer": {"config": {}, "class_name": "Zeros"}, "momentum": 0.99, "gamma_constraint": null, "trainable": true, "epsilon": 0.001}, "inbound_nodes": [[["conv2d_25", 0, 0, {}]]], "class_name": "BatchNormalization", "name": "batch_normalization_24"}, {"config": {"trainable": true, "activation": "relu", "name": "activation_24"}, "inbound_nodes": [[["batch_normalization_24", 0, 0, {}]]], "class_name": "Activation", "name": "activation_24"}, {"config": {"use_bias": true, "kernel_size": [3, 3], "activity_regularizer": null, "bias_initializer": {"config": {}, "class_name": "Zeros"}, "data_format": "channels_last", "trainable": true, "activation": "linear", "padding": "same", "kernel_initializer": {"config": {"distribution": "uniform", "seed": null, "scale": 1.0, "mode": "fan_avg"}, "class_name": "VarianceScaling"}, "name": "conv2d_26", "kernel_regularizer": {"config": {"l1": 0.0, "l2": 9.999999747378752e-05}, "class_name": "L1L2"}, "bias_regularizer": null, "filters": 32, "bias_constraint": null, "kernel_constraint": null, "dilation_rate": [1, 1], "strides": [1, 1]}, "inbound_nodes": [[["activation_24", 0, 0, {}]]], "class_name": "Conv2D", "name": "conv2d_26"}, {"config": {"scale": true, "beta_constraint": null, "gamma_initializer": {"config": {}, "class_name": "Ones"}, "gamma_regularizer": null, "center": true, "name": "batch_normalization_25", "moving_mean_initializer": {"config": {}, "class_name": "Zeros"}, "beta_regularizer": null, "axis": -1, "moving_variance_initializer": {"config": {}, "class_name": "Ones"}, "beta_initializer": {"config": {}, "class_name": "Zeros"}, "momentum": 0.99, "gamma_constraint": null, "trainable": true, "epsilon": 0.001}, "inbound_nodes": [[["conv2d_26", 0, 0, {}]]], "class_name": "BatchNormalization", "name": "batch_normalization_25"}, {"config": {"trainable": true, "name": "add_12"}, "inbound_nodes": [[["activation_23", 0, 0, {}], ["batch_normalization_25", 0, 0, {}]]], "class_name": "Add", "name": "add_12"}, {"config": {"trainable": true, "activation": "relu", "name": "activation_25"}, "inbound_nodes": [[["add_12", 0, 0, {}]]], "class_name": "Activation", "name": "activation_25"}, {"config": {"use_bias": true, "kernel_size": [3, 3], "activity_regularizer": null, "bias_initializer": {"config": {}, "class_name": "Zeros"}, "data_format": "channels_last", "trainable": true, "activation": "linear", "padding": "same", "kernel_initializer": {"config": {"distribution": "uniform", "seed": null, "scale": 1.0, "mode": "fan_avg"}, "class_name": "VarianceScaling"}, "name": "conv2d_27", "kernel_regularizer": {"config": {"l1": 0.0, "l2": 9.999999747378752e-05}, "class_name": "L1L2"}, "bias_regularizer": null, "filters": 30, "bias_constraint": null, "kernel_constraint": null, "dilation_rate": [1, 1], "strides": [1, 1]}, "inbound_nodes": [[["activation_25", 0, 0, {}]]], "class_name": "Conv2D", "name": "conv2d_27"}, {"config": {"scale": true, "beta_constraint": null, "gamma_initializer": {"config": {}, "class_name": "Ones"}, "gamma_regularizer": null, "center": true, "name": "batch_normalization_26", "moving_mean_initializer": {"config": {}, "class_name": "Zeros"}, "beta_regularizer": null, "axis": -1, "moving_variance_initializer": {"config": {}, "class_name": "Ones"}, "beta_initializer": {"config": {}, "class_name": "Zeros"}, "momentum": 0.99, "gamma_constraint": null, "trainable": true, "epsilon": 0.001}, "inbound_nodes": [[["conv2d_27", 0, 0, {}]]], "class_name": "BatchNormalization", "name": "batch_normalization_26"}, {"config": {"trainable": true, "activation": "relu", "name": "activation_26"}, "inbound_nodes": [[["batch_normalization_26", 0, 0, {}]]], "class_name": "Activation", "name": "activation_26"}, {"config": {"use_bias": true, "kernel_size": [3, 3], "activity_regularizer": null, "bias_initializer": {"config": {}, "class_name": "Zeros"}, "data_format": "channels_last", "trainable": true, "activation": "linear", "padding": "same", "kernel_initializer": {"config": {"distribution": "uniform", "seed": null, "scale": 1.0, "mode": "fan_avg"}, "class_name": "VarianceScaling"}, "name": "conv2d_28", "kernel_regularizer": {"config": {"l1": 0.0, "l2": 9.999999747378752e-05}, "class_name": "L1L2"}, "bias_regularizer": null, "filters": 32, "bias_constraint": null, "kernel_constraint": null, "dilation_rate": [1, 1], "strides": [1, 1]}, "inbound_nodes": [[["activation_26", 0, 0, {}]]], "class_name": "Conv2D", "name": "conv2d_28"}, {"config": {"scale": true, "beta_constraint": null, "gamma_initializer": {"config": {}, "class_name": "Ones"}, "gamma_regularizer": null, "center": true, "name": "batch_normalization_27", "moving_mean_initializer": {"config": {}, "class_name": "Zeros"}, "beta_regularizer": null, "axis": -1, "moving_variance_initializer": {"config": {}, "class_name": "Ones"}, "beta_initializer": {"config": {}, "class_name": "Zeros"}, "momentum": 0.99, "gamma_constraint": null, "trainable": true, "epsilon": 0.001}, "inbound_nodes": [[["conv2d_28", 0, 0, {}]]], "class_name": "BatchNormalization", "name": "batch_normalization_27"}, {"config": {"trainable": true, "name": "add_13"}, "inbound_nodes": [[["activation_25", 0, 0, {}], ["batch_normalization_27", 0, 0, {}]]], "class_name": "Add", "name": "add_13"}, {"config": {"trainable": true, "activation": "relu", "name": "activation_27"}, "inbound_nodes": [[["add_13", 0, 0, {}]]], "class_name": "Activation", "name": "activation_27"}, {"config": {"use_bias": true, "kernel_size": [3, 3], "activity_regularizer": null, "bias_initializer": {"config": {}, "class_name": "Zeros"}, "data_format": "channels_last", "trainable": true, "activation": "linear", "padding": "same", "kernel_initializer": {"config": {"distribution": "uniform", "seed": null, "scale": 1.0, "mode": "fan_avg"}, "class_name": "VarianceScaling"}, "name": "conv2d_29", "kernel_regularizer": {"config": {"l1": 0.0, "l2": 9.999999747378752e-05}, "class_name": "L1L2"}, "bias_regularizer": null, "filters": 25, "bias_constraint": null, "kernel_constraint": null, "dilation_rate": [1, 1], "strides": [1, 1]}, "inbound_nodes": [[["activation_27", 0, 0, {}]]], "class_name": "Conv2D", "name": "conv2d_29"}, {"config": {"scale": true, "beta_constraint": null, "gamma_initializer": {"config": {}, "class_name": "Ones"}, "gamma_regularizer": null, "center": true, "name": "batch_normalization_28", "moving_mean_initializer": {"config": {}, "class_name": "Zeros"}, "beta_regularizer": null, "axis": -1, "moving_variance_initializer": {"config": {}, "class_name": "Ones"}, "beta_initializer": {"config": {}, "class_name": "Zeros"}, "momentum": 0.99, "gamma_constraint": null, "trainable": true, "epsilon": 0.001}, "inbound_nodes": [[["conv2d_29", 0, 0, {}]]], "class_name": "BatchNormalization", "name": "batch_normalization_28"}, {"config": {"trainable": true, "activation": "relu", "name": "activation_28"}, "inbound_nodes": [[["batch_normalization_28", 0, 0, {}]]], "class_name": "Activation", "name": "activation_28"}, {"config": {"use_bias": true, "kernel_size": [3, 3], "activity_regularizer": null, "bias_initializer": {"config": {}, "class_name": "Zeros"}, "data_format": "channels_last", "trainable": true, "activation": "linear", "padding": "same", "kernel_initializer": {"config": {"distribution": "uniform", "seed": null, "scale": 1.0, "mode": "fan_avg"}, "class_name": "VarianceScaling"}, "name": "conv2d_30", "kernel_regularizer": {"config": {"l1": 0.0, "l2": 9.999999747378752e-05}, "class_name": "L1L2"}, "bias_regularizer": null, "filters": 32, "bias_constraint": null, "kernel_constraint": null, "dilation_rate": [1, 1], "strides": [1, 1]}, "inbound_nodes": [[["activation_28", 0, 0, {}]]], "class_name": "Conv2D", "name": "conv2d_30"}, {"config": {"scale": true, "beta_constraint": null, "gamma_initializer": {"config": {}, "class_name": "Ones"}, "gamma_regularizer": null, "center": true, "name": "batch_normalization_29", "moving_mean_initializer": {"config": {}, "class_name": "Zeros"}, "beta_regularizer": null, "axis": -1, "moving_variance_initializer": {"config": {}, "class_name": "Ones"}, "beta_initializer": {"config": {}, "class_name": "Zeros"}, "momentum": 0.99, "gamma_constraint": null, "trainable": true, "epsilon": 0.001}, "inbound_nodes": [[["conv2d_30", 0, 0, {}]]], "class_name": "BatchNormalization", "name": "batch_normalization_29"}, {"config": {"trainable": true, "name": "add_14"}, "inbound_nodes": [[["activation_27", 0, 0, {}], ["batch_normalization_29", 0, 0, {}]]], "class_name": "Add", "name": "add_14"}, {"config": {"trainable": true, "activation": "relu", "name": "activation_29"}, "inbound_nodes": [[["add_14", 0, 0, {}]]], "class_name": "Activation", "name": "activation_29"}, {"config": {"use_bias": true, "kernel_size": [3, 3], "activity_regularizer": null, "bias_initializer": {"config": {}, "class_name": "Zeros"}, "data_format": "channels_last", "trainable": true, "activation": "linear", "padding": "same", "kernel_initializer": {"config": {"distribution": "uniform", "seed": null, "scale": 1.0, "mode": "fan_avg"}, "class_name": "VarianceScaling"}, "name": "conv2d_31", "kernel_regularizer": {"config": {"l1": 0.0, "l2": 9.999999747378752e-05}, "class_name": "L1L2"}, "bias_regularizer": null, "filters": 30, "bias_constraint": null, "kernel_constraint": null, "dilation_rate": [1, 1], "strides": [1, 1]}, "inbound_nodes": [[["activation_29", 0, 0, {}]]], "class_name": "Conv2D", "name": "conv2d_31"}, {"config": {"scale": true, "beta_constraint": null, "gamma_initializer": {"config": {}, "class_name": "Ones"}, "gamma_regularizer": null, "center": true, "name": "batch_normalization_30", "moving_mean_initializer": {"config": {}, "class_name": "Zeros"}, "beta_regularizer": null, "axis": -1, "moving_variance_initializer": {"config": {}, "class_name": "Ones"}, "beta_initializer": {"config": {}, "class_name": "Zeros"}, "momentum": 0.99, "gamma_constraint": null, "trainable": true, "epsilon": 0.001}, "inbound_nodes": [[["conv2d_31", 0, 0, {}]]], "class_name": "BatchNormalization", "name": "batch_normalization_30"}, {"config": {"trainable": true, "activation": "relu", "name": "activation_30"}, "inbound_nodes": [[["batch_normalization_30", 0, 0, {}]]], "class_name": "Activation", "name": "activation_30"}, {"config": {"use_bias": true, "kernel_size": [3, 3], "activity_regularizer": null, "bias_initializer": {"config": {}, "class_name": "Zeros"}, "data_format": "channels_last", "trainable": true, "activation": "linear", "padding": "same", "kernel_initializer": {"config": {"distribution": "uniform", "seed": null, "scale": 1.0, "mode": "fan_avg"}, "class_name": "VarianceScaling"}, "name": "conv2d_32", "kernel_regularizer": {"config": {"l1": 0.0, "l2": 9.999999747378752e-05}, "class_name": "L1L2"}, "bias_regularizer": null, "filters": 32, "bias_constraint": null, "kernel_constraint": null, "dilation_rate": [1, 1], "strides": [1, 1]}, "inbound_nodes": [[["activation_30", 0, 0, {}]]], "class_name": "Conv2D", "name": "conv2d_32"}, {"config": {"scale": true, "beta_constraint": null, "gamma_initializer": {"config": {}, "class_name": "Ones"}, "gamma_regularizer": null, "center": true, "name": "batch_normalization_31", "moving_mean_initializer": {"config": {}, "class_name": "Zeros"}, "beta_regularizer": null, "axis": -1, "moving_variance_initializer": {"config": {}, "class_name": "Ones"}, "beta_initializer": {"config": {}, "class_name": "Zeros"}, "momentum": 0.99, "gamma_constraint": null, "trainable": true, "epsilon": 0.001}, "inbound_nodes": [[["conv2d_32", 0, 0, {}]]], "class_name": "BatchNormalization", "name": "batch_normalization_31"}, {"config": {"trainable": true, "name": "add_15"}, "inbound_nodes": [[["activation_29", 0, 0, {}], ["batch_normalization_31", 0, 0, {}]]], "class_name": "Add", "name": "add_15"}, {"config": {"trainable": true, "activation": "relu", "name": "activation_31"}, "inbound_nodes": [[["add_15", 0, 0, {}]]], "class_name": "Activation", "name": "activation_31"}, {"config": {"use_bias": true, "kernel_size": [3, 3], "activity_regularizer": null, "bias_initializer": {"config": {}, "class_name": "Zeros"}, "data_format": "channels_last", "trainable": true, "activation": "linear", "padding": "same", "kernel_initializer": {"config": {"distribution": "uniform", "seed": null, "scale": 1.0, "mode": "fan_avg"}, "class_name": "VarianceScaling"}, "name": "conv2d_33", "kernel_regularizer": {"config": {"l1": 0.0, "l2": 9.999999747378752e-05}, "class_name": "L1L2"}, "bias_regularizer": null, "filters": 32, "bias_constraint": null, "kernel_constraint": null, "dilation_rate": [1, 1], "strides": [1, 1]}, "inbound_nodes": [[["activation_31", 0, 0, {}]]], "class_name": "Conv2D", "name": "conv2d_33"}, {"config": {"scale": true, "beta_constraint": null, "gamma_initializer": {"config": {}, "class_name": "Ones"}, "gamma_regularizer": null, "center": true, "name": "batch_normalization_32", "moving_mean_initializer": {"config": {}, "class_name": "Zeros"}, "beta_regularizer": null, "axis": -1, "moving_variance_initializer": {"config": {}, "class_name": "Ones"}, "beta_initializer": {"config": {}, "class_name": "Zeros"}, "momentum": 0.99, "gamma_constraint": null, "trainable": true, "epsilon": 0.001}, "inbound_nodes": [[["conv2d_33", 0, 0, {}]]], "class_name": "BatchNormalization", "name": "batch_normalization_32"}, {"config": {"trainable": true, "activation": "relu", "name": "activation_32"}, "inbound_nodes": [[["batch_normalization_32", 0, 0, {}]]], "class_name": "Activation", "name": "activation_32"}, {"config": {"use_bias": true, "kernel_size": [3, 3], "activity_regularizer": null, "bias_initializer": {"config": {}, "class_name": "Zeros"}, "data_format": "channels_last", "trainable": true, "activation": "linear", "padding": "same", "kernel_initializer": {"config": {"distribution": "uniform", "seed": null, "scale": 1.0, "mode": "fan_avg"}, "class_name": "VarianceScaling"}, "name": "conv2d_34", "kernel_regularizer": {"config": {"l1": 0.0, "l2": 9.999999747378752e-05}, "class_name": "L1L2"}, "bias_regularizer": null, "filters": 32, "bias_constraint": null, "kernel_constraint": null, "dilation_rate": [1, 1], "strides": [1, 1]}, "inbound_nodes": [[["activation_32", 0, 0, {}]]], "class_name": "Conv2D", "name": "conv2d_34"}, {"config": {"scale": true, "beta_constraint": null, "gamma_initializer": {"config": {}, "class_name": "Ones"}, "gamma_regularizer": null, "center": true, "name": "batch_normalization_33", "moving_mean_initializer": {"config": {}, "class_name": "Zeros"}, "beta_regularizer": null, "axis": -1, "moving_variance_initializer": {"config": {}, "class_name": "Ones"}, "beta_initializer": {"config": {}, "class_name": "Zeros"}, "momentum": 0.99, "gamma_constraint": null, "trainable": true, "epsilon": 0.001}, "inbound_nodes": [[["conv2d_34", 0, 0, {}]]], "class_name": "BatchNormalization", "name": "batch_normalization_33"}, {"config": {"trainable": true, "name": "add_16"}, "inbound_nodes": [[["activation_31", 0, 0, {}], ["batch_normalization_33", 0, 0, {}]]], "class_name": "Add", "name": "add_16"}, {"config": {"trainable": true, "activation": "relu", "name": "activation_33"}, "inbound_nodes": [[["add_16", 0, 0, {}]]], "class_name": "Activation", "name": "activation_33"}, {"config": {"use_bias": true, "kernel_size": [3, 3], "activity_regularizer": null, "bias_initializer": {"config": {}, "class_name": "Zeros"}, "data_format": "channels_last", "trainable": true, "activation": "linear", "padding": "same", "kernel_initializer": {"config": {"distribution": "uniform", "seed": null, "scale": 1.0, "mode": "fan_avg"}, "class_name": "VarianceScaling"}, "name": "conv2d_35", "kernel_regularizer": {"config": {"l1": 0.0, "l2": 9.999999747378752e-05}, "class_name": "L1L2"}, "bias_regularizer": null, "filters": 31, "bias_constraint": null, "kernel_constraint": null, "dilation_rate": [1, 1], "strides": [1, 1]}, "inbound_nodes": [[["activation_33", 0, 0, {}]]], "class_name": "Conv2D", "name": "conv2d_35"}, {"config": {"scale": true, "beta_constraint": null, "gamma_initializer": {"config": {}, "class_name": "Ones"}, "gamma_regularizer": null, "center": true, "name": "batch_normalization_34", "moving_mean_initializer": {"config": {}, "class_name": "Zeros"}, "beta_regularizer": null, "axis": -1, "moving_variance_initializer": {"config": {}, "class_name": "Ones"}, "beta_initializer": {"config": {}, "class_name": "Zeros"}, "momentum": 0.99, "gamma_constraint": null, "trainable": true, "epsilon": 0.001}, "inbound_nodes": [[["conv2d_35", 0, 0, {}]]], "class_name": "BatchNormalization", "name": "batch_normalization_34"}, {"config": {"trainable": true, "activation": "relu", "name": "activation_34"}, "inbound_nodes": [[["batch_normalization_34", 0, 0, {}]]], "class_name": "Activation", "name": "activation_34"}, {"config": {"use_bias": true, "kernel_size": [3, 3], "activity_regularizer": null, "bias_initializer": {"config": {}, "class_name": "Zeros"}, "data_format": "channels_last", "trainable": true, "activation": "linear", "padding": "same", "kernel_initializer": {"config": {"distribution": "uniform", "seed": null, "scale": 1.0, "mode": "fan_avg"}, "class_name": "VarianceScaling"}, "name": "conv2d_36", "kernel_regularizer": {"config": {"l1": 0.0, "l2": 9.999999747378752e-05}, "class_name": "L1L2"}, "bias_regularizer": null, "filters": 32, "bias_constraint": null, "kernel_constraint": null, "dilation_rate": [1, 1], "strides": [1, 1]}, "inbound_nodes": [[["activation_34", 0, 0, {}]]], "class_name": "Conv2D", "name": "conv2d_36"}, {"config": {"scale": true, "beta_constraint": null, "gamma_initializer": {"config": {}, "class_name": "Ones"}, "gamma_regularizer": null, "center": true, "name": "batch_normalization_35", "moving_mean_initializer": {"config": {}, "class_name": "Zeros"}, "beta_regularizer": null, "axis": -1, "moving_variance_initializer": {"config": {}, "class_name": "Ones"}, "beta_initializer": {"config": {}, "class_name": "Zeros"}, "momentum": 0.99, "gamma_constraint": null, "trainable": true, "epsilon": 0.001}, "inbound_nodes": [[["conv2d_36", 0, 0, {}]]], "class_name": "BatchNormalization", "name": "batch_normalization_35"}, {"config": {"trainable": true, "name": "add_17"}, "inbound_nodes": [[["activation_33", 0, 0, {}], ["batch_normalization_35", 0, 0, {}]]], "class_name": "Add", "name": "add_17"}, {"config": {"trainable": true, "activation": "relu", "name": "activation_35"}, "inbound_nodes": [[["add_17", 0, 0, {}]]], "class_name": "Activation", "name": "activation_35"}, {"config": {"use_bias": true, "kernel_size": [3, 3], "activity_regularizer": null, "bias_initializer": {"config": {}, "class_name": "Zeros"}, "data_format": "channels_last", "trainable": true, "activation": "linear", "padding": "same", "kernel_initializer": {"config": {"distribution": "uniform", "seed": null, "scale": 1.0, "mode": "fan_avg"}, "class_name": "VarianceScaling"}, "name": "conv2d_37", "kernel_regularizer": {"config": {"l1": 0.0, "l2": 9.999999747378752e-05}, "class_name": "L1L2"}, "bias_regularizer": null, "filters": 31, "bias_constraint": null, "kernel_constraint": null, "dilation_rate": [1, 1], "strides": [1, 1]}, "inbound_nodes": [[["activation_35", 0, 0, {}]]], "class_name": "Conv2D", "name": "conv2d_37"}, {"config": {"scale": true, "beta_constraint": null, "gamma_initializer": {"config": {}, "class_name": "Ones"}, "gamma_regularizer": null, "center": true, "name": "batch_normalization_36", "moving_mean_initializer": {"config": {}, "class_name": "Zeros"}, "beta_regularizer": null, "axis": -1, "moving_variance_initializer": {"config": {}, "class_name": "Ones"}, "beta_initializer": {"config": {}, "class_name": "Zeros"}, "momentum": 0.99, "gamma_constraint": null, "trainable": true, "epsilon": 0.001}, "inbound_nodes": [[["conv2d_37", 0, 0, {}]]], "class_name": "BatchNormalization", "name": "batch_normalization_36"}, {"config": {"trainable": true, "activation": "relu", "name": "activation_36"}, "inbound_nodes": [[["batch_normalization_36", 0, 0, {}]]], "class_name": "Activation", "name": "activation_36"}, {"config": {"use_bias": true, "kernel_size": [3, 3], "activity_regularizer": null, "bias_initializer": {"config": {}, "class_name": "Zeros"}, "data_format": "channels_last", "trainable": true, "activation": "linear", "padding": "same", "kernel_initializer": {"config": {"distribution": "uniform", "seed": null, "scale": 1.0, "mode": "fan_avg"}, "class_name": "VarianceScaling"}, "name": "conv2d_38", "kernel_regularizer": {"config": {"l1": 0.0, "l2": 9.999999747378752e-05}, "class_name": "L1L2"}, "bias_regularizer": null, "filters": 32, "bias_constraint": null, "kernel_constraint": null, "dilation_rate": [1, 1], "strides": [1, 1]}, "inbound_nodes": [[["activation_36", 0, 0, {}]]], "class_name": "Conv2D", "name": "conv2d_38"}, {"config": {"scale": true, "beta_constraint": null, "gamma_initializer": {"config": {}, "class_name": "Ones"}, "gamma_regularizer": null, "center": true, "name": "batch_normalization_37", "moving_mean_initializer": {"config": {}, "class_name": "Zeros"}, "beta_regularizer": null, "axis": -1, "moving_variance_initializer": {"config": {}, "class_name": "Ones"}, "beta_initializer": {"config": {}, "class_name": "Zeros"}, "momentum": 0.99, "gamma_constraint": null, "trainable": true, "epsilon": 0.001}, "inbound_nodes": [[["conv2d_38", 0, 0, {}]]], "class_name": "BatchNormalization", "name": "batch_normalization_37"}, {"config": {"trainable": true, "name": "add_18"}, "inbound_nodes": [[["activation_35", 0, 0, {}], ["batch_normalization_37", 0, 0, {}]]], "class_name": "Add", "name": "add_18"}, {"config": {"trainable": true, "activation": "relu", "name": "activation_37"}, "inbound_nodes": [[["add_18", 0, 0, {}]]], "class_name": "Activation", "name": "activation_37"}, {"config": {"use_bias": true, "kernel_size": [3, 3], "activity_regularizer": null, "bias_initializer": {"config": {}, "class_name": "Zeros"}, "data_format": "channels_last", "trainable": true, "activation": "linear", "padding": "same", "kernel_initializer": {"config": {"distribution": "uniform", "seed": null, "scale": 1.0, "mode": "fan_avg"}, "class_name": "VarianceScaling"}, "name": "conv2d_39", "kernel_regularizer": {"config": {"l1": 0.0, "l2": 9.999999747378752e-05}, "class_name": "L1L2"}, "bias_regularizer": null, "filters": 56, "bias_constraint": null, "kernel_constraint": null, "dilation_rate": [1, 1], "strides": [2, 2]}, "inbound_nodes": [[["activation_37", 0, 0, {}]]], "class_name": "Conv2D", "name": "conv2d_39"}, {"config": {"scale": true, "beta_constraint": null, "gamma_initializer": {"config": {}, "class_name": "Ones"}, "gamma_regularizer": null, "center": true, "name": "batch_normalization_38", "moving_mean_initializer": {"config": {}, "class_name": "Zeros"}, "beta_regularizer": null, "axis": -1, "moving_variance_initializer": {"config": {}, "class_name": "Ones"}, "beta_initializer": {"config": {}, "class_name": "Zeros"}, "momentum": 0.99, "gamma_constraint": null, "trainable": true, "epsilon": 0.001}, "inbound_nodes": [[["conv2d_39", 0, 0, {}]]], "class_name": "BatchNormalization", "name": "batch_normalization_38"}, {"config": {"trainable": true, "activation": "relu", "name": "activation_38"}, "inbound_nodes": [[["batch_normalization_38", 0, 0, {}]]], "class_name": "Activation", "name": "activation_38"}, {"config": {"use_bias": true, "kernel_size": [3, 3], "activity_regularizer": null, "bias_initializer": {"config": {}, "class_name": "Zeros"}, "data_format": "channels_last", "trainable": true, "activation": "linear", "padding": "same", "kernel_initializer": {"config": {"distribution": "uniform", "seed": null, "scale": 1.0, "mode": "fan_avg"}, "class_name": "VarianceScaling"}, "name": "conv2d_40", "kernel_regularizer": {"config": {"l1": 0.0, "l2": 9.999999747378752e-05}, "class_name": "L1L2"}, "bias_regularizer": null, "filters": 64, "bias_constraint": null, "kernel_constraint": null, "dilation_rate": [1, 1], "strides": [1, 1]}, "inbound_nodes": [[["activation_38", 0, 0, {}]]], "class_name": "Conv2D", "name": "conv2d_40"}, {"config": {"use_bias": true, "kernel_size": [1, 1], "activity_regularizer": null, "bias_initializer": {"config": {}, "class_name": "Zeros"}, "data_format": "channels_last", "trainable": true, "activation": "linear", "padding": "same", "kernel_initializer": {"config": {"distribution": "uniform", "seed": null, "scale": 1.0, "mode": "fan_avg"}, "class_name": "VarianceScaling"}, "name": "conv2d_41", "kernel_regularizer": {"config": {"l1": 0.0, "l2": 9.999999747378752e-05}, "class_name": "L1L2"}, "bias_regularizer": null, "filters": 64, "bias_constraint": null, "kernel_constraint": null, "dilation_rate": [1, 1], "strides": [2, 2]}, "inbound_nodes": [[["activation_37", 0, 0, {}]]], "class_name": "Conv2D", "name": "conv2d_41"}, {"config": {"scale": true, "beta_constraint": null, "gamma_initializer": {"config": {}, "class_name": "Ones"}, "gamma_regularizer": null, "center": true, "name": "batch_normalization_39", "moving_mean_initializer": {"config": {}, "class_name": "Zeros"}, "beta_regularizer": null, "axis": -1, "moving_variance_initializer": {"config": {}, "class_name": "Ones"}, "beta_initializer": {"config": {}, "class_name": "Zeros"}, "momentum": 0.99, "gamma_constraint": null, "trainable": true, "epsilon": 0.001}, "inbound_nodes": [[["conv2d_40", 0, 0, {}]]], "class_name": "BatchNormalization", "name": "batch_normalization_39"}, {"config": {"trainable": true, "name": "add_19"}, "inbound_nodes": [[["conv2d_41", 0, 0, {}], ["batch_normalization_39", 0, 0, {}]]], "class_name": "Add", "name": "add_19"}, {"config": {"trainable": true, "activation": "relu", "name": "activation_39"}, "inbound_nodes": [[["add_19", 0, 0, {}]]], "class_name": "Activation", "name": "activation_39"}, {"config": {"use_bias": true, "kernel_size": [3, 3], "activity_regularizer": null, "bias_initializer": {"config": {}, "class_name": "Zeros"}, "data_format": "channels_last", "trainable": true, "activation": "linear", "padding": "same", "kernel_initializer": {"config": {"distribution": "uniform", "seed": null, "scale": 1.0, "mode": "fan_avg"}, "class_name": "VarianceScaling"}, "name": "conv2d_42", "kernel_regularizer": {"config": {"l1": 0.0, "l2": 9.999999747378752e-05}, "class_name": "L1L2"}, "bias_regularizer": null, "filters": 56, "bias_constraint": null, "kernel_constraint": null, "dilation_rate": [1, 1], "strides": [1, 1]}, "inbound_nodes": [[["activation_39", 0, 0, {}]]], "class_name": "Conv2D", "name": "conv2d_42"}, {"config": {"scale": true, "beta_constraint": null, "gamma_initializer": {"config": {}, "class_name": "Ones"}, "gamma_regularizer": null, "center": true, "name": "batch_normalization_40", "moving_mean_initializer": {"config": {}, "class_name": "Zeros"}, "beta_regularizer": null, "axis": -1, "moving_variance_initializer": {"config": {}, "class_name": "Ones"}, "beta_initializer": {"config": {}, "class_name": "Zeros"}, "momentum": 0.99, "gamma_constraint": null, "trainable": true, "epsilon": 0.001}, "inbound_nodes": [[["conv2d_42", 0, 0, {}]]], "class_name": "BatchNormalization", "name": "batch_normalization_40"}, {"config": {"trainable": true, "activation": "relu", "name": "activation_40"}, "inbound_nodes": [[["batch_normalization_40", 0, 0, {}]]], "class_name": "Activation", "name": "activation_40"}, {"config": {"use_bias": true, "kernel_size": [3, 3], "activity_regularizer": null, "bias_initializer": {"config": {}, "class_name": "Zeros"}, "data_format": "channels_last", "trainable": true, "activation": "linear", "padding": "same", "kernel_initializer": {"config": {"distribution": "uniform", "seed": null, "scale": 1.0, "mode": "fan_avg"}, "class_name": "VarianceScaling"}, "name": "conv2d_43", "kernel_regularizer": {"config": {"l1": 0.0, "l2": 9.999999747378752e-05}, "class_name": "L1L2"}, "bias_regularizer": null, "filters": 64, "bias_constraint": null, "kernel_constraint": null, "dilation_rate": [1, 1], "strides": [1, 1]}, "inbound_nodes": [[["activation_40", 0, 0, {}]]], "class_name": "Conv2D", "name": "conv2d_43"}, {"config": {"scale": true, "beta_constraint": null, "gamma_initializer": {"config": {}, "class_name": "Ones"}, "gamma_regularizer": null, "center": true, "name": "batch_normalization_41", "moving_mean_initializer": {"config": {}, "class_name": "Zeros"}, "beta_regularizer": null, "axis": -1, "moving_variance_initializer": {"config": {}, "class_name": "Ones"}, "beta_initializer": {"config": {}, "class_name": "Zeros"}, "momentum": 0.99, "gamma_constraint": null, "trainable": true, "epsilon": 0.001}, "inbound_nodes": [[["conv2d_43", 0, 0, {}]]], "class_name": "BatchNormalization", "name": "batch_normalization_41"}, {"config": {"trainable": true, "name": "add_20"}, "inbound_nodes": [[["activation_39", 0, 0, {}], ["batch_normalization_41", 0, 0, {}]]], "class_name": "Add", "name": "add_20"}, {"config": {"trainable": true, "activation": "relu", "name": "activation_41"}, "inbound_nodes": [[["add_20", 0, 0, {}]]], "class_name": "Activation", "name": "activation_41"}, {"config": {"use_bias": true, "kernel_size": [3, 3], "activity_regularizer": null, "bias_initializer": {"config": {}, "class_name": "Zeros"}, "data_format": "channels_last", "trainable": true, "activation": "linear", "padding": "same", "kernel_initializer": {"config": {"distribution": "uniform", "seed": null, "scale": 1.0, "mode": "fan_avg"}, "class_name": "VarianceScaling"}, "name": "conv2d_44", "kernel_regularizer": {"config": {"l1": 0.0, "l2": 9.999999747378752e-05}, "class_name": "L1L2"}, "bias_regularizer": null, "filters": 54, "bias_constraint": null, "kernel_constraint": null, "dilation_rate": [1, 1], "strides": [1, 1]}, "inbound_nodes": [[["activation_41", 0, 0, {}]]], "class_name": "Conv2D", "name": "conv2d_44"}, {"config": {"scale": true, "beta_constraint": null, "gamma_initializer": {"config": {}, "class_name": "Ones"}, "gamma_regularizer": null, "center": true, "name": "batch_normalization_42", "moving_mean_initializer": {"config": {}, "class_name": "Zeros"}, "beta_regularizer": null, "axis": -1, "moving_variance_initializer": {"config": {}, "class_name": "Ones"}, "beta_initializer": {"config": {}, "class_name": "Zeros"}, "momentum": 0.99, "gamma_constraint": null, "trainable": true, "epsilon": 0.001}, "inbound_nodes": [[["conv2d_44", 0, 0, {}]]], "class_name": "BatchNormalization", "name": "batch_normalization_42"}, {"config": {"trainable": true, "activation": "relu", "name": "activation_42"}, "inbound_nodes": [[["batch_normalization_42", 0, 0, {}]]], "class_name": "Activation", "name": "activation_42"}, {"config": {"use_bias": true, "kernel_size": [3, 3], "activity_regularizer": null, "bias_initializer": {"config": {}, "class_name": "Zeros"}, "data_format": "channels_last", "trainable": true, "activation": "linear", "padding": "same", "kernel_initializer": {"config": {"distribution": "uniform", "seed": null, "scale": 1.0, "mode": "fan_avg"}, "class_name": "VarianceScaling"}, "name": "conv2d_45", "kernel_regularizer": {"config": {"l1": 0.0, "l2": 9.999999747378752e-05}, "class_name": "L1L2"}, "bias_regularizer": null, "filters": 64, "bias_constraint": null, "kernel_constraint": null, "dilation_rate": [1, 1], "strides": [1, 1]}, "inbound_nodes": [[["activation_42", 0, 0, {}]]], "class_name": "Conv2D", "name": "conv2d_45"}, {"config": {"scale": true, "beta_constraint": null, "gamma_initializer": {"config": {}, "class_name": "Ones"}, "gamma_regularizer": null, "center": true, "name": "batch_normalization_43", "moving_mean_initializer": {"config": {}, "class_name": "Zeros"}, "beta_regularizer": null, "axis": -1, "moving_variance_initializer": {"config": {}, "class_name": "Ones"}, "beta_initializer": {"config": {}, "class_name": "Zeros"}, "momentum": 0.99, "gamma_constraint": null, "trainable": true, "epsilon": 0.001}, "inbound_nodes": [[["conv2d_45", 0, 0, {}]]], "class_name": "BatchNormalization", "name": "batch_normalization_43"}, {"config": {"trainable": true, "name": "add_21"}, "inbound_nodes": [[["activation_41", 0, 0, {}], ["batch_normalization_43", 0, 0, {}]]], "class_name": "Add", "name": "add_21"}, {"config": {"trainable": true, "activation": "relu", "name": "activation_43"}, "inbound_nodes": [[["add_21", 0, 0, {}]]], "class_name": "Activation", "name": "activation_43"}, {"config": {"use_bias": true, "kernel_size": [3, 3], "activity_regularizer": null, "bias_initializer": {"config": {}, "class_name": "Zeros"}, "data_format": "channels_last", "trainable": true, "activation": "linear", "padding": "same", "kernel_initializer": {"config": {"distribution": "uniform", "seed": null, "scale": 1.0, "mode": "fan_avg"}, "class_name": "VarianceScaling"}, "name": "conv2d_46", "kernel_regularizer": {"config": {"l1": 0.0, "l2": 9.999999747378752e-05}, "class_name": "L1L2"}, "bias_regularizer": null, "filters": 53, "bias_constraint": null, "kernel_constraint": null, "dilation_rate": [1, 1], "strides": [1, 1]}, "inbound_nodes": [[["activation_43", 0, 0, {}]]], "class_name": "Conv2D", "name": "conv2d_46"}, {"config": {"scale": true, "beta_constraint": null, "gamma_initializer": {"config": {}, "class_name": "Ones"}, "gamma_regularizer": null, "center": true, "name": "batch_normalization_44", "moving_mean_initializer": {"config": {}, "class_name": "Zeros"}, "beta_regularizer": null, "axis": -1, "moving_variance_initializer": {"config": {}, "class_name": "Ones"}, "beta_initializer": {"config": {}, "class_name": "Zeros"}, "momentum": 0.99, "gamma_constraint": null, "trainable": true, "epsilon": 0.001}, "inbound_nodes": [[["conv2d_46", 0, 0, {}]]], "class_name": "BatchNormalization", "name": "batch_normalization_44"}, {"config": {"trainable": true, "activation": "relu", "name": "activation_44"}, "inbound_nodes": [[["batch_normalization_44", 0, 0, {}]]], "class_name": "Activation", "name": "activation_44"}, {"config": {"use_bias": true, "kernel_size": [3, 3], "activity_regularizer": null, "bias_initializer": {"config": {}, "class_name": "Zeros"}, "data_format": "channels_last", "trainable": true, "activation": "linear", "padding": "same", "kernel_initializer": {"config": {"distribution": "uniform", "seed": null, "scale": 1.0, "mode": "fan_avg"}, "class_name": "VarianceScaling"}, "name": "conv2d_47", "kernel_regularizer": {"config": {"l1": 0.0, "l2": 9.999999747378752e-05}, "class_name": "L1L2"}, "bias_regularizer": null, "filters": 64, "bias_constraint": null, "kernel_constraint": null, "dilation_rate": [1, 1], "strides": [1, 1]}, "inbound_nodes": [[["activation_44", 0, 0, {}]]], "class_name": "Conv2D", "name": "conv2d_47"}, {"config": {"scale": true, "beta_constraint": null, "gamma_initializer": {"config": {}, "class_name": "Ones"}, "gamma_regularizer": null, "center": true, "name": "batch_normalization_45", "moving_mean_initializer": {"config": {}, "class_name": "Zeros"}, "beta_regularizer": null, "axis": -1, "moving_variance_initializer": {"config": {}, "class_name": "Ones"}, "beta_initializer": {"config": {}, "class_name": "Zeros"}, "momentum": 0.99, "gamma_constraint": null, "trainable": true, "epsilon": 0.001}, "inbound_nodes": [[["conv2d_47", 0, 0, {}]]], "class_name": "BatchNormalization", "name": "batch_normalization_45"}, {"config": {"trainable": true, "name": "add_22"}, "inbound_nodes": [[["activation_43", 0, 0, {}], ["batch_normalization_45", 0, 0, {}]]], "class_name": "Add", "name": "add_22"}, {"config": {"trainable": true, "activation": "relu", "name": "activation_45"}, "inbound_nodes": [[["add_22", 0, 0, {}]]], "class_name": "Activation", "name": "activation_45"}, {"config": {"use_bias": true, "kernel_size": [3, 3], "activity_regularizer": null, "bias_initializer": {"config": {}, "class_name": "Zeros"}, "data_format": "channels_last", "trainable": true, "activation": "linear", "padding": "same", "kernel_initializer": {"config": {"distribution": "uniform", "seed": null, "scale": 1.0, "mode": "fan_avg"}, "class_name": "VarianceScaling"}, "name": "conv2d_48", "kernel_regularizer": {"config": {"l1": 0.0, "l2": 9.999999747378752e-05}, "class_name": "L1L2"}, "bias_regularizer": null, "filters": 55, "bias_constraint": null, "kernel_constraint": null, "dilation_rate": [1, 1], "strides": [1, 1]}, "inbound_nodes": [[["activation_45", 0, 0, {}]]], "class_name": "Conv2D", "name": "conv2d_48"}, {"config": {"scale": true, "beta_constraint": null, "gamma_initializer": {"config": {}, "class_name": "Ones"}, "gamma_regularizer": null, "center": true, "name": "batch_normalization_46", "moving_mean_initializer": {"config": {}, "class_name": "Zeros"}, "beta_regularizer": null, "axis": -1, "moving_variance_initializer": {"config": {}, "class_name": "Ones"}, "beta_initializer": {"config": {}, "class_name": "Zeros"}, "momentum": 0.99, "gamma_constraint": null, "trainable": true, "epsilon": 0.001}, "inbound_nodes": [[["conv2d_48", 0, 0, {}]]], "class_name": "BatchNormalization", "name": "batch_normalization_46"}, {"config": {"trainable": true, "activation": "relu", "name": "activation_46"}, "inbound_nodes": [[["batch_normalization_46", 0, 0, {}]]], "class_name": "Activation", "name": "activation_46"}, {"config": {"use_bias": true, "kernel_size": [3, 3], "activity_regularizer": null, "bias_initializer": {"config": {}, "class_name": "Zeros"}, "data_format": "channels_last", "trainable": true, "activation": "linear", "padding": "same", "kernel_initializer": {"config": {"distribution": "uniform", "seed": null, "scale": 1.0, "mode": "fan_avg"}, "class_name": "VarianceScaling"}, "name": "conv2d_49", "kernel_regularizer": {"config": {"l1": 0.0, "l2": 9.999999747378752e-05}, "class_name": "L1L2"}, "bias_regularizer": null, "filters": 64, "bias_constraint": null, "kernel_constraint": null, "dilation_rate": [1, 1], "strides": [1, 1]}, "inbound_nodes": [[["activation_46", 0, 0, {}]]], "class_name": "Conv2D", "name": "conv2d_49"}, {"config": {"scale": true, "beta_constraint": null, "gamma_initializer": {"config": {}, "class_name": "Ones"}, "gamma_regularizer": null, "center": true, "name": "batch_normalization_47", "moving_mean_initializer": {"config": {}, "class_name": "Zeros"}, "beta_regularizer": null, "axis": -1, "moving_variance_initializer": {"config": {}, "class_name": "Ones"}, "beta_initializer": {"config": {}, "class_name": "Zeros"}, "momentum": 0.99, "gamma_constraint": null, "trainable": true, "epsilon": 0.001}, "inbound_nodes": [[["conv2d_49", 0, 0, {}]]], "class_name": "BatchNormalization", "name": "batch_normalization_47"}, {"config": {"trainable": true, "name": "add_23"}, "inbound_nodes": [[["activation_45", 0, 0, {}], ["batch_normalization_47", 0, 0, {}]]], "class_name": "Add", "name": "add_23"}, {"config": {"trainable": true, "activation": "relu", "name": "activation_47"}, "inbound_nodes": [[["add_23", 0, 0, {}]]], "class_name": "Activation", "name": "activation_47"}, {"config": {"use_bias": true, "kernel_size": [3, 3], "activity_regularizer": null, "bias_initializer": {"config": {}, "class_name": "Zeros"}, "data_format": "channels_last", "trainable": true, "activation": "linear", "padding": "same", "kernel_initializer": {"config": {"distribution": "uniform", "seed": null, "scale": 1.0, "mode": "fan_avg"}, "class_name": "VarianceScaling"}, "name": "conv2d_50", "kernel_regularizer": {"config": {"l1": 0.0, "l2": 9.999999747378752e-05}, "class_name": "L1L2"}, "bias_regularizer": null, "filters": 55, "bias_constraint": null, "kernel_constraint": null, "dilation_rate": [1, 1], "strides": [1, 1]}, "inbound_nodes": [[["activation_47", 0, 0, {}]]], "class_name": "Conv2D", "name": "conv2d_50"}, {"config": {"scale": true, "beta_constraint": null, "gamma_initializer": {"config": {}, "class_name": "Ones"}, "gamma_regularizer": null, "center": true, "name": "batch_normalization_48", "moving_mean_initializer": {"config": {}, "class_name": "Zeros"}, "beta_regularizer": null, "axis": -1, "moving_variance_initializer": {"config": {}, "class_name": "Ones"}, "beta_initializer": {"config": {}, "class_name": "Zeros"}, "momentum": 0.99, "gamma_constraint": null, "trainable": true, "epsilon": 0.001}, "inbound_nodes": [[["conv2d_50", 0, 0, {}]]], "class_name": "BatchNormalization", "name": "batch_normalization_48"}, {"config": {"trainable": true, "activation": "relu", "name": "activation_48"}, "inbound_nodes": [[["batch_normalization_48", 0, 0, {}]]], "class_name": "Activation", "name": "activation_48"}, {"config": {"use_bias": true, "kernel_size": [3, 3], "activity_regularizer": null, "bias_initializer": {"config": {}, "class_name": "Zeros"}, "data_format": "channels_last", "trainable": true, "activation": "linear", "padding": "same", "kernel_initializer": {"config": {"distribution": "uniform", "seed": null, "scale": 1.0, "mode": "fan_avg"}, "class_name": "VarianceScaling"}, "name": "conv2d_51", "kernel_regularizer": {"config": {"l1": 0.0, "l2": 9.999999747378752e-05}, "class_name": "L1L2"}, "bias_regularizer": null, "filters": 64, "bias_constraint": null, "kernel_constraint": null, "dilation_rate": [1, 1], "strides": [1, 1]}, "inbound_nodes": [[["activation_48", 0, 0, {}]]], "class_name": "Conv2D", "name": "conv2d_51"}, {"config": {"scale": true, "beta_constraint": null, "gamma_initializer": {"config": {}, "class_name": "Ones"}, "gamma_regularizer": null, "center": true, "name": "batch_normalization_49", "moving_mean_initializer": {"config": {}, "class_name": "Zeros"}, "beta_regularizer": null, "axis": -1, "moving_variance_initializer": {"config": {}, "class_name": "Ones"}, "beta_initializer": {"config": {}, "class_name": "Zeros"}, "momentum": 0.99, "gamma_constraint": null, "trainable": true, "epsilon": 0.001}, "inbound_nodes": [[["conv2d_51", 0, 0, {}]]], "class_name": "BatchNormalization", "name": "batch_normalization_49"}, {"config": {"trainable": true, "name": "add_24"}, "inbound_nodes": [[["activation_47", 0, 0, {}], ["batch_normalization_49", 0, 0, {}]]], "class_name": "Add", "name": "add_24"}, {"config": {"trainable": true, "activation": "relu", "name": "activation_49"}, "inbound_nodes": [[["add_24", 0, 0, {}]]], "class_name": "Activation", "name": "activation_49"}, {"config": {"use_bias": true, "kernel_size": [3, 3], "activity_regularizer": null, "bias_initializer": {"config": {}, "class_name": "Zeros"}, "data_format": "channels_last", "trainable": true, "activation": "linear", "padding": "same", "kernel_initializer": {"config": {"distribution": "uniform", "seed": null, "scale": 1.0, "mode": "fan_avg"}, "class_name": "VarianceScaling"}, "name": "conv2d_52", "kernel_regularizer": {"config": {"l1": 0.0, "l2": 9.999999747378752e-05}, "class_name": "L1L2"}, "bias_regularizer": null, "filters": 53, "bias_constraint": null, "kernel_constraint": null, "dilation_rate": [1, 1], "strides": [1, 1]}, "inbound_nodes": [[["activation_49", 0, 0, {}]]], "class_name": "Conv2D", "name": "conv2d_52"}, {"config": {"scale": true, "beta_constraint": null, "gamma_initializer": {"config": {}, "class_name": "Ones"}, "gamma_regularizer": null, "center": true, "name": "batch_normalization_50", "moving_mean_initializer": {"config": {}, "class_name": "Zeros"}, "beta_regularizer": null, "axis": -1, "moving_variance_initializer": {"config": {}, "class_name": "Ones"}, "beta_initializer": {"config": {}, "class_name": "Zeros"}, "momentum": 0.99, "gamma_constraint": null, "trainable": true, "epsilon": 0.001}, "inbound_nodes": [[["conv2d_52", 0, 0, {}]]], "class_name": "BatchNormalization", "name": "batch_normalization_50"}, {"config": {"trainable": true, "activation": "relu", "name": "activation_50"}, "inbound_nodes": [[["batch_normalization_50", 0, 0, {}]]], "class_name": "Activation", "name": "activation_50"}, {"config": {"use_bias": true, "kernel_size": [3, 3], "activity_regularizer": null, "bias_initializer": {"config": {}, "class_name": "Zeros"}, "data_format": "channels_last", "trainable": true, "activation": "linear", "padding": "same", "kernel_initializer": {"config": {"distribution": "uniform", "seed": null, "scale": 1.0, "mode": "fan_avg"}, "class_name": "VarianceScaling"}, "name": "conv2d_53", "kernel_regularizer": {"config": {"l1": 0.0, "l2": 9.999999747378752e-05}, "class_name": "L1L2"}, "bias_regularizer": null, "filters": 64, "bias_constraint": null, "kernel_constraint": null, "dilation_rate": [1, 1], "strides": [1, 1]}, "inbound_nodes": [[["activation_50", 0, 0, {}]]], "class_name": "Conv2D", "name": "conv2d_53"}, {"config": {"scale": true, "beta_constraint": null, "gamma_initializer": {"config": {}, "class_name": "Ones"}, "gamma_regularizer": null, "center": true, "name": "batch_normalization_51", "moving_mean_initializer": {"config": {}, "class_name": "Zeros"}, "beta_regularizer": null, "axis": -1, "moving_variance_initializer": {"config": {}, "class_name": "Ones"}, "beta_initializer": {"config": {}, "class_name": "Zeros"}, "momentum": 0.99, "gamma_constraint": null, "trainable": true, "epsilon": 0.001}, "inbound_nodes": [[["conv2d_53", 0, 0, {}]]], "class_name": "BatchNormalization", "name": "batch_normalization_51"}, {"config": {"trainable": true, "name": "add_25"}, "inbound_nodes": [[["activation_49", 0, 0, {}], ["batch_normalization_51", 0, 0, {}]]], "class_name": "Add", "name": "add_25"}, {"config": {"trainable": true, "activation": "relu", "name": "activation_51"}, "inbound_nodes": [[["add_25", 0, 0, {}]]], "class_name": "Activation", "name": "activation_51"}, {"config": {"use_bias": true, "kernel_size": [3, 3], "activity_regularizer": null, "bias_initializer": {"config": {}, "class_name": "Zeros"}, "data_format": "channels_last", "trainable": true, "activation": "linear", "padding": "same", "kernel_initializer": {"config": {"distribution": "uniform", "seed": null, "scale": 1.0, "mode": "fan_avg"}, "class_name": "VarianceScaling"}, "name": "conv2d_54", "kernel_regularizer": {"config": {"l1": 0.0, "l2": 9.999999747378752e-05}, "class_name": "L1L2"}, "bias_regularizer": null, "filters": 55, "bias_constraint": null, "kernel_constraint": null, "dilation_rate": [1, 1], "strides": [1, 1]}, "inbound_nodes": [[["activation_51", 0, 0, {}]]], "class_name": "Conv2D", "name": "conv2d_54"}, {"config": {"scale": true, "beta_constraint": null, "gamma_initializer": {"config": {}, "class_name": "Ones"}, "gamma_regularizer": null, "center": true, "name": "batch_normalization_52", "moving_mean_initializer": {"config": {}, "class_name": "Zeros"}, "beta_regularizer": null, "axis": -1, "moving_variance_initializer": {"config": {}, "class_name": "Ones"}, "beta_initializer": {"config": {}, "class_name": "Zeros"}, "momentum": 0.99, "gamma_constraint": null, "trainable": true, "epsilon": 0.001}, "inbound_nodes": [[["conv2d_54", 0, 0, {}]]], "class_name": "BatchNormalization", "name": "batch_normalization_52"}, {"config": {"trainable": true, "activation": "relu", "name": "activation_52"}, "inbound_nodes": [[["batch_normalization_52", 0, 0, {}]]], "class_name": "Activation", "name": "activation_52"}, {"config": {"use_bias": true, "kernel_size": [3, 3], "activity_regularizer": null, "bias_initializer": {"config": {}, "class_name": "Zeros"}, "data_format": "channels_last", "trainable": true, "activation": "linear", "padding": "same", "kernel_initializer": {"config": {"distribution": "uniform", "seed": null, "scale": 1.0, "mode": "fan_avg"}, "class_name": "VarianceScaling"}, "name": "conv2d_55", "kernel_regularizer": {"config": {"l1": 0.0, "l2": 9.999999747378752e-05}, "class_name": "L1L2"}, "bias_regularizer": null, "filters": 64, "bias_constraint": null, "kernel_constraint": null, "dilation_rate": [1, 1], "strides": [1, 1]}, "inbound_nodes": [[["activation_52", 0, 0, {}]]], "class_name": "Conv2D", "name": "conv2d_55"}, {"config": {"scale": true, "beta_constraint": null, "gamma_initializer": {"config": {}, "class_name": "Ones"}, "gamma_regularizer": null, "center": true, "name": "batch_normalization_53", "moving_mean_initializer": {"config": {}, "class_name": "Zeros"}, "beta_regularizer": null, "axis": -1, "moving_variance_initializer": {"config": {}, "class_name": "Ones"}, "beta_initializer": {"config": {}, "class_name": "Zeros"}, "momentum": 0.99, "gamma_constraint": null, "trainable": true, "epsilon": 0.001}, "inbound_nodes": [[["conv2d_55", 0, 0, {}]]], "class_name": "BatchNormalization", "name": "batch_normalization_53"}, {"config": {"trainable": true, "name": "add_26"}, "inbound_nodes": [[["activation_51", 0, 0, {}], ["batch_normalization_53", 0, 0, {}]]], "class_name": "Add", "name": "add_26"}, {"config": {"trainable": true, "activation": "relu", "name": "activation_53"}, "inbound_nodes": [[["add_26", 0, 0, {}]]], "class_name": "Activation", "name": "activation_53"}, {"config": {"use_bias": true, "kernel_size": [3, 3], "activity_regularizer": null, "bias_initializer": {"config": {}, "class_name": "Zeros"}, "data_format": "channels_last", "trainable": true, "activation": "linear", "padding": "same", "kernel_initializer": {"config": {"distribution": "uniform", "seed": null, "scale": 1.0, "mode": "fan_avg"}, "class_name": "VarianceScaling"}, "name": "conv2d_56", "kernel_regularizer": {"config": {"l1": 0.0, "l2": 9.999999747378752e-05}, "class_name": "L1L2"}, "bias_regularizer": null, "filters": 54, "bias_constraint": null, "kernel_constraint": null, "dilation_rate": [1, 1], "strides": [1, 1]}, "inbound_nodes": [[["activation_53", 0, 0, {}]]], "class_name": "Conv2D", "name": "conv2d_56"}, {"config": {"scale": true, "beta_constraint": null, "gamma_initializer": {"config": {}, "class_name": "Ones"}, "gamma_regularizer": null, "center": true, "name": "batch_normalization_54", "moving_mean_initializer": {"config": {}, "class_name": "Zeros"}, "beta_regularizer": null, "axis": -1, "moving_variance_initializer": {"config": {}, "class_name": "Ones"}, "beta_initializer": {"config": {}, "class_name": "Zeros"}, "momentum": 0.99, "gamma_constraint": null, "trainable": true, "epsilon": 0.001}, "inbound_nodes": [[["conv2d_56", 0, 0, {}]]], "class_name": "BatchNormalization", "name": "batch_normalization_54"}, {"config": {"trainable": true, "activation": "relu", "name": "activation_54"}, "inbound_nodes": [[["batch_normalization_54", 0, 0, {}]]], "class_name": "Activation", "name": "activation_54"}, {"config": {"use_bias": true, "kernel_size": [3, 3], "activity_regularizer": null, "bias_initializer": {"config": {}, "class_name": "Zeros"}, "data_format": "channels_last", "trainable": true, "activation": "linear", "padding": "same", "kernel_initializer": {"config": {"distribution": "uniform", "seed": null, "scale": 1.0, "mode": "fan_avg"}, "class_name": "VarianceScaling"}, "name": "conv2d_57", "kernel_regularizer": {"config": {"l1": 0.0, "l2": 9.999999747378752e-05}, "class_name": "L1L2"}, "bias_regularizer": null, "filters": 64, "bias_constraint": null, "kernel_constraint": null, "dilation_rate": [1, 1], "strides": [1, 1]}, "inbound_nodes": [[["activation_54", 0, 0, {}]]], "class_name": "Conv2D", "name": "conv2d_57"}, {"config": {"scale": true, "beta_constraint": null, "gamma_initializer": {"config": {}, "class_name": "Ones"}, "gamma_regularizer": null, "center": true, "name": "batch_normalization_55", "moving_mean_initializer": {"config": {}, "class_name": "Zeros"}, "beta_regularizer": null, "axis": -1, "moving_variance_initializer": {"config": {}, "class_name": "Ones"}, "beta_initializer": {"config": {}, "class_name": "Zeros"}, "momentum": 0.99, "gamma_constraint": null, "trainable": true, "epsilon": 0.001}, "inbound_nodes": [[["conv2d_57", 0, 0, {}]]], "class_name": "BatchNormalization", "name": "batch_normalization_55"}, {"config": {"trainable": true, "name": "add_27"}, "inbound_nodes": [[["activation_53", 0, 0, {}], ["batch_normalization_55", 0, 0, {}]]], "class_name": "Add", "name": "add_27"}, {"config": {"trainable": true, "activation": "relu", "name": "activation_55"}, "inbound_nodes": [[["add_27", 0, 0, {}]]], "class_name": "Activation", "name": "activation_55"}, {"config": {"pool_size": [8, 8], "data_format": "channels_last", "trainable": true, "name": "average_pooling2d_1", "padding": "valid", "strides": [8, 8]}, "inbound_nodes": [[["activation_55", 0, 0, {}]]], "class_name": "AveragePooling2D", "name": "average_pooling2d_1"}, {"config": {"trainable": true, "name": "flatten_1"}, "inbound_nodes": [[["average_pooling2d_1", 0, 0, {}]]], "class_name": "Flatten", "name": "flatten_1"}, {"config": {"use_bias": true, "activity_regularizer": null, "bias_initializer": {"config": {}, "class_name": "Zeros"}, "trainable": true, "name": "dense_1", "kernel_initializer": {"config": {"distribution": "normal", "seed": null, "scale": 2.0, "mode": "fan_in"}, "class_name": "VarianceScaling"}, "kernel_regularizer": null, "bias_regularizer": null, "bias_constraint": null, "activation": "softmax", "units": 10, "kernel_constraint": null}, "inbound_nodes": [[["flatten_1", 0, 0, {}]]], "class_name": "Dense", "name": "dense_1"}]}, "class_name": "Model", "backend": "tensorflow", "keras_version": "2.1.2"}