{"config": {"output_layers": [["dense_5", 0, 0]], "input_layers": [["input_10", 0, 0]], "name": "model_295", "layers": [{"config": {"dtype": "float32", "batch_input_shape": [null, 32, 32, 3], "name": "input_10", "sparse": false}, "inbound_nodes": [], "class_name": "InputLayer", "name": "input_10"}, {"config": {"use_bias": true, "kernel_size": [3, 3], "activity_regularizer": null, "bias_initializer": {"config": {}, "class_name": "Zeros"}, "data_format": "channels_last", "trainable": true, "activation": "linear", "padding": "same", "kernel_initializer": {"config": {"distribution": "uniform", "seed": null, "scale": 1.0, "mode": "fan_avg"}, "class_name": "VarianceScaling"}, "name": "conv2d_1", "kernel_regularizer": {"config": {"l1": 0.0, "l2": 9.999999747378752e-05}, "class_name": "L1L2"}, "bias_regularizer": null, "filters": 16, "bias_constraint": null, "kernel_constraint": null, "dilation_rate": [1, 1], "strides": [1, 1]}, "inbound_nodes": [[["input_10", 0, 0, {}]]], "class_name": "Conv2D", "name": "conv2d_1"}, {"config": {"scale": true, "beta_constraint": null, "gamma_initializer": {"config": {}, "class_name": "Ones"}, "gamma_regularizer": null, "center": true, "name": "batch_normalization_221", "moving_mean_initializer": {"config": {}, "class_name": "Zeros"}, "beta_regularizer": null, "axis": -1, "moving_variance_initializer": {"config": {}, "class_name": "Ones"}, "beta_initializer": {"config": {}, "class_name": "Zeros"}, "momentum": 0.99, "gamma_constraint": null, "trainable": true, "epsilon": 0.001}, "inbound_nodes": [[["conv2d_1", 0, 0, {}]]], "class_name": "BatchNormalization", "name": "batch_normalization_221"}, {"config": {"trainable": true, "activation": "relu", "name": "activation_1"}, "inbound_nodes": [[["batch_normalization_221", 0, 0, {}]]], "class_name": "Activation", "name": "activation_1"}, {"config": {"use_bias": true, "kernel_size": [3, 3], "activity_regularizer": null, "bias_initializer": {"config": {}, "class_name": "Zeros"}, "data_format": "channels_last", "trainable": true, "activation": "linear", "padding": "same", "kernel_initializer": {"config": {"distribution": "uniform", "seed": null, "scale": 1.0, "mode": "fan_avg"}, "class_name": "VarianceScaling"}, "name": "conv2d_2", "kernel_regularizer": {"config": {"l1": 0.0, "l2": 9.999999747378752e-05}, "class_name": "L1L2"}, "bias_regularizer": null, "filters": 15, "bias_constraint": null, "kernel_constraint": null, "dilation_rate": [1, 1], "strides": [1, 1]}, "inbound_nodes": [[["activation_1", 0, 0, {}]]], "class_name": "Conv2D", "name": "conv2d_2"}, {"config": {"scale": true, "beta_constraint": null, "gamma_initializer": {"config": {}, "class_name": "Ones"}, "gamma_regularizer": null, "center": true, "name": "batch_normalization_222", "moving_mean_initializer": {"config": {}, "class_name": "Zeros"}, "beta_regularizer": null, "axis": -1, "moving_variance_initializer": {"config": {}, "class_name": "Ones"}, "beta_initializer": {"config": {}, "class_name": "Zeros"}, "momentum": 0.99, "gamma_constraint": null, "trainable": true, "epsilon": 0.001}, "inbound_nodes": [[["conv2d_2", 0, 0, {}]]], "class_name": "BatchNormalization", "name": "batch_normalization_222"}, {"config": {"trainable": true, "activation": "relu", "name": "activation_2"}, "inbound_nodes": [[["batch_normalization_222", 0, 0, {}]]], "class_name": "Activation", "name": "activation_2"}, {"config": {"use_bias": true, "kernel_size": [3, 3], "activity_regularizer": null, "bias_initializer": {"config": {}, "class_name": "Zeros"}, "data_format": "channels_last", "trainable": true, "activation": "linear", "padding": "same", "kernel_initializer": {"config": {"distribution": "uniform", "seed": null, "scale": 1.0, "mode": "fan_avg"}, "class_name": "VarianceScaling"}, "name": "conv2d_3", "kernel_regularizer": {"config": {"l1": 0.0, "l2": 9.999999747378752e-05}, "class_name": "L1L2"}, "bias_regularizer": null, "filters": 16, "bias_constraint": null, "kernel_constraint": null, "dilation_rate": [1, 1], "strides": [1, 1]}, "inbound_nodes": [[["activation_2", 0, 0, {}]]], "class_name": "Conv2D", "name": "conv2d_3"}, {"config": {"scale": true, "beta_constraint": null, "gamma_initializer": {"config": {}, "class_name": "Ones"}, "gamma_regularizer": null, "center": true, "name": "batch_normalization_223", "moving_mean_initializer": {"config": {}, "class_name": "Zeros"}, "beta_regularizer": null, "axis": -1, "moving_variance_initializer": {"config": {}, "class_name": "Ones"}, "beta_initializer": {"config": {}, "class_name": "Zeros"}, "momentum": 0.99, "gamma_constraint": null, "trainable": true, "epsilon": 0.001}, "inbound_nodes": [[["conv2d_3", 0, 0, {}]]], "class_name": "BatchNormalization", "name": "batch_normalization_223"}, {"config": {"trainable": true, "name": "add_109"}, "inbound_nodes": [[["activation_1", 0, 0, {}], ["batch_normalization_223", 0, 0, {}]]], "class_name": "Add", "name": "add_109"}, {"config": {"trainable": true, "activation": "relu", "name": "activation_3"}, "inbound_nodes": [[["add_109", 0, 0, {}]]], "class_name": "Activation", "name": "activation_3"}, {"config": {"use_bias": true, "kernel_size": [3, 3], "activity_regularizer": null, "bias_initializer": {"config": {}, "class_name": "Zeros"}, "data_format": "channels_last", "trainable": true, "activation": "linear", "padding": "same", "kernel_initializer": {"config": {"distribution": "uniform", "seed": null, "scale": 1.0, "mode": "fan_avg"}, "class_name": "VarianceScaling"}, "name": "conv2d_4", "kernel_regularizer": {"config": {"l1": 0.0, "l2": 9.999999747378752e-05}, "class_name": "L1L2"}, "bias_regularizer": null, "filters": 10, "bias_constraint": null, "kernel_constraint": null, "dilation_rate": [1, 1], "strides": [1, 1]}, "inbound_nodes": [[["activation_3", 0, 0, {}]]], "class_name": "Conv2D", "name": "conv2d_4"}, {"config": {"scale": true, "beta_constraint": null, "gamma_initializer": {"config": {}, "class_name": "Ones"}, "gamma_regularizer": null, "center": true, "name": "batch_normalization_224", "moving_mean_initializer": {"config": {}, "class_name": "Zeros"}, "beta_regularizer": null, "axis": -1, "moving_variance_initializer": {"config": {}, "class_name": "Ones"}, "beta_initializer": {"config": {}, "class_name": "Zeros"}, "momentum": 0.99, "gamma_constraint": null, "trainable": true, "epsilon": 0.001}, "inbound_nodes": [[["conv2d_4", 0, 0, {}]]], "class_name": "BatchNormalization", "name": "batch_normalization_224"}, {"config": {"trainable": true, "activation": "relu", "name": "activation_4"}, "inbound_nodes": [[["batch_normalization_224", 0, 0, {}]]], "class_name": "Activation", "name": "activation_4"}, {"config": {"use_bias": true, "kernel_size": [3, 3], "activity_regularizer": null, "bias_initializer": {"config": {}, "class_name": "Zeros"}, "data_format": "channels_last", "trainable": true, "activation": "linear", "padding": "same", "kernel_initializer": {"config": {"distribution": "uniform", "seed": null, "scale": 1.0, "mode": "fan_avg"}, "class_name": "VarianceScaling"}, "name": "conv2d_5", "kernel_regularizer": {"config": {"l1": 0.0, "l2": 9.999999747378752e-05}, "class_name": "L1L2"}, "bias_regularizer": null, "filters": 16, "bias_constraint": null, "kernel_constraint": null, "dilation_rate": [1, 1], "strides": [1, 1]}, "inbound_nodes": [[["activation_4", 0, 0, {}]]], "class_name": "Conv2D", "name": "conv2d_5"}, {"config": {"scale": true, "beta_constraint": null, "gamma_initializer": {"config": {}, "class_name": "Ones"}, "gamma_regularizer": null, "center": true, "name": "batch_normalization_225", "moving_mean_initializer": {"config": {}, "class_name": "Zeros"}, "beta_regularizer": null, "axis": -1, "moving_variance_initializer": {"config": {}, "class_name": "Ones"}, "beta_initializer": {"config": {}, "class_name": "Zeros"}, "momentum": 0.99, "gamma_constraint": null, "trainable": true, "epsilon": 0.001}, "inbound_nodes": [[["conv2d_5", 0, 0, {}]]], "class_name": "BatchNormalization", "name": "batch_normalization_225"}, {"config": {"trainable": true, "name": "add_110"}, "inbound_nodes": [[["activation_3", 0, 0, {}], ["batch_normalization_225", 0, 0, {}]]], "class_name": "Add", "name": "add_110"}, {"config": {"trainable": true, "activation": "relu", "name": "activation_5"}, "inbound_nodes": [[["add_110", 0, 0, {}]]], "class_name": "Activation", "name": "activation_5"}, {"config": {"use_bias": true, "kernel_size": [3, 3], "activity_regularizer": null, "bias_initializer": {"config": {}, "class_name": "Zeros"}, "data_format": "channels_last", "trainable": true, "activation": "linear", "padding": "same", "kernel_initializer": {"config": {"distribution": "uniform", "seed": null, "scale": 1.0, "mode": "fan_avg"}, "class_name": "VarianceScaling"}, "name": "conv2d_6", "kernel_regularizer": {"config": {"l1": 0.0, "l2": 9.999999747378752e-05}, "class_name": "L1L2"}, "bias_regularizer": null, "filters": 13, "bias_constraint": null, "kernel_constraint": null, "dilation_rate": [1, 1], "strides": [1, 1]}, "inbound_nodes": [[["activation_5", 0, 0, {}]]], "class_name": "Conv2D", "name": "conv2d_6"}, {"config": {"scale": true, "beta_constraint": null, "gamma_initializer": {"config": {}, "class_name": "Ones"}, "gamma_regularizer": null, "center": true, "name": "batch_normalization_226", "moving_mean_initializer": {"config": {}, "class_name": "Zeros"}, "beta_regularizer": null, "axis": -1, "moving_variance_initializer": {"config": {}, "class_name": "Ones"}, "beta_initializer": {"config": {}, "class_name": "Zeros"}, "momentum": 0.99, "gamma_constraint": null, "trainable": true, "epsilon": 0.001}, "inbound_nodes": [[["conv2d_6", 0, 0, {}]]], "class_name": "BatchNormalization", "name": "batch_normalization_226"}, {"config": {"trainable": true, "activation": "relu", "name": "activation_6"}, "inbound_nodes": [[["batch_normalization_226", 0, 0, {}]]], "class_name": "Activation", "name": "activation_6"}, {"config": {"use_bias": true, "kernel_size": [3, 3], "activity_regularizer": null, "bias_initializer": {"config": {}, "class_name": "Zeros"}, "data_format": "channels_last", "trainable": true, "activation": "linear", "padding": "same", "kernel_initializer": {"config": {"distribution": "uniform", "seed": null, "scale": 1.0, "mode": "fan_avg"}, "class_name": "VarianceScaling"}, "name": "conv2d_7", "kernel_regularizer": {"config": {"l1": 0.0, "l2": 9.999999747378752e-05}, "class_name": "L1L2"}, "bias_regularizer": null, "filters": 16, "bias_constraint": null, "kernel_constraint": null, "dilation_rate": [1, 1], "strides": [1, 1]}, "inbound_nodes": [[["activation_6", 0, 0, {}]]], "class_name": "Conv2D", "name": "conv2d_7"}, {"config": {"scale": true, "beta_constraint": null, "gamma_initializer": {"config": {}, "class_name": "Ones"}, "gamma_regularizer": null, "center": true, "name": "batch_normalization_227", "moving_mean_initializer": {"config": {}, "class_name": "Zeros"}, "beta_regularizer": null, "axis": -1, "moving_variance_initializer": {"config": {}, "class_name": "Ones"}, "beta_initializer": {"config": {}, "class_name": "Zeros"}, "momentum": 0.99, "gamma_constraint": null, "trainable": true, "epsilon": 0.001}, "inbound_nodes": [[["conv2d_7", 0, 0, {}]]], "class_name": "BatchNormalization", "name": "batch_normalization_227"}, {"config": {"trainable": true, "name": "add_111"}, "inbound_nodes": [[["activation_5", 0, 0, {}], ["batch_normalization_227", 0, 0, {}]]], "class_name": "Add", "name": "add_111"}, {"config": {"trainable": true, "activation": "relu", "name": "activation_7"}, "inbound_nodes": [[["add_111", 0, 0, {}]]], "class_name": "Activation", "name": "activation_7"}, {"config": {"use_bias": true, "kernel_size": [3, 3], "activity_regularizer": null, "bias_initializer": {"config": {}, "class_name": "Zeros"}, "data_format": "channels_last", "trainable": true, "activation": "linear", "padding": "same", "kernel_initializer": {"config": {"distribution": "uniform", "seed": null, "scale": 1.0, "mode": "fan_avg"}, "class_name": "VarianceScaling"}, "name": "conv2d_8", "kernel_regularizer": {"config": {"l1": 0.0, "l2": 9.999999747378752e-05}, "class_name": "L1L2"}, "bias_regularizer": null, "filters": 14, "bias_constraint": null, "kernel_constraint": null, "dilation_rate": [1, 1], "strides": [1, 1]}, "inbound_nodes": [[["activation_7", 0, 0, {}]]], "class_name": "Conv2D", "name": "conv2d_8"}, {"config": {"scale": true, "beta_constraint": null, "gamma_initializer": {"config": {}, "class_name": "Ones"}, "gamma_regularizer": null, "center": true, "name": "batch_normalization_228", "moving_mean_initializer": {"config": {}, "class_name": "Zeros"}, "beta_regularizer": null, "axis": -1, "moving_variance_initializer": {"config": {}, "class_name": "Ones"}, "beta_initializer": {"config": {}, "class_name": "Zeros"}, "momentum": 0.99, "gamma_constraint": null, "trainable": true, "epsilon": 0.001}, "inbound_nodes": [[["conv2d_8", 0, 0, {}]]], "class_name": "BatchNormalization", "name": "batch_normalization_228"}, {"config": {"trainable": true, "activation": "relu", "name": "activation_8"}, "inbound_nodes": [[["batch_normalization_228", 0, 0, {}]]], "class_name": "Activation", "name": "activation_8"}, {"config": {"use_bias": true, "kernel_size": [3, 3], "activity_regularizer": null, "bias_initializer": {"config": {}, "class_name": "Zeros"}, "data_format": "channels_last", "trainable": true, "activation": "linear", "padding": "same", "kernel_initializer": {"config": {"distribution": "uniform", "seed": null, "scale": 1.0, "mode": "fan_avg"}, "class_name": "VarianceScaling"}, "name": "conv2d_9", "kernel_regularizer": {"config": {"l1": 0.0, "l2": 9.999999747378752e-05}, "class_name": "L1L2"}, "bias_regularizer": null, "filters": 16, "bias_constraint": null, "kernel_constraint": null, "dilation_rate": [1, 1], "strides": [1, 1]}, "inbound_nodes": [[["activation_8", 0, 0, {}]]], "class_name": "Conv2D", "name": "conv2d_9"}, {"config": {"scale": true, "beta_constraint": null, "gamma_initializer": {"config": {}, "class_name": "Ones"}, "gamma_regularizer": null, "center": true, "name": "batch_normalization_229", "moving_mean_initializer": {"config": {}, "class_name": "Zeros"}, "beta_regularizer": null, "axis": -1, "moving_variance_initializer": {"config": {}, "class_name": "Ones"}, "beta_initializer": {"config": {}, "class_name": "Zeros"}, "momentum": 0.99, "gamma_constraint": null, "trainable": true, "epsilon": 0.001}, "inbound_nodes": [[["conv2d_9", 0, 0, {}]]], "class_name": "BatchNormalization", "name": "batch_normalization_229"}, {"config": {"trainable": true, "name": "add_112"}, "inbound_nodes": [[["activation_7", 0, 0, {}], ["batch_normalization_229", 0, 0, {}]]], "class_name": "Add", "name": "add_112"}, {"config": {"trainable": true, "activation": "relu", "name": "activation_9"}, "inbound_nodes": [[["add_112", 0, 0, {}]]], "class_name": "Activation", "name": "activation_9"}, {"config": {"use_bias": true, "kernel_size": [3, 3], "activity_regularizer": null, "bias_initializer": {"config": {}, "class_name": "Zeros"}, "data_format": "channels_last", "trainable": true, "activation": "linear", "padding": "same", "kernel_initializer": {"config": {"distribution": "uniform", "seed": null, "scale": 1.0, "mode": "fan_avg"}, "class_name": "VarianceScaling"}, "name": "conv2d_10", "kernel_regularizer": {"config": {"l1": 0.0, "l2": 9.999999747378752e-05}, "class_name": "L1L2"}, "bias_regularizer": null, "filters": 10, "bias_constraint": null, "kernel_constraint": null, "dilation_rate": [1, 1], "strides": [1, 1]}, "inbound_nodes": [[["activation_9", 0, 0, {}]]], "class_name": "Conv2D", "name": "conv2d_10"}, {"config": {"scale": true, "beta_constraint": null, "gamma_initializer": {"config": {}, "class_name": "Ones"}, "gamma_regularizer": null, "center": true, "name": "batch_normalization_230", "moving_mean_initializer": {"config": {}, "class_name": "Zeros"}, "beta_regularizer": null, "axis": -1, "moving_variance_initializer": {"config": {}, "class_name": "Ones"}, "beta_initializer": {"config": {}, "class_name": "Zeros"}, "momentum": 0.99, "gamma_constraint": null, "trainable": true, "epsilon": 0.001}, "inbound_nodes": [[["conv2d_10", 0, 0, {}]]], "class_name": "BatchNormalization", "name": "batch_normalization_230"}, {"config": {"trainable": true, "activation": "relu", "name": "activation_10"}, "inbound_nodes": [[["batch_normalization_230", 0, 0, {}]]], "class_name": "Activation", "name": "activation_10"}, {"config": {"use_bias": true, "kernel_size": [3, 3], "activity_regularizer": null, "bias_initializer": {"config": {}, "class_name": "Zeros"}, "data_format": "channels_last", "trainable": true, "activation": "linear", "padding": "same", "kernel_initializer": {"config": {"distribution": "uniform", "seed": null, "scale": 1.0, "mode": "fan_avg"}, "class_name": "VarianceScaling"}, "name": "conv2d_11", "kernel_regularizer": {"config": {"l1": 0.0, "l2": 9.999999747378752e-05}, "class_name": "L1L2"}, "bias_regularizer": null, "filters": 16, "bias_constraint": null, "kernel_constraint": null, "dilation_rate": [1, 1], "strides": [1, 1]}, "inbound_nodes": [[["activation_10", 0, 0, {}]]], "class_name": "Conv2D", "name": "conv2d_11"}, {"config": {"scale": true, "beta_constraint": null, "gamma_initializer": {"config": {}, "class_name": "Ones"}, "gamma_regularizer": null, "center": true, "name": "batch_normalization_231", "moving_mean_initializer": {"config": {}, "class_name": "Zeros"}, "beta_regularizer": null, "axis": -1, "moving_variance_initializer": {"config": {}, "class_name": "Ones"}, "beta_initializer": {"config": {}, "class_name": "Zeros"}, "momentum": 0.99, "gamma_constraint": null, "trainable": true, "epsilon": 0.001}, "inbound_nodes": [[["conv2d_11", 0, 0, {}]]], "class_name": "BatchNormalization", "name": "batch_normalization_231"}, {"config": {"trainable": true, "name": "add_113"}, "inbound_nodes": [[["activation_9", 0, 0, {}], ["batch_normalization_231", 0, 0, {}]]], "class_name": "Add", "name": "add_113"}, {"config": {"trainable": true, "activation": "relu", "name": "activation_11"}, "inbound_nodes": [[["add_113", 0, 0, {}]]], "class_name": "Activation", "name": "activation_11"}, {"config": {"use_bias": true, "kernel_size": [3, 3], "activity_regularizer": null, "bias_initializer": {"config": {}, "class_name": "Zeros"}, "data_format": "channels_last", "trainable": true, "activation": "linear", "padding": "same", "kernel_initializer": {"config": {"distribution": "uniform", "seed": null, "scale": 1.0, "mode": "fan_avg"}, "class_name": "VarianceScaling"}, "name": "conv2d_12", "kernel_regularizer": {"config": {"l1": 0.0, "l2": 9.999999747378752e-05}, "class_name": "L1L2"}, "bias_regularizer": null, "filters": 7, "bias_constraint": null, "kernel_constraint": null, "dilation_rate": [1, 1], "strides": [1, 1]}, "inbound_nodes": [[["activation_11", 0, 0, {}]]], "class_name": "Conv2D", "name": "conv2d_12"}, {"config": {"scale": true, "beta_constraint": null, "gamma_initializer": {"config": {}, "class_name": "Ones"}, "gamma_regularizer": null, "center": true, "name": "batch_normalization_232", "moving_mean_initializer": {"config": {}, "class_name": "Zeros"}, "beta_regularizer": null, "axis": -1, "moving_variance_initializer": {"config": {}, "class_name": "Ones"}, "beta_initializer": {"config": {}, "class_name": "Zeros"}, "momentum": 0.99, "gamma_constraint": null, "trainable": true, "epsilon": 0.001}, "inbound_nodes": [[["conv2d_12", 0, 0, {}]]], "class_name": "BatchNormalization", "name": "batch_normalization_232"}, {"config": {"trainable": true, "activation": "relu", "name": "activation_12"}, "inbound_nodes": [[["batch_normalization_232", 0, 0, {}]]], "class_name": "Activation", "name": "activation_12"}, {"config": {"use_bias": true, "kernel_size": [3, 3], "activity_regularizer": null, "bias_initializer": {"config": {}, "class_name": "Zeros"}, "data_format": "channels_last", "trainable": true, "activation": "linear", "padding": "same", "kernel_initializer": {"config": {"distribution": "uniform", "seed": null, "scale": 1.0, "mode": "fan_avg"}, "class_name": "VarianceScaling"}, "name": "conv2d_13", "kernel_regularizer": {"config": {"l1": 0.0, "l2": 9.999999747378752e-05}, "class_name": "L1L2"}, "bias_regularizer": null, "filters": 16, "bias_constraint": null, "kernel_constraint": null, "dilation_rate": [1, 1], "strides": [1, 1]}, "inbound_nodes": [[["activation_12", 0, 0, {}]]], "class_name": "Conv2D", "name": "conv2d_13"}, {"config": {"scale": true, "beta_constraint": null, "gamma_initializer": {"config": {}, "class_name": "Ones"}, "gamma_regularizer": null, "center": true, "name": "batch_normalization_233", "moving_mean_initializer": {"config": {}, "class_name": "Zeros"}, "beta_regularizer": null, "axis": -1, "moving_variance_initializer": {"config": {}, "class_name": "Ones"}, "beta_initializer": {"config": {}, "class_name": "Zeros"}, "momentum": 0.99, "gamma_constraint": null, "trainable": true, "epsilon": 0.001}, "inbound_nodes": [[["conv2d_13", 0, 0, {}]]], "class_name": "BatchNormalization", "name": "batch_normalization_233"}, {"config": {"trainable": true, "name": "add_114"}, "inbound_nodes": [[["activation_11", 0, 0, {}], ["batch_normalization_233", 0, 0, {}]]], "class_name": "Add", "name": "add_114"}, {"config": {"trainable": true, "activation": "relu", "name": "activation_13"}, "inbound_nodes": [[["add_114", 0, 0, {}]]], "class_name": "Activation", "name": "activation_13"}, {"config": {"use_bias": true, "kernel_size": [3, 3], "activity_regularizer": null, "bias_initializer": {"config": {}, "class_name": "Zeros"}, "data_format": "channels_last", "trainable": true, "activation": "linear", "padding": "same", "kernel_initializer": {"config": {"distribution": "uniform", "seed": null, "scale": 1.0, "mode": "fan_avg"}, "class_name": "VarianceScaling"}, "name": "conv2d_14", "kernel_regularizer": {"config": {"l1": 0.0, "l2": 9.999999747378752e-05}, "class_name": "L1L2"}, "bias_regularizer": null, "filters": 16, "bias_constraint": null, "kernel_constraint": null, "dilation_rate": [1, 1], "strides": [1, 1]}, "inbound_nodes": [[["activation_13", 0, 0, {}]]], "class_name": "Conv2D", "name": "conv2d_14"}, {"config": {"scale": true, "beta_constraint": null, "gamma_initializer": {"config": {}, "class_name": "Ones"}, "gamma_regularizer": null, "center": true, "name": "batch_normalization_234", "moving_mean_initializer": {"config": {}, "class_name": "Zeros"}, "beta_regularizer": null, "axis": -1, "moving_variance_initializer": {"config": {}, "class_name": "Ones"}, "beta_initializer": {"config": {}, "class_name": "Zeros"}, "momentum": 0.99, "gamma_constraint": null, "trainable": true, "epsilon": 0.001}, "inbound_nodes": [[["conv2d_14", 0, 0, {}]]], "class_name": "BatchNormalization", "name": "batch_normalization_234"}, {"config": {"trainable": true, "activation": "relu", "name": "activation_14"}, "inbound_nodes": [[["batch_normalization_234", 0, 0, {}]]], "class_name": "Activation", "name": "activation_14"}, {"config": {"use_bias": true, "kernel_size": [3, 3], "activity_regularizer": null, "bias_initializer": {"config": {}, "class_name": "Zeros"}, "data_format": "channels_last", "trainable": true, "activation": "linear", "padding": "same", "kernel_initializer": {"config": {"distribution": "uniform", "seed": null, "scale": 1.0, "mode": "fan_avg"}, "class_name": "VarianceScaling"}, "name": "conv2d_15", "kernel_regularizer": {"config": {"l1": 0.0, "l2": 9.999999747378752e-05}, "class_name": "L1L2"}, "bias_regularizer": null, "filters": 16, "bias_constraint": null, "kernel_constraint": null, "dilation_rate": [1, 1], "strides": [1, 1]}, "inbound_nodes": [[["activation_14", 0, 0, {}]]], "class_name": "Conv2D", "name": "conv2d_15"}, {"config": {"scale": true, "beta_constraint": null, "gamma_initializer": {"config": {}, "class_name": "Ones"}, "gamma_regularizer": null, "center": true, "name": "batch_normalization_235", "moving_mean_initializer": {"config": {}, "class_name": "Zeros"}, "beta_regularizer": null, "axis": -1, "moving_variance_initializer": {"config": {}, "class_name": "Ones"}, "beta_initializer": {"config": {}, "class_name": "Zeros"}, "momentum": 0.99, "gamma_constraint": null, "trainable": true, "epsilon": 0.001}, "inbound_nodes": [[["conv2d_15", 0, 0, {}]]], "class_name": "BatchNormalization", "name": "batch_normalization_235"}, {"config": {"trainable": true, "name": "add_115"}, "inbound_nodes": [[["activation_13", 0, 0, {}], ["batch_normalization_235", 0, 0, {}]]], "class_name": "Add", "name": "add_115"}, {"config": {"trainable": true, "activation": "relu", "name": "activation_15"}, "inbound_nodes": [[["add_115", 0, 0, {}]]], "class_name": "Activation", "name": "activation_15"}, {"config": {"use_bias": true, "kernel_size": [3, 3], "activity_regularizer": null, "bias_initializer": {"config": {}, "class_name": "Zeros"}, "data_format": "channels_last", "trainable": true, "activation": "linear", "padding": "same", "kernel_initializer": {"config": {"distribution": "uniform", "seed": null, "scale": 1.0, "mode": "fan_avg"}, "class_name": "VarianceScaling"}, "name": "conv2d_16", "kernel_regularizer": {"config": {"l1": 0.0, "l2": 9.999999747378752e-05}, "class_name": "L1L2"}, "bias_regularizer": null, "filters": 10, "bias_constraint": null, "kernel_constraint": null, "dilation_rate": [1, 1], "strides": [1, 1]}, "inbound_nodes": [[["activation_15", 0, 0, {}]]], "class_name": "Conv2D", "name": "conv2d_16"}, {"config": {"scale": true, "beta_constraint": null, "gamma_initializer": {"config": {}, "class_name": "Ones"}, "gamma_regularizer": null, "center": true, "name": "batch_normalization_236", "moving_mean_initializer": {"config": {}, "class_name": "Zeros"}, "beta_regularizer": null, "axis": -1, "moving_variance_initializer": {"config": {}, "class_name": "Ones"}, "beta_initializer": {"config": {}, "class_name": "Zeros"}, "momentum": 0.99, "gamma_constraint": null, "trainable": true, "epsilon": 0.001}, "inbound_nodes": [[["conv2d_16", 0, 0, {}]]], "class_name": "BatchNormalization", "name": "batch_normalization_236"}, {"config": {"trainable": true, "activation": "relu", "name": "activation_16"}, "inbound_nodes": [[["batch_normalization_236", 0, 0, {}]]], "class_name": "Activation", "name": "activation_16"}, {"config": {"use_bias": true, "kernel_size": [3, 3], "activity_regularizer": null, "bias_initializer": {"config": {}, "class_name": "Zeros"}, "data_format": "channels_last", "trainable": true, "activation": "linear", "padding": "same", "kernel_initializer": {"config": {"distribution": "uniform", "seed": null, "scale": 1.0, "mode": "fan_avg"}, "class_name": "VarianceScaling"}, "name": "conv2d_17", "kernel_regularizer": {"config": {"l1": 0.0, "l2": 9.999999747378752e-05}, "class_name": "L1L2"}, "bias_regularizer": null, "filters": 16, "bias_constraint": null, "kernel_constraint": null, "dilation_rate": [1, 1], "strides": [1, 1]}, "inbound_nodes": [[["activation_16", 0, 0, {}]]], "class_name": "Conv2D", "name": "conv2d_17"}, {"config": {"scale": true, "beta_constraint": null, "gamma_initializer": {"config": {}, "class_name": "Ones"}, "gamma_regularizer": null, "center": true, "name": "batch_normalization_237", "moving_mean_initializer": {"config": {}, "class_name": "Zeros"}, "beta_regularizer": null, "axis": -1, "moving_variance_initializer": {"config": {}, "class_name": "Ones"}, "beta_initializer": {"config": {}, "class_name": "Zeros"}, "momentum": 0.99, "gamma_constraint": null, "trainable": true, "epsilon": 0.001}, "inbound_nodes": [[["conv2d_17", 0, 0, {}]]], "class_name": "BatchNormalization", "name": "batch_normalization_237"}, {"config": {"trainable": true, "name": "add_116"}, "inbound_nodes": [[["activation_15", 0, 0, {}], ["batch_normalization_237", 0, 0, {}]]], "class_name": "Add", "name": "add_116"}, {"config": {"trainable": true, "activation": "relu", "name": "activation_17"}, "inbound_nodes": [[["add_116", 0, 0, {}]]], "class_name": "Activation", "name": "activation_17"}, {"config": {"use_bias": true, "kernel_size": [3, 3], "activity_regularizer": null, "bias_initializer": {"config": {}, "class_name": "Zeros"}, "data_format": "channels_last", "trainable": true, "activation": "linear", "padding": "same", "kernel_initializer": {"config": {"distribution": "uniform", "seed": null, "scale": 1.0, "mode": "fan_avg"}, "class_name": "VarianceScaling"}, "name": "conv2d_18", "kernel_regularizer": {"config": {"l1": 0.0, "l2": 9.999999747378752e-05}, "class_name": "L1L2"}, "bias_regularizer": null, "filters": 13, "bias_constraint": null, "kernel_constraint": null, "dilation_rate": [1, 1], "strides": [1, 1]}, "inbound_nodes": [[["activation_17", 0, 0, {}]]], "class_name": "Conv2D", "name": "conv2d_18"}, {"config": {"scale": true, "beta_constraint": null, "gamma_initializer": {"config": {}, "class_name": "Ones"}, "gamma_regularizer": null, "center": true, "name": "batch_normalization_238", "moving_mean_initializer": {"config": {}, "class_name": "Zeros"}, "beta_regularizer": null, "axis": -1, "moving_variance_initializer": {"config": {}, "class_name": "Ones"}, "beta_initializer": {"config": {}, "class_name": "Zeros"}, "momentum": 0.99, "gamma_constraint": null, "trainable": true, "epsilon": 0.001}, "inbound_nodes": [[["conv2d_18", 0, 0, {}]]], "class_name": "BatchNormalization", "name": "batch_normalization_238"}, {"config": {"trainable": true, "activation": "relu", "name": "activation_18"}, "inbound_nodes": [[["batch_normalization_238", 0, 0, {}]]], "class_name": "Activation", "name": "activation_18"}, {"config": {"use_bias": true, "kernel_size": [3, 3], "activity_regularizer": null, "bias_initializer": {"config": {}, "class_name": "Zeros"}, "data_format": "channels_last", "trainable": true, "activation": "linear", "padding": "same", "kernel_initializer": {"config": {"distribution": "uniform", "seed": null, "scale": 1.0, "mode": "fan_avg"}, "class_name": "VarianceScaling"}, "name": "conv2d_19", "kernel_regularizer": {"config": {"l1": 0.0, "l2": 9.999999747378752e-05}, "class_name": "L1L2"}, "bias_regularizer": null, "filters": 16, "bias_constraint": null, "kernel_constraint": null, "dilation_rate": [1, 1], "strides": [1, 1]}, "inbound_nodes": [[["activation_18", 0, 0, {}]]], "class_name": "Conv2D", "name": "conv2d_19"}, {"config": {"scale": true, "beta_constraint": null, "gamma_initializer": {"config": {}, "class_name": "Ones"}, "gamma_regularizer": null, "center": true, "name": "batch_normalization_239", "moving_mean_initializer": {"config": {}, "class_name": "Zeros"}, "beta_regularizer": null, "axis": -1, "moving_variance_initializer": {"config": {}, "class_name": "Ones"}, "beta_initializer": {"config": {}, "class_name": "Zeros"}, "momentum": 0.99, "gamma_constraint": null, "trainable": true, "epsilon": 0.001}, "inbound_nodes": [[["conv2d_19", 0, 0, {}]]], "class_name": "BatchNormalization", "name": "batch_normalization_239"}, {"config": {"trainable": true, "name": "add_117"}, "inbound_nodes": [[["activation_17", 0, 0, {}], ["batch_normalization_239", 0, 0, {}]]], "class_name": "Add", "name": "add_117"}, {"config": {"trainable": true, "activation": "relu", "name": "activation_19"}, "inbound_nodes": [[["add_117", 0, 0, {}]]], "class_name": "Activation", "name": "activation_19"}, {"config": {"use_bias": true, "kernel_size": [3, 3], "activity_regularizer": null, "bias_initializer": {"config": {}, "class_name": "Zeros"}, "data_format": "channels_last", "trainable": true, "activation": "linear", "padding": "same", "kernel_initializer": {"config": {"distribution": "uniform", "seed": null, "scale": 1.0, "mode": "fan_avg"}, "class_name": "VarianceScaling"}, "name": "conv2d_20", "kernel_regularizer": {"config": {"l1": 0.0, "l2": 9.999999747378752e-05}, "class_name": "L1L2"}, "bias_regularizer": null, "filters": 28, "bias_constraint": null, "kernel_constraint": null, "dilation_rate": [1, 1], "strides": [2, 2]}, "inbound_nodes": [[["activation_19", 0, 0, {}]]], "class_name": "Conv2D", "name": "conv2d_20"}, {"config": {"scale": true, "beta_constraint": null, "gamma_initializer": {"config": {}, "class_name": "Ones"}, "gamma_regularizer": null, "center": true, "name": "batch_normalization_240", "moving_mean_initializer": {"config": {}, "class_name": "Zeros"}, "beta_regularizer": null, "axis": -1, "moving_variance_initializer": {"config": {}, "class_name": "Ones"}, "beta_initializer": {"config": {}, "class_name": "Zeros"}, "momentum": 0.99, "gamma_constraint": null, "trainable": true, "epsilon": 0.001}, "inbound_nodes": [[["conv2d_20", 0, 0, {}]]], "class_name": "BatchNormalization", "name": "batch_normalization_240"}, {"config": {"trainable": true, "activation": "relu", "name": "activation_20"}, "inbound_nodes": [[["batch_normalization_240", 0, 0, {}]]], "class_name": "Activation", "name": "activation_20"}, {"config": {"use_bias": true, "kernel_size": [3, 3], "activity_regularizer": null, "bias_initializer": {"config": {}, "class_name": "Zeros"}, "data_format": "channels_last", "trainable": true, "activation": "linear", "padding": "same", "kernel_initializer": {"config": {"distribution": "uniform", "seed": null, "scale": 1.0, "mode": "fan_avg"}, "class_name": "VarianceScaling"}, "name": "conv2d_21", "kernel_regularizer": {"config": {"l1": 0.0, "l2": 9.999999747378752e-05}, "class_name": "L1L2"}, "bias_regularizer": null, "filters": 32, "bias_constraint": null, "kernel_constraint": null, "dilation_rate": [1, 1], "strides": [1, 1]}, "inbound_nodes": [[["activation_20", 0, 0, {}]]], "class_name": "Conv2D", "name": "conv2d_21"}, {"config": {"use_bias": true, "kernel_size": [1, 1], "activity_regularizer": null, "bias_initializer": {"config": {}, "class_name": "Zeros"}, "data_format": "channels_last", "trainable": true, "activation": "linear", "padding": "same", "kernel_initializer": {"config": {"distribution": "uniform", "seed": null, "scale": 1.0, "mode": "fan_avg"}, "class_name": "VarianceScaling"}, "name": "conv2d_22", "kernel_regularizer": {"config": {"l1": 0.0, "l2": 9.999999747378752e-05}, "class_name": "L1L2"}, "bias_regularizer": null, "filters": 32, "bias_constraint": null, "kernel_constraint": null, "dilation_rate": [1, 1], "strides": [2, 2]}, "inbound_nodes": [[["activation_19", 0, 0, {}]]], "class_name": "Conv2D", "name": "conv2d_22"}, {"config": {"scale": true, "beta_constraint": null, "gamma_initializer": {"config": {}, "class_name": "Ones"}, "gamma_regularizer": null, "center": true, "name": "batch_normalization_241", "moving_mean_initializer": {"config": {}, "class_name": "Zeros"}, "beta_regularizer": null, "axis": -1, "moving_variance_initializer": {"config": {}, "class_name": "Ones"}, "beta_initializer": {"config": {}, "class_name": "Zeros"}, "momentum": 0.99, "gamma_constraint": null, "trainable": true, "epsilon": 0.001}, "inbound_nodes": [[["conv2d_21", 0, 0, {}]]], "class_name": "BatchNormalization", "name": "batch_normalization_241"}, {"config": {"trainable": true, "name": "add_118"}, "inbound_nodes": [[["conv2d_22", 0, 0, {}], ["batch_normalization_241", 0, 0, {}]]], "class_name": "Add", "name": "add_118"}, {"config": {"trainable": true, "activation": "relu", "name": "activation_21"}, "inbound_nodes": [[["add_118", 0, 0, {}]]], "class_name": "Activation", "name": "activation_21"}, {"config": {"use_bias": true, "kernel_size": [3, 3], "activity_regularizer": null, "bias_initializer": {"config": {}, "class_name": "Zeros"}, "data_format": "channels_last", "trainable": true, "activation": "linear", "padding": "same", "kernel_initializer": {"config": {"distribution": "uniform", "seed": null, "scale": 1.0, "mode": "fan_avg"}, "class_name": "VarianceScaling"}, "name": "conv2d_23", "kernel_regularizer": {"config": {"l1": 0.0, "l2": 9.999999747378752e-05}, "class_name": "L1L2"}, "bias_regularizer": null, "filters": 25, "bias_constraint": null, "kernel_constraint": null, "dilation_rate": [1, 1], "strides": [1, 1]}, "inbound_nodes": [[["activation_21", 0, 0, {}]]], "class_name": "Conv2D", "name": "conv2d_23"}, {"config": {"scale": true, "beta_constraint": null, "gamma_initializer": {"config": {}, "class_name": "Ones"}, "gamma_regularizer": null, "center": true, "name": "batch_normalization_242", "moving_mean_initializer": {"config": {}, "class_name": "Zeros"}, "beta_regularizer": null, "axis": -1, "moving_variance_initializer": {"config": {}, "class_name": "Ones"}, "beta_initializer": {"config": {}, "class_name": "Zeros"}, "momentum": 0.99, "gamma_constraint": null, "trainable": true, "epsilon": 0.001}, "inbound_nodes": [[["conv2d_23", 0, 0, {}]]], "class_name": "BatchNormalization", "name": "batch_normalization_242"}, {"config": {"trainable": true, "activation": "relu", "name": "activation_22"}, "inbound_nodes": [[["batch_normalization_242", 0, 0, {}]]], "class_name": "Activation", "name": "activation_22"}, {"config": {"use_bias": true, "kernel_size": [3, 3], "activity_regularizer": null, "bias_initializer": {"config": {}, "class_name": "Zeros"}, "data_format": "channels_last", "trainable": true, "activation": "linear", "padding": "same", "kernel_initializer": {"config": {"distribution": "uniform", "seed": null, "scale": 1.0, "mode": "fan_avg"}, "class_name": "VarianceScaling"}, "name": "conv2d_24", "kernel_regularizer": {"config": {"l1": 0.0, "l2": 9.999999747378752e-05}, "class_name": "L1L2"}, "bias_regularizer": null, "filters": 32, "bias_constraint": null, "kernel_constraint": null, "dilation_rate": [1, 1], "strides": [1, 1]}, "inbound_nodes": [[["activation_22", 0, 0, {}]]], "class_name": "Conv2D", "name": "conv2d_24"}, {"config": {"scale": true, "beta_constraint": null, "gamma_initializer": {"config": {}, "class_name": "Ones"}, "gamma_regularizer": null, "center": true, "name": "batch_normalization_243", "moving_mean_initializer": {"config": {}, "class_name": "Zeros"}, "beta_regularizer": null, "axis": -1, "moving_variance_initializer": {"config": {}, "class_name": "Ones"}, "beta_initializer": {"config": {}, "class_name": "Zeros"}, "momentum": 0.99, "gamma_constraint": null, "trainable": true, "epsilon": 0.001}, "inbound_nodes": [[["conv2d_24", 0, 0, {}]]], "class_name": "BatchNormalization", "name": "batch_normalization_243"}, {"config": {"trainable": true, "name": "add_119"}, "inbound_nodes": [[["activation_21", 0, 0, {}], ["batch_normalization_243", 0, 0, {}]]], "class_name": "Add", "name": "add_119"}, {"config": {"trainable": true, "activation": "relu", "name": "activation_23"}, "inbound_nodes": [[["add_119", 0, 0, {}]]], "class_name": "Activation", "name": "activation_23"}, {"config": {"use_bias": true, "kernel_size": [3, 3], "activity_regularizer": null, "bias_initializer": {"config": {}, "class_name": "Zeros"}, "data_format": "channels_last", "trainable": true, "activation": "linear", "padding": "same", "kernel_initializer": {"config": {"distribution": "uniform", "seed": null, "scale": 1.0, "mode": "fan_avg"}, "class_name": "VarianceScaling"}, "name": "conv2d_25", "kernel_regularizer": {"config": {"l1": 0.0, "l2": 9.999999747378752e-05}, "class_name": "L1L2"}, "bias_regularizer": null, "filters": 28, "bias_constraint": null, "kernel_constraint": null, "dilation_rate": [1, 1], "strides": [1, 1]}, "inbound_nodes": [[["activation_23", 0, 0, {}]]], "class_name": "Conv2D", "name": "conv2d_25"}, {"config": {"scale": true, "beta_constraint": null, "gamma_initializer": {"config": {}, "class_name": "Ones"}, "gamma_regularizer": null, "center": true, "name": "batch_normalization_244", "moving_mean_initializer": {"config": {}, "class_name": "Zeros"}, "beta_regularizer": null, "axis": -1, "moving_variance_initializer": {"config": {}, "class_name": "Ones"}, "beta_initializer": {"config": {}, "class_name": "Zeros"}, "momentum": 0.99, "gamma_constraint": null, "trainable": true, "epsilon": 0.001}, "inbound_nodes": [[["conv2d_25", 0, 0, {}]]], "class_name": "BatchNormalization", "name": "batch_normalization_244"}, {"config": {"trainable": true, "activation": "relu", "name": "activation_24"}, "inbound_nodes": [[["batch_normalization_244", 0, 0, {}]]], "class_name": "Activation", "name": "activation_24"}, {"config": {"use_bias": true, "kernel_size": [3, 3], "activity_regularizer": null, "bias_initializer": {"config": {}, "class_name": "Zeros"}, "data_format": "channels_last", "trainable": true, "activation": "linear", "padding": "same", "kernel_initializer": {"config": {"distribution": "uniform", "seed": null, "scale": 1.0, "mode": "fan_avg"}, "class_name": "VarianceScaling"}, "name": "conv2d_26", "kernel_regularizer": {"config": {"l1": 0.0, "l2": 9.999999747378752e-05}, "class_name": "L1L2"}, "bias_regularizer": null, "filters": 32, "bias_constraint": null, "kernel_constraint": null, "dilation_rate": [1, 1], "strides": [1, 1]}, "inbound_nodes": [[["activation_24", 0, 0, {}]]], "class_name": "Conv2D", "name": "conv2d_26"}, {"config": {"scale": true, "beta_constraint": null, "gamma_initializer": {"config": {}, "class_name": "Ones"}, "gamma_regularizer": null, "center": true, "name": "batch_normalization_245", "moving_mean_initializer": {"config": {}, "class_name": "Zeros"}, "beta_regularizer": null, "axis": -1, "moving_variance_initializer": {"config": {}, "class_name": "Ones"}, "beta_initializer": {"config": {}, "class_name": "Zeros"}, "momentum": 0.99, "gamma_constraint": null, "trainable": true, "epsilon": 0.001}, "inbound_nodes": [[["conv2d_26", 0, 0, {}]]], "class_name": "BatchNormalization", "name": "batch_normalization_245"}, {"config": {"trainable": true, "name": "add_120"}, "inbound_nodes": [[["activation_23", 0, 0, {}], ["batch_normalization_245", 0, 0, {}]]], "class_name": "Add", "name": "add_120"}, {"config": {"trainable": true, "activation": "relu", "name": "activation_25"}, "inbound_nodes": [[["add_120", 0, 0, {}]]], "class_name": "Activation", "name": "activation_25"}, {"config": {"use_bias": true, "kernel_size": [3, 3], "activity_regularizer": null, "bias_initializer": {"config": {}, "class_name": "Zeros"}, "data_format": "channels_last", "trainable": true, "activation": "linear", "padding": "same", "kernel_initializer": {"config": {"distribution": "uniform", "seed": null, "scale": 1.0, "mode": "fan_avg"}, "class_name": "VarianceScaling"}, "name": "conv2d_27", "kernel_regularizer": {"config": {"l1": 0.0, "l2": 9.999999747378752e-05}, "class_name": "L1L2"}, "bias_regularizer": null, "filters": 20, "bias_constraint": null, "kernel_constraint": null, "dilation_rate": [1, 1], "strides": [1, 1]}, "inbound_nodes": [[["activation_25", 0, 0, {}]]], "class_name": "Conv2D", "name": "conv2d_27"}, {"config": {"scale": true, "beta_constraint": null, "gamma_initializer": {"config": {}, "class_name": "Ones"}, "gamma_regularizer": null, "center": true, "name": "batch_normalization_246", "moving_mean_initializer": {"config": {}, "class_name": "Zeros"}, "beta_regularizer": null, "axis": -1, "moving_variance_initializer": {"config": {}, "class_name": "Ones"}, "beta_initializer": {"config": {}, "class_name": "Zeros"}, "momentum": 0.99, "gamma_constraint": null, "trainable": true, "epsilon": 0.001}, "inbound_nodes": [[["conv2d_27", 0, 0, {}]]], "class_name": "BatchNormalization", "name": "batch_normalization_246"}, {"config": {"trainable": true, "activation": "relu", "name": "activation_26"}, "inbound_nodes": [[["batch_normalization_246", 0, 0, {}]]], "class_name": "Activation", "name": "activation_26"}, {"config": {"use_bias": true, "kernel_size": [3, 3], "activity_regularizer": null, "bias_initializer": {"config": {}, "class_name": "Zeros"}, "data_format": "channels_last", "trainable": true, "activation": "linear", "padding": "same", "kernel_initializer": {"config": {"distribution": "uniform", "seed": null, "scale": 1.0, "mode": "fan_avg"}, "class_name": "VarianceScaling"}, "name": "conv2d_28", "kernel_regularizer": {"config": {"l1": 0.0, "l2": 9.999999747378752e-05}, "class_name": "L1L2"}, "bias_regularizer": null, "filters": 32, "bias_constraint": null, "kernel_constraint": null, "dilation_rate": [1, 1], "strides": [1, 1]}, "inbound_nodes": [[["activation_26", 0, 0, {}]]], "class_name": "Conv2D", "name": "conv2d_28"}, {"config": {"scale": true, "beta_constraint": null, "gamma_initializer": {"config": {}, "class_name": "Ones"}, "gamma_regularizer": null, "center": true, "name": "batch_normalization_247", "moving_mean_initializer": {"config": {}, "class_name": "Zeros"}, "beta_regularizer": null, "axis": -1, "moving_variance_initializer": {"config": {}, "class_name": "Ones"}, "beta_initializer": {"config": {}, "class_name": "Zeros"}, "momentum": 0.99, "gamma_constraint": null, "trainable": true, "epsilon": 0.001}, "inbound_nodes": [[["conv2d_28", 0, 0, {}]]], "class_name": "BatchNormalization", "name": "batch_normalization_247"}, {"config": {"trainable": true, "name": "add_121"}, "inbound_nodes": [[["activation_25", 0, 0, {}], ["batch_normalization_247", 0, 0, {}]]], "class_name": "Add", "name": "add_121"}, {"config": {"trainable": true, "activation": "relu", "name": "activation_27"}, "inbound_nodes": [[["add_121", 0, 0, {}]]], "class_name": "Activation", "name": "activation_27"}, {"config": {"use_bias": true, "kernel_size": [3, 3], "activity_regularizer": null, "bias_initializer": {"config": {}, "class_name": "Zeros"}, "data_format": "channels_last", "trainable": true, "activation": "linear", "padding": "same", "kernel_initializer": {"config": {"distribution": "uniform", "seed": null, "scale": 1.0, "mode": "fan_avg"}, "class_name": "VarianceScaling"}, "name": "conv2d_29", "kernel_regularizer": {"config": {"l1": 0.0, "l2": 9.999999747378752e-05}, "class_name": "L1L2"}, "bias_regularizer": null, "filters": 18, "bias_constraint": null, "kernel_constraint": null, "dilation_rate": [1, 1], "strides": [1, 1]}, "inbound_nodes": [[["activation_27", 0, 0, {}]]], "class_name": "Conv2D", "name": "conv2d_29"}, {"config": {"scale": true, "beta_constraint": null, "gamma_initializer": {"config": {}, "class_name": "Ones"}, "gamma_regularizer": null, "center": true, "name": "batch_normalization_248", "moving_mean_initializer": {"config": {}, "class_name": "Zeros"}, "beta_regularizer": null, "axis": -1, "moving_variance_initializer": {"config": {}, "class_name": "Ones"}, "beta_initializer": {"config": {}, "class_name": "Zeros"}, "momentum": 0.99, "gamma_constraint": null, "trainable": true, "epsilon": 0.001}, "inbound_nodes": [[["conv2d_29", 0, 0, {}]]], "class_name": "BatchNormalization", "name": "batch_normalization_248"}, {"config": {"trainable": true, "activation": "relu", "name": "activation_28"}, "inbound_nodes": [[["batch_normalization_248", 0, 0, {}]]], "class_name": "Activation", "name": "activation_28"}, {"config": {"use_bias": true, "kernel_size": [3, 3], "activity_regularizer": null, "bias_initializer": {"config": {}, "class_name": "Zeros"}, "data_format": "channels_last", "trainable": true, "activation": "linear", "padding": "same", "kernel_initializer": {"config": {"distribution": "uniform", "seed": null, "scale": 1.0, "mode": "fan_avg"}, "class_name": "VarianceScaling"}, "name": "conv2d_30", "kernel_regularizer": {"config": {"l1": 0.0, "l2": 9.999999747378752e-05}, "class_name": "L1L2"}, "bias_regularizer": null, "filters": 32, "bias_constraint": null, "kernel_constraint": null, "dilation_rate": [1, 1], "strides": [1, 1]}, "inbound_nodes": [[["activation_28", 0, 0, {}]]], "class_name": "Conv2D", "name": "conv2d_30"}, {"config": {"scale": true, "beta_constraint": null, "gamma_initializer": {"config": {}, "class_name": "Ones"}, "gamma_regularizer": null, "center": true, "name": "batch_normalization_249", "moving_mean_initializer": {"config": {}, "class_name": "Zeros"}, "beta_regularizer": null, "axis": -1, "moving_variance_initializer": {"config": {}, "class_name": "Ones"}, "beta_initializer": {"config": {}, "class_name": "Zeros"}, "momentum": 0.99, "gamma_constraint": null, "trainable": true, "epsilon": 0.001}, "inbound_nodes": [[["conv2d_30", 0, 0, {}]]], "class_name": "BatchNormalization", "name": "batch_normalization_249"}, {"config": {"trainable": true, "name": "add_122"}, "inbound_nodes": [[["activation_27", 0, 0, {}], ["batch_normalization_249", 0, 0, {}]]], "class_name": "Add", "name": "add_122"}, {"config": {"trainable": true, "activation": "relu", "name": "activation_29"}, "inbound_nodes": [[["add_122", 0, 0, {}]]], "class_name": "Activation", "name": "activation_29"}, {"config": {"use_bias": true, "kernel_size": [3, 3], "activity_regularizer": null, "bias_initializer": {"config": {}, "class_name": "Zeros"}, "data_format": "channels_last", "trainable": true, "activation": "linear", "padding": "same", "kernel_initializer": {"config": {"distribution": "uniform", "seed": null, "scale": 1.0, "mode": "fan_avg"}, "class_name": "VarianceScaling"}, "name": "conv2d_31", "kernel_regularizer": {"config": {"l1": 0.0, "l2": 9.999999747378752e-05}, "class_name": "L1L2"}, "bias_regularizer": null, "filters": 20, "bias_constraint": null, "kernel_constraint": null, "dilation_rate": [1, 1], "strides": [1, 1]}, "inbound_nodes": [[["activation_29", 0, 0, {}]]], "class_name": "Conv2D", "name": "conv2d_31"}, {"config": {"scale": true, "beta_constraint": null, "gamma_initializer": {"config": {}, "class_name": "Ones"}, "gamma_regularizer": null, "center": true, "name": "batch_normalization_250", "moving_mean_initializer": {"config": {}, "class_name": "Zeros"}, "beta_regularizer": null, "axis": -1, "moving_variance_initializer": {"config": {}, "class_name": "Ones"}, "beta_initializer": {"config": {}, "class_name": "Zeros"}, "momentum": 0.99, "gamma_constraint": null, "trainable": true, "epsilon": 0.001}, "inbound_nodes": [[["conv2d_31", 0, 0, {}]]], "class_name": "BatchNormalization", "name": "batch_normalization_250"}, {"config": {"trainable": true, "activation": "relu", "name": "activation_30"}, "inbound_nodes": [[["batch_normalization_250", 0, 0, {}]]], "class_name": "Activation", "name": "activation_30"}, {"config": {"use_bias": true, "kernel_size": [3, 3], "activity_regularizer": null, "bias_initializer": {"config": {}, "class_name": "Zeros"}, "data_format": "channels_last", "trainable": true, "activation": "linear", "padding": "same", "kernel_initializer": {"config": {"distribution": "uniform", "seed": null, "scale": 1.0, "mode": "fan_avg"}, "class_name": "VarianceScaling"}, "name": "conv2d_32", "kernel_regularizer": {"config": {"l1": 0.0, "l2": 9.999999747378752e-05}, "class_name": "L1L2"}, "bias_regularizer": null, "filters": 32, "bias_constraint": null, "kernel_constraint": null, "dilation_rate": [1, 1], "strides": [1, 1]}, "inbound_nodes": [[["activation_30", 0, 0, {}]]], "class_name": "Conv2D", "name": "conv2d_32"}, {"config": {"scale": true, "beta_constraint": null, "gamma_initializer": {"config": {}, "class_name": "Ones"}, "gamma_regularizer": null, "center": true, "name": "batch_normalization_251", "moving_mean_initializer": {"config": {}, "class_name": "Zeros"}, "beta_regularizer": null, "axis": -1, "moving_variance_initializer": {"config": {}, "class_name": "Ones"}, "beta_initializer": {"config": {}, "class_name": "Zeros"}, "momentum": 0.99, "gamma_constraint": null, "trainable": true, "epsilon": 0.001}, "inbound_nodes": [[["conv2d_32", 0, 0, {}]]], "class_name": "BatchNormalization", "name": "batch_normalization_251"}, {"config": {"trainable": true, "name": "add_123"}, "inbound_nodes": [[["activation_29", 0, 0, {}], ["batch_normalization_251", 0, 0, {}]]], "class_name": "Add", "name": "add_123"}, {"config": {"trainable": true, "activation": "relu", "name": "activation_31"}, "inbound_nodes": [[["add_123", 0, 0, {}]]], "class_name": "Activation", "name": "activation_31"}, {"config": {"use_bias": true, "kernel_size": [3, 3], "activity_regularizer": null, "bias_initializer": {"config": {}, "class_name": "Zeros"}, "data_format": "channels_last", "trainable": true, "activation": "linear", "padding": "same", "kernel_initializer": {"config": {"distribution": "uniform", "seed": null, "scale": 1.0, "mode": "fan_avg"}, "class_name": "VarianceScaling"}, "name": "conv2d_33", "kernel_regularizer": {"config": {"l1": 0.0, "l2": 9.999999747378752e-05}, "class_name": "L1L2"}, "bias_regularizer": null, "filters": 17, "bias_constraint": null, "kernel_constraint": null, "dilation_rate": [1, 1], "strides": [1, 1]}, "inbound_nodes": [[["activation_31", 0, 0, {}]]], "class_name": "Conv2D", "name": "conv2d_33"}, {"config": {"scale": true, "beta_constraint": null, "gamma_initializer": {"config": {}, "class_name": "Ones"}, "gamma_regularizer": null, "center": true, "name": "batch_normalization_252", "moving_mean_initializer": {"config": {}, "class_name": "Zeros"}, "beta_regularizer": null, "axis": -1, "moving_variance_initializer": {"config": {}, "class_name": "Ones"}, "beta_initializer": {"config": {}, "class_name": "Zeros"}, "momentum": 0.99, "gamma_constraint": null, "trainable": true, "epsilon": 0.001}, "inbound_nodes": [[["conv2d_33", 0, 0, {}]]], "class_name": "BatchNormalization", "name": "batch_normalization_252"}, {"config": {"trainable": true, "activation": "relu", "name": "activation_32"}, "inbound_nodes": [[["batch_normalization_252", 0, 0, {}]]], "class_name": "Activation", "name": "activation_32"}, {"config": {"use_bias": true, "kernel_size": [3, 3], "activity_regularizer": null, "bias_initializer": {"config": {}, "class_name": "Zeros"}, "data_format": "channels_last", "trainable": true, "activation": "linear", "padding": "same", "kernel_initializer": {"config": {"distribution": "uniform", "seed": null, "scale": 1.0, "mode": "fan_avg"}, "class_name": "VarianceScaling"}, "name": "conv2d_34", "kernel_regularizer": {"config": {"l1": 0.0, "l2": 9.999999747378752e-05}, "class_name": "L1L2"}, "bias_regularizer": null, "filters": 32, "bias_constraint": null, "kernel_constraint": null, "dilation_rate": [1, 1], "strides": [1, 1]}, "inbound_nodes": [[["activation_32", 0, 0, {}]]], "class_name": "Conv2D", "name": "conv2d_34"}, {"config": {"scale": true, "beta_constraint": null, "gamma_initializer": {"config": {}, "class_name": "Ones"}, "gamma_regularizer": null, "center": true, "name": "batch_normalization_253", "moving_mean_initializer": {"config": {}, "class_name": "Zeros"}, "beta_regularizer": null, "axis": -1, "moving_variance_initializer": {"config": {}, "class_name": "Ones"}, "beta_initializer": {"config": {}, "class_name": "Zeros"}, "momentum": 0.99, "gamma_constraint": null, "trainable": true, "epsilon": 0.001}, "inbound_nodes": [[["conv2d_34", 0, 0, {}]]], "class_name": "BatchNormalization", "name": "batch_normalization_253"}, {"config": {"trainable": true, "name": "add_124"}, "inbound_nodes": [[["activation_31", 0, 0, {}], ["batch_normalization_253", 0, 0, {}]]], "class_name": "Add", "name": "add_124"}, {"config": {"trainable": true, "activation": "relu", "name": "activation_33"}, "inbound_nodes": [[["add_124", 0, 0, {}]]], "class_name": "Activation", "name": "activation_33"}, {"config": {"use_bias": true, "kernel_size": [3, 3], "activity_regularizer": null, "bias_initializer": {"config": {}, "class_name": "Zeros"}, "data_format": "channels_last", "trainable": true, "activation": "linear", "padding": "same", "kernel_initializer": {"config": {"distribution": "uniform", "seed": null, "scale": 1.0, "mode": "fan_avg"}, "class_name": "VarianceScaling"}, "name": "conv2d_35", "kernel_regularizer": {"config": {"l1": 0.0, "l2": 9.999999747378752e-05}, "class_name": "L1L2"}, "bias_regularizer": null, "filters": 24, "bias_constraint": null, "kernel_constraint": null, "dilation_rate": [1, 1], "strides": [1, 1]}, "inbound_nodes": [[["activation_33", 0, 0, {}]]], "class_name": "Conv2D", "name": "conv2d_35"}, {"config": {"scale": true, "beta_constraint": null, "gamma_initializer": {"config": {}, "class_name": "Ones"}, "gamma_regularizer": null, "center": true, "name": "batch_normalization_254", "moving_mean_initializer": {"config": {}, "class_name": "Zeros"}, "beta_regularizer": null, "axis": -1, "moving_variance_initializer": {"config": {}, "class_name": "Ones"}, "beta_initializer": {"config": {}, "class_name": "Zeros"}, "momentum": 0.99, "gamma_constraint": null, "trainable": true, "epsilon": 0.001}, "inbound_nodes": [[["conv2d_35", 0, 0, {}]]], "class_name": "BatchNormalization", "name": "batch_normalization_254"}, {"config": {"trainable": true, "activation": "relu", "name": "activation_34"}, "inbound_nodes": [[["batch_normalization_254", 0, 0, {}]]], "class_name": "Activation", "name": "activation_34"}, {"config": {"use_bias": true, "kernel_size": [3, 3], "activity_regularizer": null, "bias_initializer": {"config": {}, "class_name": "Zeros"}, "data_format": "channels_last", "trainable": true, "activation": "linear", "padding": "same", "kernel_initializer": {"config": {"distribution": "uniform", "seed": null, "scale": 1.0, "mode": "fan_avg"}, "class_name": "VarianceScaling"}, "name": "conv2d_36", "kernel_regularizer": {"config": {"l1": 0.0, "l2": 9.999999747378752e-05}, "class_name": "L1L2"}, "bias_regularizer": null, "filters": 32, "bias_constraint": null, "kernel_constraint": null, "dilation_rate": [1, 1], "strides": [1, 1]}, "inbound_nodes": [[["activation_34", 0, 0, {}]]], "class_name": "Conv2D", "name": "conv2d_36"}, {"config": {"scale": true, "beta_constraint": null, "gamma_initializer": {"config": {}, "class_name": "Ones"}, "gamma_regularizer": null, "center": true, "name": "batch_normalization_255", "moving_mean_initializer": {"config": {}, "class_name": "Zeros"}, "beta_regularizer": null, "axis": -1, "moving_variance_initializer": {"config": {}, "class_name": "Ones"}, "beta_initializer": {"config": {}, "class_name": "Zeros"}, "momentum": 0.99, "gamma_constraint": null, "trainable": true, "epsilon": 0.001}, "inbound_nodes": [[["conv2d_36", 0, 0, {}]]], "class_name": "BatchNormalization", "name": "batch_normalization_255"}, {"config": {"trainable": true, "name": "add_125"}, "inbound_nodes": [[["activation_33", 0, 0, {}], ["batch_normalization_255", 0, 0, {}]]], "class_name": "Add", "name": "add_125"}, {"config": {"trainable": true, "activation": "relu", "name": "activation_35"}, "inbound_nodes": [[["add_125", 0, 0, {}]]], "class_name": "Activation", "name": "activation_35"}, {"config": {"use_bias": true, "kernel_size": [3, 3], "activity_regularizer": null, "bias_initializer": {"config": {}, "class_name": "Zeros"}, "data_format": "channels_last", "trainable": true, "activation": "linear", "padding": "same", "kernel_initializer": {"config": {"distribution": "uniform", "seed": null, "scale": 1.0, "mode": "fan_avg"}, "class_name": "VarianceScaling"}, "name": "conv2d_37", "kernel_regularizer": {"config": {"l1": 0.0, "l2": 9.999999747378752e-05}, "class_name": "L1L2"}, "bias_regularizer": null, "filters": 19, "bias_constraint": null, "kernel_constraint": null, "dilation_rate": [1, 1], "strides": [1, 1]}, "inbound_nodes": [[["activation_35", 0, 0, {}]]], "class_name": "Conv2D", "name": "conv2d_37"}, {"config": {"scale": true, "beta_constraint": null, "gamma_initializer": {"config": {}, "class_name": "Ones"}, "gamma_regularizer": null, "center": true, "name": "batch_normalization_256", "moving_mean_initializer": {"config": {}, "class_name": "Zeros"}, "beta_regularizer": null, "axis": -1, "moving_variance_initializer": {"config": {}, "class_name": "Ones"}, "beta_initializer": {"config": {}, "class_name": "Zeros"}, "momentum": 0.99, "gamma_constraint": null, "trainable": true, "epsilon": 0.001}, "inbound_nodes": [[["conv2d_37", 0, 0, {}]]], "class_name": "BatchNormalization", "name": "batch_normalization_256"}, {"config": {"trainable": true, "activation": "relu", "name": "activation_36"}, "inbound_nodes": [[["batch_normalization_256", 0, 0, {}]]], "class_name": "Activation", "name": "activation_36"}, {"config": {"use_bias": true, "kernel_size": [3, 3], "activity_regularizer": null, "bias_initializer": {"config": {}, "class_name": "Zeros"}, "data_format": "channels_last", "trainable": true, "activation": "linear", "padding": "same", "kernel_initializer": {"config": {"distribution": "uniform", "seed": null, "scale": 1.0, "mode": "fan_avg"}, "class_name": "VarianceScaling"}, "name": "conv2d_38", "kernel_regularizer": {"config": {"l1": 0.0, "l2": 9.999999747378752e-05}, "class_name": "L1L2"}, "bias_regularizer": null, "filters": 32, "bias_constraint": null, "kernel_constraint": null, "dilation_rate": [1, 1], "strides": [1, 1]}, "inbound_nodes": [[["activation_36", 0, 0, {}]]], "class_name": "Conv2D", "name": "conv2d_38"}, {"config": {"scale": true, "beta_constraint": null, "gamma_initializer": {"config": {}, "class_name": "Ones"}, "gamma_regularizer": null, "center": true, "name": "batch_normalization_257", "moving_mean_initializer": {"config": {}, "class_name": "Zeros"}, "beta_regularizer": null, "axis": -1, "moving_variance_initializer": {"config": {}, "class_name": "Ones"}, "beta_initializer": {"config": {}, "class_name": "Zeros"}, "momentum": 0.99, "gamma_constraint": null, "trainable": true, "epsilon": 0.001}, "inbound_nodes": [[["conv2d_38", 0, 0, {}]]], "class_name": "BatchNormalization", "name": "batch_normalization_257"}, {"config": {"trainable": true, "name": "add_126"}, "inbound_nodes": [[["activation_35", 0, 0, {}], ["batch_normalization_257", 0, 0, {}]]], "class_name": "Add", "name": "add_126"}, {"config": {"trainable": true, "activation": "relu", "name": "activation_37"}, "inbound_nodes": [[["add_126", 0, 0, {}]]], "class_name": "Activation", "name": "activation_37"}, {"config": {"use_bias": true, "kernel_size": [3, 3], "activity_regularizer": null, "bias_initializer": {"config": {}, "class_name": "Zeros"}, "data_format": "channels_last", "trainable": true, "activation": "linear", "padding": "same", "kernel_initializer": {"config": {"distribution": "uniform", "seed": null, "scale": 1.0, "mode": "fan_avg"}, "class_name": "VarianceScaling"}, "name": "conv2d_39", "kernel_regularizer": {"config": {"l1": 0.0, "l2": 9.999999747378752e-05}, "class_name": "L1L2"}, "bias_regularizer": null, "filters": 36, "bias_constraint": null, "kernel_constraint": null, "dilation_rate": [1, 1], "strides": [2, 2]}, "inbound_nodes": [[["activation_37", 0, 0, {}]]], "class_name": "Conv2D", "name": "conv2d_39"}, {"config": {"scale": true, "beta_constraint": null, "gamma_initializer": {"config": {}, "class_name": "Ones"}, "gamma_regularizer": null, "center": true, "name": "batch_normalization_258", "moving_mean_initializer": {"config": {}, "class_name": "Zeros"}, "beta_regularizer": null, "axis": -1, "moving_variance_initializer": {"config": {}, "class_name": "Ones"}, "beta_initializer": {"config": {}, "class_name": "Zeros"}, "momentum": 0.99, "gamma_constraint": null, "trainable": true, "epsilon": 0.001}, "inbound_nodes": [[["conv2d_39", 0, 0, {}]]], "class_name": "BatchNormalization", "name": "batch_normalization_258"}, {"config": {"trainable": true, "activation": "relu", "name": "activation_38"}, "inbound_nodes": [[["batch_normalization_258", 0, 0, {}]]], "class_name": "Activation", "name": "activation_38"}, {"config": {"use_bias": true, "kernel_size": [3, 3], "activity_regularizer": null, "bias_initializer": {"config": {}, "class_name": "Zeros"}, "data_format": "channels_last", "trainable": true, "activation": "linear", "padding": "same", "kernel_initializer": {"config": {"distribution": "uniform", "seed": null, "scale": 1.0, "mode": "fan_avg"}, "class_name": "VarianceScaling"}, "name": "conv2d_40", "kernel_regularizer": {"config": {"l1": 0.0, "l2": 9.999999747378752e-05}, "class_name": "L1L2"}, "bias_regularizer": null, "filters": 64, "bias_constraint": null, "kernel_constraint": null, "dilation_rate": [1, 1], "strides": [1, 1]}, "inbound_nodes": [[["activation_38", 0, 0, {}]]], "class_name": "Conv2D", "name": "conv2d_40"}, {"config": {"use_bias": true, "kernel_size": [1, 1], "activity_regularizer": null, "bias_initializer": {"config": {}, "class_name": "Zeros"}, "data_format": "channels_last", "trainable": true, "activation": "linear", "padding": "same", "kernel_initializer": {"config": {"distribution": "uniform", "seed": null, "scale": 1.0, "mode": "fan_avg"}, "class_name": "VarianceScaling"}, "name": "conv2d_41", "kernel_regularizer": {"config": {"l1": 0.0, "l2": 9.999999747378752e-05}, "class_name": "L1L2"}, "bias_regularizer": null, "filters": 64, "bias_constraint": null, "kernel_constraint": null, "dilation_rate": [1, 1], "strides": [2, 2]}, "inbound_nodes": [[["activation_37", 0, 0, {}]]], "class_name": "Conv2D", "name": "conv2d_41"}, {"config": {"scale": true, "beta_constraint": null, "gamma_initializer": {"config": {}, "class_name": "Ones"}, "gamma_regularizer": null, "center": true, "name": "batch_normalization_259", "moving_mean_initializer": {"config": {}, "class_name": "Zeros"}, "beta_regularizer": null, "axis": -1, "moving_variance_initializer": {"config": {}, "class_name": "Ones"}, "beta_initializer": {"config": {}, "class_name": "Zeros"}, "momentum": 0.99, "gamma_constraint": null, "trainable": true, "epsilon": 0.001}, "inbound_nodes": [[["conv2d_40", 0, 0, {}]]], "class_name": "BatchNormalization", "name": "batch_normalization_259"}, {"config": {"trainable": true, "name": "add_127"}, "inbound_nodes": [[["conv2d_41", 0, 0, {}], ["batch_normalization_259", 0, 0, {}]]], "class_name": "Add", "name": "add_127"}, {"config": {"trainable": true, "activation": "relu", "name": "activation_39"}, "inbound_nodes": [[["add_127", 0, 0, {}]]], "class_name": "Activation", "name": "activation_39"}, {"config": {"use_bias": true, "kernel_size": [3, 3], "activity_regularizer": null, "bias_initializer": {"config": {}, "class_name": "Zeros"}, "data_format": "channels_last", "trainable": true, "activation": "linear", "padding": "same", "kernel_initializer": {"config": {"distribution": "uniform", "seed": null, "scale": 1.0, "mode": "fan_avg"}, "class_name": "VarianceScaling"}, "name": "conv2d_42", "kernel_regularizer": {"config": {"l1": 0.0, "l2": 9.999999747378752e-05}, "class_name": "L1L2"}, "bias_regularizer": null, "filters": 37, "bias_constraint": null, "kernel_constraint": null, "dilation_rate": [1, 1], "strides": [1, 1]}, "inbound_nodes": [[["activation_39", 0, 0, {}]]], "class_name": "Conv2D", "name": "conv2d_42"}, {"config": {"scale": true, "beta_constraint": null, "gamma_initializer": {"config": {}, "class_name": "Ones"}, "gamma_regularizer": null, "center": true, "name": "batch_normalization_260", "moving_mean_initializer": {"config": {}, "class_name": "Zeros"}, "beta_regularizer": null, "axis": -1, "moving_variance_initializer": {"config": {}, "class_name": "Ones"}, "beta_initializer": {"config": {}, "class_name": "Zeros"}, "momentum": 0.99, "gamma_constraint": null, "trainable": true, "epsilon": 0.001}, "inbound_nodes": [[["conv2d_42", 0, 0, {}]]], "class_name": "BatchNormalization", "name": "batch_normalization_260"}, {"config": {"trainable": true, "activation": "relu", "name": "activation_40"}, "inbound_nodes": [[["batch_normalization_260", 0, 0, {}]]], "class_name": "Activation", "name": "activation_40"}, {"config": {"use_bias": true, "kernel_size": [3, 3], "activity_regularizer": null, "bias_initializer": {"config": {}, "class_name": "Zeros"}, "data_format": "channels_last", "trainable": true, "activation": "linear", "padding": "same", "kernel_initializer": {"config": {"distribution": "uniform", "seed": null, "scale": 1.0, "mode": "fan_avg"}, "class_name": "VarianceScaling"}, "name": "conv2d_43", "kernel_regularizer": {"config": {"l1": 0.0, "l2": 9.999999747378752e-05}, "class_name": "L1L2"}, "bias_regularizer": null, "filters": 64, "bias_constraint": null, "kernel_constraint": null, "dilation_rate": [1, 1], "strides": [1, 1]}, "inbound_nodes": [[["activation_40", 0, 0, {}]]], "class_name": "Conv2D", "name": "conv2d_43"}, {"config": {"scale": true, "beta_constraint": null, "gamma_initializer": {"config": {}, "class_name": "Ones"}, "gamma_regularizer": null, "center": true, "name": "batch_normalization_261", "moving_mean_initializer": {"config": {}, "class_name": "Zeros"}, "beta_regularizer": null, "axis": -1, "moving_variance_initializer": {"config": {}, "class_name": "Ones"}, "beta_initializer": {"config": {}, "class_name": "Zeros"}, "momentum": 0.99, "gamma_constraint": null, "trainable": true, "epsilon": 0.001}, "inbound_nodes": [[["conv2d_43", 0, 0, {}]]], "class_name": "BatchNormalization", "name": "batch_normalization_261"}, {"config": {"trainable": true, "name": "add_128"}, "inbound_nodes": [[["activation_39", 0, 0, {}], ["batch_normalization_261", 0, 0, {}]]], "class_name": "Add", "name": "add_128"}, {"config": {"trainable": true, "activation": "relu", "name": "activation_41"}, "inbound_nodes": [[["add_128", 0, 0, {}]]], "class_name": "Activation", "name": "activation_41"}, {"config": {"use_bias": true, "kernel_size": [3, 3], "activity_regularizer": null, "bias_initializer": {"config": {}, "class_name": "Zeros"}, "data_format": "channels_last", "trainable": true, "activation": "linear", "padding": "same", "kernel_initializer": {"config": {"distribution": "uniform", "seed": null, "scale": 1.0, "mode": "fan_avg"}, "class_name": "VarianceScaling"}, "name": "conv2d_44", "kernel_regularizer": {"config": {"l1": 0.0, "l2": 9.999999747378752e-05}, "class_name": "L1L2"}, "bias_regularizer": null, "filters": 33, "bias_constraint": null, "kernel_constraint": null, "dilation_rate": [1, 1], "strides": [1, 1]}, "inbound_nodes": [[["activation_41", 0, 0, {}]]], "class_name": "Conv2D", "name": "conv2d_44"}, {"config": {"scale": true, "beta_constraint": null, "gamma_initializer": {"config": {}, "class_name": "Ones"}, "gamma_regularizer": null, "center": true, "name": "batch_normalization_262", "moving_mean_initializer": {"config": {}, "class_name": "Zeros"}, "beta_regularizer": null, "axis": -1, "moving_variance_initializer": {"config": {}, "class_name": "Ones"}, "beta_initializer": {"config": {}, "class_name": "Zeros"}, "momentum": 0.99, "gamma_constraint": null, "trainable": true, "epsilon": 0.001}, "inbound_nodes": [[["conv2d_44", 0, 0, {}]]], "class_name": "BatchNormalization", "name": "batch_normalization_262"}, {"config": {"trainable": true, "activation": "relu", "name": "activation_42"}, "inbound_nodes": [[["batch_normalization_262", 0, 0, {}]]], "class_name": "Activation", "name": "activation_42"}, {"config": {"use_bias": true, "kernel_size": [3, 3], "activity_regularizer": null, "bias_initializer": {"config": {}, "class_name": "Zeros"}, "data_format": "channels_last", "trainable": true, "activation": "linear", "padding": "same", "kernel_initializer": {"config": {"distribution": "uniform", "seed": null, "scale": 1.0, "mode": "fan_avg"}, "class_name": "VarianceScaling"}, "name": "conv2d_45", "kernel_regularizer": {"config": {"l1": 0.0, "l2": 9.999999747378752e-05}, "class_name": "L1L2"}, "bias_regularizer": null, "filters": 64, "bias_constraint": null, "kernel_constraint": null, "dilation_rate": [1, 1], "strides": [1, 1]}, "inbound_nodes": [[["activation_42", 0, 0, {}]]], "class_name": "Conv2D", "name": "conv2d_45"}, {"config": {"scale": true, "beta_constraint": null, "gamma_initializer": {"config": {}, "class_name": "Ones"}, "gamma_regularizer": null, "center": true, "name": "batch_normalization_263", "moving_mean_initializer": {"config": {}, "class_name": "Zeros"}, "beta_regularizer": null, "axis": -1, "moving_variance_initializer": {"config": {}, "class_name": "Ones"}, "beta_initializer": {"config": {}, "class_name": "Zeros"}, "momentum": 0.99, "gamma_constraint": null, "trainable": true, "epsilon": 0.001}, "inbound_nodes": [[["conv2d_45", 0, 0, {}]]], "class_name": "BatchNormalization", "name": "batch_normalization_263"}, {"config": {"trainable": true, "name": "add_129"}, "inbound_nodes": [[["activation_41", 0, 0, {}], ["batch_normalization_263", 0, 0, {}]]], "class_name": "Add", "name": "add_129"}, {"config": {"trainable": true, "activation": "relu", "name": "activation_43"}, "inbound_nodes": [[["add_129", 0, 0, {}]]], "class_name": "Activation", "name": "activation_43"}, {"config": {"use_bias": true, "kernel_size": [3, 3], "activity_regularizer": null, "bias_initializer": {"config": {}, "class_name": "Zeros"}, "data_format": "channels_last", "trainable": true, "activation": "linear", "padding": "same", "kernel_initializer": {"config": {"distribution": "uniform", "seed": null, "scale": 1.0, "mode": "fan_avg"}, "class_name": "VarianceScaling"}, "name": "conv2d_46", "kernel_regularizer": {"config": {"l1": 0.0, "l2": 9.999999747378752e-05}, "class_name": "L1L2"}, "bias_regularizer": null, "filters": 34, "bias_constraint": null, "kernel_constraint": null, "dilation_rate": [1, 1], "strides": [1, 1]}, "inbound_nodes": [[["activation_43", 0, 0, {}]]], "class_name": "Conv2D", "name": "conv2d_46"}, {"config": {"scale": true, "beta_constraint": null, "gamma_initializer": {"config": {}, "class_name": "Ones"}, "gamma_regularizer": null, "center": true, "name": "batch_normalization_264", "moving_mean_initializer": {"config": {}, "class_name": "Zeros"}, "beta_regularizer": null, "axis": -1, "moving_variance_initializer": {"config": {}, "class_name": "Ones"}, "beta_initializer": {"config": {}, "class_name": "Zeros"}, "momentum": 0.99, "gamma_constraint": null, "trainable": true, "epsilon": 0.001}, "inbound_nodes": [[["conv2d_46", 0, 0, {}]]], "class_name": "BatchNormalization", "name": "batch_normalization_264"}, {"config": {"trainable": true, "activation": "relu", "name": "activation_44"}, "inbound_nodes": [[["batch_normalization_264", 0, 0, {}]]], "class_name": "Activation", "name": "activation_44"}, {"config": {"use_bias": true, "kernel_size": [3, 3], "activity_regularizer": null, "bias_initializer": {"config": {}, "class_name": "Zeros"}, "data_format": "channels_last", "trainable": true, "activation": "linear", "padding": "same", "kernel_initializer": {"config": {"distribution": "uniform", "seed": null, "scale": 1.0, "mode": "fan_avg"}, "class_name": "VarianceScaling"}, "name": "conv2d_47", "kernel_regularizer": {"config": {"l1": 0.0, "l2": 9.999999747378752e-05}, "class_name": "L1L2"}, "bias_regularizer": null, "filters": 64, "bias_constraint": null, "kernel_constraint": null, "dilation_rate": [1, 1], "strides": [1, 1]}, "inbound_nodes": [[["activation_44", 0, 0, {}]]], "class_name": "Conv2D", "name": "conv2d_47"}, {"config": {"scale": true, "beta_constraint": null, "gamma_initializer": {"config": {}, "class_name": "Ones"}, "gamma_regularizer": null, "center": true, "name": "batch_normalization_265", "moving_mean_initializer": {"config": {}, "class_name": "Zeros"}, "beta_regularizer": null, "axis": -1, "moving_variance_initializer": {"config": {}, "class_name": "Ones"}, "beta_initializer": {"config": {}, "class_name": "Zeros"}, "momentum": 0.99, "gamma_constraint": null, "trainable": true, "epsilon": 0.001}, "inbound_nodes": [[["conv2d_47", 0, 0, {}]]], "class_name": "BatchNormalization", "name": "batch_normalization_265"}, {"config": {"trainable": true, "name": "add_130"}, "inbound_nodes": [[["activation_43", 0, 0, {}], ["batch_normalization_265", 0, 0, {}]]], "class_name": "Add", "name": "add_130"}, {"config": {"trainable": true, "activation": "relu", "name": "activation_45"}, "inbound_nodes": [[["add_130", 0, 0, {}]]], "class_name": "Activation", "name": "activation_45"}, {"config": {"use_bias": true, "kernel_size": [3, 3], "activity_regularizer": null, "bias_initializer": {"config": {}, "class_name": "Zeros"}, "data_format": "channels_last", "trainable": true, "activation": "linear", "padding": "same", "kernel_initializer": {"config": {"distribution": "uniform", "seed": null, "scale": 1.0, "mode": "fan_avg"}, "class_name": "VarianceScaling"}, "name": "conv2d_48", "kernel_regularizer": {"config": {"l1": 0.0, "l2": 9.999999747378752e-05}, "class_name": "L1L2"}, "bias_regularizer": null, "filters": 25, "bias_constraint": null, "kernel_constraint": null, "dilation_rate": [1, 1], "strides": [1, 1]}, "inbound_nodes": [[["activation_45", 0, 0, {}]]], "class_name": "Conv2D", "name": "conv2d_48"}, {"config": {"scale": true, "beta_constraint": null, "gamma_initializer": {"config": {}, "class_name": "Ones"}, "gamma_regularizer": null, "center": true, "name": "batch_normalization_266", "moving_mean_initializer": {"config": {}, "class_name": "Zeros"}, "beta_regularizer": null, "axis": -1, "moving_variance_initializer": {"config": {}, "class_name": "Ones"}, "beta_initializer": {"config": {}, "class_name": "Zeros"}, "momentum": 0.99, "gamma_constraint": null, "trainable": true, "epsilon": 0.001}, "inbound_nodes": [[["conv2d_48", 0, 0, {}]]], "class_name": "BatchNormalization", "name": "batch_normalization_266"}, {"config": {"trainable": true, "activation": "relu", "name": "activation_46"}, "inbound_nodes": [[["batch_normalization_266", 0, 0, {}]]], "class_name": "Activation", "name": "activation_46"}, {"config": {"use_bias": true, "kernel_size": [3, 3], "activity_regularizer": null, "bias_initializer": {"config": {}, "class_name": "Zeros"}, "data_format": "channels_last", "trainable": true, "activation": "linear", "padding": "same", "kernel_initializer": {"config": {"distribution": "uniform", "seed": null, "scale": 1.0, "mode": "fan_avg"}, "class_name": "VarianceScaling"}, "name": "conv2d_49", "kernel_regularizer": {"config": {"l1": 0.0, "l2": 9.999999747378752e-05}, "class_name": "L1L2"}, "bias_regularizer": null, "filters": 64, "bias_constraint": null, "kernel_constraint": null, "dilation_rate": [1, 1], "strides": [1, 1]}, "inbound_nodes": [[["activation_46", 0, 0, {}]]], "class_name": "Conv2D", "name": "conv2d_49"}, {"config": {"scale": true, "beta_constraint": null, "gamma_initializer": {"config": {}, "class_name": "Ones"}, "gamma_regularizer": null, "center": true, "name": "batch_normalization_267", "moving_mean_initializer": {"config": {}, "class_name": "Zeros"}, "beta_regularizer": null, "axis": -1, "moving_variance_initializer": {"config": {}, "class_name": "Ones"}, "beta_initializer": {"config": {}, "class_name": "Zeros"}, "momentum": 0.99, "gamma_constraint": null, "trainable": true, "epsilon": 0.001}, "inbound_nodes": [[["conv2d_49", 0, 0, {}]]], "class_name": "BatchNormalization", "name": "batch_normalization_267"}, {"config": {"trainable": true, "name": "add_131"}, "inbound_nodes": [[["activation_45", 0, 0, {}], ["batch_normalization_267", 0, 0, {}]]], "class_name": "Add", "name": "add_131"}, {"config": {"trainable": true, "activation": "relu", "name": "activation_47"}, "inbound_nodes": [[["add_131", 0, 0, {}]]], "class_name": "Activation", "name": "activation_47"}, {"config": {"use_bias": true, "kernel_size": [3, 3], "activity_regularizer": null, "bias_initializer": {"config": {}, "class_name": "Zeros"}, "data_format": "channels_last", "trainable": true, "activation": "linear", "padding": "same", "kernel_initializer": {"config": {"distribution": "uniform", "seed": null, "scale": 1.0, "mode": "fan_avg"}, "class_name": "VarianceScaling"}, "name": "conv2d_50", "kernel_regularizer": {"config": {"l1": 0.0, "l2": 9.999999747378752e-05}, "class_name": "L1L2"}, "bias_regularizer": null, "filters": 24, "bias_constraint": null, "kernel_constraint": null, "dilation_rate": [1, 1], "strides": [1, 1]}, "inbound_nodes": [[["activation_47", 0, 0, {}]]], "class_name": "Conv2D", "name": "conv2d_50"}, {"config": {"scale": true, "beta_constraint": null, "gamma_initializer": {"config": {}, "class_name": "Ones"}, "gamma_regularizer": null, "center": true, "name": "batch_normalization_268", "moving_mean_initializer": {"config": {}, "class_name": "Zeros"}, "beta_regularizer": null, "axis": -1, "moving_variance_initializer": {"config": {}, "class_name": "Ones"}, "beta_initializer": {"config": {}, "class_name": "Zeros"}, "momentum": 0.99, "gamma_constraint": null, "trainable": true, "epsilon": 0.001}, "inbound_nodes": [[["conv2d_50", 0, 0, {}]]], "class_name": "BatchNormalization", "name": "batch_normalization_268"}, {"config": {"trainable": true, "activation": "relu", "name": "activation_48"}, "inbound_nodes": [[["batch_normalization_268", 0, 0, {}]]], "class_name": "Activation", "name": "activation_48"}, {"config": {"use_bias": true, "kernel_size": [3, 3], "activity_regularizer": null, "bias_initializer": {"config": {}, "class_name": "Zeros"}, "data_format": "channels_last", "trainable": true, "activation": "linear", "padding": "same", "kernel_initializer": {"config": {"distribution": "uniform", "seed": null, "scale": 1.0, "mode": "fan_avg"}, "class_name": "VarianceScaling"}, "name": "conv2d_51", "kernel_regularizer": {"config": {"l1": 0.0, "l2": 9.999999747378752e-05}, "class_name": "L1L2"}, "bias_regularizer": null, "filters": 64, "bias_constraint": null, "kernel_constraint": null, "dilation_rate": [1, 1], "strides": [1, 1]}, "inbound_nodes": [[["activation_48", 0, 0, {}]]], "class_name": "Conv2D", "name": "conv2d_51"}, {"config": {"scale": true, "beta_constraint": null, "gamma_initializer": {"config": {}, "class_name": "Ones"}, "gamma_regularizer": null, "center": true, "name": "batch_normalization_269", "moving_mean_initializer": {"config": {}, "class_name": "Zeros"}, "beta_regularizer": null, "axis": -1, "moving_variance_initializer": {"config": {}, "class_name": "Ones"}, "beta_initializer": {"config": {}, "class_name": "Zeros"}, "momentum": 0.99, "gamma_constraint": null, "trainable": true, "epsilon": 0.001}, "inbound_nodes": [[["conv2d_51", 0, 0, {}]]], "class_name": "BatchNormalization", "name": "batch_normalization_269"}, {"config": {"trainable": true, "name": "add_132"}, "inbound_nodes": [[["activation_47", 0, 0, {}], ["batch_normalization_269", 0, 0, {}]]], "class_name": "Add", "name": "add_132"}, {"config": {"trainable": true, "activation": "relu", "name": "activation_49"}, "inbound_nodes": [[["add_132", 0, 0, {}]]], "class_name": "Activation", "name": "activation_49"}, {"config": {"use_bias": true, "kernel_size": [3, 3], "activity_regularizer": null, "bias_initializer": {"config": {}, "class_name": "Zeros"}, "data_format": "channels_last", "trainable": true, "activation": "linear", "padding": "same", "kernel_initializer": {"config": {"distribution": "uniform", "seed": null, "scale": 1.0, "mode": "fan_avg"}, "class_name": "VarianceScaling"}, "name": "conv2d_52", "kernel_regularizer": {"config": {"l1": 0.0, "l2": 9.999999747378752e-05}, "class_name": "L1L2"}, "bias_regularizer": null, "filters": 28, "bias_constraint": null, "kernel_constraint": null, "dilation_rate": [1, 1], "strides": [1, 1]}, "inbound_nodes": [[["activation_49", 0, 0, {}]]], "class_name": "Conv2D", "name": "conv2d_52"}, {"config": {"scale": true, "beta_constraint": null, "gamma_initializer": {"config": {}, "class_name": "Ones"}, "gamma_regularizer": null, "center": true, "name": "batch_normalization_270", "moving_mean_initializer": {"config": {}, "class_name": "Zeros"}, "beta_regularizer": null, "axis": -1, "moving_variance_initializer": {"config": {}, "class_name": "Ones"}, "beta_initializer": {"config": {}, "class_name": "Zeros"}, "momentum": 0.99, "gamma_constraint": null, "trainable": true, "epsilon": 0.001}, "inbound_nodes": [[["conv2d_52", 0, 0, {}]]], "class_name": "BatchNormalization", "name": "batch_normalization_270"}, {"config": {"trainable": true, "activation": "relu", "name": "activation_50"}, "inbound_nodes": [[["batch_normalization_270", 0, 0, {}]]], "class_name": "Activation", "name": "activation_50"}, {"config": {"use_bias": true, "kernel_size": [3, 3], "activity_regularizer": null, "bias_initializer": {"config": {}, "class_name": "Zeros"}, "data_format": "channels_last", "trainable": true, "activation": "linear", "padding": "same", "kernel_initializer": {"config": {"distribution": "uniform", "seed": null, "scale": 1.0, "mode": "fan_avg"}, "class_name": "VarianceScaling"}, "name": "conv2d_53", "kernel_regularizer": {"config": {"l1": 0.0, "l2": 9.999999747378752e-05}, "class_name": "L1L2"}, "bias_regularizer": null, "filters": 64, "bias_constraint": null, "kernel_constraint": null, "dilation_rate": [1, 1], "strides": [1, 1]}, "inbound_nodes": [[["activation_50", 0, 0, {}]]], "class_name": "Conv2D", "name": "conv2d_53"}, {"config": {"scale": true, "beta_constraint": null, "gamma_initializer": {"config": {}, "class_name": "Ones"}, "gamma_regularizer": null, "center": true, "name": "batch_normalization_271", "moving_mean_initializer": {"config": {}, "class_name": "Zeros"}, "beta_regularizer": null, "axis": -1, "moving_variance_initializer": {"config": {}, "class_name": "Ones"}, "beta_initializer": {"config": {}, "class_name": "Zeros"}, "momentum": 0.99, "gamma_constraint": null, "trainable": true, "epsilon": 0.001}, "inbound_nodes": [[["conv2d_53", 0, 0, {}]]], "class_name": "BatchNormalization", "name": "batch_normalization_271"}, {"config": {"trainable": true, "name": "add_133"}, "inbound_nodes": [[["activation_49", 0, 0, {}], ["batch_normalization_271", 0, 0, {}]]], "class_name": "Add", "name": "add_133"}, {"config": {"trainable": true, "activation": "relu", "name": "activation_51"}, "inbound_nodes": [[["add_133", 0, 0, {}]]], "class_name": "Activation", "name": "activation_51"}, {"config": {"use_bias": true, "kernel_size": [3, 3], "activity_regularizer": null, "bias_initializer": {"config": {}, "class_name": "Zeros"}, "data_format": "channels_last", "trainable": true, "activation": "linear", "padding": "same", "kernel_initializer": {"config": {"distribution": "uniform", "seed": null, "scale": 1.0, "mode": "fan_avg"}, "class_name": "VarianceScaling"}, "name": "conv2d_54", "kernel_regularizer": {"config": {"l1": 0.0, "l2": 9.999999747378752e-05}, "class_name": "L1L2"}, "bias_regularizer": null, "filters": 32, "bias_constraint": null, "kernel_constraint": null, "dilation_rate": [1, 1], "strides": [1, 1]}, "inbound_nodes": [[["activation_51", 0, 0, {}]]], "class_name": "Conv2D", "name": "conv2d_54"}, {"config": {"scale": true, "beta_constraint": null, "gamma_initializer": {"config": {}, "class_name": "Ones"}, "gamma_regularizer": null, "center": true, "name": "batch_normalization_272", "moving_mean_initializer": {"config": {}, "class_name": "Zeros"}, "beta_regularizer": null, "axis": -1, "moving_variance_initializer": {"config": {}, "class_name": "Ones"}, "beta_initializer": {"config": {}, "class_name": "Zeros"}, "momentum": 0.99, "gamma_constraint": null, "trainable": true, "epsilon": 0.001}, "inbound_nodes": [[["conv2d_54", 0, 0, {}]]], "class_name": "BatchNormalization", "name": "batch_normalization_272"}, {"config": {"trainable": true, "activation": "relu", "name": "activation_52"}, "inbound_nodes": [[["batch_normalization_272", 0, 0, {}]]], "class_name": "Activation", "name": "activation_52"}, {"config": {"use_bias": true, "kernel_size": [3, 3], "activity_regularizer": null, "bias_initializer": {"config": {}, "class_name": "Zeros"}, "data_format": "channels_last", "trainable": true, "activation": "linear", "padding": "same", "kernel_initializer": {"config": {"distribution": "uniform", "seed": null, "scale": 1.0, "mode": "fan_avg"}, "class_name": "VarianceScaling"}, "name": "conv2d_55", "kernel_regularizer": {"config": {"l1": 0.0, "l2": 9.999999747378752e-05}, "class_name": "L1L2"}, "bias_regularizer": null, "filters": 64, "bias_constraint": null, "kernel_constraint": null, "dilation_rate": [1, 1], "strides": [1, 1]}, "inbound_nodes": [[["activation_52", 0, 0, {}]]], "class_name": "Conv2D", "name": "conv2d_55"}, {"config": {"scale": true, "beta_constraint": null, "gamma_initializer": {"config": {}, "class_name": "Ones"}, "gamma_regularizer": null, "center": true, "name": "batch_normalization_273", "moving_mean_initializer": {"config": {}, "class_name": "Zeros"}, "beta_regularizer": null, "axis": -1, "moving_variance_initializer": {"config": {}, "class_name": "Ones"}, "beta_initializer": {"config": {}, "class_name": "Zeros"}, "momentum": 0.99, "gamma_constraint": null, "trainable": true, "epsilon": 0.001}, "inbound_nodes": [[["conv2d_55", 0, 0, {}]]], "class_name": "BatchNormalization", "name": "batch_normalization_273"}, {"config": {"trainable": true, "name": "add_134"}, "inbound_nodes": [[["activation_51", 0, 0, {}], ["batch_normalization_273", 0, 0, {}]]], "class_name": "Add", "name": "add_134"}, {"config": {"trainable": true, "activation": "relu", "name": "activation_53"}, "inbound_nodes": [[["add_134", 0, 0, {}]]], "class_name": "Activation", "name": "activation_53"}, {"config": {"use_bias": true, "kernel_size": [3, 3], "activity_regularizer": null, "bias_initializer": {"config": {}, "class_name": "Zeros"}, "data_format": "channels_last", "trainable": true, "activation": "linear", "padding": "same", "kernel_initializer": {"config": {"distribution": "uniform", "seed": null, "scale": 1.0, "mode": "fan_avg"}, "class_name": "VarianceScaling"}, "name": "conv2d_56", "kernel_regularizer": {"config": {"l1": 0.0, "l2": 9.999999747378752e-05}, "class_name": "L1L2"}, "bias_regularizer": null, "filters": 39, "bias_constraint": null, "kernel_constraint": null, "dilation_rate": [1, 1], "strides": [1, 1]}, "inbound_nodes": [[["activation_53", 0, 0, {}]]], "class_name": "Conv2D", "name": "conv2d_56"}, {"config": {"scale": true, "beta_constraint": null, "gamma_initializer": {"config": {}, "class_name": "Ones"}, "gamma_regularizer": null, "center": true, "name": "batch_normalization_274", "moving_mean_initializer": {"config": {}, "class_name": "Zeros"}, "beta_regularizer": null, "axis": -1, "moving_variance_initializer": {"config": {}, "class_name": "Ones"}, "beta_initializer": {"config": {}, "class_name": "Zeros"}, "momentum": 0.99, "gamma_constraint": null, "trainable": true, "epsilon": 0.001}, "inbound_nodes": [[["conv2d_56", 0, 0, {}]]], "class_name": "BatchNormalization", "name": "batch_normalization_274"}, {"config": {"trainable": true, "activation": "relu", "name": "activation_54"}, "inbound_nodes": [[["batch_normalization_274", 0, 0, {}]]], "class_name": "Activation", "name": "activation_54"}, {"config": {"use_bias": true, "kernel_size": [3, 3], "activity_regularizer": null, "bias_initializer": {"config": {}, "class_name": "Zeros"}, "data_format": "channels_last", "trainable": true, "activation": "linear", "padding": "same", "kernel_initializer": {"config": {"distribution": "uniform", "seed": null, "scale": 1.0, "mode": "fan_avg"}, "class_name": "VarianceScaling"}, "name": "conv2d_57", "kernel_regularizer": {"config": {"l1": 0.0, "l2": 9.999999747378752e-05}, "class_name": "L1L2"}, "bias_regularizer": null, "filters": 64, "bias_constraint": null, "kernel_constraint": null, "dilation_rate": [1, 1], "strides": [1, 1]}, "inbound_nodes": [[["activation_54", 0, 0, {}]]], "class_name": "Conv2D", "name": "conv2d_57"}, {"config": {"scale": true, "beta_constraint": null, "gamma_initializer": {"config": {}, "class_name": "Ones"}, "gamma_regularizer": null, "center": true, "name": "batch_normalization_275", "moving_mean_initializer": {"config": {}, "class_name": "Zeros"}, "beta_regularizer": null, "axis": -1, "moving_variance_initializer": {"config": {}, "class_name": "Ones"}, "beta_initializer": {"config": {}, "class_name": "Zeros"}, "momentum": 0.99, "gamma_constraint": null, "trainable": true, "epsilon": 0.001}, "inbound_nodes": [[["conv2d_57", 0, 0, {}]]], "class_name": "BatchNormalization", "name": "batch_normalization_275"}, {"config": {"trainable": true, "name": "add_135"}, "inbound_nodes": [[["activation_53", 0, 0, {}], ["batch_normalization_275", 0, 0, {}]]], "class_name": "Add", "name": "add_135"}, {"config": {"trainable": true, "activation": "relu", "name": "activation_55"}, "inbound_nodes": [[["add_135", 0, 0, {}]]], "class_name": "Activation", "name": "activation_55"}, {"config": {"pool_size": [8, 8], "data_format": "channels_last", "trainable": true, "name": "average_pooling2d_5", "padding": "valid", "strides": [8, 8]}, "inbound_nodes": [[["activation_55", 0, 0, {}]]], "class_name": "AveragePooling2D", "name": "average_pooling2d_5"}, {"config": {"trainable": true, "name": "flatten_5"}, "inbound_nodes": [[["average_pooling2d_5", 0, 0, {}]]], "class_name": "Flatten", "name": "flatten_5"}, {"config": {"use_bias": true, "activity_regularizer": null, "bias_initializer": {"config": {}, "class_name": "Zeros"}, "trainable": true, "name": "dense_5", "kernel_initializer": {"config": {"distribution": "normal", "seed": null, "scale": 2.0, "mode": "fan_in"}, "class_name": "VarianceScaling"}, "kernel_regularizer": null, "bias_regularizer": null, "bias_constraint": null, "activation": "softmax", "units": 10, "kernel_constraint": null}, "inbound_nodes": [[["flatten_5", 0, 0, {}]]], "class_name": "Dense", "name": "dense_5"}]}, "class_name": "Model", "backend": "tensorflow", "keras_version": "2.1.2"}