{"keras_version": "2.1.2", "class_name": "Model", "backend": "tensorflow", "config": {"output_layers": [["dense_2", 0, 0]], "layers": [{"class_name": "InputLayer", "config": {"sparse": false, "name": "input_4", "dtype": "float32", "batch_input_shape": [null, 32, 32, 3]}, "inbound_nodes": [], "name": "input_4"}, {"class_name": "Conv2D", "config": {"trainable": true, "name": "conv2d_1", "kernel_size": [3, 3], "activity_regularizer": null, "filters": 16, "kernel_regularizer": {"class_name": "L1L2", "config": {"l1": 0.0, "l2": 9.999999747378752e-05}}, "data_format": "channels_last", "bias_initializer": {"class_name": "Zeros", "config": {}}, "bias_constraint": null, "padding": "same", "use_bias": true, "dilation_rate": [1, 1], "activation": "linear", "kernel_constraint": null, "kernel_initializer": {"class_name": "VarianceScaling", "config": {"distribution": "uniform", "scale": 1.0, "mode": "fan_avg", "seed": null}}, "strides": [1, 1], "bias_regularizer": null}, "inbound_nodes": [[["input_4", 0, 0, {}]]], "name": "conv2d_1"}, {"class_name": "BatchNormalization", "config": {"trainable": true, "center": true, "name": "batch_normalization_56", "scale": true, "beta_constraint": null, "gamma_constraint": null, "beta_initializer": {"class_name": "Zeros", "config": {}}, "epsilon": 0.001, "moving_variance_initializer": {"class_name": "Ones", "config": {}}, "beta_regularizer": null, "momentum": 0.99, "moving_mean_initializer": {"class_name": "Zeros", "config": {}}, "gamma_regularizer": null, "gamma_initializer": {"class_name": "Ones", "config": {}}, "axis": -1}, "inbound_nodes": [[["conv2d_1", 0, 0, {}]]], "name": "batch_normalization_56"}, {"class_name": "Activation", "config": {"trainable": true, "name": "activation_1", "activation": "relu"}, "inbound_nodes": [[["batch_normalization_56", 0, 0, {}]]], "name": "activation_1"}, {"class_name": "Conv2D", "config": {"trainable": true, "name": "conv2d_2", "kernel_size": [3, 3], "activity_regularizer": null, "filters": 13, "kernel_regularizer": {"class_name": "L1L2", "config": {"l1": 0.0, "l2": 9.999999747378752e-05}}, "data_format": "channels_last", "bias_initializer": {"class_name": "Zeros", "config": {}}, "bias_constraint": null, "padding": "same", "use_bias": true, "dilation_rate": [1, 1], "activation": "linear", "kernel_constraint": null, "kernel_initializer": {"class_name": "VarianceScaling", "config": {"distribution": "uniform", "scale": 1.0, "mode": "fan_avg", "seed": null}}, "strides": [1, 1], "bias_regularizer": null}, "inbound_nodes": [[["activation_1", 0, 0, {}]]], "name": "conv2d_2"}, {"class_name": "BatchNormalization", "config": {"trainable": true, "center": true, "name": "batch_normalization_57", "scale": true, "beta_constraint": null, "gamma_constraint": null, "beta_initializer": {"class_name": "Zeros", "config": {}}, "epsilon": 0.001, "moving_variance_initializer": {"class_name": "Ones", "config": {}}, "beta_regularizer": null, "momentum": 0.99, "moving_mean_initializer": {"class_name": "Zeros", "config": {}}, "gamma_regularizer": null, "gamma_initializer": {"class_name": "Ones", "config": {}}, "axis": -1}, "inbound_nodes": [[["conv2d_2", 0, 0, {}]]], "name": "batch_normalization_57"}, {"class_name": "Activation", "config": {"trainable": true, "name": "activation_2", "activation": "relu"}, "inbound_nodes": [[["batch_normalization_57", 0, 0, {}]]], "name": "activation_2"}, {"class_name": "Conv2D", "config": {"trainable": true, "name": "conv2d_3", "kernel_size": [3, 3], "activity_regularizer": null, "filters": 16, "kernel_regularizer": {"class_name": "L1L2", "config": {"l1": 0.0, "l2": 9.999999747378752e-05}}, "data_format": "channels_last", "bias_initializer": {"class_name": "Zeros", "config": {}}, "bias_constraint": null, "padding": "same", "use_bias": true, "dilation_rate": [1, 1], "activation": "linear", "kernel_constraint": null, "kernel_initializer": {"class_name": "VarianceScaling", "config": {"distribution": "uniform", "scale": 1.0, "mode": "fan_avg", "seed": null}}, "strides": [1, 1], "bias_regularizer": null}, "inbound_nodes": [[["activation_2", 0, 0, {}]]], "name": "conv2d_3"}, {"class_name": "BatchNormalization", "config": {"trainable": true, "center": true, "name": "batch_normalization_58", "scale": true, "beta_constraint": null, "gamma_constraint": null, "beta_initializer": {"class_name": "Zeros", "config": {}}, "epsilon": 0.001, "moving_variance_initializer": {"class_name": "Ones", "config": {}}, "beta_regularizer": null, "momentum": 0.99, "moving_mean_initializer": {"class_name": "Zeros", "config": {}}, "gamma_regularizer": null, "gamma_initializer": {"class_name": "Ones", "config": {}}, "axis": -1}, "inbound_nodes": [[["conv2d_3", 0, 0, {}]]], "name": "batch_normalization_58"}, {"class_name": "Add", "config": {"trainable": true, "name": "add_28"}, "inbound_nodes": [[["activation_1", 0, 0, {}], ["batch_normalization_58", 0, 0, {}]]], "name": "add_28"}, {"class_name": "Activation", "config": {"trainable": true, "name": "activation_3", "activation": "relu"}, "inbound_nodes": [[["add_28", 0, 0, {}]]], "name": "activation_3"}, {"class_name": "Conv2D", "config": {"trainable": true, "name": "conv2d_4", "kernel_size": [3, 3], "activity_regularizer": null, "filters": 10, "kernel_regularizer": {"class_name": "L1L2", "config": {"l1": 0.0, "l2": 9.999999747378752e-05}}, "data_format": "channels_last", "bias_initializer": {"class_name": "Zeros", "config": {}}, "bias_constraint": null, "padding": "same", "use_bias": true, "dilation_rate": [1, 1], "activation": "linear", "kernel_constraint": null, "kernel_initializer": {"class_name": "VarianceScaling", "config": {"distribution": "uniform", "scale": 1.0, "mode": "fan_avg", "seed": null}}, "strides": [1, 1], "bias_regularizer": null}, "inbound_nodes": [[["activation_3", 0, 0, {}]]], "name": "conv2d_4"}, {"class_name": "BatchNormalization", "config": {"trainable": true, "center": true, "name": "batch_normalization_59", "scale": true, "beta_constraint": null, "gamma_constraint": null, "beta_initializer": {"class_name": "Zeros", "config": {}}, "epsilon": 0.001, "moving_variance_initializer": {"class_name": "Ones", "config": {}}, "beta_regularizer": null, "momentum": 0.99, "moving_mean_initializer": {"class_name": "Zeros", "config": {}}, "gamma_regularizer": null, "gamma_initializer": {"class_name": "Ones", "config": {}}, "axis": -1}, "inbound_nodes": [[["conv2d_4", 0, 0, {}]]], "name": "batch_normalization_59"}, {"class_name": "Activation", "config": {"trainable": true, "name": "activation_4", "activation": "relu"}, "inbound_nodes": [[["batch_normalization_59", 0, 0, {}]]], "name": "activation_4"}, {"class_name": "Conv2D", "config": {"trainable": true, "name": "conv2d_5", "kernel_size": [3, 3], "activity_regularizer": null, "filters": 16, "kernel_regularizer": {"class_name": "L1L2", "config": {"l1": 0.0, "l2": 9.999999747378752e-05}}, "data_format": "channels_last", "bias_initializer": {"class_name": "Zeros", "config": {}}, "bias_constraint": null, "padding": "same", "use_bias": true, "dilation_rate": [1, 1], "activation": "linear", "kernel_constraint": null, "kernel_initializer": {"class_name": "VarianceScaling", "config": {"distribution": "uniform", "scale": 1.0, "mode": "fan_avg", "seed": null}}, "strides": [1, 1], "bias_regularizer": null}, "inbound_nodes": [[["activation_4", 0, 0, {}]]], "name": "conv2d_5"}, {"class_name": "BatchNormalization", "config": {"trainable": true, "center": true, "name": "batch_normalization_60", "scale": true, "beta_constraint": null, "gamma_constraint": null, "beta_initializer": {"class_name": "Zeros", "config": {}}, "epsilon": 0.001, "moving_variance_initializer": {"class_name": "Ones", "config": {}}, "beta_regularizer": null, "momentum": 0.99, "moving_mean_initializer": {"class_name": "Zeros", "config": {}}, "gamma_regularizer": null, "gamma_initializer": {"class_name": "Ones", "config": {}}, "axis": -1}, "inbound_nodes": [[["conv2d_5", 0, 0, {}]]], "name": "batch_normalization_60"}, {"class_name": "Add", "config": {"trainable": true, "name": "add_29"}, "inbound_nodes": [[["activation_3", 0, 0, {}], ["batch_normalization_60", 0, 0, {}]]], "name": "add_29"}, {"class_name": "Activation", "config": {"trainable": true, "name": "activation_5", "activation": "relu"}, "inbound_nodes": [[["add_29", 0, 0, {}]]], "name": "activation_5"}, {"class_name": "Conv2D", "config": {"trainable": true, "name": "conv2d_6", "kernel_size": [3, 3], "activity_regularizer": null, "filters": 9, "kernel_regularizer": {"class_name": "L1L2", "config": {"l1": 0.0, "l2": 9.999999747378752e-05}}, "data_format": "channels_last", "bias_initializer": {"class_name": "Zeros", "config": {}}, "bias_constraint": null, "padding": "same", "use_bias": true, "dilation_rate": [1, 1], "activation": "linear", "kernel_constraint": null, "kernel_initializer": {"class_name": "VarianceScaling", "config": {"distribution": "uniform", "scale": 1.0, "mode": "fan_avg", "seed": null}}, "strides": [1, 1], "bias_regularizer": null}, "inbound_nodes": [[["activation_5", 0, 0, {}]]], "name": "conv2d_6"}, {"class_name": "BatchNormalization", "config": {"trainable": true, "center": true, "name": "batch_normalization_61", "scale": true, "beta_constraint": null, "gamma_constraint": null, "beta_initializer": {"class_name": "Zeros", "config": {}}, "epsilon": 0.001, "moving_variance_initializer": {"class_name": "Ones", "config": {}}, "beta_regularizer": null, "momentum": 0.99, "moving_mean_initializer": {"class_name": "Zeros", "config": {}}, "gamma_regularizer": null, "gamma_initializer": {"class_name": "Ones", "config": {}}, "axis": -1}, "inbound_nodes": [[["conv2d_6", 0, 0, {}]]], "name": "batch_normalization_61"}, {"class_name": "Activation", "config": {"trainable": true, "name": "activation_6", "activation": "relu"}, "inbound_nodes": [[["batch_normalization_61", 0, 0, {}]]], "name": "activation_6"}, {"class_name": "Conv2D", "config": {"trainable": true, "name": "conv2d_7", "kernel_size": [3, 3], "activity_regularizer": null, "filters": 16, "kernel_regularizer": {"class_name": "L1L2", "config": {"l1": 0.0, "l2": 9.999999747378752e-05}}, "data_format": "channels_last", "bias_initializer": {"class_name": "Zeros", "config": {}}, "bias_constraint": null, "padding": "same", "use_bias": true, "dilation_rate": [1, 1], "activation": "linear", "kernel_constraint": null, "kernel_initializer": {"class_name": "VarianceScaling", "config": {"distribution": "uniform", "scale": 1.0, "mode": "fan_avg", "seed": null}}, "strides": [1, 1], "bias_regularizer": null}, "inbound_nodes": [[["activation_6", 0, 0, {}]]], "name": "conv2d_7"}, {"class_name": "BatchNormalization", "config": {"trainable": true, "center": true, "name": "batch_normalization_62", "scale": true, "beta_constraint": null, "gamma_constraint": null, "beta_initializer": {"class_name": "Zeros", "config": {}}, "epsilon": 0.001, "moving_variance_initializer": {"class_name": "Ones", "config": {}}, "beta_regularizer": null, "momentum": 0.99, "moving_mean_initializer": {"class_name": "Zeros", "config": {}}, "gamma_regularizer": null, "gamma_initializer": {"class_name": "Ones", "config": {}}, "axis": -1}, "inbound_nodes": [[["conv2d_7", 0, 0, {}]]], "name": "batch_normalization_62"}, {"class_name": "Add", "config": {"trainable": true, "name": "add_30"}, "inbound_nodes": [[["activation_5", 0, 0, {}], ["batch_normalization_62", 0, 0, {}]]], "name": "add_30"}, {"class_name": "Activation", "config": {"trainable": true, "name": "activation_7", "activation": "relu"}, "inbound_nodes": [[["add_30", 0, 0, {}]]], "name": "activation_7"}, {"class_name": "Conv2D", "config": {"trainable": true, "name": "conv2d_8", "kernel_size": [3, 3], "activity_regularizer": null, "filters": 9, "kernel_regularizer": {"class_name": "L1L2", "config": {"l1": 0.0, "l2": 9.999999747378752e-05}}, "data_format": "channels_last", "bias_initializer": {"class_name": "Zeros", "config": {}}, "bias_constraint": null, "padding": "same", "use_bias": true, "dilation_rate": [1, 1], "activation": "linear", "kernel_constraint": null, "kernel_initializer": {"class_name": "VarianceScaling", "config": {"distribution": "uniform", "scale": 1.0, "mode": "fan_avg", "seed": null}}, "strides": [1, 1], "bias_regularizer": null}, "inbound_nodes": [[["activation_7", 0, 0, {}]]], "name": "conv2d_8"}, {"class_name": "BatchNormalization", "config": {"trainable": true, "center": true, "name": "batch_normalization_63", "scale": true, "beta_constraint": null, "gamma_constraint": null, "beta_initializer": {"class_name": "Zeros", "config": {}}, "epsilon": 0.001, "moving_variance_initializer": {"class_name": "Ones", "config": {}}, "beta_regularizer": null, "momentum": 0.99, "moving_mean_initializer": {"class_name": "Zeros", "config": {}}, "gamma_regularizer": null, "gamma_initializer": {"class_name": "Ones", "config": {}}, "axis": -1}, "inbound_nodes": [[["conv2d_8", 0, 0, {}]]], "name": "batch_normalization_63"}, {"class_name": "Activation", "config": {"trainable": true, "name": "activation_8", "activation": "relu"}, "inbound_nodes": [[["batch_normalization_63", 0, 0, {}]]], "name": "activation_8"}, {"class_name": "Conv2D", "config": {"trainable": true, "name": "conv2d_9", "kernel_size": [3, 3], "activity_regularizer": null, "filters": 16, "kernel_regularizer": {"class_name": "L1L2", "config": {"l1": 0.0, "l2": 9.999999747378752e-05}}, "data_format": "channels_last", "bias_initializer": {"class_name": "Zeros", "config": {}}, "bias_constraint": null, "padding": "same", "use_bias": true, "dilation_rate": [1, 1], "activation": "linear", "kernel_constraint": null, "kernel_initializer": {"class_name": "VarianceScaling", "config": {"distribution": "uniform", "scale": 1.0, "mode": "fan_avg", "seed": null}}, "strides": [1, 1], "bias_regularizer": null}, "inbound_nodes": [[["activation_8", 0, 0, {}]]], "name": "conv2d_9"}, {"class_name": "BatchNormalization", "config": {"trainable": true, "center": true, "name": "batch_normalization_64", "scale": true, "beta_constraint": null, "gamma_constraint": null, "beta_initializer": {"class_name": "Zeros", "config": {}}, "epsilon": 0.001, "moving_variance_initializer": {"class_name": "Ones", "config": {}}, "beta_regularizer": null, "momentum": 0.99, "moving_mean_initializer": {"class_name": "Zeros", "config": {}}, "gamma_regularizer": null, "gamma_initializer": {"class_name": "Ones", "config": {}}, "axis": -1}, "inbound_nodes": [[["conv2d_9", 0, 0, {}]]], "name": "batch_normalization_64"}, {"class_name": "Add", "config": {"trainable": true, "name": "add_31"}, "inbound_nodes": [[["activation_7", 0, 0, {}], ["batch_normalization_64", 0, 0, {}]]], "name": "add_31"}, {"class_name": "Activation", "config": {"trainable": true, "name": "activation_9", "activation": "relu"}, "inbound_nodes": [[["add_31", 0, 0, {}]]], "name": "activation_9"}, {"class_name": "Conv2D", "config": {"trainable": true, "name": "conv2d_10", "kernel_size": [3, 3], "activity_regularizer": null, "filters": 5, "kernel_regularizer": {"class_name": "L1L2", "config": {"l1": 0.0, "l2": 9.999999747378752e-05}}, "data_format": "channels_last", "bias_initializer": {"class_name": "Zeros", "config": {}}, "bias_constraint": null, "padding": "same", "use_bias": true, "dilation_rate": [1, 1], "activation": "linear", "kernel_constraint": null, "kernel_initializer": {"class_name": "VarianceScaling", "config": {"distribution": "uniform", "scale": 1.0, "mode": "fan_avg", "seed": null}}, "strides": [1, 1], "bias_regularizer": null}, "inbound_nodes": [[["activation_9", 0, 0, {}]]], "name": "conv2d_10"}, {"class_name": "BatchNormalization", "config": {"trainable": true, "center": true, "name": "batch_normalization_65", "scale": true, "beta_constraint": null, "gamma_constraint": null, "beta_initializer": {"class_name": "Zeros", "config": {}}, "epsilon": 0.001, "moving_variance_initializer": {"class_name": "Ones", "config": {}}, "beta_regularizer": null, "momentum": 0.99, "moving_mean_initializer": {"class_name": "Zeros", "config": {}}, "gamma_regularizer": null, "gamma_initializer": {"class_name": "Ones", "config": {}}, "axis": -1}, "inbound_nodes": [[["conv2d_10", 0, 0, {}]]], "name": "batch_normalization_65"}, {"class_name": "Activation", "config": {"trainable": true, "name": "activation_10", "activation": "relu"}, "inbound_nodes": [[["batch_normalization_65", 0, 0, {}]]], "name": "activation_10"}, {"class_name": "Conv2D", "config": {"trainable": true, "name": "conv2d_11", "kernel_size": [3, 3], "activity_regularizer": null, "filters": 16, "kernel_regularizer": {"class_name": "L1L2", "config": {"l1": 0.0, "l2": 9.999999747378752e-05}}, "data_format": "channels_last", "bias_initializer": {"class_name": "Zeros", "config": {}}, "bias_constraint": null, "padding": "same", "use_bias": true, "dilation_rate": [1, 1], "activation": "linear", "kernel_constraint": null, "kernel_initializer": {"class_name": "VarianceScaling", "config": {"distribution": "uniform", "scale": 1.0, "mode": "fan_avg", "seed": null}}, "strides": [1, 1], "bias_regularizer": null}, "inbound_nodes": [[["activation_10", 0, 0, {}]]], "name": "conv2d_11"}, {"class_name": "BatchNormalization", "config": {"trainable": true, "center": true, "name": "batch_normalization_66", "scale": true, "beta_constraint": null, "gamma_constraint": null, "beta_initializer": {"class_name": "Zeros", "config": {}}, "epsilon": 0.001, "moving_variance_initializer": {"class_name": "Ones", "config": {}}, "beta_regularizer": null, "momentum": 0.99, "moving_mean_initializer": {"class_name": "Zeros", "config": {}}, "gamma_regularizer": null, "gamma_initializer": {"class_name": "Ones", "config": {}}, "axis": -1}, "inbound_nodes": [[["conv2d_11", 0, 0, {}]]], "name": "batch_normalization_66"}, {"class_name": "Add", "config": {"trainable": true, "name": "add_32"}, "inbound_nodes": [[["activation_9", 0, 0, {}], ["batch_normalization_66", 0, 0, {}]]], "name": "add_32"}, {"class_name": "Activation", "config": {"trainable": true, "name": "activation_11", "activation": "relu"}, "inbound_nodes": [[["add_32", 0, 0, {}]]], "name": "activation_11"}, {"class_name": "Conv2D", "config": {"trainable": true, "name": "conv2d_12", "kernel_size": [3, 3], "activity_regularizer": null, "filters": 3, "kernel_regularizer": {"class_name": "L1L2", "config": {"l1": 0.0, "l2": 9.999999747378752e-05}}, "data_format": "channels_last", "bias_initializer": {"class_name": "Zeros", "config": {}}, "bias_constraint": null, "padding": "same", "use_bias": true, "dilation_rate": [1, 1], "activation": "linear", "kernel_constraint": null, "kernel_initializer": {"class_name": "VarianceScaling", "config": {"distribution": "uniform", "scale": 1.0, "mode": "fan_avg", "seed": null}}, "strides": [1, 1], "bias_regularizer": null}, "inbound_nodes": [[["activation_11", 0, 0, {}]]], "name": "conv2d_12"}, {"class_name": "BatchNormalization", "config": {"trainable": true, "center": true, "name": "batch_normalization_67", "scale": true, "beta_constraint": null, "gamma_constraint": null, "beta_initializer": {"class_name": "Zeros", "config": {}}, "epsilon": 0.001, "moving_variance_initializer": {"class_name": "Ones", "config": {}}, "beta_regularizer": null, "momentum": 0.99, "moving_mean_initializer": {"class_name": "Zeros", "config": {}}, "gamma_regularizer": null, "gamma_initializer": {"class_name": "Ones", "config": {}}, "axis": -1}, "inbound_nodes": [[["conv2d_12", 0, 0, {}]]], "name": "batch_normalization_67"}, {"class_name": "Activation", "config": {"trainable": true, "name": "activation_12", "activation": "relu"}, "inbound_nodes": [[["batch_normalization_67", 0, 0, {}]]], "name": "activation_12"}, {"class_name": "Conv2D", "config": {"trainable": true, "name": "conv2d_13", "kernel_size": [3, 3], "activity_regularizer": null, "filters": 16, "kernel_regularizer": {"class_name": "L1L2", "config": {"l1": 0.0, "l2": 9.999999747378752e-05}}, "data_format": "channels_last", "bias_initializer": {"class_name": "Zeros", "config": {}}, "bias_constraint": null, "padding": "same", "use_bias": true, "dilation_rate": [1, 1], "activation": "linear", "kernel_constraint": null, "kernel_initializer": {"class_name": "VarianceScaling", "config": {"distribution": "uniform", "scale": 1.0, "mode": "fan_avg", "seed": null}}, "strides": [1, 1], "bias_regularizer": null}, "inbound_nodes": [[["activation_12", 0, 0, {}]]], "name": "conv2d_13"}, {"class_name": "BatchNormalization", "config": {"trainable": true, "center": true, "name": "batch_normalization_68", "scale": true, "beta_constraint": null, "gamma_constraint": null, "beta_initializer": {"class_name": "Zeros", "config": {}}, "epsilon": 0.001, "moving_variance_initializer": {"class_name": "Ones", "config": {}}, "beta_regularizer": null, "momentum": 0.99, "moving_mean_initializer": {"class_name": "Zeros", "config": {}}, "gamma_regularizer": null, "gamma_initializer": {"class_name": "Ones", "config": {}}, "axis": -1}, "inbound_nodes": [[["conv2d_13", 0, 0, {}]]], "name": "batch_normalization_68"}, {"class_name": "Add", "config": {"trainable": true, "name": "add_33"}, "inbound_nodes": [[["activation_11", 0, 0, {}], ["batch_normalization_68", 0, 0, {}]]], "name": "add_33"}, {"class_name": "Activation", "config": {"trainable": true, "name": "activation_13", "activation": "relu"}, "inbound_nodes": [[["add_33", 0, 0, {}]]], "name": "activation_13"}, {"class_name": "Conv2D", "config": {"trainable": true, "name": "conv2d_14", "kernel_size": [3, 3], "activity_regularizer": null, "filters": 8, "kernel_regularizer": {"class_name": "L1L2", "config": {"l1": 0.0, "l2": 9.999999747378752e-05}}, "data_format": "channels_last", "bias_initializer": {"class_name": "Zeros", "config": {}}, "bias_constraint": null, "padding": "same", "use_bias": true, "dilation_rate": [1, 1], "activation": "linear", "kernel_constraint": null, "kernel_initializer": {"class_name": "VarianceScaling", "config": {"distribution": "uniform", "scale": 1.0, "mode": "fan_avg", "seed": null}}, "strides": [1, 1], "bias_regularizer": null}, "inbound_nodes": [[["activation_13", 0, 0, {}]]], "name": "conv2d_14"}, {"class_name": "BatchNormalization", "config": {"trainable": true, "center": true, "name": "batch_normalization_69", "scale": true, "beta_constraint": null, "gamma_constraint": null, "beta_initializer": {"class_name": "Zeros", "config": {}}, "epsilon": 0.001, "moving_variance_initializer": {"class_name": "Ones", "config": {}}, "beta_regularizer": null, "momentum": 0.99, "moving_mean_initializer": {"class_name": "Zeros", "config": {}}, "gamma_regularizer": null, "gamma_initializer": {"class_name": "Ones", "config": {}}, "axis": -1}, "inbound_nodes": [[["conv2d_14", 0, 0, {}]]], "name": "batch_normalization_69"}, {"class_name": "Activation", "config": {"trainable": true, "name": "activation_14", "activation": "relu"}, "inbound_nodes": [[["batch_normalization_69", 0, 0, {}]]], "name": "activation_14"}, {"class_name": "Conv2D", "config": {"trainable": true, "name": "conv2d_15", "kernel_size": [3, 3], "activity_regularizer": null, "filters": 16, "kernel_regularizer": {"class_name": "L1L2", "config": {"l1": 0.0, "l2": 9.999999747378752e-05}}, "data_format": "channels_last", "bias_initializer": {"class_name": "Zeros", "config": {}}, "bias_constraint": null, "padding": "same", "use_bias": true, "dilation_rate": [1, 1], "activation": "linear", "kernel_constraint": null, "kernel_initializer": {"class_name": "VarianceScaling", "config": {"distribution": "uniform", "scale": 1.0, "mode": "fan_avg", "seed": null}}, "strides": [1, 1], "bias_regularizer": null}, "inbound_nodes": [[["activation_14", 0, 0, {}]]], "name": "conv2d_15"}, {"class_name": "BatchNormalization", "config": {"trainable": true, "center": true, "name": "batch_normalization_70", "scale": true, "beta_constraint": null, "gamma_constraint": null, "beta_initializer": {"class_name": "Zeros", "config": {}}, "epsilon": 0.001, "moving_variance_initializer": {"class_name": "Ones", "config": {}}, "beta_regularizer": null, "momentum": 0.99, "moving_mean_initializer": {"class_name": "Zeros", "config": {}}, "gamma_regularizer": null, "gamma_initializer": {"class_name": "Ones", "config": {}}, "axis": -1}, "inbound_nodes": [[["conv2d_15", 0, 0, {}]]], "name": "batch_normalization_70"}, {"class_name": "Add", "config": {"trainable": true, "name": "add_34"}, "inbound_nodes": [[["activation_13", 0, 0, {}], ["batch_normalization_70", 0, 0, {}]]], "name": "add_34"}, {"class_name": "Activation", "config": {"trainable": true, "name": "activation_15", "activation": "relu"}, "inbound_nodes": [[["add_34", 0, 0, {}]]], "name": "activation_15"}, {"class_name": "Conv2D", "config": {"trainable": true, "name": "conv2d_16", "kernel_size": [3, 3], "activity_regularizer": null, "filters": 5, "kernel_regularizer": {"class_name": "L1L2", "config": {"l1": 0.0, "l2": 9.999999747378752e-05}}, "data_format": "channels_last", "bias_initializer": {"class_name": "Zeros", "config": {}}, "bias_constraint": null, "padding": "same", "use_bias": true, "dilation_rate": [1, 1], "activation": "linear", "kernel_constraint": null, "kernel_initializer": {"class_name": "VarianceScaling", "config": {"distribution": "uniform", "scale": 1.0, "mode": "fan_avg", "seed": null}}, "strides": [1, 1], "bias_regularizer": null}, "inbound_nodes": [[["activation_15", 0, 0, {}]]], "name": "conv2d_16"}, {"class_name": "BatchNormalization", "config": {"trainable": true, "center": true, "name": "batch_normalization_71", "scale": true, "beta_constraint": null, "gamma_constraint": null, "beta_initializer": {"class_name": "Zeros", "config": {}}, "epsilon": 0.001, "moving_variance_initializer": {"class_name": "Ones", "config": {}}, "beta_regularizer": null, "momentum": 0.99, "moving_mean_initializer": {"class_name": "Zeros", "config": {}}, "gamma_regularizer": null, "gamma_initializer": {"class_name": "Ones", "config": {}}, "axis": -1}, "inbound_nodes": [[["conv2d_16", 0, 0, {}]]], "name": "batch_normalization_71"}, {"class_name": "Activation", "config": {"trainable": true, "name": "activation_16", "activation": "relu"}, "inbound_nodes": [[["batch_normalization_71", 0, 0, {}]]], "name": "activation_16"}, {"class_name": "Conv2D", "config": {"trainable": true, "name": "conv2d_17", "kernel_size": [3, 3], "activity_regularizer": null, "filters": 16, "kernel_regularizer": {"class_name": "L1L2", "config": {"l1": 0.0, "l2": 9.999999747378752e-05}}, "data_format": "channels_last", "bias_initializer": {"class_name": "Zeros", "config": {}}, "bias_constraint": null, "padding": "same", "use_bias": true, "dilation_rate": [1, 1], "activation": "linear", "kernel_constraint": null, "kernel_initializer": {"class_name": "VarianceScaling", "config": {"distribution": "uniform", "scale": 1.0, "mode": "fan_avg", "seed": null}}, "strides": [1, 1], "bias_regularizer": null}, "inbound_nodes": [[["activation_16", 0, 0, {}]]], "name": "conv2d_17"}, {"class_name": "BatchNormalization", "config": {"trainable": true, "center": true, "name": "batch_normalization_72", "scale": true, "beta_constraint": null, "gamma_constraint": null, "beta_initializer": {"class_name": "Zeros", "config": {}}, "epsilon": 0.001, "moving_variance_initializer": {"class_name": "Ones", "config": {}}, "beta_regularizer": null, "momentum": 0.99, "moving_mean_initializer": {"class_name": "Zeros", "config": {}}, "gamma_regularizer": null, "gamma_initializer": {"class_name": "Ones", "config": {}}, "axis": -1}, "inbound_nodes": [[["conv2d_17", 0, 0, {}]]], "name": "batch_normalization_72"}, {"class_name": "Add", "config": {"trainable": true, "name": "add_35"}, "inbound_nodes": [[["activation_15", 0, 0, {}], ["batch_normalization_72", 0, 0, {}]]], "name": "add_35"}, {"class_name": "Activation", "config": {"trainable": true, "name": "activation_17", "activation": "relu"}, "inbound_nodes": [[["add_35", 0, 0, {}]]], "name": "activation_17"}, {"class_name": "Conv2D", "config": {"trainable": true, "name": "conv2d_18", "kernel_size": [3, 3], "activity_regularizer": null, "filters": 12, "kernel_regularizer": {"class_name": "L1L2", "config": {"l1": 0.0, "l2": 9.999999747378752e-05}}, "data_format": "channels_last", "bias_initializer": {"class_name": "Zeros", "config": {}}, "bias_constraint": null, "padding": "same", "use_bias": true, "dilation_rate": [1, 1], "activation": "linear", "kernel_constraint": null, "kernel_initializer": {"class_name": "VarianceScaling", "config": {"distribution": "uniform", "scale": 1.0, "mode": "fan_avg", "seed": null}}, "strides": [1, 1], "bias_regularizer": null}, "inbound_nodes": [[["activation_17", 0, 0, {}]]], "name": "conv2d_18"}, {"class_name": "BatchNormalization", "config": {"trainable": true, "center": true, "name": "batch_normalization_73", "scale": true, "beta_constraint": null, "gamma_constraint": null, "beta_initializer": {"class_name": "Zeros", "config": {}}, "epsilon": 0.001, "moving_variance_initializer": {"class_name": "Ones", "config": {}}, "beta_regularizer": null, "momentum": 0.99, "moving_mean_initializer": {"class_name": "Zeros", "config": {}}, "gamma_regularizer": null, "gamma_initializer": {"class_name": "Ones", "config": {}}, "axis": -1}, "inbound_nodes": [[["conv2d_18", 0, 0, {}]]], "name": "batch_normalization_73"}, {"class_name": "Activation", "config": {"trainable": true, "name": "activation_18", "activation": "relu"}, "inbound_nodes": [[["batch_normalization_73", 0, 0, {}]]], "name": "activation_18"}, {"class_name": "Conv2D", "config": {"trainable": true, "name": "conv2d_19", "kernel_size": [3, 3], "activity_regularizer": null, "filters": 16, "kernel_regularizer": {"class_name": "L1L2", "config": {"l1": 0.0, "l2": 9.999999747378752e-05}}, "data_format": "channels_last", "bias_initializer": {"class_name": "Zeros", "config": {}}, "bias_constraint": null, "padding": "same", "use_bias": true, "dilation_rate": [1, 1], "activation": "linear", "kernel_constraint": null, "kernel_initializer": {"class_name": "VarianceScaling", "config": {"distribution": "uniform", "scale": 1.0, "mode": "fan_avg", "seed": null}}, "strides": [1, 1], "bias_regularizer": null}, "inbound_nodes": [[["activation_18", 0, 0, {}]]], "name": "conv2d_19"}, {"class_name": "BatchNormalization", "config": {"trainable": true, "center": true, "name": "batch_normalization_74", "scale": true, "beta_constraint": null, "gamma_constraint": null, "beta_initializer": {"class_name": "Zeros", "config": {}}, "epsilon": 0.001, "moving_variance_initializer": {"class_name": "Ones", "config": {}}, "beta_regularizer": null, "momentum": 0.99, "moving_mean_initializer": {"class_name": "Zeros", "config": {}}, "gamma_regularizer": null, "gamma_initializer": {"class_name": "Ones", "config": {}}, "axis": -1}, "inbound_nodes": [[["conv2d_19", 0, 0, {}]]], "name": "batch_normalization_74"}, {"class_name": "Add", "config": {"trainable": true, "name": "add_36"}, "inbound_nodes": [[["activation_17", 0, 0, {}], ["batch_normalization_74", 0, 0, {}]]], "name": "add_36"}, {"class_name": "Activation", "config": {"trainable": true, "name": "activation_19", "activation": "relu"}, "inbound_nodes": [[["add_36", 0, 0, {}]]], "name": "activation_19"}, {"class_name": "Conv2D", "config": {"trainable": true, "name": "conv2d_20", "kernel_size": [3, 3], "activity_regularizer": null, "filters": 24, "kernel_regularizer": {"class_name": "L1L2", "config": {"l1": 0.0, "l2": 9.999999747378752e-05}}, "data_format": "channels_last", "bias_initializer": {"class_name": "Zeros", "config": {}}, "bias_constraint": null, "padding": "same", "use_bias": true, "dilation_rate": [1, 1], "activation": "linear", "kernel_constraint": null, "kernel_initializer": {"class_name": "VarianceScaling", "config": {"distribution": "uniform", "scale": 1.0, "mode": "fan_avg", "seed": null}}, "strides": [2, 2], "bias_regularizer": null}, "inbound_nodes": [[["activation_19", 0, 0, {}]]], "name": "conv2d_20"}, {"class_name": "BatchNormalization", "config": {"trainable": true, "center": true, "name": "batch_normalization_75", "scale": true, "beta_constraint": null, "gamma_constraint": null, "beta_initializer": {"class_name": "Zeros", "config": {}}, "epsilon": 0.001, "moving_variance_initializer": {"class_name": "Ones", "config": {}}, "beta_regularizer": null, "momentum": 0.99, "moving_mean_initializer": {"class_name": "Zeros", "config": {}}, "gamma_regularizer": null, "gamma_initializer": {"class_name": "Ones", "config": {}}, "axis": -1}, "inbound_nodes": [[["conv2d_20", 0, 0, {}]]], "name": "batch_normalization_75"}, {"class_name": "Activation", "config": {"trainable": true, "name": "activation_20", "activation": "relu"}, "inbound_nodes": [[["batch_normalization_75", 0, 0, {}]]], "name": "activation_20"}, {"class_name": "Conv2D", "config": {"trainable": true, "name": "conv2d_21", "kernel_size": [3, 3], "activity_regularizer": null, "filters": 32, "kernel_regularizer": {"class_name": "L1L2", "config": {"l1": 0.0, "l2": 9.999999747378752e-05}}, "data_format": "channels_last", "bias_initializer": {"class_name": "Zeros", "config": {}}, "bias_constraint": null, "padding": "same", "use_bias": true, "dilation_rate": [1, 1], "activation": "linear", "kernel_constraint": null, "kernel_initializer": {"class_name": "VarianceScaling", "config": {"distribution": "uniform", "scale": 1.0, "mode": "fan_avg", "seed": null}}, "strides": [1, 1], "bias_regularizer": null}, "inbound_nodes": [[["activation_20", 0, 0, {}]]], "name": "conv2d_21"}, {"class_name": "Conv2D", "config": {"trainable": true, "name": "conv2d_22", "kernel_size": [1, 1], "activity_regularizer": null, "filters": 32, "kernel_regularizer": {"class_name": "L1L2", "config": {"l1": 0.0, "l2": 9.999999747378752e-05}}, "data_format": "channels_last", "bias_initializer": {"class_name": "Zeros", "config": {}}, "bias_constraint": null, "padding": "same", "use_bias": true, "dilation_rate": [1, 1], "activation": "linear", "kernel_constraint": null, "kernel_initializer": {"class_name": "VarianceScaling", "config": {"distribution": "uniform", "scale": 1.0, "mode": "fan_avg", "seed": null}}, "strides": [2, 2], "bias_regularizer": null}, "inbound_nodes": [[["activation_19", 0, 0, {}]]], "name": "conv2d_22"}, {"class_name": "BatchNormalization", "config": {"trainable": true, "center": true, "name": "batch_normalization_76", "scale": true, "beta_constraint": null, "gamma_constraint": null, "beta_initializer": {"class_name": "Zeros", "config": {}}, "epsilon": 0.001, "moving_variance_initializer": {"class_name": "Ones", "config": {}}, "beta_regularizer": null, "momentum": 0.99, "moving_mean_initializer": {"class_name": "Zeros", "config": {}}, "gamma_regularizer": null, "gamma_initializer": {"class_name": "Ones", "config": {}}, "axis": -1}, "inbound_nodes": [[["conv2d_21", 0, 0, {}]]], "name": "batch_normalization_76"}, {"class_name": "Add", "config": {"trainable": true, "name": "add_37"}, "inbound_nodes": [[["conv2d_22", 0, 0, {}], ["batch_normalization_76", 0, 0, {}]]], "name": "add_37"}, {"class_name": "Activation", "config": {"trainable": true, "name": "activation_21", "activation": "relu"}, "inbound_nodes": [[["add_37", 0, 0, {}]]], "name": "activation_21"}, {"class_name": "Conv2D", "config": {"trainable": true, "name": "conv2d_23", "kernel_size": [3, 3], "activity_regularizer": null, "filters": 13, "kernel_regularizer": {"class_name": "L1L2", "config": {"l1": 0.0, "l2": 9.999999747378752e-05}}, "data_format": "channels_last", "bias_initializer": {"class_name": "Zeros", "config": {}}, "bias_constraint": null, "padding": "same", "use_bias": true, "dilation_rate": [1, 1], "activation": "linear", "kernel_constraint": null, "kernel_initializer": {"class_name": "VarianceScaling", "config": {"distribution": "uniform", "scale": 1.0, "mode": "fan_avg", "seed": null}}, "strides": [1, 1], "bias_regularizer": null}, "inbound_nodes": [[["activation_21", 0, 0, {}]]], "name": "conv2d_23"}, {"class_name": "BatchNormalization", "config": {"trainable": true, "center": true, "name": "batch_normalization_77", "scale": true, "beta_constraint": null, "gamma_constraint": null, "beta_initializer": {"class_name": "Zeros", "config": {}}, "epsilon": 0.001, "moving_variance_initializer": {"class_name": "Ones", "config": {}}, "beta_regularizer": null, "momentum": 0.99, "moving_mean_initializer": {"class_name": "Zeros", "config": {}}, "gamma_regularizer": null, "gamma_initializer": {"class_name": "Ones", "config": {}}, "axis": -1}, "inbound_nodes": [[["conv2d_23", 0, 0, {}]]], "name": "batch_normalization_77"}, {"class_name": "Activation", "config": {"trainable": true, "name": "activation_22", "activation": "relu"}, "inbound_nodes": [[["batch_normalization_77", 0, 0, {}]]], "name": "activation_22"}, {"class_name": "Conv2D", "config": {"trainable": true, "name": "conv2d_24", "kernel_size": [3, 3], "activity_regularizer": null, "filters": 32, "kernel_regularizer": {"class_name": "L1L2", "config": {"l1": 0.0, "l2": 9.999999747378752e-05}}, "data_format": "channels_last", "bias_initializer": {"class_name": "Zeros", "config": {}}, "bias_constraint": null, "padding": "same", "use_bias": true, "dilation_rate": [1, 1], "activation": "linear", "kernel_constraint": null, "kernel_initializer": {"class_name": "VarianceScaling", "config": {"distribution": "uniform", "scale": 1.0, "mode": "fan_avg", "seed": null}}, "strides": [1, 1], "bias_regularizer": null}, "inbound_nodes": [[["activation_22", 0, 0, {}]]], "name": "conv2d_24"}, {"class_name": "BatchNormalization", "config": {"trainable": true, "center": true, "name": "batch_normalization_78", "scale": true, "beta_constraint": null, "gamma_constraint": null, "beta_initializer": {"class_name": "Zeros", "config": {}}, "epsilon": 0.001, "moving_variance_initializer": {"class_name": "Ones", "config": {}}, "beta_regularizer": null, "momentum": 0.99, "moving_mean_initializer": {"class_name": "Zeros", "config": {}}, "gamma_regularizer": null, "gamma_initializer": {"class_name": "Ones", "config": {}}, "axis": -1}, "inbound_nodes": [[["conv2d_24", 0, 0, {}]]], "name": "batch_normalization_78"}, {"class_name": "Add", "config": {"trainable": true, "name": "add_38"}, "inbound_nodes": [[["activation_21", 0, 0, {}], ["batch_normalization_78", 0, 0, {}]]], "name": "add_38"}, {"class_name": "Activation", "config": {"trainable": true, "name": "activation_23", "activation": "relu"}, "inbound_nodes": [[["add_38", 0, 0, {}]]], "name": "activation_23"}, {"class_name": "Conv2D", "config": {"trainable": true, "name": "conv2d_25", "kernel_size": [3, 3], "activity_regularizer": null, "filters": 18, "kernel_regularizer": {"class_name": "L1L2", "config": {"l1": 0.0, "l2": 9.999999747378752e-05}}, "data_format": "channels_last", "bias_initializer": {"class_name": "Zeros", "config": {}}, "bias_constraint": null, "padding": "same", "use_bias": true, "dilation_rate": [1, 1], "activation": "linear", "kernel_constraint": null, "kernel_initializer": {"class_name": "VarianceScaling", "config": {"distribution": "uniform", "scale": 1.0, "mode": "fan_avg", "seed": null}}, "strides": [1, 1], "bias_regularizer": null}, "inbound_nodes": [[["activation_23", 0, 0, {}]]], "name": "conv2d_25"}, {"class_name": "BatchNormalization", "config": {"trainable": true, "center": true, "name": "batch_normalization_79", "scale": true, "beta_constraint": null, "gamma_constraint": null, "beta_initializer": {"class_name": "Zeros", "config": {}}, "epsilon": 0.001, "moving_variance_initializer": {"class_name": "Ones", "config": {}}, "beta_regularizer": null, "momentum": 0.99, "moving_mean_initializer": {"class_name": "Zeros", "config": {}}, "gamma_regularizer": null, "gamma_initializer": {"class_name": "Ones", "config": {}}, "axis": -1}, "inbound_nodes": [[["conv2d_25", 0, 0, {}]]], "name": "batch_normalization_79"}, {"class_name": "Activation", "config": {"trainable": true, "name": "activation_24", "activation": "relu"}, "inbound_nodes": [[["batch_normalization_79", 0, 0, {}]]], "name": "activation_24"}, {"class_name": "Conv2D", "config": {"trainable": true, "name": "conv2d_26", "kernel_size": [3, 3], "activity_regularizer": null, "filters": 32, "kernel_regularizer": {"class_name": "L1L2", "config": {"l1": 0.0, "l2": 9.999999747378752e-05}}, "data_format": "channels_last", "bias_initializer": {"class_name": "Zeros", "config": {}}, "bias_constraint": null, "padding": "same", "use_bias": true, "dilation_rate": [1, 1], "activation": "linear", "kernel_constraint": null, "kernel_initializer": {"class_name": "VarianceScaling", "config": {"distribution": "uniform", "scale": 1.0, "mode": "fan_avg", "seed": null}}, "strides": [1, 1], "bias_regularizer": null}, "inbound_nodes": [[["activation_24", 0, 0, {}]]], "name": "conv2d_26"}, {"class_name": "BatchNormalization", "config": {"trainable": true, "center": true, "name": "batch_normalization_80", "scale": true, "beta_constraint": null, "gamma_constraint": null, "beta_initializer": {"class_name": "Zeros", "config": {}}, "epsilon": 0.001, "moving_variance_initializer": {"class_name": "Ones", "config": {}}, "beta_regularizer": null, "momentum": 0.99, "moving_mean_initializer": {"class_name": "Zeros", "config": {}}, "gamma_regularizer": null, "gamma_initializer": {"class_name": "Ones", "config": {}}, "axis": -1}, "inbound_nodes": [[["conv2d_26", 0, 0, {}]]], "name": "batch_normalization_80"}, {"class_name": "Add", "config": {"trainable": true, "name": "add_39"}, "inbound_nodes": [[["activation_23", 0, 0, {}], ["batch_normalization_80", 0, 0, {}]]], "name": "add_39"}, {"class_name": "Activation", "config": {"trainable": true, "name": "activation_25", "activation": "relu"}, "inbound_nodes": [[["add_39", 0, 0, {}]]], "name": "activation_25"}, {"class_name": "Conv2D", "config": {"trainable": true, "name": "conv2d_27", "kernel_size": [3, 3], "activity_regularizer": null, "filters": 11, "kernel_regularizer": {"class_name": "L1L2", "config": {"l1": 0.0, "l2": 9.999999747378752e-05}}, "data_format": "channels_last", "bias_initializer": {"class_name": "Zeros", "config": {}}, "bias_constraint": null, "padding": "same", "use_bias": true, "dilation_rate": [1, 1], "activation": "linear", "kernel_constraint": null, "kernel_initializer": {"class_name": "VarianceScaling", "config": {"distribution": "uniform", "scale": 1.0, "mode": "fan_avg", "seed": null}}, "strides": [1, 1], "bias_regularizer": null}, "inbound_nodes": [[["activation_25", 0, 0, {}]]], "name": "conv2d_27"}, {"class_name": "BatchNormalization", "config": {"trainable": true, "center": true, "name": "batch_normalization_81", "scale": true, "beta_constraint": null, "gamma_constraint": null, "beta_initializer": {"class_name": "Zeros", "config": {}}, "epsilon": 0.001, "moving_variance_initializer": {"class_name": "Ones", "config": {}}, "beta_regularizer": null, "momentum": 0.99, "moving_mean_initializer": {"class_name": "Zeros", "config": {}}, "gamma_regularizer": null, "gamma_initializer": {"class_name": "Ones", "config": {}}, "axis": -1}, "inbound_nodes": [[["conv2d_27", 0, 0, {}]]], "name": "batch_normalization_81"}, {"class_name": "Activation", "config": {"trainable": true, "name": "activation_26", "activation": "relu"}, "inbound_nodes": [[["batch_normalization_81", 0, 0, {}]]], "name": "activation_26"}, {"class_name": "Conv2D", "config": {"trainable": true, "name": "conv2d_28", "kernel_size": [3, 3], "activity_regularizer": null, "filters": 32, "kernel_regularizer": {"class_name": "L1L2", "config": {"l1": 0.0, "l2": 9.999999747378752e-05}}, "data_format": "channels_last", "bias_initializer": {"class_name": "Zeros", "config": {}}, "bias_constraint": null, "padding": "same", "use_bias": true, "dilation_rate": [1, 1], "activation": "linear", "kernel_constraint": null, "kernel_initializer": {"class_name": "VarianceScaling", "config": {"distribution": "uniform", "scale": 1.0, "mode": "fan_avg", "seed": null}}, "strides": [1, 1], "bias_regularizer": null}, "inbound_nodes": [[["activation_26", 0, 0, {}]]], "name": "conv2d_28"}, {"class_name": "BatchNormalization", "config": {"trainable": true, "center": true, "name": "batch_normalization_82", "scale": true, "beta_constraint": null, "gamma_constraint": null, "beta_initializer": {"class_name": "Zeros", "config": {}}, "epsilon": 0.001, "moving_variance_initializer": {"class_name": "Ones", "config": {}}, "beta_regularizer": null, "momentum": 0.99, "moving_mean_initializer": {"class_name": "Zeros", "config": {}}, "gamma_regularizer": null, "gamma_initializer": {"class_name": "Ones", "config": {}}, "axis": -1}, "inbound_nodes": [[["conv2d_28", 0, 0, {}]]], "name": "batch_normalization_82"}, {"class_name": "Add", "config": {"trainable": true, "name": "add_40"}, "inbound_nodes": [[["activation_25", 0, 0, {}], ["batch_normalization_82", 0, 0, {}]]], "name": "add_40"}, {"class_name": "Activation", "config": {"trainable": true, "name": "activation_27", "activation": "relu"}, "inbound_nodes": [[["add_40", 0, 0, {}]]], "name": "activation_27"}, {"class_name": "Conv2D", "config": {"trainable": true, "name": "conv2d_29", "kernel_size": [3, 3], "activity_regularizer": null, "filters": 11, "kernel_regularizer": {"class_name": "L1L2", "config": {"l1": 0.0, "l2": 9.999999747378752e-05}}, "data_format": "channels_last", "bias_initializer": {"class_name": "Zeros", "config": {}}, "bias_constraint": null, "padding": "same", "use_bias": true, "dilation_rate": [1, 1], "activation": "linear", "kernel_constraint": null, "kernel_initializer": {"class_name": "VarianceScaling", "config": {"distribution": "uniform", "scale": 1.0, "mode": "fan_avg", "seed": null}}, "strides": [1, 1], "bias_regularizer": null}, "inbound_nodes": [[["activation_27", 0, 0, {}]]], "name": "conv2d_29"}, {"class_name": "BatchNormalization", "config": {"trainable": true, "center": true, "name": "batch_normalization_83", "scale": true, "beta_constraint": null, "gamma_constraint": null, "beta_initializer": {"class_name": "Zeros", "config": {}}, "epsilon": 0.001, "moving_variance_initializer": {"class_name": "Ones", "config": {}}, "beta_regularizer": null, "momentum": 0.99, "moving_mean_initializer": {"class_name": "Zeros", "config": {}}, "gamma_regularizer": null, "gamma_initializer": {"class_name": "Ones", "config": {}}, "axis": -1}, "inbound_nodes": [[["conv2d_29", 0, 0, {}]]], "name": "batch_normalization_83"}, {"class_name": "Activation", "config": {"trainable": true, "name": "activation_28", "activation": "relu"}, "inbound_nodes": [[["batch_normalization_83", 0, 0, {}]]], "name": "activation_28"}, {"class_name": "Conv2D", "config": {"trainable": true, "name": "conv2d_30", "kernel_size": [3, 3], "activity_regularizer": null, "filters": 32, "kernel_regularizer": {"class_name": "L1L2", "config": {"l1": 0.0, "l2": 9.999999747378752e-05}}, "data_format": "channels_last", "bias_initializer": {"class_name": "Zeros", "config": {}}, "bias_constraint": null, "padding": "same", "use_bias": true, "dilation_rate": [1, 1], "activation": "linear", "kernel_constraint": null, "kernel_initializer": {"class_name": "VarianceScaling", "config": {"distribution": "uniform", "scale": 1.0, "mode": "fan_avg", "seed": null}}, "strides": [1, 1], "bias_regularizer": null}, "inbound_nodes": [[["activation_28", 0, 0, {}]]], "name": "conv2d_30"}, {"class_name": "BatchNormalization", "config": {"trainable": true, "center": true, "name": "batch_normalization_84", "scale": true, "beta_constraint": null, "gamma_constraint": null, "beta_initializer": {"class_name": "Zeros", "config": {}}, "epsilon": 0.001, "moving_variance_initializer": {"class_name": "Ones", "config": {}}, "beta_regularizer": null, "momentum": 0.99, "moving_mean_initializer": {"class_name": "Zeros", "config": {}}, "gamma_regularizer": null, "gamma_initializer": {"class_name": "Ones", "config": {}}, "axis": -1}, "inbound_nodes": [[["conv2d_30", 0, 0, {}]]], "name": "batch_normalization_84"}, {"class_name": "Add", "config": {"trainable": true, "name": "add_41"}, "inbound_nodes": [[["activation_27", 0, 0, {}], ["batch_normalization_84", 0, 0, {}]]], "name": "add_41"}, {"class_name": "Activation", "config": {"trainable": true, "name": "activation_29", "activation": "relu"}, "inbound_nodes": [[["add_41", 0, 0, {}]]], "name": "activation_29"}, {"class_name": "Conv2D", "config": {"trainable": true, "name": "conv2d_31", "kernel_size": [3, 3], "activity_regularizer": null, "filters": 14, "kernel_regularizer": {"class_name": "L1L2", "config": {"l1": 0.0, "l2": 9.999999747378752e-05}}, "data_format": "channels_last", "bias_initializer": {"class_name": "Zeros", "config": {}}, "bias_constraint": null, "padding": "same", "use_bias": true, "dilation_rate": [1, 1], "activation": "linear", "kernel_constraint": null, "kernel_initializer": {"class_name": "VarianceScaling", "config": {"distribution": "uniform", "scale": 1.0, "mode": "fan_avg", "seed": null}}, "strides": [1, 1], "bias_regularizer": null}, "inbound_nodes": [[["activation_29", 0, 0, {}]]], "name": "conv2d_31"}, {"class_name": "BatchNormalization", "config": {"trainable": true, "center": true, "name": "batch_normalization_85", "scale": true, "beta_constraint": null, "gamma_constraint": null, "beta_initializer": {"class_name": "Zeros", "config": {}}, "epsilon": 0.001, "moving_variance_initializer": {"class_name": "Ones", "config": {}}, "beta_regularizer": null, "momentum": 0.99, "moving_mean_initializer": {"class_name": "Zeros", "config": {}}, "gamma_regularizer": null, "gamma_initializer": {"class_name": "Ones", "config": {}}, "axis": -1}, "inbound_nodes": [[["conv2d_31", 0, 0, {}]]], "name": "batch_normalization_85"}, {"class_name": "Activation", "config": {"trainable": true, "name": "activation_30", "activation": "relu"}, "inbound_nodes": [[["batch_normalization_85", 0, 0, {}]]], "name": "activation_30"}, {"class_name": "Conv2D", "config": {"trainable": true, "name": "conv2d_32", "kernel_size": [3, 3], "activity_regularizer": null, "filters": 32, "kernel_regularizer": {"class_name": "L1L2", "config": {"l1": 0.0, "l2": 9.999999747378752e-05}}, "data_format": "channels_last", "bias_initializer": {"class_name": "Zeros", "config": {}}, "bias_constraint": null, "padding": "same", "use_bias": true, "dilation_rate": [1, 1], "activation": "linear", "kernel_constraint": null, "kernel_initializer": {"class_name": "VarianceScaling", "config": {"distribution": "uniform", "scale": 1.0, "mode": "fan_avg", "seed": null}}, "strides": [1, 1], "bias_regularizer": null}, "inbound_nodes": [[["activation_30", 0, 0, {}]]], "name": "conv2d_32"}, {"class_name": "BatchNormalization", "config": {"trainable": true, "center": true, "name": "batch_normalization_86", "scale": true, "beta_constraint": null, "gamma_constraint": null, "beta_initializer": {"class_name": "Zeros", "config": {}}, "epsilon": 0.001, "moving_variance_initializer": {"class_name": "Ones", "config": {}}, "beta_regularizer": null, "momentum": 0.99, "moving_mean_initializer": {"class_name": "Zeros", "config": {}}, "gamma_regularizer": null, "gamma_initializer": {"class_name": "Ones", "config": {}}, "axis": -1}, "inbound_nodes": [[["conv2d_32", 0, 0, {}]]], "name": "batch_normalization_86"}, {"class_name": "Add", "config": {"trainable": true, "name": "add_42"}, "inbound_nodes": [[["activation_29", 0, 0, {}], ["batch_normalization_86", 0, 0, {}]]], "name": "add_42"}, {"class_name": "Activation", "config": {"trainable": true, "name": "activation_31", "activation": "relu"}, "inbound_nodes": [[["add_42", 0, 0, {}]]], "name": "activation_31"}, {"class_name": "Conv2D", "config": {"trainable": true, "name": "conv2d_33", "kernel_size": [3, 3], "activity_regularizer": null, "filters": 11, "kernel_regularizer": {"class_name": "L1L2", "config": {"l1": 0.0, "l2": 9.999999747378752e-05}}, "data_format": "channels_last", "bias_initializer": {"class_name": "Zeros", "config": {}}, "bias_constraint": null, "padding": "same", "use_bias": true, "dilation_rate": [1, 1], "activation": "linear", "kernel_constraint": null, "kernel_initializer": {"class_name": "VarianceScaling", "config": {"distribution": "uniform", "scale": 1.0, "mode": "fan_avg", "seed": null}}, "strides": [1, 1], "bias_regularizer": null}, "inbound_nodes": [[["activation_31", 0, 0, {}]]], "name": "conv2d_33"}, {"class_name": "BatchNormalization", "config": {"trainable": true, "center": true, "name": "batch_normalization_87", "scale": true, "beta_constraint": null, "gamma_constraint": null, "beta_initializer": {"class_name": "Zeros", "config": {}}, "epsilon": 0.001, "moving_variance_initializer": {"class_name": "Ones", "config": {}}, "beta_regularizer": null, "momentum": 0.99, "moving_mean_initializer": {"class_name": "Zeros", "config": {}}, "gamma_regularizer": null, "gamma_initializer": {"class_name": "Ones", "config": {}}, "axis": -1}, "inbound_nodes": [[["conv2d_33", 0, 0, {}]]], "name": "batch_normalization_87"}, {"class_name": "Activation", "config": {"trainable": true, "name": "activation_32", "activation": "relu"}, "inbound_nodes": [[["batch_normalization_87", 0, 0, {}]]], "name": "activation_32"}, {"class_name": "Conv2D", "config": {"trainable": true, "name": "conv2d_34", "kernel_size": [3, 3], "activity_regularizer": null, "filters": 32, "kernel_regularizer": {"class_name": "L1L2", "config": {"l1": 0.0, "l2": 9.999999747378752e-05}}, "data_format": "channels_last", "bias_initializer": {"class_name": "Zeros", "config": {}}, "bias_constraint": null, "padding": "same", "use_bias": true, "dilation_rate": [1, 1], "activation": "linear", "kernel_constraint": null, "kernel_initializer": {"class_name": "VarianceScaling", "config": {"distribution": "uniform", "scale": 1.0, "mode": "fan_avg", "seed": null}}, "strides": [1, 1], "bias_regularizer": null}, "inbound_nodes": [[["activation_32", 0, 0, {}]]], "name": "conv2d_34"}, {"class_name": "BatchNormalization", "config": {"trainable": true, "center": true, "name": "batch_normalization_88", "scale": true, "beta_constraint": null, "gamma_constraint": null, "beta_initializer": {"class_name": "Zeros", "config": {}}, "epsilon": 0.001, "moving_variance_initializer": {"class_name": "Ones", "config": {}}, "beta_regularizer": null, "momentum": 0.99, "moving_mean_initializer": {"class_name": "Zeros", "config": {}}, "gamma_regularizer": null, "gamma_initializer": {"class_name": "Ones", "config": {}}, "axis": -1}, "inbound_nodes": [[["conv2d_34", 0, 0, {}]]], "name": "batch_normalization_88"}, {"class_name": "Add", "config": {"trainable": true, "name": "add_43"}, "inbound_nodes": [[["activation_31", 0, 0, {}], ["batch_normalization_88", 0, 0, {}]]], "name": "add_43"}, {"class_name": "Activation", "config": {"trainable": true, "name": "activation_33", "activation": "relu"}, "inbound_nodes": [[["add_43", 0, 0, {}]]], "name": "activation_33"}, {"class_name": "Conv2D", "config": {"trainable": true, "name": "conv2d_35", "kernel_size": [3, 3], "activity_regularizer": null, "filters": 16, "kernel_regularizer": {"class_name": "L1L2", "config": {"l1": 0.0, "l2": 9.999999747378752e-05}}, "data_format": "channels_last", "bias_initializer": {"class_name": "Zeros", "config": {}}, "bias_constraint": null, "padding": "same", "use_bias": true, "dilation_rate": [1, 1], "activation": "linear", "kernel_constraint": null, "kernel_initializer": {"class_name": "VarianceScaling", "config": {"distribution": "uniform", "scale": 1.0, "mode": "fan_avg", "seed": null}}, "strides": [1, 1], "bias_regularizer": null}, "inbound_nodes": [[["activation_33", 0, 0, {}]]], "name": "conv2d_35"}, {"class_name": "BatchNormalization", "config": {"trainable": true, "center": true, "name": "batch_normalization_89", "scale": true, "beta_constraint": null, "gamma_constraint": null, "beta_initializer": {"class_name": "Zeros", "config": {}}, "epsilon": 0.001, "moving_variance_initializer": {"class_name": "Ones", "config": {}}, "beta_regularizer": null, "momentum": 0.99, "moving_mean_initializer": {"class_name": "Zeros", "config": {}}, "gamma_regularizer": null, "gamma_initializer": {"class_name": "Ones", "config": {}}, "axis": -1}, "inbound_nodes": [[["conv2d_35", 0, 0, {}]]], "name": "batch_normalization_89"}, {"class_name": "Activation", "config": {"trainable": true, "name": "activation_34", "activation": "relu"}, "inbound_nodes": [[["batch_normalization_89", 0, 0, {}]]], "name": "activation_34"}, {"class_name": "Conv2D", "config": {"trainable": true, "name": "conv2d_36", "kernel_size": [3, 3], "activity_regularizer": null, "filters": 32, "kernel_regularizer": {"class_name": "L1L2", "config": {"l1": 0.0, "l2": 9.999999747378752e-05}}, "data_format": "channels_last", "bias_initializer": {"class_name": "Zeros", "config": {}}, "bias_constraint": null, "padding": "same", "use_bias": true, "dilation_rate": [1, 1], "activation": "linear", "kernel_constraint": null, "kernel_initializer": {"class_name": "VarianceScaling", "config": {"distribution": "uniform", "scale": 1.0, "mode": "fan_avg", "seed": null}}, "strides": [1, 1], "bias_regularizer": null}, "inbound_nodes": [[["activation_34", 0, 0, {}]]], "name": "conv2d_36"}, {"class_name": "BatchNormalization", "config": {"trainable": true, "center": true, "name": "batch_normalization_90", "scale": true, "beta_constraint": null, "gamma_constraint": null, "beta_initializer": {"class_name": "Zeros", "config": {}}, "epsilon": 0.001, "moving_variance_initializer": {"class_name": "Ones", "config": {}}, "beta_regularizer": null, "momentum": 0.99, "moving_mean_initializer": {"class_name": "Zeros", "config": {}}, "gamma_regularizer": null, "gamma_initializer": {"class_name": "Ones", "config": {}}, "axis": -1}, "inbound_nodes": [[["conv2d_36", 0, 0, {}]]], "name": "batch_normalization_90"}, {"class_name": "Add", "config": {"trainable": true, "name": "add_44"}, "inbound_nodes": [[["activation_33", 0, 0, {}], ["batch_normalization_90", 0, 0, {}]]], "name": "add_44"}, {"class_name": "Activation", "config": {"trainable": true, "name": "activation_35", "activation": "relu"}, "inbound_nodes": [[["add_44", 0, 0, {}]]], "name": "activation_35"}, {"class_name": "Conv2D", "config": {"trainable": true, "name": "conv2d_37", "kernel_size": [3, 3], "activity_regularizer": null, "filters": 12, "kernel_regularizer": {"class_name": "L1L2", "config": {"l1": 0.0, "l2": 9.999999747378752e-05}}, "data_format": "channels_last", "bias_initializer": {"class_name": "Zeros", "config": {}}, "bias_constraint": null, "padding": "same", "use_bias": true, "dilation_rate": [1, 1], "activation": "linear", "kernel_constraint": null, "kernel_initializer": {"class_name": "VarianceScaling", "config": {"distribution": "uniform", "scale": 1.0, "mode": "fan_avg", "seed": null}}, "strides": [1, 1], "bias_regularizer": null}, "inbound_nodes": [[["activation_35", 0, 0, {}]]], "name": "conv2d_37"}, {"class_name": "BatchNormalization", "config": {"trainable": true, "center": true, "name": "batch_normalization_91", "scale": true, "beta_constraint": null, "gamma_constraint": null, "beta_initializer": {"class_name": "Zeros", "config": {}}, "epsilon": 0.001, "moving_variance_initializer": {"class_name": "Ones", "config": {}}, "beta_regularizer": null, "momentum": 0.99, "moving_mean_initializer": {"class_name": "Zeros", "config": {}}, "gamma_regularizer": null, "gamma_initializer": {"class_name": "Ones", "config": {}}, "axis": -1}, "inbound_nodes": [[["conv2d_37", 0, 0, {}]]], "name": "batch_normalization_91"}, {"class_name": "Activation", "config": {"trainable": true, "name": "activation_36", "activation": "relu"}, "inbound_nodes": [[["batch_normalization_91", 0, 0, {}]]], "name": "activation_36"}, {"class_name": "Conv2D", "config": {"trainable": true, "name": "conv2d_38", "kernel_size": [3, 3], "activity_regularizer": null, "filters": 32, "kernel_regularizer": {"class_name": "L1L2", "config": {"l1": 0.0, "l2": 9.999999747378752e-05}}, "data_format": "channels_last", "bias_initializer": {"class_name": "Zeros", "config": {}}, "bias_constraint": null, "padding": "same", "use_bias": true, "dilation_rate": [1, 1], "activation": "linear", "kernel_constraint": null, "kernel_initializer": {"class_name": "VarianceScaling", "config": {"distribution": "uniform", "scale": 1.0, "mode": "fan_avg", "seed": null}}, "strides": [1, 1], "bias_regularizer": null}, "inbound_nodes": [[["activation_36", 0, 0, {}]]], "name": "conv2d_38"}, {"class_name": "BatchNormalization", "config": {"trainable": true, "center": true, "name": "batch_normalization_92", "scale": true, "beta_constraint": null, "gamma_constraint": null, "beta_initializer": {"class_name": "Zeros", "config": {}}, "epsilon": 0.001, "moving_variance_initializer": {"class_name": "Ones", "config": {}}, "beta_regularizer": null, "momentum": 0.99, "moving_mean_initializer": {"class_name": "Zeros", "config": {}}, "gamma_regularizer": null, "gamma_initializer": {"class_name": "Ones", "config": {}}, "axis": -1}, "inbound_nodes": [[["conv2d_38", 0, 0, {}]]], "name": "batch_normalization_92"}, {"class_name": "Add", "config": {"trainable": true, "name": "add_45"}, "inbound_nodes": [[["activation_35", 0, 0, {}], ["batch_normalization_92", 0, 0, {}]]], "name": "add_45"}, {"class_name": "Activation", "config": {"trainable": true, "name": "activation_37", "activation": "relu"}, "inbound_nodes": [[["add_45", 0, 0, {}]]], "name": "activation_37"}, {"class_name": "Conv2D", "config": {"trainable": true, "name": "conv2d_39", "kernel_size": [3, 3], "activity_regularizer": null, "filters": 29, "kernel_regularizer": {"class_name": "L1L2", "config": {"l1": 0.0, "l2": 9.999999747378752e-05}}, "data_format": "channels_last", "bias_initializer": {"class_name": "Zeros", "config": {}}, "bias_constraint": null, "padding": "same", "use_bias": true, "dilation_rate": [1, 1], "activation": "linear", "kernel_constraint": null, "kernel_initializer": {"class_name": "VarianceScaling", "config": {"distribution": "uniform", "scale": 1.0, "mode": "fan_avg", "seed": null}}, "strides": [2, 2], "bias_regularizer": null}, "inbound_nodes": [[["activation_37", 0, 0, {}]]], "name": "conv2d_39"}, {"class_name": "BatchNormalization", "config": {"trainable": true, "center": true, "name": "batch_normalization_93", "scale": true, "beta_constraint": null, "gamma_constraint": null, "beta_initializer": {"class_name": "Zeros", "config": {}}, "epsilon": 0.001, "moving_variance_initializer": {"class_name": "Ones", "config": {}}, "beta_regularizer": null, "momentum": 0.99, "moving_mean_initializer": {"class_name": "Zeros", "config": {}}, "gamma_regularizer": null, "gamma_initializer": {"class_name": "Ones", "config": {}}, "axis": -1}, "inbound_nodes": [[["conv2d_39", 0, 0, {}]]], "name": "batch_normalization_93"}, {"class_name": "Activation", "config": {"trainable": true, "name": "activation_38", "activation": "relu"}, "inbound_nodes": [[["batch_normalization_93", 0, 0, {}]]], "name": "activation_38"}, {"class_name": "Conv2D", "config": {"trainable": true, "name": "conv2d_40", "kernel_size": [3, 3], "activity_regularizer": null, "filters": 64, "kernel_regularizer": {"class_name": "L1L2", "config": {"l1": 0.0, "l2": 9.999999747378752e-05}}, "data_format": "channels_last", "bias_initializer": {"class_name": "Zeros", "config": {}}, "bias_constraint": null, "padding": "same", "use_bias": true, "dilation_rate": [1, 1], "activation": "linear", "kernel_constraint": null, "kernel_initializer": {"class_name": "VarianceScaling", "config": {"distribution": "uniform", "scale": 1.0, "mode": "fan_avg", "seed": null}}, "strides": [1, 1], "bias_regularizer": null}, "inbound_nodes": [[["activation_38", 0, 0, {}]]], "name": "conv2d_40"}, {"class_name": "Conv2D", "config": {"trainable": true, "name": "conv2d_41", "kernel_size": [1, 1], "activity_regularizer": null, "filters": 64, "kernel_regularizer": {"class_name": "L1L2", "config": {"l1": 0.0, "l2": 9.999999747378752e-05}}, "data_format": "channels_last", "bias_initializer": {"class_name": "Zeros", "config": {}}, "bias_constraint": null, "padding": "same", "use_bias": true, "dilation_rate": [1, 1], "activation": "linear", "kernel_constraint": null, "kernel_initializer": {"class_name": "VarianceScaling", "config": {"distribution": "uniform", "scale": 1.0, "mode": "fan_avg", "seed": null}}, "strides": [2, 2], "bias_regularizer": null}, "inbound_nodes": [[["activation_37", 0, 0, {}]]], "name": "conv2d_41"}, {"class_name": "BatchNormalization", "config": {"trainable": true, "center": true, "name": "batch_normalization_94", "scale": true, "beta_constraint": null, "gamma_constraint": null, "beta_initializer": {"class_name": "Zeros", "config": {}}, "epsilon": 0.001, "moving_variance_initializer": {"class_name": "Ones", "config": {}}, "beta_regularizer": null, "momentum": 0.99, "moving_mean_initializer": {"class_name": "Zeros", "config": {}}, "gamma_regularizer": null, "gamma_initializer": {"class_name": "Ones", "config": {}}, "axis": -1}, "inbound_nodes": [[["conv2d_40", 0, 0, {}]]], "name": "batch_normalization_94"}, {"class_name": "Add", "config": {"trainable": true, "name": "add_46"}, "inbound_nodes": [[["conv2d_41", 0, 0, {}], ["batch_normalization_94", 0, 0, {}]]], "name": "add_46"}, {"class_name": "Activation", "config": {"trainable": true, "name": "activation_39", "activation": "relu"}, "inbound_nodes": [[["add_46", 0, 0, {}]]], "name": "activation_39"}, {"class_name": "Conv2D", "config": {"trainable": true, "name": "conv2d_42", "kernel_size": [3, 3], "activity_regularizer": null, "filters": 28, "kernel_regularizer": {"class_name": "L1L2", "config": {"l1": 0.0, "l2": 9.999999747378752e-05}}, "data_format": "channels_last", "bias_initializer": {"class_name": "Zeros", "config": {}}, "bias_constraint": null, "padding": "same", "use_bias": true, "dilation_rate": [1, 1], "activation": "linear", "kernel_constraint": null, "kernel_initializer": {"class_name": "VarianceScaling", "config": {"distribution": "uniform", "scale": 1.0, "mode": "fan_avg", "seed": null}}, "strides": [1, 1], "bias_regularizer": null}, "inbound_nodes": [[["activation_39", 0, 0, {}]]], "name": "conv2d_42"}, {"class_name": "BatchNormalization", "config": {"trainable": true, "center": true, "name": "batch_normalization_95", "scale": true, "beta_constraint": null, "gamma_constraint": null, "beta_initializer": {"class_name": "Zeros", "config": {}}, "epsilon": 0.001, "moving_variance_initializer": {"class_name": "Ones", "config": {}}, "beta_regularizer": null, "momentum": 0.99, "moving_mean_initializer": {"class_name": "Zeros", "config": {}}, "gamma_regularizer": null, "gamma_initializer": {"class_name": "Ones", "config": {}}, "axis": -1}, "inbound_nodes": [[["conv2d_42", 0, 0, {}]]], "name": "batch_normalization_95"}, {"class_name": "Activation", "config": {"trainable": true, "name": "activation_40", "activation": "relu"}, "inbound_nodes": [[["batch_normalization_95", 0, 0, {}]]], "name": "activation_40"}, {"class_name": "Conv2D", "config": {"trainable": true, "name": "conv2d_43", "kernel_size": [3, 3], "activity_regularizer": null, "filters": 64, "kernel_regularizer": {"class_name": "L1L2", "config": {"l1": 0.0, "l2": 9.999999747378752e-05}}, "data_format": "channels_last", "bias_initializer": {"class_name": "Zeros", "config": {}}, "bias_constraint": null, "padding": "same", "use_bias": true, "dilation_rate": [1, 1], "activation": "linear", "kernel_constraint": null, "kernel_initializer": {"class_name": "VarianceScaling", "config": {"distribution": "uniform", "scale": 1.0, "mode": "fan_avg", "seed": null}}, "strides": [1, 1], "bias_regularizer": null}, "inbound_nodes": [[["activation_40", 0, 0, {}]]], "name": "conv2d_43"}, {"class_name": "BatchNormalization", "config": {"trainable": true, "center": true, "name": "batch_normalization_96", "scale": true, "beta_constraint": null, "gamma_constraint": null, "beta_initializer": {"class_name": "Zeros", "config": {}}, "epsilon": 0.001, "moving_variance_initializer": {"class_name": "Ones", "config": {}}, "beta_regularizer": null, "momentum": 0.99, "moving_mean_initializer": {"class_name": "Zeros", "config": {}}, "gamma_regularizer": null, "gamma_initializer": {"class_name": "Ones", "config": {}}, "axis": -1}, "inbound_nodes": [[["conv2d_43", 0, 0, {}]]], "name": "batch_normalization_96"}, {"class_name": "Add", "config": {"trainable": true, "name": "add_47"}, "inbound_nodes": [[["activation_39", 0, 0, {}], ["batch_normalization_96", 0, 0, {}]]], "name": "add_47"}, {"class_name": "Activation", "config": {"trainable": true, "name": "activation_41", "activation": "relu"}, "inbound_nodes": [[["add_47", 0, 0, {}]]], "name": "activation_41"}, {"class_name": "Conv2D", "config": {"trainable": true, "name": "conv2d_44", "kernel_size": [3, 3], "activity_regularizer": null, "filters": 23, "kernel_regularizer": {"class_name": "L1L2", "config": {"l1": 0.0, "l2": 9.999999747378752e-05}}, "data_format": "channels_last", "bias_initializer": {"class_name": "Zeros", "config": {}}, "bias_constraint": null, "padding": "same", "use_bias": true, "dilation_rate": [1, 1], "activation": "linear", "kernel_constraint": null, "kernel_initializer": {"class_name": "VarianceScaling", "config": {"distribution": "uniform", "scale": 1.0, "mode": "fan_avg", "seed": null}}, "strides": [1, 1], "bias_regularizer": null}, "inbound_nodes": [[["activation_41", 0, 0, {}]]], "name": "conv2d_44"}, {"class_name": "BatchNormalization", "config": {"trainable": true, "center": true, "name": "batch_normalization_97", "scale": true, "beta_constraint": null, "gamma_constraint": null, "beta_initializer": {"class_name": "Zeros", "config": {}}, "epsilon": 0.001, "moving_variance_initializer": {"class_name": "Ones", "config": {}}, "beta_regularizer": null, "momentum": 0.99, "moving_mean_initializer": {"class_name": "Zeros", "config": {}}, "gamma_regularizer": null, "gamma_initializer": {"class_name": "Ones", "config": {}}, "axis": -1}, "inbound_nodes": [[["conv2d_44", 0, 0, {}]]], "name": "batch_normalization_97"}, {"class_name": "Activation", "config": {"trainable": true, "name": "activation_42", "activation": "relu"}, "inbound_nodes": [[["batch_normalization_97", 0, 0, {}]]], "name": "activation_42"}, {"class_name": "Conv2D", "config": {"trainable": true, "name": "conv2d_45", "kernel_size": [3, 3], "activity_regularizer": null, "filters": 64, "kernel_regularizer": {"class_name": "L1L2", "config": {"l1": 0.0, "l2": 9.999999747378752e-05}}, "data_format": "channels_last", "bias_initializer": {"class_name": "Zeros", "config": {}}, "bias_constraint": null, "padding": "same", "use_bias": true, "dilation_rate": [1, 1], "activation": "linear", "kernel_constraint": null, "kernel_initializer": {"class_name": "VarianceScaling", "config": {"distribution": "uniform", "scale": 1.0, "mode": "fan_avg", "seed": null}}, "strides": [1, 1], "bias_regularizer": null}, "inbound_nodes": [[["activation_42", 0, 0, {}]]], "name": "conv2d_45"}, {"class_name": "BatchNormalization", "config": {"trainable": true, "center": true, "name": "batch_normalization_98", "scale": true, "beta_constraint": null, "gamma_constraint": null, "beta_initializer": {"class_name": "Zeros", "config": {}}, "epsilon": 0.001, "moving_variance_initializer": {"class_name": "Ones", "config": {}}, "beta_regularizer": null, "momentum": 0.99, "moving_mean_initializer": {"class_name": "Zeros", "config": {}}, "gamma_regularizer": null, "gamma_initializer": {"class_name": "Ones", "config": {}}, "axis": -1}, "inbound_nodes": [[["conv2d_45", 0, 0, {}]]], "name": "batch_normalization_98"}, {"class_name": "Add", "config": {"trainable": true, "name": "add_48"}, "inbound_nodes": [[["activation_41", 0, 0, {}], ["batch_normalization_98", 0, 0, {}]]], "name": "add_48"}, {"class_name": "Activation", "config": {"trainable": true, "name": "activation_43", "activation": "relu"}, "inbound_nodes": [[["add_48", 0, 0, {}]]], "name": "activation_43"}, {"class_name": "Conv2D", "config": {"trainable": true, "name": "conv2d_46", "kernel_size": [3, 3], "activity_regularizer": null, "filters": 22, "kernel_regularizer": {"class_name": "L1L2", "config": {"l1": 0.0, "l2": 9.999999747378752e-05}}, "data_format": "channels_last", "bias_initializer": {"class_name": "Zeros", "config": {}}, "bias_constraint": null, "padding": "same", "use_bias": true, "dilation_rate": [1, 1], "activation": "linear", "kernel_constraint": null, "kernel_initializer": {"class_name": "VarianceScaling", "config": {"distribution": "uniform", "scale": 1.0, "mode": "fan_avg", "seed": null}}, "strides": [1, 1], "bias_regularizer": null}, "inbound_nodes": [[["activation_43", 0, 0, {}]]], "name": "conv2d_46"}, {"class_name": "BatchNormalization", "config": {"trainable": true, "center": true, "name": "batch_normalization_99", "scale": true, "beta_constraint": null, "gamma_constraint": null, "beta_initializer": {"class_name": "Zeros", "config": {}}, "epsilon": 0.001, "moving_variance_initializer": {"class_name": "Ones", "config": {}}, "beta_regularizer": null, "momentum": 0.99, "moving_mean_initializer": {"class_name": "Zeros", "config": {}}, "gamma_regularizer": null, "gamma_initializer": {"class_name": "Ones", "config": {}}, "axis": -1}, "inbound_nodes": [[["conv2d_46", 0, 0, {}]]], "name": "batch_normalization_99"}, {"class_name": "Activation", "config": {"trainable": true, "name": "activation_44", "activation": "relu"}, "inbound_nodes": [[["batch_normalization_99", 0, 0, {}]]], "name": "activation_44"}, {"class_name": "Conv2D", "config": {"trainable": true, "name": "conv2d_47", "kernel_size": [3, 3], "activity_regularizer": null, "filters": 64, "kernel_regularizer": {"class_name": "L1L2", "config": {"l1": 0.0, "l2": 9.999999747378752e-05}}, "data_format": "channels_last", "bias_initializer": {"class_name": "Zeros", "config": {}}, "bias_constraint": null, "padding": "same", "use_bias": true, "dilation_rate": [1, 1], "activation": "linear", "kernel_constraint": null, "kernel_initializer": {"class_name": "VarianceScaling", "config": {"distribution": "uniform", "scale": 1.0, "mode": "fan_avg", "seed": null}}, "strides": [1, 1], "bias_regularizer": null}, "inbound_nodes": [[["activation_44", 0, 0, {}]]], "name": "conv2d_47"}, {"class_name": "BatchNormalization", "config": {"trainable": true, "center": true, "name": "batch_normalization_100", "scale": true, "beta_constraint": null, "gamma_constraint": null, "beta_initializer": {"class_name": "Zeros", "config": {}}, "epsilon": 0.001, "moving_variance_initializer": {"class_name": "Ones", "config": {}}, "beta_regularizer": null, "momentum": 0.99, "moving_mean_initializer": {"class_name": "Zeros", "config": {}}, "gamma_regularizer": null, "gamma_initializer": {"class_name": "Ones", "config": {}}, "axis": -1}, "inbound_nodes": [[["conv2d_47", 0, 0, {}]]], "name": "batch_normalization_100"}, {"class_name": "Add", "config": {"trainable": true, "name": "add_49"}, "inbound_nodes": [[["activation_43", 0, 0, {}], ["batch_normalization_100", 0, 0, {}]]], "name": "add_49"}, {"class_name": "Activation", "config": {"trainable": true, "name": "activation_45", "activation": "relu"}, "inbound_nodes": [[["add_49", 0, 0, {}]]], "name": "activation_45"}, {"class_name": "Conv2D", "config": {"trainable": true, "name": "conv2d_48", "kernel_size": [3, 3], "activity_regularizer": null, "filters": 14, "kernel_regularizer": {"class_name": "L1L2", "config": {"l1": 0.0, "l2": 9.999999747378752e-05}}, "data_format": "channels_last", "bias_initializer": {"class_name": "Zeros", "config": {}}, "bias_constraint": null, "padding": "same", "use_bias": true, "dilation_rate": [1, 1], "activation": "linear", "kernel_constraint": null, "kernel_initializer": {"class_name": "VarianceScaling", "config": {"distribution": "uniform", "scale": 1.0, "mode": "fan_avg", "seed": null}}, "strides": [1, 1], "bias_regularizer": null}, "inbound_nodes": [[["activation_45", 0, 0, {}]]], "name": "conv2d_48"}, {"class_name": "BatchNormalization", "config": {"trainable": true, "center": true, "name": "batch_normalization_101", "scale": true, "beta_constraint": null, "gamma_constraint": null, "beta_initializer": {"class_name": "Zeros", "config": {}}, "epsilon": 0.001, "moving_variance_initializer": {"class_name": "Ones", "config": {}}, "beta_regularizer": null, "momentum": 0.99, "moving_mean_initializer": {"class_name": "Zeros", "config": {}}, "gamma_regularizer": null, "gamma_initializer": {"class_name": "Ones", "config": {}}, "axis": -1}, "inbound_nodes": [[["conv2d_48", 0, 0, {}]]], "name": "batch_normalization_101"}, {"class_name": "Activation", "config": {"trainable": true, "name": "activation_46", "activation": "relu"}, "inbound_nodes": [[["batch_normalization_101", 0, 0, {}]]], "name": "activation_46"}, {"class_name": "Conv2D", "config": {"trainable": true, "name": "conv2d_49", "kernel_size": [3, 3], "activity_regularizer": null, "filters": 64, "kernel_regularizer": {"class_name": "L1L2", "config": {"l1": 0.0, "l2": 9.999999747378752e-05}}, "data_format": "channels_last", "bias_initializer": {"class_name": "Zeros", "config": {}}, "bias_constraint": null, "padding": "same", "use_bias": true, "dilation_rate": [1, 1], "activation": "linear", "kernel_constraint": null, "kernel_initializer": {"class_name": "VarianceScaling", "config": {"distribution": "uniform", "scale": 1.0, "mode": "fan_avg", "seed": null}}, "strides": [1, 1], "bias_regularizer": null}, "inbound_nodes": [[["activation_46", 0, 0, {}]]], "name": "conv2d_49"}, {"class_name": "BatchNormalization", "config": {"trainable": true, "center": true, "name": "batch_normalization_102", "scale": true, "beta_constraint": null, "gamma_constraint": null, "beta_initializer": {"class_name": "Zeros", "config": {}}, "epsilon": 0.001, "moving_variance_initializer": {"class_name": "Ones", "config": {}}, "beta_regularizer": null, "momentum": 0.99, "moving_mean_initializer": {"class_name": "Zeros", "config": {}}, "gamma_regularizer": null, "gamma_initializer": {"class_name": "Ones", "config": {}}, "axis": -1}, "inbound_nodes": [[["conv2d_49", 0, 0, {}]]], "name": "batch_normalization_102"}, {"class_name": "Add", "config": {"trainable": true, "name": "add_50"}, "inbound_nodes": [[["activation_45", 0, 0, {}], ["batch_normalization_102", 0, 0, {}]]], "name": "add_50"}, {"class_name": "Activation", "config": {"trainable": true, "name": "activation_47", "activation": "relu"}, "inbound_nodes": [[["add_50", 0, 0, {}]]], "name": "activation_47"}, {"class_name": "Conv2D", "config": {"trainable": true, "name": "conv2d_50", "kernel_size": [3, 3], "activity_regularizer": null, "filters": 10, "kernel_regularizer": {"class_name": "L1L2", "config": {"l1": 0.0, "l2": 9.999999747378752e-05}}, "data_format": "channels_last", "bias_initializer": {"class_name": "Zeros", "config": {}}, "bias_constraint": null, "padding": "same", "use_bias": true, "dilation_rate": [1, 1], "activation": "linear", "kernel_constraint": null, "kernel_initializer": {"class_name": "VarianceScaling", "config": {"distribution": "uniform", "scale": 1.0, "mode": "fan_avg", "seed": null}}, "strides": [1, 1], "bias_regularizer": null}, "inbound_nodes": [[["activation_47", 0, 0, {}]]], "name": "conv2d_50"}, {"class_name": "BatchNormalization", "config": {"trainable": true, "center": true, "name": "batch_normalization_103", "scale": true, "beta_constraint": null, "gamma_constraint": null, "beta_initializer": {"class_name": "Zeros", "config": {}}, "epsilon": 0.001, "moving_variance_initializer": {"class_name": "Ones", "config": {}}, "beta_regularizer": null, "momentum": 0.99, "moving_mean_initializer": {"class_name": "Zeros", "config": {}}, "gamma_regularizer": null, "gamma_initializer": {"class_name": "Ones", "config": {}}, "axis": -1}, "inbound_nodes": [[["conv2d_50", 0, 0, {}]]], "name": "batch_normalization_103"}, {"class_name": "Activation", "config": {"trainable": true, "name": "activation_48", "activation": "relu"}, "inbound_nodes": [[["batch_normalization_103", 0, 0, {}]]], "name": "activation_48"}, {"class_name": "Conv2D", "config": {"trainable": true, "name": "conv2d_51", "kernel_size": [3, 3], "activity_regularizer": null, "filters": 64, "kernel_regularizer": {"class_name": "L1L2", "config": {"l1": 0.0, "l2": 9.999999747378752e-05}}, "data_format": "channels_last", "bias_initializer": {"class_name": "Zeros", "config": {}}, "bias_constraint": null, "padding": "same", "use_bias": true, "dilation_rate": [1, 1], "activation": "linear", "kernel_constraint": null, "kernel_initializer": {"class_name": "VarianceScaling", "config": {"distribution": "uniform", "scale": 1.0, "mode": "fan_avg", "seed": null}}, "strides": [1, 1], "bias_regularizer": null}, "inbound_nodes": [[["activation_48", 0, 0, {}]]], "name": "conv2d_51"}, {"class_name": "BatchNormalization", "config": {"trainable": true, "center": true, "name": "batch_normalization_104", "scale": true, "beta_constraint": null, "gamma_constraint": null, "beta_initializer": {"class_name": "Zeros", "config": {}}, "epsilon": 0.001, "moving_variance_initializer": {"class_name": "Ones", "config": {}}, "beta_regularizer": null, "momentum": 0.99, "moving_mean_initializer": {"class_name": "Zeros", "config": {}}, "gamma_regularizer": null, "gamma_initializer": {"class_name": "Ones", "config": {}}, "axis": -1}, "inbound_nodes": [[["conv2d_51", 0, 0, {}]]], "name": "batch_normalization_104"}, {"class_name": "Add", "config": {"trainable": true, "name": "add_51"}, "inbound_nodes": [[["activation_47", 0, 0, {}], ["batch_normalization_104", 0, 0, {}]]], "name": "add_51"}, {"class_name": "Activation", "config": {"trainable": true, "name": "activation_49", "activation": "relu"}, "inbound_nodes": [[["add_51", 0, 0, {}]]], "name": "activation_49"}, {"class_name": "Conv2D", "config": {"trainable": true, "name": "conv2d_52", "kernel_size": [3, 3], "activity_regularizer": null, "filters": 11, "kernel_regularizer": {"class_name": "L1L2", "config": {"l1": 0.0, "l2": 9.999999747378752e-05}}, "data_format": "channels_last", "bias_initializer": {"class_name": "Zeros", "config": {}}, "bias_constraint": null, "padding": "same", "use_bias": true, "dilation_rate": [1, 1], "activation": "linear", "kernel_constraint": null, "kernel_initializer": {"class_name": "VarianceScaling", "config": {"distribution": "uniform", "scale": 1.0, "mode": "fan_avg", "seed": null}}, "strides": [1, 1], "bias_regularizer": null}, "inbound_nodes": [[["activation_49", 0, 0, {}]]], "name": "conv2d_52"}, {"class_name": "BatchNormalization", "config": {"trainable": true, "center": true, "name": "batch_normalization_105", "scale": true, "beta_constraint": null, "gamma_constraint": null, "beta_initializer": {"class_name": "Zeros", "config": {}}, "epsilon": 0.001, "moving_variance_initializer": {"class_name": "Ones", "config": {}}, "beta_regularizer": null, "momentum": 0.99, "moving_mean_initializer": {"class_name": "Zeros", "config": {}}, "gamma_regularizer": null, "gamma_initializer": {"class_name": "Ones", "config": {}}, "axis": -1}, "inbound_nodes": [[["conv2d_52", 0, 0, {}]]], "name": "batch_normalization_105"}, {"class_name": "Activation", "config": {"trainable": true, "name": "activation_50", "activation": "relu"}, "inbound_nodes": [[["batch_normalization_105", 0, 0, {}]]], "name": "activation_50"}, {"class_name": "Conv2D", "config": {"trainable": true, "name": "conv2d_53", "kernel_size": [3, 3], "activity_regularizer": null, "filters": 64, "kernel_regularizer": {"class_name": "L1L2", "config": {"l1": 0.0, "l2": 9.999999747378752e-05}}, "data_format": "channels_last", "bias_initializer": {"class_name": "Zeros", "config": {}}, "bias_constraint": null, "padding": "same", "use_bias": true, "dilation_rate": [1, 1], "activation": "linear", "kernel_constraint": null, "kernel_initializer": {"class_name": "VarianceScaling", "config": {"distribution": "uniform", "scale": 1.0, "mode": "fan_avg", "seed": null}}, "strides": [1, 1], "bias_regularizer": null}, "inbound_nodes": [[["activation_50", 0, 0, {}]]], "name": "conv2d_53"}, {"class_name": "BatchNormalization", "config": {"trainable": true, "center": true, "name": "batch_normalization_106", "scale": true, "beta_constraint": null, "gamma_constraint": null, "beta_initializer": {"class_name": "Zeros", "config": {}}, "epsilon": 0.001, "moving_variance_initializer": {"class_name": "Ones", "config": {}}, "beta_regularizer": null, "momentum": 0.99, "moving_mean_initializer": {"class_name": "Zeros", "config": {}}, "gamma_regularizer": null, "gamma_initializer": {"class_name": "Ones", "config": {}}, "axis": -1}, "inbound_nodes": [[["conv2d_53", 0, 0, {}]]], "name": "batch_normalization_106"}, {"class_name": "Add", "config": {"trainable": true, "name": "add_52"}, "inbound_nodes": [[["activation_49", 0, 0, {}], ["batch_normalization_106", 0, 0, {}]]], "name": "add_52"}, {"class_name": "Activation", "config": {"trainable": true, "name": "activation_51", "activation": "relu"}, "inbound_nodes": [[["add_52", 0, 0, {}]]], "name": "activation_51"}, {"class_name": "Conv2D", "config": {"trainable": true, "name": "conv2d_54", "kernel_size": [3, 3], "activity_regularizer": null, "filters": 19, "kernel_regularizer": {"class_name": "L1L2", "config": {"l1": 0.0, "l2": 9.999999747378752e-05}}, "data_format": "channels_last", "bias_initializer": {"class_name": "Zeros", "config": {}}, "bias_constraint": null, "padding": "same", "use_bias": true, "dilation_rate": [1, 1], "activation": "linear", "kernel_constraint": null, "kernel_initializer": {"class_name": "VarianceScaling", "config": {"distribution": "uniform", "scale": 1.0, "mode": "fan_avg", "seed": null}}, "strides": [1, 1], "bias_regularizer": null}, "inbound_nodes": [[["activation_51", 0, 0, {}]]], "name": "conv2d_54"}, {"class_name": "BatchNormalization", "config": {"trainable": true, "center": true, "name": "batch_normalization_107", "scale": true, "beta_constraint": null, "gamma_constraint": null, "beta_initializer": {"class_name": "Zeros", "config": {}}, "epsilon": 0.001, "moving_variance_initializer": {"class_name": "Ones", "config": {}}, "beta_regularizer": null, "momentum": 0.99, "moving_mean_initializer": {"class_name": "Zeros", "config": {}}, "gamma_regularizer": null, "gamma_initializer": {"class_name": "Ones", "config": {}}, "axis": -1}, "inbound_nodes": [[["conv2d_54", 0, 0, {}]]], "name": "batch_normalization_107"}, {"class_name": "Activation", "config": {"trainable": true, "name": "activation_52", "activation": "relu"}, "inbound_nodes": [[["batch_normalization_107", 0, 0, {}]]], "name": "activation_52"}, {"class_name": "Conv2D", "config": {"trainable": true, "name": "conv2d_55", "kernel_size": [3, 3], "activity_regularizer": null, "filters": 64, "kernel_regularizer": {"class_name": "L1L2", "config": {"l1": 0.0, "l2": 9.999999747378752e-05}}, "data_format": "channels_last", "bias_initializer": {"class_name": "Zeros", "config": {}}, "bias_constraint": null, "padding": "same", "use_bias": true, "dilation_rate": [1, 1], "activation": "linear", "kernel_constraint": null, "kernel_initializer": {"class_name": "VarianceScaling", "config": {"distribution": "uniform", "scale": 1.0, "mode": "fan_avg", "seed": null}}, "strides": [1, 1], "bias_regularizer": null}, "inbound_nodes": [[["activation_52", 0, 0, {}]]], "name": "conv2d_55"}, {"class_name": "BatchNormalization", "config": {"trainable": true, "center": true, "name": "batch_normalization_108", "scale": true, "beta_constraint": null, "gamma_constraint": null, "beta_initializer": {"class_name": "Zeros", "config": {}}, "epsilon": 0.001, "moving_variance_initializer": {"class_name": "Ones", "config": {}}, "beta_regularizer": null, "momentum": 0.99, "moving_mean_initializer": {"class_name": "Zeros", "config": {}}, "gamma_regularizer": null, "gamma_initializer": {"class_name": "Ones", "config": {}}, "axis": -1}, "inbound_nodes": [[["conv2d_55", 0, 0, {}]]], "name": "batch_normalization_108"}, {"class_name": "Add", "config": {"trainable": true, "name": "add_53"}, "inbound_nodes": [[["activation_51", 0, 0, {}], ["batch_normalization_108", 0, 0, {}]]], "name": "add_53"}, {"class_name": "Activation", "config": {"trainable": true, "name": "activation_53", "activation": "relu"}, "inbound_nodes": [[["add_53", 0, 0, {}]]], "name": "activation_53"}, {"class_name": "Conv2D", "config": {"trainable": true, "name": "conv2d_56", "kernel_size": [3, 3], "activity_regularizer": null, "filters": 30, "kernel_regularizer": {"class_name": "L1L2", "config": {"l1": 0.0, "l2": 9.999999747378752e-05}}, "data_format": "channels_last", "bias_initializer": {"class_name": "Zeros", "config": {}}, "bias_constraint": null, "padding": "same", "use_bias": true, "dilation_rate": [1, 1], "activation": "linear", "kernel_constraint": null, "kernel_initializer": {"class_name": "VarianceScaling", "config": {"distribution": "uniform", "scale": 1.0, "mode": "fan_avg", "seed": null}}, "strides": [1, 1], "bias_regularizer": null}, "inbound_nodes": [[["activation_53", 0, 0, {}]]], "name": "conv2d_56"}, {"class_name": "BatchNormalization", "config": {"trainable": true, "center": true, "name": "batch_normalization_109", "scale": true, "beta_constraint": null, "gamma_constraint": null, "beta_initializer": {"class_name": "Zeros", "config": {}}, "epsilon": 0.001, "moving_variance_initializer": {"class_name": "Ones", "config": {}}, "beta_regularizer": null, "momentum": 0.99, "moving_mean_initializer": {"class_name": "Zeros", "config": {}}, "gamma_regularizer": null, "gamma_initializer": {"class_name": "Ones", "config": {}}, "axis": -1}, "inbound_nodes": [[["conv2d_56", 0, 0, {}]]], "name": "batch_normalization_109"}, {"class_name": "Activation", "config": {"trainable": true, "name": "activation_54", "activation": "relu"}, "inbound_nodes": [[["batch_normalization_109", 0, 0, {}]]], "name": "activation_54"}, {"class_name": "Conv2D", "config": {"trainable": true, "name": "conv2d_57", "kernel_size": [3, 3], "activity_regularizer": null, "filters": 64, "kernel_regularizer": {"class_name": "L1L2", "config": {"l1": 0.0, "l2": 9.999999747378752e-05}}, "data_format": "channels_last", "bias_initializer": {"class_name": "Zeros", "config": {}}, "bias_constraint": null, "padding": "same", "use_bias": true, "dilation_rate": [1, 1], "activation": "linear", "kernel_constraint": null, "kernel_initializer": {"class_name": "VarianceScaling", "config": {"distribution": "uniform", "scale": 1.0, "mode": "fan_avg", "seed": null}}, "strides": [1, 1], "bias_regularizer": null}, "inbound_nodes": [[["activation_54", 0, 0, {}]]], "name": "conv2d_57"}, {"class_name": "BatchNormalization", "config": {"trainable": true, "center": true, "name": "batch_normalization_110", "scale": true, "beta_constraint": null, "gamma_constraint": null, "beta_initializer": {"class_name": "Zeros", "config": {}}, "epsilon": 0.001, "moving_variance_initializer": {"class_name": "Ones", "config": {}}, "beta_regularizer": null, "momentum": 0.99, "moving_mean_initializer": {"class_name": "Zeros", "config": {}}, "gamma_regularizer": null, "gamma_initializer": {"class_name": "Ones", "config": {}}, "axis": -1}, "inbound_nodes": [[["conv2d_57", 0, 0, {}]]], "name": "batch_normalization_110"}, {"class_name": "Add", "config": {"trainable": true, "name": "add_54"}, "inbound_nodes": [[["activation_53", 0, 0, {}], ["batch_normalization_110", 0, 0, {}]]], "name": "add_54"}, {"class_name": "Activation", "config": {"trainable": true, "name": "activation_55", "activation": "relu"}, "inbound_nodes": [[["add_54", 0, 0, {}]]], "name": "activation_55"}, {"class_name": "AveragePooling2D", "config": {"padding": "valid", "trainable": true, "name": "average_pooling2d_2", "strides": [8, 8], "data_format": "channels_last", "pool_size": [8, 8]}, "inbound_nodes": [[["activation_55", 0, 0, {}]]], "name": "average_pooling2d_2"}, {"class_name": "Flatten", "config": {"trainable": true, "name": "flatten_2"}, "inbound_nodes": [[["average_pooling2d_2", 0, 0, {}]]], "name": "flatten_2"}, {"class_name": "Dense", "config": {"trainable": true, "name": "dense_2", "activity_regularizer": null, "kernel_regularizer": null, "units": 10, "bias_initializer": {"class_name": "Zeros", "config": {}}, "bias_constraint": null, "use_bias": true, "activation": "softmax", "kernel_constraint": null, "kernel_initializer": {"class_name": "VarianceScaling", "config": {"distribution": "normal", "scale": 2.0, "mode": "fan_in", "seed": null}}, "bias_regularizer": null}, "inbound_nodes": [[["flatten_2", 0, 0, {}]]], "name": "dense_2"}], "input_layers": [["input_4", 0, 0]], "name": "model_118"}}